time_series_intro_class/final_project/model_weights.pth (torch, 55564 bytes, 9 tensors)

lstm.weight_ih_l0 f4 [128, 1]
00000000: 4aef 003e c32d f2bd a294 793d 67bb a3bd
00000010: db37 28bd 6be0 fa3d 08e3 45bd f7c9 813d
00000020: 054b 38bd ef44 d93d f19d d93d 40e5 893d
00000030: 5705 a33d d5e2 3c3e bc9c 0b3e 0fd1 bdbd
00000040: 5a99 463e bfca ccbd 7e1a 393e f035 df3d
00000050: 3fd5 77bd 125c 8c3d d4fe 313e 1c56 e3bd
00000060: 0cf8 193d cb3e 013e 0084 95bd 6f6b 1d3e
00000070: 193f 393d e657 463e 0690 b43d 3787 0b3e
00000080: b9ba bf3d 2c6f 333e 8230 e43d 344c cabd
00000090: 4a56 b7bd 041c 233e d162 afbd 6581 623d
000000a0: fd0d 3dbc e961 363e f676 d5bd 5965 6b3d
000000b0: 3bb2 a13d 1915 2bbe 2688 b6bd 36dd 0abe
000000c0: 2ed2 35be 40b8 0f3e ddda c43d 2044 77bd
000000d0: 0ea1 443e f1ad 683e 58dd 0f3e a00f 283e
000000e0: ed8c b93c 7b2b 8dbd 9b7c efbd d61a 953d
000000f0: 096b 033e 16b6 403e 54f7 d83d 9bad b93d
00000100: 12b3 b33d 01bb ae3c bd2c 163e e7ca 21be
00000110: 85c9 c3bd 1d7c 993d de86 1a3e 675d 4cbd
00000120: 7e9f 21be f5d9 d43d b57e 9d3d 0b3f 43bd
00000130: 91ba 263d 3dbc e0bd 0e23 2abe e759 b5bd
00000140: 9f64 9d3d fb06 d33d 978d a7bd e694 b13c
00000150: 4734 b8bd 4211 1cbe c520 b73d 9f8f b83d
00000160: d4a2 283e aecd 78bc ca6e a83d 7faa 51bd
00000170: ed07 e3bd 681c 103e d951 01be 6397 a23d
00000180: 0b2b 6b3d 7b8d f1bd 333d 233e 9cc1 1b3e
00000190: b2be 203e e3a7 863d dce7 183e a01e 05bd
000001a0: defa 83bd 9958 adbd e5f3 c2bd 6db2 4e3e
000001b0: 7884 e9bc 84b3 d0bd 22fa 24bd 1696 0b3e
000001c0: 6e4a b9bd 8a5e 043e 2a88 533d f75b 043e
000001d0: 9e71 033e c639 5b3e 9cb2 94bd d752 253e
000001e0: d45b 863d 4816 023e 31d9 443e 461d d4bc
000001f0: 91c5 4a3e aa90 5b3d 85fa 843d 76ec 16bd
0.12591282 -0.118251346 0.060932763 -0.079947285 -0.041068893 0.122498356 -0.048312217 0.0633735
-0.04499342 0.10608851 0.10625828 0.06733179 0.07960003 0.18445905 0.13634008 -0.092683904
0.19394436 -0.09999608 0.18076512 0.1089896 -0.0605061 0.068534985 0.17382365 -0.111004084
0.03759007 0.1262161 -0.073005676 0.15373014 0.04522619 0.19369468 0.08816533 0.13625799
0.093617864 0.17522877 0.11142065 -0.09877816 -0.08952005 0.15928656 -0.085637696 0.05529918
-0.01153898 0.17810787 -0.104230806 0.0574697 0.07895323 -0.16707267 -0.08912687 -0.13560948
-0.17755958 0.1403513 0.09612057 -0.060367703 0.19202062 0.22722603 0.1404928 0.1641221
0.022650206 -0.06893059 -0.116936885 0.07280509 0.128338 0.1881946 0.10594049 0.09066316
0.08774389 0.021329405 0.14665504 -0.15800057 -0.09559921 0.07494376 0.1509051 -0.049893763
-0.15783498 0.103931345 0.07690183 -0.047667544 0.040705267 -0.109734036 -0.16614935 -0.08855038
0.076852076 0.10304066 -0.08181303 0.021677446 -0.08994346 -0.15240958 0.08941797 0.090117685
0.16468364 -0.015185757 0.08224256 -0.05118799 -0.11085496 0.14073336 -0.12628879 0.07939031
0.057414096 -0.117945634 0.15941314 0.15210575 0.15697744 0.065749906 0.14932197 -0.03249991
-0.064443335 -0.08464164 -0.095191754 0.20185252 -0.028505549 -0.1019049 -0.040277608 0.13631472
-0.090473995 0.12926689 0.051643528 0.12925707 0.1283631 0.21408758 -0.072606295 0.16144882
0.065604836 0.12703812 0.19223477 -0.025892865 0.19801928 0.05360476 0.06493095 -0.0368466

lstm.weight_hh_l0 f4 [128, 32]
00000000: 3e6c 203e b46c 1b3c 5fbc 1d3e 5876 f7bd
00000010: fc62 12be 5b22 f83d 4247 533e 32a6 493b
00000020: 6b55 9e3d e377 f9bb b85d 82bd dd7a 413d
00000030: 5c48 f5bd 866e 84ba e9c0 f43d e92d ccbd
00000040: f4cd 553d f331 f93d 19c5 f73d 2cb7 a1bd
00000050: a4bd 85bd dd64 8c3d f586 a83c a15f 553d
00000060: fdd2 0fbd e5c9 15bd 6466 46be 6d50 b03d
00000070: eb11 8ebd f6f1 143e 5056 03be 05cb b9bd
00000080: 435f 93bd 2952 ac3d 5db6 d6bd 7527 2fbd
00000090: c1fc 1d3e 8b0d 833c 21d9 ab3d 83f0 52bc
000000a0: 89cd 07bc 192d 6dbd 00ff 8bbd 9f5c 613e
000000b0: cb83 7dbe f89d 9c3c d196 c2bd 1d5e 3cbd
000000c0: a825 df3d 3c9a 24be ddb6 99bd 29ec 263e
000000d0: 76c1 383e 8309 143d d91f d13d 0ab3 33be
000000e0: 21ae 06be d3ed 31be a384 a03d 297d 69bb
000000f0: b4c3 713e ccab f8bd b271 c6bd 1851 5b3c
00000100: 110d c33d aa75 5b3d b909 2a3e 5389 22be
00000110: 5cb6 493d dd4d 2a3e 1f5d 523e d7a9 7d3d
00000120: 6e14 6d3d e40a 9fbe defb 0dbe f25e 80bb
00000130: e30d af3c 4750 84bb b610 ef3d b38e 5c3d
00000140: eaa0 9bbe dbc7 cc3d a863 6ebe cf5f 973d
00000150: eeae 9a3c fcf3 19bf aed9 60be 2102 50be
00000160: a7bc 9b3e 0fcf c6bd 8679 71be ad9f b43e
00000170: 679b 383d 4971 d5bc bc93 c1bd 03f9 4f3e
00000180: a378 99bd c86b bc3d 1a1e 9b3e 34d8 363e
00000190: 74ab 1dbf b1a0 f13d e470 fb3e 2d61 aabe
000001a0: 84d0 25bd 525e 9fbe 1ab8 9abe 46f6 253d
000001b0: b180 dcbd 5092 843e 8cfc ca3d 9c62 d73e
000001c0: 35b1 e8be 4576 84be cc17 8e3d b52a 12be
000001d0: 83bb 983e 439c 953c f72a 103e 3733 d1be
000001e0: 355c 5abd c6b9 aa3c 9068 b0bb bd41 263e
000001f0: 5723 10bf a942 773e 43a5 943d 3336 cd3e
00000200: ebcc ee3e f58c 5a3e 7a65 9f3e d38e f4be
00000210: e095 b23d 12ce 6c3e 4f99 00bf a840 c7be
00000220: 3949 85be c112 2f3d 7070 dd3d f12e d8be
00000230: 743b 8c3e 0c52 1dbe 0bdd 113e 7706 f9be
00000240: 5478 f73e 47b8 01be 01df 0fbf 36a7 2fbe
00000250: ff63 9a3d ee12 0bc0 7274 03be f83e 193e
00000260: 85c7 243f 7833 9dbe c034 bbbe d995 3fbe
00000270: b5e6 f8bf 2257 fa3e dd9a d5bd c3c6 cbbe
00000280: 3a35 913d 35dc d63d 5b98 a53b fff2 a2bd
00000290: 373f 74be 735e 8dbd 6670 693e a88a d0bd
000002a0: af53 babd fbdc 353d 53d0 f53d 23a8 0dbe
000002b0: 86e5 6b3d 071e 163e e373 29be 709d 0b3d
000002c0: dc86 f83d b7c6 4fbc 589a 1cbe d1c5 0dbd
000002d0: c391 6e3e cae4 9a3d 11ff 3ebe a46d 453d
000002e0: 0f40 febc 9690 96bd fbb3 0fbd 1296 4a3e
000002f0: 2426 2c3e 0e32 233e 2773 b43b 63cd 733d
00000300: 4bbc ed3e e724 243e 0ae7 853e 5209 e3be
00000310: 2708 a03e 93d9 ac3e ecce 10be 177e 8dbe
00000320: 11c2 16be 6ef8 b43e f3ea a63e 8d41 96be
00000330: 7b9e 363e e31e 5cbe b86c 36bd 63e1 f2bd
00000340: f67e a73e 5e79 9a3d b267 10bf 9ce1 4dbe
00000350: eb1d 2e3e face fcbf 7c69 88be 145e 9a3e
00000360: d92c 933e f1bc 2f3e 85fe 4dbe f9f3 50be
00000370: 32f3 f2bf 18a2 513e 4c11 93be 505e b5be
00000380: 1e3f 743d 47ee a03d d3b1 203d 1bd9 35bd
00000390: 6ae4 a8bd d3e2 603e 9964 aabd 2799 65be
000003a0: 33e9 febd 0e35 203e 5d41 2e3e 293e e9bc
000003b0: 4746 593d 30ad f33d 3cf5 8cbd 1bf6 2cbe
000003c0: af3b 19be 7cc7 dcbd 99de e53c 9ac8 19be
000003d0: e752 cb3d f2c8 15c0 1593 fc3e 2c38 a7bd
000003e0: 0682 22be 4a60 01be da98 2c3e 3bb7 65bb
000003f0: 21d5 efbf e7f1 5cbd dae4 a03c 527f 753e
0.15666291 0.009486366 0.15403889 -0.12083119 -0.14295572 0.12115928 0.20632651 0.0030769226
0.07731136 -0.0076131686 -0.06365532 0.047236312 -0.11976692 -0.0010103739 0.11950857 -0.09969694
0.052198365 0.1216773 0.1209814 -0.078962654 -0.06530312 0.06855176 0.020572165 0.052093152
-0.035113323 -0.036569495 -0.19374996 0.0860909 -0.06937011 0.14545426 -0.12825894 -0.09071926
-0.07195904 0.08414108 -0.10484002 -0.04276224 0.15428449 0.015997669 0.083910234 -0.012874725
-0.0082887495 -0.057904337 -0.06835747 0.22007988 -0.24757306 0.019118294 -0.09501422 -0.04598819
0.10895854 -0.1607446 -0.075055815 0.16301025 0.1804255 0.036141884 0.102111526 -0.17548767
-0.13152362 -0.17375879 0.078377984 -0.003562758 0.23609811 -0.12142143 -0.096896544 0.0133860335
0.095239766 0.05357901 0.16605271 -0.15872698 0.049246177 0.16631265 0.20543335 0.06192955
0.05788081 -0.31062996 -0.13865611 -0.0039175684 0.021368926 -0.00403789 0.11673109 0.053847026
-0.30396205 0.09999057 -0.23280203 0.07391321 0.018882241 -0.60137916 -0.21958038 -0.20313312
0.30417368 -0.09707462 -0.23581514 0.35278073 0.04507008 -0.026054995 -0.09452006 0.20309834
-0.07493713 0.09200245 0.30296403 0.17855912 -0.6158974 0.117982276 0.49109566 -0.33277264
-0.04048206 -0.31126648 -0.30218583 0.040518068 -0.107667334 0.25892878 0.09911451 0.4206742
-0.45447698 -0.25871482 0.06938133 -0.14274104 0.2983056 0.018262988 0.1407889 -0.40859386
-0.05331059 0.020840537 -0.0053835586 0.16236015 -0.56303924 0.24146523 0.07258084 0.40080413
0.46640715 0.21342833 0.31132108 -0.47765216 0.08719993 0.23125485 -0.5023393 -0.38916516
-0.26032427 0.042742494 0.108124614 -0.42223313 0.2738911 -0.1536333 0.14244477 -0.48637745
0.4833399 -0.12667952 -0.5619965 -0.1715363 0.07538604 -2.1730304 -0.12837389 0.14965427
0.6436694 -0.3070333 -0.36563683 -0.18709506 -1.9445406 0.48894602 -0.104299285 -0.3980008
0.0709023 0.1049122 0.0050535626 -0.07956504 -0.2385224 -0.069027804 0.22796783 -0.101826966
-0.09097993 0.044400197 0.12002625 -0.1383367 0.057591937 0.14659892 -0.16548114 0.03408569
0.121350974 -0.012681655 -0.15293252 -0.03461248 0.23297791 0.07563169 -0.18651988 0.048200265
-0.031036405 -0.07351796 -0.035083752 0.1978381 0.16811424 0.15937063 0.0055068913 0.059522044
0.4643272 0.16029702 0.2615283 -0.44343048 0.3125622 0.33759746 -0.14141434 -0.2763526
-0.14722468 0.35345787 0.32601127 -0.29346886 0.17833893 -0.21496157 -0.044537276 -0.11859395
0.3271405 0.0754268 -0.56408226 -0.20105594 0.170036 -1.9750664 -0.26642978 0.301499
0.28745154 0.17161919 -0.20116623 -0.20405568 -1.8980467 0.2047199 -0.28724134 -0.35423517
0.059630506 0.07857948 0.039232086 -0.0443965 -0.082466915 0.21961527 -0.08319969 -0.22421704
-0.12446823 0.15645239 0.17017122 -0.028472023 0.053045537 0.11898267 -0.06882712 -0.16890757
-0.14964174 -0.10780236 0.028060244 -0.1501793 0.09927922 -2.3403897 0.49330965 -0.08165011
-0.15869913 -0.12634388 0.16855183 -0.003505184 -1.8736917 -0.053941634 0.019640375 0.2397435

lstm.bias_ih_l0 f4 [128]
00000000: 7490 4f3e 8a7f 4bbe 3242 b1bc 0253 4d3e
00000010: d753 c23e 94e1 00bc 884a 3b3e 0ef6 3e3e
00000020: bf5a b5bd e22f 453e 9e35 243e c963 053e
00000030: ab4e 673e ddac 403d fdb5 72bd 15a2 4f3e
00000040: 0327 93bd 2d39 083e 8820 1a3e 6071 1b3e
00000050: 79bb 253c e97b d53e 867a a2bd 323a 953e
00000060: 47da 31bf d7b3 b1bd 0b67 9d3e b23d 223d
00000070: d9a0 bb3e 447a 073e 1d82 30bd 0f34 47bd
00000080: 174b 213e aaba 33be e652 23bc 7e11 f8bd
00000090: 8734 d93e f0b6 143e b5ff d83d 2124 863d
000000a0: bdba 12be d913 903d 33dd 75bd 1fd4 383d
000000b0: f0f1 103e 289f f0bd 23fb 533e d5e5 83be
000000c0: 69c3 163c ebd2 023e fa6a 973d 4717 cf3d
000000d0: 4097 1f3e 263a 7b3d 4654 a73c 2e75 90bd
000000e0: 8401 14bf 5104 7e3e b45c 193e 15db dc3d
000000f0: 7b40 5a3e 3d84 5cbc eb0b 5d3d 3adb cf3d
00000100: a695 113e bbe9 4bbc a0f7 453d c051 15be
00000110: e9b3 07be d7fc 683d ef44 2e3d cffe 643d
00000120: 7c69 34be ecae 33be 05eb 9e3d 5baa 3bbd
00000130: db31 2d3d 883f 2bbe 0569 2ebc 7a59 2dbd
00000140: 7ac6 803d b962 f3bd 930a 41be 5e9e 1dbf
00000150: 1864 a9be f75a 88bd 7e97 bc3d d976 7e3e
00000160: b367 e8bd 5bee 533e 18c8 0c3e 3fd2 06be
00000170: 45a9 19be b8b2 183e 282d 3fbc ed2b 2dbe
00000180: ce01 09bf e657 11be a1a0 b03e cd1f d63d
00000190: 27db d93d 7667 8cbe 02b1 8abb 25f9 a93e
000001a0: 418d 8dbe 3f37 0e3e cc7d 06bc 7f56 e4bc
000001b0: 2977 253f 2fc2 b73e e26c 4c3e e2b0 bd3d
000001c0: a89d ec3d 44a4 a73e ae07 8ebe b472 093e
000001d0: fcb9 e43b d2ba ca3d 4bac d23e 4ab0 363e
000001e0: cf97 883d 3dcc 793e 8743 0fbe 648f 043f
000001f0: 18b4 eb3d b226 b9be 11ed 02bf e38e c93e
0.20269948 -0.19872871 -0.02163801 0.20051196 0.3795459 -0.007866282 0.1829015 0.1864855
-0.08855199 0.19256547 0.16036078 0.13026346 0.22588603 0.047039855 -0.05925559 0.20276673
-0.07185175 0.13303061 0.15051472 0.15179968 0.010115498 0.41696098 -0.07933526 0.29145962
-0.6947369 -0.0867688 0.30742678 0.03960962 0.36646155 0.13230234 -0.043092836 -0.04863363
0.15751301 -0.17551675 -0.009968495 -0.12112711 0.42422888 0.1452291 0.10595647 0.0654986
-0.14329048 0.07035036 -0.060025405 0.04512417 0.14154792 -0.11749107 0.2070127 -0.25761285
0.009201863 0.12775771 0.07393451 0.10111862 0.15585041 0.06133475 0.020425927 -0.070536
-0.5781481 0.24806334 0.1497677 0.10783974 0.2131366 -0.013459262 0.053966444 0.10149236
0.14217243 -0.012445862 0.048331857 -0.14581966 -0.13252224 0.056881752 0.04254621 0.055907067
-0.17618364 -0.17547196 0.0775967 -0.04581676 0.042283874 -0.16723454 -0.010645156 -0.04232166
0.062878564 -0.11884064 -0.1885169 -0.61569774 -0.33084178 -0.06657975 0.09208582 0.24850024
-0.11347904 0.20696394 0.13748205 -0.1316614 -0.15005977 0.14911926 -0.011668481 -0.16911288
-0.5351838 -0.14193687 0.3449755 0.10455284 0.10637503 -0.27422684 -0.0042325268 0.33197895
-0.2764683 0.13888262 -0.008208703 -0.027873276 0.6463495 0.35890338 0.1996341 0.09262253
0.11553508 0.32742512 -0.27740234 0.13422662 0.006980179 0.098989144 0.41147074 0.17840686
0.0666958 0.24394317 -0.13990603 0.51781297 0.115089595 -0.36162335 -0.51142985 0.39366826

lstm.bias_hh_l0 f4 [128]
00000000: 82be b63c dbe9 f13d 2f6c 8f3e c482 493e
00000010: 4dd7 0e3e 4333 963e f43c 053e 81a7 c7bd
00000020: b88c acbc 6f67 723e 091a dd3d 6571 ff3d
00000030: 81f5 1f3e 497e 303d 8474 ebbb f8f8 223e
00000040: c0fc 083e 84e1 463d c47d 623d 583d 9d3e
00000050: bec2 563e 99b1 a13e eb37 d63c 7ea0 3c3e
00000060: 626d 40bf ed15 263d 4b07 ef3d 9db9 8f3c
00000070: ba0d da3e e99b 9bbd a473 f23d 1e18 3b3e
00000080: 6330 443d dee3 883d cf51 ea3d bb37 30bd
00000090: a497 6e3e cea7 423e 90d0 393e 43a3 493e
000000a0: eab7 873d 0872 353e 5d7b 46bd 6616 e73d
000000b0: 6392 c03e d195 013e 86a1 203e 81ff 4ebe
000000c0: 82ae 07be 7750 c9bc d9e0 983e 4e86 5f3e
000000d0: 99fd 09bb 0c84 8b3d 53ab b0bd 4b64 0f3e
000000e0: a769 53bf f7b0 083e 4466 793e 72df 7d3e
000000f0: b92b 983e c4e6 1e3e 0bac 59bd 330f c43d
00000100: fa45 613d b436 05be d6fe 3bbd c2e7 063d
00000110: 5731 26be f6ac e43d 555b de3d ec10 60bd
00000120: e9e0 233e 5d69 0dbe 9e21 663d 8bbe cbbd
00000130: d7cc 303e 253b 3f3d cb5e 7d3d 2275 8f3c
00000140: 5490 ce3b 7855 8b3b b591 47bd 7946 cfbe
00000150: decd b1be 1102 373d a7b2 e23b 7e4d 153c
00000160: 1620 99bd 2f3f 1a3e 4e10 163e bce4 7b3d
00000170: 0a87 a6bd aed6 d33d 5c36 173e b971 133e
00000180: 3e7a 87be 403b 363d 49d6 4f3e fbde 943d
00000190: 96de 8b3e 650a f2be 7b73 173e 34c4 8f3e
000001a0: 5a12 1ebe 54c2 1f3e b5bc fb3d c699 3f3d
000001b0: 96f3 3e3f 87c4 db3d 88d1 733e b483 073e
000001c0: 17cc 8f3e fe4a 893e 89ea a7be dbf2 283d
000001d0: 3a25 4c3e 52f9 86bc 94fb 9b3e edb7 ee3d
000001e0: 5c59 eb3d 6900 a1bd 1493 883d b05a dd3e
000001f0: a32c efbb 271a 83be b625 83be e4f6 883e
0.022307638 0.118121825 0.28012225 0.1967879 0.13949318 0.29335985 0.13011533 -0.09748746
-0.021063194 0.2367227 0.107959814 0.124728 0.15620996 0.043089185 -0.0071855206 0.15915287
0.13377666 0.048554912 0.05529572 0.30710864 0.20972726 0.3158081 0.02614971 0.18420598
-0.75166905 0.040548254 0.11671313 0.017544562 0.42588598 -0.07598097 0.11838463 0.18270919
0.047897708 0.06684087 0.11441385 -0.0430219 0.23300034 0.19009325 0.18145967 0.19691186
0.06626876 0.1771928 -0.048457492 0.11283569 0.37611684 0.12654807 0.15686616 -0.20214655
-0.13250163 -0.024574501 0.29859045 0.21828577 -0.0021055697 0.06812295 -0.086264275 0.14003102
-0.8258309 0.13348757 0.24355417 0.24792269 0.29720858 0.15517718 -0.05314259 0.095732115
0.054998375 -0.13009149 -0.045897327 0.032935865 -0.16229759 0.11165802 0.10857264 -0.054703638
0.16003765 -0.13809724 0.056184404 -0.099484526 0.1726564 0.046687264 0.06185798 0.017511908
0.0063038263 0.004252132 -0.04872294 -0.40483454 -0.34727377 0.044679705 0.0069182697 0.009112714
-0.07476823 0.15063165 0.14654657 0.061497435 -0.081312254 0.10343681 0.1476683 0.1439885
-0.2646045 0.0444901 0.20296587 0.07269093 0.27318257 -0.47273555 0.14790146 0.2807938
-0.15436688 0.15601474 0.122918524 0.04677751 0.7459043 0.10730844 0.23810399 0.13233835
0.28085396 0.26815027 -0.32796124 0.04124723 0.19936076 -0.016476307 0.30465376 0.11656175
0.11491653 -0.07861406 0.06668678 0.43233252 -0.0072990223 -0.2560589 -0.2561471 0.26750863

lstm.weight_ih_l1 f4 [128, 32]
00000000: 5d59 43be 2751 abbd 71d9 073d 0164 4bbe
00000010: 5b42 03bf 9c49 a93a 1d87 a03e 170d 81be
00000020: 26d7 7e3d 9bbd 593e e134 20be 785c 4f3e
00000030: d5cb 84be 01f9 3a3d 03a6 0ebe ada2 8ebc
00000040: 144b 09be fbd2 993e 68d8 393e 3cf1 0ebf
00000050: 12f7 7c3e f0e4 d3bd b447 b73e 1fa6 fd3c
00000060: 1eac 873d fb57 1e3e d106 6c3e 193f f6bd
00000070: aa3d 543e 9135 cabd 4694 a13d e9bc fb3e
00000080: b0f6 933e bf49 4b3d 3b32 533e 1ad5 a53e
00000090: 4242 fb3e d0e4 6a3e ee90 36be 3ea2 153f
000000a0: e828 d2bd e7b6 14bf 4521 6cbe d2a4 9f3d
000000b0: 252d 01bf 30df dd3e dfb6 393e 5885 803e
000000c0: bb13 26bf 079f 69be 89ba 65be b3a2 253e
000000d0: 5098 953e 916f 073f 9d7b 15bf ac05 14bf
000000e0: feca e43e a41d 01be a206 17bf c779 573e
000000f0: b7bf 863e d767 7f3e 1a44 61be 20b9 19be
00000100: d81d 033e 2348 9f3c b601 04be bbf6 283e
00000110: eab4 debd b425 133e 0c45 8c3d 9eac 1ebe
00000120: e1e5 d2bd 7732 13be 279f 01be 22d4 eebc
00000130: 5649 cfbd 265e 98bd a56b 29bc ddc4 2b3d
00000140: a8bf 053e de13 543d 9f3e 8bbd 476d 353d
00000150: 4800 c5bc 829a 66be 3d1c 5cbc 0679 96bc
00000160: cf2e 73be 2470 21bc 8dbc 363e ece2 17be
00000170: 66ab 0dbf 9359 b1bc e835 193d bb92 04be
00000180: 4fd9 01bc 60f7 0b3e 2d40 2a3e f710 0c3f
00000190: 658f 813f 38f6 d73c da40 67bf d150 a73f
000001a0: 03e1 ddbd 4fbc 9cbf e450 20be 60f7 8abd
000001b0: ad9b 90bf c64c 603e 844e 803f 1220 793f
000001c0: f9b9 a1bf eccb 0abf 29c6 2a3d ba79 4d3f
000001d0: 33c1 8a3f 2d7c 9b3e 54dc cbbf 5563 82bf
000001e0: 4161 653f 94d4 49be c0d0 ccbf b8b1 2f3f
000001f0: dc08 54bd c922 acbc 91c6 83bc 4773 93bf
00000200: d608 cc3e 09b1 113e 6aa5 1d3e a97a 2abe
00000210: 154d 0bbf 7038 ae3e 3102 b43e f976 d23d
00000220: eb9e 073e 957a 863e 92b6 97bd 73c3 8dbe
00000230: 9392 7ebe 9feb d7bd 0df4 b23d f9b5 b8bd
00000240: 50d2 f43d d118 7e3e 24b2 afbe fa43 c83e
00000250: d064 6fbc 6b69 6abe 21ed ff3e 4c3d ebbc
00000260: b3ee 073e cebb 2ebe 35e3 bc3e 085a 2b3e
00000270: 0dfa 8cbd 7567 5e3e 7090 4fbe c88d e43e
00000280: de8f 63bd 5f1c 9dbd cfec 223e 90a3 51be
00000290: 3b87 0fbe 7aca 403e 6cc9 cf3d f27a aebd
000002a0: e276 1f3d 7eb8 da3e b88b edbd 4fcb a23d
000002b0: af3e 5abe dfe0 32bd 83d6 02be 78c9 813d
000002c0: 0002 7a3d c7ba 553e 576b 45bd 8a52 c13a
000002d0: e321 933e 2788 9bbe d3e3 af3e 8759 323d
000002e0: 9c18 333e a084 533d e9d8 823e ed09 1b3d
000002f0: 2f9f 77be ede9 823e 4256 6bbe 34bc 6d3d
00000300: e643 45be 1626 e53a 327d c63d f7fd 0dbe
00000310: 896b b8be 5cb6 ea3c 3738 5d3e 6564 0d3d
00000320: f9ac 48be e8a2 893e 2897 41be e88e bebd
00000330: ae79 0cbd d962 253d d85d 4dbe 1c2f 7a3d
00000340: 9792 f03d 4604 dd3d 016a 9bbd 5ef2 30be
00000350: 039d 84bd 8c8d d4bd f376 e63e 4e30 e2bd
00000360: ea9e 64bd f89e 893d 791f 0b3e 40a8 b0bd
00000370: 87c2 393b f11a 8fbb 6d41 1cbd 9de6 723e
00000380: 1361 3dbe 0ed3 8f3d c260 87bc 87da 813d
00000390: cad0 b4be 1cfe 5abe 7155 433e 3062 42be
000003a0: 890f 033e 21cd 83bd 9af1 8a3d e84b a23d
000003b0: ed9f 023e 4c87 133e 60a8 41be 71d1 5a3d
000003c0: 199b ef3c 9858 f8bd 2fd3 6b3c 1829 94be
000003d0: 1a4b bc3d dd3a 023f 6afe db3d 1db1 9bbd
000003e0: d4ee f0bd e71b 723d 6a69 a53e 52f2 5ebe
000003f0: 2860 2cbd 1acf 1c3d 5e26 2abd dd12 4f3e
-0.19077058 -0.08365088 0.033166353 -0.19862367 -0.51273125 0.0012915614 0.31353083 -0.252053
0.0622169 0.21263735 -0.15645172 0.20250118 -0.25936761 0.045647625 -0.13930516 -0.017411554
-0.13407546 0.30043778 0.18148959 -0.55836844 0.24703625 -0.10346401 0.35796893 0.030963002
0.066246256 0.1546325 0.23049475 -0.12023754 0.20726648 -0.09873498 0.07889609 0.49167565
0.28899145 0.049630877 0.2062463 0.32389146 0.49073988 0.22938848 -0.17828724 0.58450687
-0.102617085 -0.58091587 -0.23059566 0.07795109 -0.5045951 0.4333434 0.18136166 0.25101733
-0.64873856 -0.2281457 -0.22434439 0.16175346 0.29217768 0.5290461 -0.58391744 -0.57821155
0.4468612 -0.12608963 -0.58994496 0.21042548 0.26318142 0.24941956 -0.21998635 -0.15012026
0.12804353 0.019443577 -0.12891278 0.1650037 -0.1087435 0.14369851 0.06849107 -0.15495536
-0.10297752 -0.1437472 -0.12658368 -0.029153887 -0.101214096 -0.074398324 -0.010340606 0.04193579
0.13061392 0.05177676 -0.067990534 0.044293668 -0.024047986 -0.22519878 -0.013434467 -0.018368255
-0.23748325 -0.009853397 0.17845364 -0.14832658 -0.5533966 -0.021649158 0.037404925 -0.12946598
-0.007925346 0.13668585 0.16626044 0.54713386 1.0121886 0.026362523 -0.9033333 1.3071538
-0.10833933 -1.2244967 -0.15655857 -0.06785464 -1.1297508 0.21904287 1.0023961 0.9731456
-1.2634879 -0.5421741 0.041692887 0.80263865 1.084021 0.30368176 -1.5926614 -1.0186564
0.8960152 -0.19709998 -1.6001205 0.6863055 -0.05176626 -0.02101268 -0.016085895 -1.1519555
0.3985049 0.1422769 0.15395132 -0.16648354 -0.5441449 0.34027433 0.35157922 0.102765985
0.13244216 0.26265398 -0.074078694 -0.27688178 -0.24860601 -0.10542988 0.08737955 -0.090190835
0.119541764 0.24814154 -0.34315598 0.39114362 -0.014611438 -0.22891776 0.49985602 -0.028715752
0.1327465 -0.1706383 0.36892095 0.16733563 -0.06883631 0.21719153 -0.20269942 0.4463942
-0.055557124 -0.07671427 0.15910648 -0.2047255 -0.1401643 0.18827239 0.1014584 -0.08519544
0.038931735 0.4271888 -0.11598915 0.07948934 -0.21312974 -0.043671485 -0.12777142 0.06337255
0.061037064 0.20872031 -0.04819807 0.001474933 0.2873679 -0.30377313 0.34353504 0.04354241
0.17489856 0.051640153 0.25556114 0.037851263 -0.24181817 0.25569096 -0.22982123 0.058040813
-0.19264182 0.0017482664 0.09691848 -0.13866411 -0.36019543 0.028651409 0.21603476 0.03451957
-0.19597234 0.268821 -0.18905318 -0.09304601 -0.03429573 0.04037747 -0.2005533 0.061080083
0.1174671 0.10791831 -0.07588578 -0.17279956 -0.0647526 -0.103785604 0.45012626 -0.1104437
-0.055815615 0.06719774 0.13586225 -0.08625841 0.0028344707 -0.0043672253 -0.038148332 0.23720784
-0.18494062 0.07022677 -0.01652563 0.06340509 -0.35315543 -0.21385998 0.19075562 -0.18982768
0.12798895 -0.064356096 0.06784363 0.07924634 0.1275632 0.1440708 -0.18911886 0.053422395
0.029248761 -0.12126273 0.014393612 -0.28937602 0.09194012 0.5087107 0.10741885 -0.07602141
-0.11764303 0.05910864 0.32306987 -0.21772125 -0.04208389 0.038283445 -0.041540496 0.2022204

lstm.weight_hh_l1 f4 [128, 32]
00000000: 0828 efbd e3d9 f13c 30a9 ff3d 34a6 abbe
00000010: e91b 493d 778c 153e 1e0d acbd 908e 5cbe
00000020: c5ee 763e 0b2c c33d 1653 cdbd 0889 9d3a
00000030: 3f2c b93e ee93 99be 4f34 ee3e bc5f 883d
00000040: a8d4 043d d74f f33d a624 533d da92 c3bc
00000050: 4797 afbc bc8f 06be 932a 93be 3bfe 8dbd
00000060: 5bb5 cbbd c737 7ebd 069c 983e 4da2 2a3d
00000070: 8a5c d2bd 5f81 693d b647 dbbd 35cd 40bc
00000080: a310 f03d 4939 75be bad7 78bc 5d33 d2bd
00000090: 0924 e43d 6abd 12bd 57e2 353d 25a0 c93d
000000a0: 2784 2ebf 4f3b f6bd fe63 28bd 864b 453d
000000b0: 04f7 ef3c 9e26 bc3c dcaa b43c f19b b4bd
000000c0: 13bf 413e a1ee d8bd a972 a6bd 69f7 6abd
000000d0: 59a3 9e3d 4e13 0dbe 25ef 823e 368a 41be
000000e0: 3de4 eebd 1661 61bc 1718 423e c791 75bd
000000f0: abbe 04be 16e1 e33d 5196 883d fdec 023d
00000100: 63a3 fe3d a7dc c6be 00fc 8a3e b1fd 733e
00000110: fba6 95be 988a 80be d367 e5be d622 62be
00000120: 0557 91bd 1db5 43be 080e 25be 7b2e b73e
00000130: a458 a0be 33a9 04be 4a83 9ebe ee4a 95be
00000140: 90ab 6b3e a99d 92be bfab 69be 8a77 253e
00000150: eb96 1d3e 7067 9cbe 65fd 1a3e 6106 893e
00000160: 4ac6 4f3e f463 d23e c1b8 04be 9ceb 1e3b
00000170: ae27 b9be d610 da3e 332b c93e c2d1 03bf
00000180: 9ec4 1a3e 9bb7 643d 2be7 bcbd b0f6 56bd
00000190: 0c0f 4fbd 34cf 5ebc c4bd abbd 3978 28bd
000001a0: 6f34 c3be 9582 933e ce09 a83d 090f 09be
000001b0: 28f2 513b d94d 06be 3220 90bd 5ac3 d73d
000001c0: 87d0 cfbd ffe2 893a b107 41bb 10ad 133d
000001d0: e45c 473d cdde dcbc e107 963d 426c 54be
000001e0: 3255 aabe f514 59bd 8f2e a2bd 53cb 0a3e
000001f0: b0f7 78be 6512 14bd 8e4d d5bc cfc7 4b3d
00000200: 4169 163e 4bc2 8dbe fefc 533e f9fd 013f
00000210: c21c bdbe d3d7 9cbe 5f0e e9be 1cee 84be
00000220: 1ce5 9bbe d367 3fbe 03d0 d7be f397 c23e
00000230: c610 4f3c 1fdf e8bc f8f7 16be b8ed babe
00000240: 6edd b83e 6aa7 9dbe f353 03bf 9ac6 9d3e
00000250: f2d2 ed3e bcd7 31be d62c ad3e 8be3 473e
00000260: 8c16 763e e7cf 063f a8e1 77be 7283 493e
00000270: de62 01bf b5f1 e53e 4b87 e23e cce2 eabe
00000280: 80bd 403e 1508 343d c4a4 d43d 4aae 3f3e
00000290: 8eb6 31be b81e 703c 9d2c 063e a8cd 2ebe
000002a0: 6382 64be 070f 95bd 2ccc 6dbe 6b36 be3d
000002b0: ac31 52be ebd8 31be 102d 2abe 0db5 983d
000002c0: 8ddd 04bc babb 79bc dd72 18be a068 913d
000002d0: ef76 3d3d 1174 a0bd a830 413e dc87 f0bd
000002e0: f606 1dbd 23ed ac3e 91b4 0ebe e43b 0abd
000002f0: 6ca2 acbe 760c dd3d 440a a83d 9afe 8ebd
00000300: c3cd 043e a6f9 763d ced7 e73d 7588 8fbe
00000310: ffdd 8c3d 519c d1bd 2698 1bbe 572c 40be
00000320: dbbf a53d 9068 15be ebdc 8fbd 3738 d5bd
00000330: 531b f03d 03b7 adbe ab4c 933e b135 18be
00000340: b7b0 25be aa00 5d3c 9885 dc3d 7233 0e3e
00000350: 857f e2bc b274 49be 7098 863d 39d4 71be
00000360: 3097 9bbe ec24 613d b4f5 883b c991 c63d
00000370: ecdc e7bd e430 213e 3d9e 2abd db68 76bc
00000380: 8121 0d3e 5e59 413d 1773 5a3e 55f0 bebd
00000390: bd09 79bd 789f da3d 0fb8 90bd 25fa 3ebe
000003a0: d024 a3be 046b 0d3e 1c55 3bbd 6d9b 91bd
000003b0: 19dc 893d 8e29 c3bd a732 473f 1e53 863d
000003c0: bde8 c83c be9f 10ba 9836 eeba 070a 54bd
000003d0: 73ed 77be cda5 033e 762e 0ebf 730e d1be
000003e0: a711 cbbe 0922 b5bb 93b0 023e 973d 0c3e
000003f0: 3121 11be 7160 173e acf1 4e3e c4c5 1dbb
-0.11677557 0.029522842 0.12483442 -0.3352524 0.049098883 0.14604364 -0.084009394 -0.21538758
0.24114521 0.09529885 -0.10025613 0.0012018988 0.3616657 -0.29995674 0.46524283 0.06658885
0.032429367 0.118804626 0.051548623 -0.023873735 -0.02143444 -0.13140768 -0.2874342 -0.06933256
-0.099467 -0.062064912 0.29806536 0.04165869 -0.10271557 0.057008144 -0.10707037 -0.011767675
0.11721923 -0.23947634 -0.015188152 -0.10263703 0.11139686 -0.03582517 0.044405308 0.09844998
-0.681704 -0.12023031 -0.041110985 0.048167728 0.02929259 0.022967633 0.022054128 -0.08818806
0.18920545 -0.1059239 -0.081273384 -0.057364855 0.07746 -0.13776895 0.25573078 -0.1890038
-0.11664627 -0.013756057 0.18954502 -0.059953477 -0.12963359 0.11126916 0.066692956 0.03196429
0.12433507 -0.3884022 0.27145386 0.23827244 -0.29228958 -0.2510574 -0.44805774 -0.22083601
-0.07096676 -0.19112058 -0.16118634 0.3577765 -0.31317627 -0.1295517 -0.3095954 -0.2915873
0.23014665 -0.2863591 -0.22819422 0.16158882 0.15389602 -0.30547667 0.15135725 0.2676268
0.20290485 0.41091883 -0.12961103 0.002424932 -0.36163086 0.4259097 0.3929077 -0.5149194
0.15114066 0.055839162 -0.09223779 -0.052481353 -0.05055146 -0.013599206 -0.08385804 -0.04113028
-0.3812594 0.28810564 0.08204995 -0.13384642 0.0032035206 -0.13115634 -0.07037391 0.10535307
-0.10147195 0.0010519921 -0.0029454047 0.036053717 0.04867257 -0.026961708 0.073257215 -0.20744422
-0.33268124 -0.0529985 -0.079190366 0.13554125 -0.24313235 -0.036150355 -0.026037958 0.0497511
0.14688589 -0.27687296 0.20701978 0.50778157 -0.36936003 -0.3063341 -0.45518777 -0.25962913
-0.30448234 -0.1869195 -0.42150888 0.38006553 0.012638276 -0.028426705 -0.1474303 -0.3650949
0.36106437 -0.3079179 -0.5129997 0.30815583 0.4645 -0.17367452 0.3382327 0.19520395
0.24032038 0.52660984 -0.24207175 0.19679049 -0.50541484 0.4491097 0.44243845 -0.45876157
0.18822289 0.04395302 0.10382989 0.1871883 -0.17354795 0.014655761 0.13102956 -0.17070639
-0.22315364 -0.07278257 -0.23222417 0.09287723 -0.20526761 -0.17367904 -0.16618752 0.07456408
-0.008109462 -0.015242511 -0.14887567 0.07100034 0.046256002 -0.07834638 0.18866217 -0.11744663
-0.038336717 0.3377467 -0.13936068 -0.033748522 -0.33717668 0.10793392 0.08205083 -0.06982155
0.12969117 0.060296677 0.11320458 -0.28033796 0.0687828 -0.10234893 -0.15194759 -0.18766914
0.08093234 -0.14590669 -0.07024559 -0.10411113 0.11723962 -0.3392869 0.2876943 -0.14864232
-0.16180693 0.013488928 0.107676685 0.13886812 -0.027648697 -0.19673422 0.06572044 -0.23616113
-0.30388784 0.054966852 0.0041796807 0.09695775 -0.113214344 0.15741307 -0.041654814 -0.015039648
0.13782312 0.047204368 0.21332966 -0.093231834 -0.060800303 0.106749475 -0.070663564 -0.1865011
-0.31864023 0.13810354 -0.045735464 -0.07109723 0.067314334 -0.0952941 0.77811664 0.06558822
0.02452504 -0.00055169675 -0.0018174229 -0.051767375 -0.24211673 0.12856217 -0.55539644 -0.40831336
-0.39661905 -0.005527739 0.1276267 0.1369537 -0.14172818 0.14782883 0.20209378 -0.0024074176

lstm.bias_ih_l1 f4 [128]
00000000: e053 c23d 8ac3 563e 6011 20bd 2bb1 80bc
00000010: aa5b 503e dafa 723e 413b fc3a 4a89 57be
00000020: d283 6ebe 9763 3c3e 0df9 99bd 0f28 a33d
00000030: 4dfa a6bb 644a 653d 6e3c 93bc a14e efbd
00000040: add6 8e3d 91fc 51bd 3cae cb3e 9cb4 90bc
00000050: c32b b83e 8479 613e b48f 553e c0cb 6a3d
00000060: 7140 3abe 1884 743e 5bbe 423e b225 29bd
00000070: ac32 433d d607 be3d 03bc d83d 9320 1ebe
00000080: bf6b e03c 29b0 4b3e f22f 833d 626f b3bd
00000090: b16c e93e 80eb 193e 4e3b 173e ab2d 243e
000000a0: 696b 01bd 5187 e3bb c883 04be a4e3 953d
000000b0: a0e9 be3e 7642 603e 499e 843b 6a27 a63d
000000c0: fc89 1fbd fe69 603e 1354 3c3e 9196 9e3e
000000d0: 81d7 a33e 0da4 08be 0a03 bb3d 1fdd d23d
000000e0: abb8 e3bd 05ea a1bd 6848 68be 52ac 163e
000000f0: a153 83bc 42d8 9a3d d987 173e 4b68 5b3e
00000100: eaa5 f5bd 90f6 93be 8752 66bb b0de 883e
00000110: d8eb 2bbd 9c50 e2bc 8c41 0c3e 2658 673c
00000120: 9ff2 713c 7a89 38be 9ab1 053e b23c d23e
00000130: f8e7 e03c eded 7c3c 0c13 6cbe 11ef 8e3c
00000140: 917b 0a3c 239a 7fbd c60d 5fbe 7e5e 3c3e
00000150: d6d7 cc3e 0461 0cbe 55d6 ca3d 2549 db3d
00000160: 126f 933e 5048 903e ab51 67be 8afc 30be
00000170: 0ef1 59be 45e7 743e c95b 4a3e d66f 443c
00000180: 04d6 a13e 2e41 a93e 403b 6e3e 82fe 2c3e
00000190: a062 023e fe8e e73e 53f5 e53e afba 9b3e
000001a0: 9f4e b93d 543c be3e fbb6 a83e 99c2 063f
000001b0: 000d bb3e d0c7 353e ace5 f53d 07e3 993d
000001c0: b5ae 6f3e 4442 883e 0f2f e03e 96b6 8a3e
000001d0: 2bf3 a4bd 6357 c53e a571 9a3e 6fb3 6a3e
000001e0: e199 053d 5b66 1c3f 406f 1f3e a24c 563e
000001f0: db17 493e eab3 a23e 01c5 943e 426b 563e
0.09488654 0.2097303 -0.03907907 -0.01570948 0.20347467 0.23728505 0.0019243733 -0.21048465
-0.23292473 0.18397366 -0.07518206 0.07966625 -0.005095756 0.055979148 -0.017973151 -0.11684919
0.0697454 -0.051266257 0.39781368 -0.017664246 0.35970888 0.22019011 0.208556 0.057323217
-0.18188645 0.23878515 0.19017927 -0.041295715 0.047655746 0.09278838 0.105827354 -0.15442114
0.027395127 0.19891419 0.06405629 -0.08761479 0.45590737 0.15031242 0.14768717 0.16033046
-0.031596575 -0.006943621 -0.12940896 0.0731881 0.37287617 0.21900353 0.0040471894 0.081129864
-0.03894995 0.21915433 0.18391447 0.30974248 0.32000354 -0.1334383 0.09131439 0.10296082
-0.11119207 -0.07905964 -0.22683871 0.14714172 -0.016031088 0.07560779 0.14797916 0.21426503
-0.11994536 -0.2889905 -0.0035144405 0.26732397 -0.041972965 -0.027626328 0.13696879 0.014120137
0.014767318 -0.18021193 0.13056031 0.41061932 0.027454361 0.015437585 -0.23054141 0.01744798
0.008452312 -0.062402856 -0.21782598 0.18395421 0.4000842 -0.13708884 0.09904162 0.107073106
0.28795677 0.2818017 -0.22589748 -0.17283836 -0.21283361 0.23916347 0.19761576 0.011989554
0.31608593 0.3305754 0.2326479 0.16893962 0.12732935 0.45226282 0.4491373 0.30415866
0.09048199 0.37155402 0.32952103 0.5264068 0.36533356 0.17752004 0.12006697 0.07514005
0.23406489 0.26613057 0.43785903 0.27092427 -0.08054193 0.38543233 0.3016483 0.22920011
0.032617453 0.6109368 0.15569782 0.2092767 0.19638006 0.3177789 0.29056552 0.20939353

lstm.bias_hh_l1 f4 [128]
00000000: ccf8 b23d 8a4c 803e 6be5 69bc cdb6 ae3d
00000010: 1501 0a3e f3f7 c93d 5fce 4b3c 9c6b 4fbe
00000020: 8b79 a9be f5e8 b73d e18f ecbc 1b0a 34be
00000030: 93e7 503e 626e 353e e282 1dbd 257e 7ebe
00000040: be03 4c3e be21 923d 709f cd3e 7555 fa3d
00000050: 35c2 033f 218e 483e abf4 5cbc c4d1 fc3d
00000060: 9266 84bd b4fe aa3d 00b9 6c3e 65d3 d9bd
00000070: f352 333e 0922 623e fd51 363e 2964 53be
00000080: 0974 0f3d 4a61 153e a628 bbba ec50 a03d
00000090: db7f 993e b465 f03c e073 803e d2e5 bb3d
000000a0: e925 77bd d7ef df3d f50b 1d3e f75b 143d
000000b0: 50b9 813e 5c71 ea3e 3ffa 4ebe cca0 a53d
000000c0: 243a 4d3e 663c 453e a8bf 703e d698 a93d
000000d0: 2e87 aa3e 4e96 8a3d 2772 1a3c 9e15 253d
000000e0: 50dd 86bb 5113 86bd 80d7 9ebd 3e31 fcbd
000000f0: 4afd fe3d 1d2e f4bc 1bf9 9e3e 439e 913e
00000100: 50cd 53bd d9b0 aabe d0eb 063e 374e f93e
00000110: 73e4 20be 0b24 23be d3f9 123d e10b a6bb
00000120: 550b e8bd 966f d1bd d0f0 06bc 347f d03e
00000130: b51a ce3c 35f4 e23d 4530 88bb 8fe5 653e
00000140: bd41 763e 98d8 83be f873 52be 9b79 5dbd
00000150: dd6c b13e 8b75 3dbe 0ac0 103d ca73 af3c
00000160: 00fe be3e e0f0 3f3e 677f ae3d f34c 86bd
00000170: ecb6 2dbe 4781 fb3c 774b 26bd 3fde 9dbd
00000180: ac51 683d 2d28 fc3e 96ee 813e 4de6 47bd
00000190: 19a5 473e 4141 f63e 37b3 e53e 8ccf 203e
000001a0: 6af7 06be 95af ca3e 3ea0 8d3e 9014 d33e
000001b0: 8c3d 123f dd31 0f3e 8323 7b3e 5b3f c13d
000001c0: dfe7 813e e8d1 8c3e 5d45 cb3e 5bc9 0a3f
000001d0: 0287 533d 9e97 b33e d828 e63e 6570 793e
000001e0: d435 103e efd4 be3e 50b4 9b3e 8d82 453e
000001f0: 317b 2b3e ff8e b23e db0b 1b3e 12a3 9a3d
0.087388605 0.25058395 -0.014275889 0.0853096 0.13476975 0.09861746 0.012439339 -0.20255893
-0.33100542 0.0897998 -0.0288772 -0.1758198 0.20400839 0.17717889 -0.038454898 -0.24852808
0.19923303 0.07135342 0.40160704 0.12223331 0.5146821 0.19585468 -0.013486068 0.12344697
-0.06464876 0.08349362 0.23117447 -0.106360234 0.17512111 0.22083296 0.17804714 -0.20643677
0.03502277 0.14587894 -0.0014279082 0.078279346 0.29980358 0.02934537 0.25088406 0.09174694
-0.06033889 0.10934418 0.15336592 0.036220517 0.25336695 0.4578961 -0.20212649 0.0808731
0.2004171 0.19261321 0.23510611 0.08281104 0.3330626 0.067669496 0.00942663 0.04030382
-0.004115738 -0.06546653 -0.07755947 -0.1231408 0.12450655 -0.029807145 0.31049427 0.28441057
-0.051709473 -0.3333805 0.13175893 0.48692486 -0.15712146 -0.15931718 0.035882782 -0.005067334
-0.113302864 -0.102263615 -0.008236125 0.40722048 0.02515922 0.11081735 -0.004156145 0.22450851
0.24048515 -0.25751185 -0.20552051 -0.05407105 0.3465337 -0.1850187 0.035339393 0.021417517
0.37303162 0.1874423 0.08520394 -0.06557646 -0.1696431 0.030701293 -0.040599313 -0.07708406
0.056718513 0.49249402 0.2537734 -0.048803616 0.19496574 0.4809666 0.44863293 0.15704173
-0.13180318 0.39587083 0.27661318 0.41226625 0.57125163 0.13983865 0.24525265 0.09435912
0.25372216 0.27503896 0.39701357 0.54213494 0.051642425 0.35076612 0.44953036 0.24359281
0.14083034 0.3727183 0.30411005 0.19288082 0.16746213 0.34874722 0.15141241 0.075506344

fc.weight f4 [1, 32]
00000000: 494d 55c1 487a 58c1 9762 4e41 0109 6541
00000010: 7253 50c1 3e00 4dc1 382f 4fc1 e841 50c1
00000020: 747d 6f41 6a64 4fc1 f3b2 4fc1 7cd4 6541
00000030: bb2e 5141 28a8 4ec1 c896 5cc1 0b9c 61c1
00000040: 62fe 5641 e017 59c1 f3cb 4dc1 599d 4d41
00000050: 453c 5641 0dc0 56c1 221e 6441 1aaf 6341
00000060: 2cab 6d41 b194 4c41 4459 61c1 e564 5241
00000070: 670a 5cc1 b9cf 4e41 1746 5941 140a 53c1
-13.331368 -13.529854 12.89907 14.314698 -13.020372 -12.812559 -12.949028 -13.01609
14.968128 -12.962015 -12.981189 14.364376 13.073909 -12.916054 -13.786812 -14.100596
13.437105 -13.568329 -12.862292 12.850915 13.389714 -13.421887 14.257357 14.230249
14.85429 12.786302 -14.084293 13.149632 -13.75254 12.925714 13.579612 -13.1899605
