time_series_intro_class/final_project/temp/two_layer_50_hidden_32/model_epoch_2200.pth (torch, 53667 bytes, 9 tensors)

lstm.weight_ih_l0 f4 [128, 1]
1.0320362 0.5524811 -0.7152214 -1.1314911 -0.74738944 -0.25052738 -1.5036149 0.19036277
-0.3258031 0.644302 -0.66066164 -1.0687193 -1.1931235 0.7677012 -0.6870318 0.2475151
-1.0189571 -0.16930439 -0.87040293 1.0593908 0.6628133 -0.5916524 -1.8306199 -1.2244611
-1.7644917 -0.42655462 -0.817206 -0.3320461 -2.5801747 -0.1383204 -0.9440751 -1.6559592
0.29818955 -1.1980269 0.10350746 -0.8706208 -0.7557418 0.17223002 -0.74777496 0.97480506
-0.30346462 0.24693455 -0.6227915 0.09194305 -0.43195644 -0.78057534 -1.0242566 1.6794235
-0.8555335 0.9730893 0.1728077 -0.97436845 -1.29088 -0.2764484 -1.1272662 -0.73837054
0.18938495 0.07644017 -1.6860412 1.72001 -1.4361233 -0.39472437 0.037147507 -0.40904784
-0.16721566 0.11808831 0.12062399 1.9535687 -0.8028756 0.449167 1.2641021 -2.3812582
0.44636127 -0.5782167 -1.2488687 2.0701408 -1.20641 -0.43411067 -2.3106518 1.5474287
-1.6392936 -1.9916698 1.5181271 -0.66815543 0.22520998 0.5643991 1.5554265 1.0265298
0.087015934 2.0035033 -2.3375926 -0.65213996 -1.9207085 0.22582653 0.99964964 1.6907852
0.42763305 -0.652177 -0.36882916 -1.3884978 -1.2000818 0.054710012 -1.4743949 -0.059735462
-0.5803437 0.31995574 -1.5523775 -0.59449005 -1.1333231 -0.19168508 -1.0416995 1.3445145
-0.47605276 0.25693935 -0.41342846 -0.42840892 -0.15130961 -0.796525 -1.9723362 -1.2243295
-0.86275077 -0.28416163 -2.0489116 1.5976782 -2.9878736 -0.53514457 -0.6541656 -2.031329
00000000: c319 843f 676f 0d3f c018 37bf b3d4 90bf
00000010: ea54 3fbf 2045 80be 7476 c0bf 75ee 423e
00000020: aacf a6be faf0 243f 1f21 29bf cbcb 88bf
00000030: 45b8 98bf 1188 443f 51e1 2fbf 9974 7d3e
00000040: 306d 82bf 215e 2dbe bad2 5ebf 1e9a 873f
00000050: 22ae 293f 8876 17bf c151 eabf 24bb 9cbf
00000060: ddda e1bf 5e65 dabe 6a34 51bf f201 aabe
00000070: 9521 25c0 dda3 0dbe e8ae 71bf 79f6 d3bf
00000080: 4dac 983e f258 99bf b8fb d33d 01e1 5ebf
00000090: 4b78 41bf 115d 303e 2e6e 3fbf d38c 793f
000000a0: b75f 9bbe 69dc 7c3e 446f 1fbf a34c bc3d
000000b0: 6529 ddbe c9d3 47bf d71a 83bf 59f7 d63f
000000c0: 3e04 5bbf 611c 793f 80f4 303e 3670 79bf
000000d0: 8e3b a5bf a58a 8dbe 424a 90bf da05 3dbf
000000e0: 21ee 413e aa8c 9c3d 33d0 d7bf 4a29 dc3f
000000f0: e3d2 b7bf 5019 cabe fc27 183d b86e d1be
00000100: 953a 2bbe 49d8 f13d b609 f73d 8a0e fa3f
00000110: 4189 4dbf 38f9 e53e 19ce a13f 8966 18c0
00000120: 7789 e43e 0206 14bf eeda 9fbf 307d 0440
00000130: a56b 9abf c143 debe b8e1 13c0 2512 c63f
00000140: 5fd4 d1bf 09ef febf fd51 c23f 3c0c 2bbf
00000150: 729d 663e 767c 103f 3718 c73f 5465 833f
00000160: 6935 b23d 6639 0040 1e9b 15c0 a5f2 26bf
00000170: c7d9 f5bf 123f 673e 0ae9 7f3f a66b d83f
00000180: b8f2 da3e 12f5 26bf 2dd7 bcbe 4cba b1bf
00000190: 489c 99bf 9b17 603d f9b8 bcbf 2cad 74bd
000001a0: 6891 14bf 3dd1 a33e 4eb4 c6bf 8030 18bf
000001b0: bb10 91bf 1849 44be 6956 85bf 0d19 ac3f
000001c0: 30bd f3be 8e8d 833e e5ac d3be 6a58 dbbe
000001d0: e8f0 1abe 10e9 4bbf 8375 fcbf d4b6 9cbf
000001e0: 3cdd 5cbf a27d 91be 5e21 03c0 b880 cc3f
000001f0: 5239 3fc0 3cff 08bf 6677 27bf 4b01 02c0

lstm.weight_hh_l0 f4 [128, 32]
0.18499501 0.23907354 -0.26719475 -0.08415708 -0.17439044 -0.10297987 0.07063682 -0.13185492
-0.37193254 0.33733547 -0.09307104 0.32693565 0.041170605 0.41822028 0.025269981 0.043120902
-0.11182188 0.5165914 -0.33563375 0.08192919 -0.19384834 0.13324302 0.014000418 -0.124355055
-0.22669029 -0.38484496 0.16671264 0.3426766 0.15899189 -0.12470324 -0.1830219 -0.2829543
-0.17689033 -0.24572322 0.40606508 0.21939181 -0.101774566 -0.11442561 0.7387271 -0.3247225
0.12553918 -0.32284927 0.07199289 0.07622479 -0.052243967 -0.019367699 -0.23395377 0.056603022
0.11430795 -0.1852712 0.5570144 -0.13033961 0.23775299 0.3760329 0.2100336 0.53399825
0.30498967 0.35565466 -0.10404892 0.23008664 -0.64907116 -0.1934178 0.64324135 0.4233941
0.09159442 -0.08606144 -0.2946973 0.039723556 -0.03619403 -0.17912741 -0.48476684 0.17442942
0.04505099 0.111631386 -0.10517971 -0.78023493 0.07729354 0.53992265 -0.04142934 -0.30449623
-0.47315407 0.64839214 -0.40992093 0.26431614 -0.5643847 0.13181928 -0.059381776 -0.5181055
-0.3673532 -0.06896659 -0.172919 0.23125492 0.2650346 0.25276843 0.38701457 -0.72079754
0.3507476 0.03536393 -0.031048343 -0.12156158 -0.14783657 0.4355852 -0.15408917 -0.074202426
-0.083149664 0.19586633 -0.055634495 0.40924945 0.0048346864 -0.16271834 0.59411716 0.21069784
0.42929038 0.050818205 -0.21480267 0.38679686 0.08903342 -0.31801823 0.22751738 0.03485259
0.45666942 -0.05865776 0.4832358 -0.07819433 0.12665713 -0.18167226 -0.015940737 0.020465033
0.37628928 0.31361318 0.35749534 0.17925787 -0.3791374 -0.049848516 0.1931743 -0.13426608
-0.40655744 0.28296927 -0.0878866 -0.53754294 -0.1978599 -0.19887167 0.12375101 0.4305018
0.04504089 -0.16055901 0.05420588 0.11755366 0.099232964 -0.10867465 0.20021302 -0.07897461
-0.17961542 -0.33990026 0.108132616 -0.14016542 -0.03764035 -0.2220102 -0.07753472 0.041695956
0.51835245 -0.13051711 0.2895054 -0.14694712 -0.37333077 0.21960446 0.32709628 0.38871425
-0.58303237 0.45479965 0.024975922 -0.43137673 0.10825376 -0.5764771 -0.2343535 -0.11877184
0.48227692 -0.062093835 0.097070366 -0.044342108 0.47441217 -0.13424404 -0.10889114 0.39160624
-0.09241979 -0.07517448 -0.13209704 -0.5067612 0.09344415 -0.4365819 -0.7557323 -0.49415794
0.43005487 0.13469724 0.21298055 0.19907023 -0.31284446 0.38398144 -0.23723027 -0.4302782
0.09844974 0.12755409 -0.23704259 0.6827196 -0.15443392 -0.07603209 0.09434521 0.020237686
0.0759866 0.19399536 -0.0023034073 0.35383302 -0.17159076 0.24636507 -0.026246179 -0.07046243
0.07067338 -0.029561462 0.28679022 -0.5430019 0.035935484 0.19744077 0.08115401 -0.19381167
0.8086307 -0.19100058 0.6199782 -0.68044764 -0.08863787 0.7471204 -0.08399583 0.036251564
-0.96381354 0.37250593 0.5706831 -0.14804983 0.49718818 -1.3357626 0.7515615 0.43182003
1.0738348 -0.6833133 0.018360522 0.07063155 0.6052785 -1.0397989 -0.6571484 -0.39618975
-0.69460267 -0.1307933 1.2670637 -1.0671624 1.0289562 -0.82661575 -0.75663894 -0.4026379
00000000: 556f 3d3e b2cf 743e c0cd 88be 8c5a acbd
00000010: 6893 32be 1ce7 d2bd 09aa 903d fa04 07be
00000020: f16d bebe 3cb7 ac3e 089c bebd 1c64 a73e
00000030: 82a2 283d f820 d63e fe02 cf3c 8b9f 303d
00000040: df02 e5bd 563f 043f 30d8 abbe 7eca a73d
00000050: 2e80 46be dc70 083e 0262 653c ddad febd
00000060: 8021 68be 660a c5be b8b6 2a3e 4f73 af3e
00000070: c5ce 223e 6a64 ffbd 186a 3bbe 63df 90be
00000080: bd22 35be de9e 7bbe c3e7 cf3e 3fa8 603e
00000090: 2f6f d0bd f957 eabd 381d 3d3f 0742 a6be
000000a0: 588d 003e 804c a5be 0271 933d be1b 9c3d
000000b0: c5fd 55bd 02a9 9ebc 9491 6fbe 92d8 673d
000000c0: 491a ea3d bcb7 3dbe 7f98 0e3f bf77 05be
000000d0: 8575 733e 6287 c03e 0c13 573e 1cb4 083f
000000e0: 9b27 9c3e 5e18 b63e 9a17 d5bd d59b 6b3e
000000f0: 8729 26bf 510f 46be 77ab 243f 1dc7 d83e
00000100: db95 bb3d fb40 b0bd 91e2 96be 2bb5 223d
00000110: 3140 14bd 2d6d 37be 5c33 f8be a09d 323e
00000120: 6387 383d ff9e e43d 7668 d7bd 7abd 47bf
00000130: 134c 9e3d 5f38 0a3f d0b1 29bd eee6 9bbe
00000140: 4041 f2be 07fd 253f 28e1 d1be 7254 873e
00000150: 847b 10bf a2fb 063e 4e3a 73bd 90a2 04bf
00000160: b815 bcbe 5b3e 8dbd ae11 31be 17ce 6c3e
00000170: 9db2 873e dd6a 813e c626 c63e 3086 38bf
00000180: 3095 b33e c5d9 103d 1859 febc 47f5 f8bd
00000190: 7862 17be 0605 df3e 8dc9 1dbe 71f7 97bd
000001a0: 5f4a aabd 2f91 483e ffe0 63bd 2589 d13e
000001b0: 4a6c 9e3b a39f 26be 1018 183f 2dc1 573e
000001c0: f3cb db3e c026 503d 3bf5 5bbe 3d0a c63e
000001d0: 2757 b63d 49d3 a2be 51fa 683e 97c1 0e3d
000001e0: 93d0 e93e 1f43 70bd af6a f73e 5924 a0bd
000001f0: 68b2 013e 4b08 3abe 2696 82bc 49a6 a73c
00000200: fda8 c03e e891 a03e a109 b73e 608f 373e
00000210: 4c1e c2be f52d 4cbd 7ccf 453e 0c7d 09be
00000220: 4c28 d0be 59e1 903e e4fd b3bd 6a9c 09bf
00000230: c99b 4abe 04a5 4bbe 2b71 fd3d bb6a dc3e
00000240: cc7c 383d 9569 24be fc06 5e3d f9bf f03d
00000250: a73a cb3d d190 debd a404 4d3e 71bd a1bd
00000260: 1bed 37be 6807 aebe a274 dd3d 8687 0fbe
00000270: c52c 1abd a456 63be 86ca 9ebd 61c9 2a3d
00000280: bfb2 043f 47a6 05be 0d3a 943e 4e79 16be
00000290: 3625 bfbe fedf 603e 2a79 a73e 8e05 c73e
000002a0: 9c41 15bf 80db e83e 4e9a cc3c 69dd dcbe
000002b0: 26b4 dd3d 0194 13bf 5dfa 6fbe a73e f3bd
000002c0: 00ed f63e 1b56 7ebd d4cc c63d 12a0 35bd
000002d0: 27e6 f23e 4577 09be 5102 dfbd 9d80 c83e
000002e0: 9646 bdbd 14f5 99bd 7244 07be 1abb 01bf
000002f0: a65f bf3d aa87 dfbe ac77 41bf 4502 fdbe
00000300: 2730 dc3e 13ee 093e 9317 5a3e 11d9 4b3e
00000310: 262d a0be 3799 c43e 7eec 72be 6d4d dcbe
00000320: 04a0 c93d 8a9d 023e 4bbb 72be b6c6 2e3f
00000330: ed23 1ebe b6b6 9bbd 1038 c13d 81c9 a53c
00000340: dd9e 9b3d b8a6 463e c3f4 16bb 9a29 b53e
00000350: 7db5 2fbe 2047 7c3e 3a02 d7bc 9b4e 90bd
00000360: 34bd 903d e12a f2bc 2bd6 923e 2c02 0bbf
00000370: 1631 133d ea2d 4a3e 1334 a63d 9176 46be
00000380: 6c02 4f3f a895 43be e4b6 1e3f d131 2ebf
00000390: c687 b5bd 4843 3f3f 0106 acbd 857c 143d
000003a0: 7cbc 76bf 19b9 be3e 4a18 123f 609a 17be
000003b0: 738f fe3e 45fa aabf 5666 403f 8417 dd3e
000003c0: 6b73 893f 9fed 2ebf ce68 963c 46a7 903d
000003d0: 88f3 1a3f 2118 85bf e13a 28bf 62d9 cabe
000003e0: 7bd1 31bf aeee 05be 252f a23f c798 88bf
000003f0: d6b4 833f 179d 53bf 17b3 41bf 8e26 cebe

lstm.bias_ih_l0 f4 [128]
-0.030276608 -0.32615545 -0.41188535 0.131981 -0.024175456 0.06199785 0.030062106 0.71033627
-0.109204695 0.122572176 -0.00039673358 0.97473747 -0.044373814 0.17961782 0.10838558 -0.050193366
0.49360895 -0.009529478 -0.05856303 -0.23482575 0.3426397 -0.028117126 -0.19096498 0.031859796
-0.09162468 0.61948085 0.5293499 0.26767528 0.015922366 -0.11300275 -0.1277407 0.050999805
-0.0015170064 -0.025149161 0.021847084 -0.1374949 0.060697086 -0.06392347 0.023010474 0.16318803
-0.07254065 0.016756503 0.17924194 -0.59541976 -0.09227805 0.03851161 -0.14454089 0.023325298
0.012742623 0.17756495 -0.19113491 -0.114044234 0.09795393 -0.110366076 -0.2597157 -0.11768836
-0.085619844 0.214294 0.12205317 0.08939051 -0.24760546 -0.27805743 -0.05309822 0.11324997
-0.0061050854 0.0812786 -0.033763167 0.065992996 -0.008558641 -0.04000876 -0.04728659 -0.0346646
-0.08554507 0.010858977 0.010713904 0.036264837 0.067260295 0.044475306 0.044895753 0.08122244
-0.035203688 0.03056364 0.05180628 -0.123101644 0.11223572 -0.014819457 -0.05787941 0.07078593
0.053074714 -0.1345693 0.046117336 -0.26440912 0.07633386 -0.14609611 0.03813522 -0.0036168988
0.03175664 -0.23586065 -0.3225513 0.08445182 -0.1817313 -0.17449848 -0.13486627 0.7686234
-0.11557182 0.020801976 0.031343605 1.0668612 0.02972719 0.24083787 0.17209831 0.1835799
0.50641036 -0.052628886 -0.11093695 -0.17284913 0.6158626 -0.27565813 -0.21118186 -0.17349727
0.034159184 0.7295325 0.30171156 0.09482573 -0.03642064 -0.37119436 -0.010767224 0.018238405
00000000: a606 f8bc d9fd a6be a3e2 d2be 0726 073e
00000010: 9b0b c6bc 75f1 7d3d ce44 f63c 99d8 353f
00000020: b6a6 dfbd 1f07 fb3d ae00 d0b9 6588 793f
00000030: 51c1 35bd bced 373e 42f9 dd3d 8f97 4dbd
00000040: 50ba fc3e 8721 1cbc cadf 6fbd 2976 70be
00000050: 796e af3e e355 e6bc 538c 43be 6b7f 023d
00000060: b8a5 bbbd 4c96 1e3f 7a83 073f bc0c 893e
00000070: 9f6f 823c fc6d e7bd 75ce 02be 2ce5 503d
00000080: 4ad6 c6ba 9d05 cebc a8f8 b23c 77cb 0cbe
00000090: 829d 783d 4fea 82bd 7680 bc3c c31a 273e
000000a0: 3190 94bd ef44 893c 338b 373e 6e6d 18bf
000000b0: 46fc bcbd 5abe 1d3d 8702 14be b214 bf3c
000000c0: 6fc6 503c 96d3 353e dfb8 43be 0690 e9bd
000000d0: 129c c83d 9c07 e2bd 75f9 84be 9806 f1bd
000000e0: 7559 afbd e36f 5b3e 03f7 f93d 5f12 b73d
000000f0: 498c 7dbe 8b5d 8ebe 857d 59bd 9aef e73d
00000100: 2b0d c8bb 6575 a63d 3f4b 0abd 5627 873d
00000110: 8b39 0cbc 3ae0 23bd 95af 41bd 78fc 0dbd
00000120: 4132 afbd dae9 313c 5f89 2f3c 708a 143d
00000130: c4bf 893d bd2b 363d 9ce4 373d f357 a63d
00000140: be31 10bd 9960 fa3c d232 543d b71c fcbd
00000150: d7db e53d 4fcd 72bc f612 6dbd 37f8 903d
00000160: df64 593d 89cc 09be 88e5 3c3d a260 87be
00000170: ed54 9c3d 389a 15be ad33 1c3d 7e09 6dbb
00000180: 4013 023d 7485 71be 7225 a5be 13f5 ac3d
00000190: c517 3abe bbaf 32be 621a 0abe 81c4 443f
000001a0: ebb0 ecbd e868 aa3c 2762 003d e88e 883f
000001b0: 7086 f33c 349e 763e 8a3a 303e 5ffc 3b3e
000001c0: 1ca4 013f 6391 57bd e932 e3bd 5dff 30be
000001d0: 2ca9 1d3f 1023 8dbe 0f40 58be 45a9 31be
000001e0: 80ea 0b3d a4c2 3a3f f079 9a3e fe33 c23d
000001f0: cf2d 15bd 300d bebe 0369 30bc b568 953c

lstm.bias_hh_l0 f4 [128]
-0.11272369 -0.3716891 -0.33516207 0.26821527 -0.13063565 -0.029998118 -0.0006774392 0.6522424
-0.2572111 -0.003529618 0.061358124 0.82919437 -0.080617055 0.111238964 0.1763384 -0.058392894
0.42689016 0.16602018 -0.1874544 -0.0715718 0.32351035 -0.11968742 -0.12999794 -0.24948777
-0.1431089 0.43209347 0.23372357 0.24490175 -0.03801483 -0.046266176 0.11166928 0.019831395
0.11535164 -0.26475298 -0.20956643 -0.18552403 -0.12696648 0.21598451 0.14977627 0.1440444
-0.117785506 0.080829345 0.09684895 -0.54648226 0.044713046 0.3328479 -0.01890389 0.035298027
-0.09564826 -0.05701791 -0.09754186 -0.18052049 0.026924431 -0.10117716 -0.0034325954 -0.13405284
-0.05719849 0.40913257 0.16228947 0.20531167 -0.25890544 -0.11678879 -0.17818445 0.105486065
0.06457801 -0.108216 0.10020013 -0.14850157 0.12006668 0.01994469 0.04027318 0.07977416
0.024935316 0.08187582 0.050908685 -0.12454403 0.0040145293 -0.13389942 -0.022535838 -0.08099723
0.09490106 -0.0908019 -0.09392927 0.053583153 -0.11344704 -0.0430464 -0.037215475 -0.08617716
-0.051123146 0.12594603 0.012368955 0.07832968 -0.010828001 0.0589681 -0.15297244 0.011780637
0.053839557 -0.11932044 -0.30516508 0.19528782 -0.13985908 0.15895942 -0.01567528 1.0465981
-0.13842711 0.10804097 -0.08303035 1.0568187 -0.06092809 0.1871074 0.16262388 -0.011045744
0.58956015 0.117580704 -0.0056242687 -0.14331155 0.5662613 -0.21523133 0.0032303124 -0.20267132
-0.22338393 0.46361664 0.36982763 0.28775245 0.18785767 -0.10836659 -0.0029201151 0.16998903
00000000: aedb e6bd 094e bebe 5d9a abbe 8353 893e
00000010: 5ac5 05be 9dbe f5bc 2d96 31ba 5cf9 263f
00000020: 2cb1 83be 2a51 67bb a852 7b3d 1546 543f
00000030: 8e1a a5bd 41d1 e33d 0e92 343e 632d 6fbd
00000040: 5991 da3e 3201 2a3e 0cf4 3fbe 3c94 92bd
00000050: 26a3 a53e ae1e f5bd 2e1e 05be b979 7fbe
00000060: 248b 12be 5b3b dd3e 3b55 6f3e 86c7 7a3e
00000070: 70b5 1bbd 9a81 3dbd ddb2 e43d 7375 a23c
00000080: 7b3d ec3d b48d 87be 9598 56be 03fa 3dbe
00000090: 8003 02be 0b2b 5d3e f35e 193e 6080 133e
000000a0: 8739 f1bd db89 a53d be58 c63d 43e6 0bbf
000000b0: 0725 373d 0a6b aa3e 55dc 9abc aa94 103d
000000c0: 3ce3 c3bd 9d8b 69bd 07c4 c7bd 5dda 38be
000000d0: a090 dc3c f935 cfbd 65f5 60bb 2645 09be
000000e0: f748 6abd d379 d13e 362f 263e 393d 523e
000000f0: 418f 84be f62e efbd fc75 36be 1409 d83d
00000100: 7a41 843d 5aa0 ddbd ba35 cd3d cc10 18be
00000110: 85e5 f53d 0c63 a33c 7df5 243d a360 a33d
00000120: 2645 cc3c 83ae a73d a085 503d f110 ffbd
00000130: 508c 833b ee1c 09be 149d b8bc e0e1 a5bd
00000140: 7d5b c23d 59f6 b9bd fd5d c0bd 027a 5b3d
00000150: ec56 e8bd 6c51 30bd 416f 18bd a77d b0bd
00000160: 8166 51bd fff7 003e 28a7 4a3c 506b a03d
00000170: ee67 31bc 8988 713d cfa4 1cbe 9303 413c
00000180: de86 5c3d 465e f4bd 993e 9cbe 88f9 473e
00000190: 3837 0fbe 42c6 223e 7269 80bc edf6 853f
000001a0: d6bf 0dbe 9644 dd3d d10b aabd d645 873f
000001b0: bc8f 79bd 1599 3f3e e086 263e 35f9 34bc
000001c0: 6aed 163f 27ce f03d c94b b8bb 43c0 12be
000001d0: 80f6 103f 9a65 5cbe a6b3 533b 1289 4fbe
000001e0: c2be 64be 295f ed3e 0c5a bd3e 4a54 933e
000001f0: c35d 403e 4eef ddbd 675f 3fbb 9b11 2e3e

lstm.weight_ih_l1 f4 [128, 32]
-0.12360609 0.1830921 -0.25359344 -0.0512868 0.100312896 -0.15844667 0.031473305 0.27624893
0.28271213 -0.02095354 -0.2521537 0.50241226 -0.10440943 0.055288054 -0.13714877 -0.068066955
0.06346026 0.44979784 0.08023944 0.03051001 -0.26039398 0.2504732 0.20208035 -0.1501905
0.11930306 -0.12536824 0.035075586 0.4194577 -0.12810938 0.31507576 0.12174145 0.13442041
0.3871369 -0.0064693177 0.20654976 -0.24846812 -0.11470865 0.0014105435 -0.009577806 0.048922345
-0.20975451 0.09308642 0.14110975 -0.23260975 0.49464178 0.14964603 0.04552854 0.2601974
0.08518571 0.17969099 -0.27261406 0.256214 0.056460444 -0.27934894 -0.17483458 -0.15479065
-0.18572706 -0.25926694 0.3774839 0.059123866 0.28177583 -0.18616685 0.01670318 -0.061510637
-0.19780195 -0.36865848 -0.23419137 0.62204856 0.11731955 -0.005107892 0.33646658 -1.0239633
0.8328631 -0.49507734 0.43281436 1.0251167 0.062099192 0.5579656 -0.58236396 0.33620977
-1.0707359 -0.12797946 0.34524703 -0.3325041 -0.50268984 0.22938095 -0.106812246 -0.058110476
0.16237883 0.44296077 -0.26297694 0.48391727 -0.8041189 0.45033333 0.90920275 0.6840114
0.21782546 -0.09188107 0.19435473 -0.29620275 -0.2871724 0.6439192 -0.30658612 -0.643957
-0.18706827 0.33100846 0.35678175 0.6021809 0.5222504 0.36133888 -0.0069967965 0.26503852
-0.24726695 -0.080032095 -0.6769033 0.22387955 -0.9240696 0.2721726 -0.24278499 0.07586672
0.18482493 0.6954303 -0.015619799 -0.2933173 0.36376655 -0.02624784 -0.1568582 -0.3404249
-0.0077813664 -0.20150076 0.19937387 0.37300903 0.19827546 0.23074943 0.13650677 -0.20651242
-0.0073437905 -0.420096 -0.5593562 -0.16219352 -0.41892254 -0.40632495 -0.20478496 -0.24286336
-0.1288375 -0.6028288 0.4977744 -0.33059302 0.22081655 0.31223965 0.201815 0.28397244
0.07597871 0.18299977 -0.46529654 -0.38817587 -0.25069052 0.071121 0.27847978 0.16947687
-0.085464016 0.49839932 0.44126764 0.5861321 -0.20842944 0.2876236 0.21043788 -1.0109856
0.47938195 -0.33573282 0.11788625 0.37853274 -0.12695639 0.011951807 -0.19907965 0.68255097
-0.4550606 0.3770803 0.15481089 0.3785511 0.022907374 -0.29614988 0.21529657 -0.04176075
-0.21292038 -0.90434235 0.43843555 0.6593098 -0.36607492 0.061406545 0.6465323 0.5026792
-0.025021253 -0.011525805 0.2909698 -0.024528794 -0.34060872 0.26750594 0.054423556 -0.102152996
0.12173555 0.05775836 0.060130518 0.058125194 -0.43071875 -0.34933358 -0.25086817 0.17331806
0.21722077 0.031816065 0.41961044 0.12144192 -0.008738903 -0.11803779 0.36302668 -0.094407566
-0.06368306 -0.15944111 -0.023261681 -0.050840903 -0.09038207 -0.18221134 0.048986536 -0.26756987
0.2603401 -0.50564194 0.6531041 0.3002971 -0.285254 0.1293961 0.16577163 -0.44131514
-0.50712645 0.14081521 0.48242673 -0.43447605 0.029963363 -0.69898474 -0.2941028 0.3420094
0.22929415 -0.55843574 -0.061585907 -0.12098197 0.32453546 -0.12291832 0.12235548 0.17062694
0.13491441 -0.27313492 -0.0805044 0.005580932 -0.0442946 -0.24099411 -0.36267102 0.08517095
00000000: 3125 fdbd 7f7c 3b3e 00d7 81be 1c12 52bd
00000010: d970 cd3d d83f 22be 27ea 003d 8070 8d3e
00000020: a5bf 903e c2a6 abbc 4a1a 81be 179e 003f
00000030: 9cd4 d5bd ba75 623d ba70 0cbe b066 8bbd
00000040: 74f7 813d e74b e63e 9354 a43d 21f0 f93c
00000050: 5c52 85be 063e 803e 27ee 4e3e 8acb 19be
00000060: 2a55 f43d 8860 00be 6bab 0f3d 29c3 d63e
00000070: 1b2f 03be 9c51 a13e 9553 f93d 81a5 093e
00000080: cf36 c63e 92fc d3bb c881 533e 6d6e 7ebe
00000090: 5eec eabd fce1 b83a 3bec 1cbc cc62 483d
000000a0: e3c9 56be 18a4 be3d 137f 103e 4031 6ebe
000000b0: b041 fd3e cf3c 193e 227c 3a3d 9838 853e
000000c0: d875 ae3d ea00 383e 1294 8bbe 7b2e 833e
000000d0: 1143 673d d306 8fbe d607 33be 7181 1ebe
000000e0: 3c2f 3ebe a3be 84be 9245 c13e de2b 723d
000000f0: ec44 903e 86a2 3ebe 1bd5 883c 94f2 7bbd
00000100: 988c 4abe cec0 bcbe ddcf 6fbe 933e 1f3f
00000110: 3b45 f03d 1b60 a7bb 5945 ac3e 3b11 83bf
00000120: 8436 553f c77a fdbe d899 dd3e 0637 833f
00000130: b95b 7e3d d5d6 0e3f ce15 15bf b023 ac3e
00000140: e00d 89bf 0c0d 03be 38c4 b03e fa3d aabe
00000150: 48b0 00bf d7e2 6a3e 61c0 dabd 4005 6ebd
00000160: a346 263e c1cb e23e eaa4 86be 01c4 f73e
00000170: bcda 4dbf 1792 e63e 83c1 683f 5f1b 2f3f
00000180: a30d 5f3e 242c bcbd ed04 473e e3a7 97be
00000190: 4308 93be e4d7 243f dbf8 9cbe 5eda 24bf
000001a0: d38e 3fbe f179 a93e 19ac b63e 8728 1a3f
000001b0: 34b2 053f 6901 b93e 6245 e5bb 21b3 873e
000001c0: 8c33 7dbe dee7 a3bd 8949 2dbf ae40 653e
000001d0: d38f 6cbf 355a 8b3e a19c 78be 0360 9b3d
000001e0: bf42 3d3e b807 323f 2fea 7fbc af2d 96be
000001f0: 9c3f ba3e b605 d7bc 709f 20be 2c4c aebe
00000200: d5fa febb 3756 4ebe aa28 4c3e 0afb be3e
00000210: b908 4b3e 9449 6c3e 6ec8 0b3e fe77 53be
00000220: 2ea4 f0bb d316 d7be f831 0fbf 0f16 26be
00000230: 047d d6be d309 d0be 26b3 51be 2cb1 78be
00000240: faed 03be fd52 1abf 49dc fe3e 7d43 a9be
00000250: bc1d 623e e0dd 9f3e 97a8 4e3e d664 913e
00000260: ba9a 9b3d 4b64 3b3e 593b eebe fdbe c6be
00000270: 825a 80be e3a7 913d e794 8e3e 588b 2d3e
00000280: c207 afbd 322e ff3e d5ed e13e c10c 163f
00000290: 876e 55be 6743 933e 077d 573e fa67 81bf
000002a0: 8d71 f53e 2ce5 abbe 596e f13d 0bcf c13e
000002b0: db00 02be 83d1 433c 89db 4bbe a9bb 2e3f
000002c0: b4fd e8be ab10 c13e bf86 1e3e 73d1 c13e
000002d0: 3fa8 bb3c f5a0 97be b476 5c3e 520d 2bbd
000002e0: cd07 5abe fb82 67bf a07a e03e 87c8 283f
000002f0: 2c6e bbbe 6e85 7b3d 2483 253f 96af 003f
00000300: 5ff9 ccbc bbd6 3cbc fef9 943e 9cf0 c8bc
00000310: 4464 aebe 8af6 883e 3ceb 5e3d 9735 d1bd
00000320: 7d50 f93d 0894 6c3d 6b4b 763d af14 6e3d
00000330: 2b87 dcbe dadb b2be cb71 80be 4a7a 313e
00000340: 1f6f 5e3e 9051 023d 2ed7 d63e 8bb6 f83d
00000350: 9e2d 0fbc ccbd f1bd a2de b93e c158 c1bd
00000360: 446c 82bd 8844 23be 488f bebc 8d3e 50bd
00000370: 3c1a b9bd 9c95 3abe 1ba6 483d ebfe 88be
00000380: 4c4b 853e c071 01bf d531 273f 8bc0 993e
00000390: d00c 92be 6980 043e 0ac0 293e 0ff4 e1be
000003a0: 0ad3 01bf dd31 103e a300 f73e a573 debe
000003b0: ba75 f53c aaf0 32bf a494 96be db1b af3e
000003c0: 16cc 6a3e a5f5 0ebf 8141 7cbd 65c5 f7bd
000003d0: 8329 a63e 9abc fbbd 8395 fa3d d4b8 2e3e
000003e0: 0127 0a3e 57d8 8bbe 7edf a4bd 40e0 b63b
000003f0: 416e 35bd 29c7 76be 04b0 b9be 1b6e ae3d

lstm.weight_hh_l1 f4 [128, 32]
-0.036989216 0.54881996 0.03756901 0.4170366 0.042667672 -0.08468413 -0.018854879 -0.32254556
0.11736665 -0.2679505 0.01742503 -0.27465296 -0.098140225 -0.5040084 -0.044331994 0.17944616
-0.28397736 -0.09524668 -0.44962257 1.2783554 -0.455142 0.24940261 -0.10330945 -0.12221142
0.22571807 -0.5754829 0.63544935 -0.2548193 -0.07579116 -0.10967447 -0.13424972 -0.13410193
-0.08477336 0.0799513 -0.11894747 -0.33989567 0.154481 -0.053328045 0.36126626 -0.087395936
0.37260357 -0.30170384 0.18566126 -0.45223454 0.08906152 -0.544916 0.23691076 -0.7825072
0.3972418 -0.081056036 -0.18289198 0.21680816 -0.090503916 0.059774008 0.099225216 0.05390233
-0.277393 -0.7797221 0.14026688 0.44473815 0.015230202 0.42208192 -0.26261476 0.5394275
0.1396211 -0.5005561 0.19468535 0.5789182 -0.6136437 -0.377655 -0.014815788 0.20727403
0.111787364 -0.010833104 -0.16060302 -0.054043554 -0.87704825 -0.26679724 0.04904875 -0.39318904
-0.5660822 0.16723834 -0.30698222 0.3936007 0.1499662 -0.18130308 0.069524206 0.53698266
-0.104546465 -0.04500225 0.20153895 -1.0985296 0.06812314 -0.107711576 -0.07917509 -0.035403866
0.56152815 0.48478183 -0.059806287 -0.5143215 0.19691896 -0.11473292 0.077622555 0.03352285
-0.027796503 0.124014236 -0.6018786 -0.37460577 -0.4292355 -0.21355325 -0.17764686 -0.43538457
-0.2397654 -0.32574156 0.42035848 0.54543084 0.34086916 0.07576864 -0.63772744 -0.22242665
-0.016355515 -0.6256066 -0.219721 0.36268556 0.21693495 0.20787196 -0.9401882 0.6361867
0.29501933 0.347199 -0.7834511 0.19863789 -0.6920973 0.3702126 0.16564247 0.34611943
-0.59710956 0.48566285 -0.34498936 0.7519876 0.25986698 0.13296907 0.12659454 0.58618516
-0.011701695 -0.26259232 -0.27546895 -0.004229395 -0.13817276 0.31736138 0.2736743 -0.55778736
-0.29617608 -0.1727618 0.097838424 -0.18086872 0.034882948 -0.037909012 1.3498155 -0.8438788
-0.1249227 -0.053266466 0.23323283 -0.29097247 0.043848053 -0.4057921 -0.16761647 0.22950746
0.012835164 -0.4330662 -0.030003304 0.3679087 -0.11446665 0.14255068 0.07501265 -0.19740963
0.71377176 -0.20273526 -0.1775226 -0.1257994 -0.058587354 -0.2218532 0.06139499 0.3129859
-0.054484807 -0.8226259 0.37859085 0.22365525 -0.013239634 0.22210942 0.6504308 -0.21926749
-0.42481247 0.2407149 -0.034266837 -0.17102244 0.2872134 -0.4973519 0.03601006 -0.20761839
0.037376076 0.004102373 -0.06363169 0.066075906 0.25555754 -0.046785034 -0.03524075 -0.11251053
-0.14834854 -0.020824874 -0.44133383 0.29535967 -0.23326641 0.23087446 -0.7381534 -0.047548857
-0.106999956 -0.46445265 0.113590784 0.14878686 -0.0052822772 0.2983364 0.3007787 -0.031385876
0.8356601 0.652013 -0.3308323 -0.4618505 -0.16894141 0.31229666 -0.027905248 -0.38819945
0.07068814 0.034310512 -0.14688556 -0.40287796 -0.2514601 0.09804134 0.52512515 -0.05533026
0.20180073 -0.3352558 -0.24206683 0.12563547 -0.6717999 0.128162 -0.20768799 -0.30754068
0.024084425 -0.46398434 0.54961145 -0.21019322 0.3736352 -0.35375443 -0.25772366 0.32022658
00000000: 0182 17bd 777f 0c3f f6e1 193d d285 d53e
00000010: 4cc4 2e3d e06e adbd 8c75 9abc b124 a5be
00000020: ed5d f03d cf30 89be f0be 8e3c 509f 8cbe
00000030: befd c8bd b206 01bf 7795 35bd bcc0 373e
00000040: 7b65 91be b110 c3bd ee34 e6be 26a1 a33f
00000050: 5f08 e9be 6663 7f3e e893 d3bd fb49 fabd
00000060: a322 673e d952 13bf cfac 223f ad77 82be
00000070: 6538 9bbd 029d e0bd c278 09be 0452 09be
00000080: a89d adbd 82bd a33d bb9a f3bd ce06 aebe
00000090: 4430 1e3e 826e 5abd e4f7 b83e a4fc b2bd
000000a0: e5c5 be3e ed78 9abe fc1d 3e3e 498b e7be
000000b0: e365 b63d 9d7f 0bbf bc98 723e 6452 48bf
000000c0: 4763 cb3e b500 a6bd 0948 3bbe f502 5e3e
000000d0: 1e5a b9bd 97d5 743d 9736 cb3d b1c8 5c3d
000000e0: 7506 8ebe de9b 47bf 1fa2 0f3e b8b4 e33e
000000f0: 1988 793c 1f1b d83e 7175 86be ec17 0a3f
00000100: d5f8 0e3e 7224 00bf 995b 473e fc33 143f
00000110: c117 1dbf ff5b c1be ebbd 72bc a53f 543e
00000120: c6f0 e43d 557d 31bc 1e75 24be c65c 5dbd
00000130: 3c86 60bf a699 88be 58e7 483d 1350 c9be
00000140: c3ea 10bf 8740 2b3e c62c 9dbe 0886 c93e
00000150: bd90 193e 84a7 39be b562 8e3d b277 093f
00000160: 751c d6bd 4754 38bd 3a60 4e3e 9e9c 8cbf
00000170: 2584 8b3d e397 dcbd 8d26 a2bd a503 11bd
00000180: 4fc0 0f3f 5335 f83e 70f7 74bd 93aa 03bf
00000190: 20a5 493e 18f9 eabd 93f8 9e3d 424f 093d
000001a0: 7eb5 e3bc 2dfb fd3d b714 1abf 54cc bfbe
000001b0: c1c4 dbbe b4ad 5abe 0fe9 35be baea debe
000001c0: 1085 75be 99c7 a6be 3a39 d73e 5ba1 0b3f
000001d0: 6786 ae3e 972c 9b3d 1b42 23bf d0c3 63be
000001e0: 00fc 85bc c127 20bf 8bfe 60be ecb1 b93e
000001f0: 3224 5e3e 63dc 543e 2db0 70bf 22dd 223f
00000200: c60c 973e 11c4 b13e 4090 48bf bb67 4b3e
00000210: 4a2d 31bf 828c bd3e 2e9e 293e 9136 b13e
00000220: 2cdc 18bf cda8 f83e 72a2 b0be 4282 403f
00000230: 490d 853e 0b29 083e 00a2 013e 3b10 163f
00000240: 77b8 3fbc 8072 86be 440a 8dbe bd96 8abb
00000250: 297d 0dbe 317d a23e 0a1f 8c3e 27cb 0ebf
00000260: 64a4 97be 78e8 30be 835f c83d a635 39be
00000270: 6ce1 0e3d 7b46 1bbd c1c6 ac3f 7108 58bf
00000280: 79d7 ffbd f02d 5abd 96d4 6e3e 58fa 94be
00000290: 049a 333d fbc3 cfbe a7a3 2bbe 0104 6b3e
000002a0: 944a 523c daba ddbe 7dc9 f5bc 875e bc3e
000002b0: 7e6d eabd cef8 113e 3ba0 993d c025 4abe
000002c0: bfb9 363f d599 4fbe 7cc8 35be 8fd1 00be
000002d0: 4bf9 6fbd 7c2d 63be 5079 7b3d b03f a03e
000002e0: 762b 5fbd 9c97 52bf a9d6 c13e e205 653e
000002f0: 0deb 58bc a770 633e a282 263f a887 60be
00000300: 0581 d9be f77d 763e 625b 0cbd 8220 2fbe
00000310: a20d 933e e9a4 febe 497f 133d ea99 54be
00000320: a817 193d 336d 863b 5551 82bd ce52 873d
00000330: 70d8 823e aaa1 3fbd 9b58 10bd ec6b e6bd
00000340: aee8 17be ed98 aabc 82f6 e1be 6239 973e
00000350: 64dd 6ebe 5b6a 6c3e 9ff7 3cbf 97c2 42bd
00000360: cb22 dbbd bdcc edbe 49a2 e83d 955b 183e
00000370: f416 adbb 8cbf 983e aaff 993e 7a8e 00bd
00000380: d2ed 553f 53ea 263f da62 a9be ab77 ecbe
00000390: fafe 2cbe 59e5 9f3e 8c99 e4bc 14c2 c6be
000003a0: f2c4 903d 2e89 0c3d 2b69 16be 0546 cebe
000003b0: 61bf 80be e6c9 c83d 9a6e 063f fca1 62bd
000003c0: daa4 4e3e a6a6 abbe 5ee0 77be 96a6 003e
000003d0: 14fb 2bbf e63c 033e 29ac 54be f975 9dbe
000003e0: b34c c53c 5b8f edbe 56b3 0c3f e43c 57be
000003f0: 1d4d bf3e 4d1f b5be 5bf4 83be bdf4 a33e

lstm.bias_ih_l1 f4 [128]
-0.20491356 0.057563845 0.1611012 0.04514515 0.0913148 0.08983479 -0.012263931 0.0072765737
-0.23648916 0.07827513 0.0045568882 0.007593797 0.021783214 0.007584161 0.07826854 0.17168492
0.1630764 0.31512862 0.005822369 0.27544367 0.32804412 0.2721653 0.035227712 0.12526976
0.05588948 0.5293613 0.08865635 -0.09821963 0.19362177 0.26167995 0.1559152 -0.091320716
0.019389706 -0.11125454 -0.2315872 0.08797206 0.0805287 -0.06284191 0.03373362 0.08794382
0.02670297 0.11007795 0.18103372 0.06867662 -0.22240673 0.16152065 0.066841654 0.035350233
-0.15403244 -0.05522871 0.19744079 -0.8229726 -0.012086389 0.0066966396 0.040971193 0.051345687
0.18762147 -0.28766593 -0.2985707 -0.18903816 -0.0855179 -0.10605236 -0.14723714 -0.28663093
0.039775785 -0.13952838 0.009954372 -0.09824204 0.11264074 0.11083581 -0.14585096 0.095735535
-0.13323627 0.1707713 -0.006941032 0.012094894 -0.028545694 -0.103240974 -0.117296934 0.0548537
0.06993847 -0.02796111 -0.006530837 -0.12871242 0.033958968 -0.09876261 0.054894928 0.034972135
-0.13038999 -0.094527654 -0.17558052 0.03749588 0.06328978 0.0054105013 0.15606341 0.026920015
-0.0065405187 -0.05615015 0.4752885 0.031156156 -0.06895716 0.23029871 -0.24849948 0.018284865
-0.06415185 -0.0073778206 0.087370455 -0.04460137 -0.15854798 0.16658254 0.24508663 0.300842
0.24255015 0.25237316 0.2568036 0.17152238 0.19765826 0.23153958 0.15785718 0.1080564
0.09347418 0.39872336 0.22963405 -0.034296766 -0.1016536 0.30932713 -0.054880466 0.092120245
00000000: dcd4 51be 11c8 6b3d b7f7 243e 1fea 383d
00000010: 4103 bb3d 4dfb b73d a8ee 48bc 5370 ee3b
00000020: 372a 72be b64e a03d f351 953b 63d5 f83b
00000030: b672 b23c 8e84 f83b 424b a03d 2cce 2f3e
00000040: 80fd 263e 8a58 a13e 92c9 be3b f406 8d3e
00000050: 66f5 a73e 4059 8b3e ef4a 103d b746 003e
00000060: 5eec 643d 3984 073f 7691 b53d 6027 c9bd
00000070: c944 463e eafa 853e 3ca8 1f3e 5b06 bbbd
00000080: 29d7 9e3c 6cd9 e3bd 3225 6dbe b22a b43d
00000090: 3bec a43d 42b3 80bd 442c 0a3d e41b b43d
000000a0: 30c0 da3c 8c70 e13d e760 393e 54a6 8c3d
000000b0: 97be 63be ab65 253e 47e4 883d 68cb 103d
000000c0: aeba 1dbe 8037 62bd eb2d 4a3e 55ae 52bf
000000d0: fd05 46bc 7c6f db3b 69d1 273d db4f 523d
000000e0: d81f 403e f348 93be 42de 98be 3893 41be
000000f0: 0224 afbd fb31 d9bd 55c5 16be 4ac1 92be
00000100: efeb 223d 87e0 0ebe aa17 233c 1f33 c9bd
00000110: 30b0 e63d e3fd e23d f459 15be fe10 c43d
00000120: 176f 08be acde 2e3e 9971 e3bb aa29 463c
00000130: a9d8 e9bc 0170 d3bd 6039 f0bd 46ae 603d
00000140: e73b 8f3d b30e e5bc a200 d6bb 30cd 03be
00000150: 8f18 0b3d 0d44 cabd 81d9 603d f13e 0f3d
00000160: f484 05be b797 c1bd 61cb 33be 4895 193d
00000170: 129e 813d 934a b13b 16cf 1f3e 5d87 dc3c
00000180: d951 d6bb b3fd 65bd 0459 f33e 323b ff3c
00000190: 6939 8dbd 6dd3 6b3e a676 7ebe 24ca 953c
000001a0: 0c62 83bd a5c1 f1bb 48ef b23d edaf 36bd
000001b0: 675a 22be 9d94 2a3e fdf7 7a3e f607 9a3e
000001c0: 115f 783e 0e37 813e c37b 833e 90a3 2f3e
000001d0: ed66 4a3e b618 6d3e 50a5 213e ad4c dd3d
000001e0: 646f bf3d 7825 cc3e 3025 6b3e c47a 0cbd
000001f0: c32f d0bd 2060 9e3e 57ca 60bd 8aa9 bc3d

lstm.bias_hh_l1 f4 [128]
-0.042608544 0.12344443 0.16798882 0.11751893 0.04766649 0.33915576 0.063535705 0.04491334
0.021416724 0.23896825 -0.027768305 -0.06746542 0.24209327 -0.10771134 0.06094546 0.12996185
0.29641557 0.4540417 -0.11401626 0.20150122 0.3353742 0.11864264 0.013151489 0.2589356
0.19362463 0.39863497 -0.100605674 0.08351473 0.07459082 0.0057657245 0.13511123 -0.16203247
0.09267605 -0.10215925 -0.2071127 0.08100124 -0.02800718 -0.08415161 0.0077379625 -0.1366961
-0.20239303 0.025149383 0.15818495 -0.124051794 -0.18577725 0.26174366 0.11553024 0.17182262
-0.16897403 -0.01898601 0.023762131 -0.7345831 -0.07340687 -0.05158178 -0.1261071 -0.15919666
0.32716057 -0.25649062 -0.22598396 0.09321929 -0.052500933 0.014335943 -0.44429922 0.030797042
-1.844498e-05 -0.13565442 -0.16699235 0.03245071 0.044416584 0.048077118 0.008783604 0.07717768
0.06476714 -0.10721466 0.063323 0.055580612 0.056810323 0.12566109 0.17858526 -0.07294145
0.025329527 -0.045665108 0.14181645 -0.21935841 -0.05267281 0.04671651 0.026228935 -0.058986284
0.08566755 -0.03480455 0.090859056 -0.074400045 0.044550333 0.006107388 0.020276297 -0.13825399
-0.33196086 0.1202949 0.23557377 0.22807124 0.119297065 -0.010353363 -0.2722862 0.1103205
-0.29725096 0.20017758 -0.09133465 -0.23923863 -0.10560028 0.1536654 0.15315711 0.26819652
0.19896199 0.4102043 0.25817412 0.1791195 0.1578448 0.21105279 0.1365637 -0.061867163
0.10688922 0.37752426 0.14848578 0.012420193 0.12402544 0.12417162 0.17276469 0.10946213
00000000: 4c86 2ebd 6fd0 fc3d 4305 2c3e c4ad f03d
00000010: f03d 433d d3a5 ad3e 021f 823d 0df7 373d
00000020: 2072 af3c 18b4 743e 5b7a e3bc 4f2b 8abd
00000030: 4ce7 773e c397 dcbd f2a1 793d b814 053e
00000040: c8c3 973e 2778 e83e 5b81 e9bd 5656 4e3e
00000050: 2bb6 ab3e eafa f23d 5879 573c 3593 843e
00000060: 8945 463e e219 cc3e 590a cebd c509 ab3d
00000070: 12c3 983d 67ee bc3b 995a 0a3e d7eb 25be
00000080: f1cc bd3d de38 d1bd 5a15 54be fae3 a53d
00000090: 506f e5bc ae57 acbd bc8e fd3b 10fa 0bbe
000000a0: 1e40 4fbe 1406 ce3c 3cfb 213e de0e febd
000000b0: 643c 3ebe 4403 863e 1e9b ec3d 45f2 2f3e
000000c0: 8707 2dbe 8d88 9bbc cda8 c23c a30d 3cbf
000000d0: 5756 96bd 6b47 53bd 3822 01be 7304 23be
000000e0: 9781 a73e bd52 83be 5768 67be c1e9 be3d
000000f0: 380b 57bd 4ee1 6a3c 307b e3be 144a fc3c
00000100: 4bba 9ab7 fee8 0abe 0b00 2bbe 09eb 043d
00000110: 2aee 353d 83ec 443d 1be9 0f3c 550f 9e3d
00000120: a2a4 843d 5c93 dbbd 7daf 813d 7fa8 633d
00000130: f1b1 683d 4dad 003e 0edf 363e 5462 95bd
00000140: de7f cf3c 560b 3bbd 5538 113e 7e9f 60be
00000150: 72bf 57bd d059 3f3d 10de d63c 9a9b 71bd
00000160: 7872 af3d 378f 0ebd 5014 ba3d 0d5f 98bd
00000170: 697a 363d 7c20 c83b 7a1a a63c 7492 0dbe
00000180: c6f6 a9be 2c5d f63d 403a 713e 828b 693e
00000190: 0552 f43d 27a1 29bc 1969 8bbe b7ef e13d
000001a0: 4731 98be 5afb 4c3e a90d bbbd f9fa 74be
000001b0: f644 d8bd 765a 1d3e 38d5 1c3e 0e51 893e
000001c0: b1bc 4b3e 4c06 d23e 662f 843e 1a6b 373e
000001d0: 11a2 213e 391e 583e 5bd7 0b3e 6c68 7dbd
000001e0: bce8 da3d dc4a c13e a80c 183e 117e 4b3c
000001f0: 0d01 fe3d b14d fe3d 3ae9 303e ae2d e03d

fc.weight f4 [1, 32]
-0.008994682 -0.0403944 0.048775066 -0.07552182 -0.046480153 0.06905909 -0.08434481 0.0638069
-0.079960756 0.04030666 0.0020814256 0.06969933 -0.040645633 -0.024460498 -0.045242473 0.048735436
-0.07781168 0.075057484 0.07681636 -0.026469978 0.04463785 -0.009711773 0.1097215 0.06674111
-0.0065960344 0.13277572 -0.08957873 -0.09728535 0.043937583 0.018769834 0.04986568 0.03596524
00000000: 6e5e 13bc 9974 25bd 5dc8 473d 2fab 9abd
00000010: f961 3ebd da6e 8d3d f9bc acbd 31ad 823d
00000020: 77c2 a3bd 9918 253d 8768 083b 86be 8e3d
00000030: 097c 26bd 6261 c8bc 2c50 39bd cf9e 473d
00000040: bb5b 9fbd bdb7 993d e551 9d3d 91d7 d8bc
00000050: 2ed6 363d 211e 1fbc aab5 e03d 90af 883d
00000060: 8c23 d8bb 5cf6 073e 0e75 b7bd 8b3d c7bd
00000070: e5f7 333d 32c3 993c f53f 4c3d 4a50 133d
