time_series_intro_class/final_project/temp/two_layer_50_hidden_32/model_epoch_1900.pth (torch, 53667 bytes, 9 tensors)

lstm.weight_ih_l0 f4 [128, 1]
00000000: 5acb 853f 04df 1c3f bdec 0dbf a9c8 90bf
00000010: b19e 27bf 974a 6dbe f782 c1bf 8786 363e
00000020: eca0 93be fbcc 223f c69a 32bf a65a 89bf
00000030: f358 92bf 6076 4b3f b6d0 36bf 359c 703e
00000040: ae9b 82bf df63 3ebe d213 67bf 3577 853f
00000050: 8982 283f a140 07bf c2d5 e8bf 7d97 9fbf
00000060: 2db6 d6bf 4f27 d4be 3b29 58bf 2034 afbe
00000070: a47d 25c0 48a0 1cbe 9be6 76bf 26d8 d4bf
00000080: 2c48 ad3e c317 93bf 67ab 643e 343f 4bbf
00000090: fdb0 2dbf efea 393e 7329 2cbf c696 783f
000000a0: fd3c 80be 7ab1 6f3e 2e4f 1dbf 8d6c 263e
000000b0: 0d1a b2be d4ac 4abf 8a1f 7fbf e0de d33f
000000c0: 3bea 61bf 1ba7 823f 8ea3 2e3e 042a 74bf
000000d0: 338d aabf 3352 8abe bd7b 82bf 59ba 2bbf
000000e0: 17ff 3b3e c318 dd3d 37f2 d4bf a5f5 d73f
000000f0: daf4 a8bf a3f8 d4be d73d d83b 8602 b9be
00000100: 68fe 2fbe 2cf6 e13d 908d d53d 8686 f03f
00000110: 77be 4cbf 21ea d83e 5761 9c3f 0c28 13c0
00000120: 7140 e43e 4ddc 12bf b1a4 97bf f93f fe3f
00000130: 3c67 94bf 5503 cfbe 5494 0dc0 00f9 be3f
00000140: 20c4 d2bf 00b8 f2bf 8cc4 b93f 1016 26bf
00000150: b4a5 553e 82e0 083f 6f11 c03f 8082 7c3f
00000160: ac44 883d 4745 f63f 9835 10c0 1762 1abf
00000170: 5e35 f2bf a89c 6b3e efa4 7a3f d207 d23f
00000180: 2b44 f33e 2afb 0fbf f24c 61be 3a5a a9bf
00000190: 4e1a 8bbf 87e7 913d 511c b4bf adea 91bc
000001a0: f0d9 02bf e377 9a3e 28fb c3bf 6175 15bf
000001b0: dc81 87bf e53b 3cbe 4db7 85bf 882f ae3f
000001c0: 2353 02bf 3345 913e f878 e4be 21fd cdbe
000001d0: 0d86 33be be70 43bf d6a1 f2bf 7a96 97bf
000001e0: ac89 4ebf 8012 3ebe be66 01c0 ad3a c93f
000001f0: 39c9 3bc0 124a 0abf a6f6 2cbf 6380 f8bf
1.0452683 0.61277795 -0.5543936 -1.1311237 -0.6547652 -0.23172985 -1.5118092 0.17824756
-0.2883371 0.63594025 -0.69767416 -1.0730789 -1.1433395 0.794775 -0.7141222 0.23497088
-1.020376 -0.18592785 -0.9026462 1.0427004 0.6582418 -0.5283299 -1.8190234 -1.2468106
-1.6774346 -0.4143624 -0.8443791 -0.34219456 -2.5857935 -0.15295517 -0.96445626 -1.6628463
0.33844125 -1.1491627 0.2233101 -0.79393315 -0.6784819 0.18156026 -0.67250746 0.9710506
-0.2504653 0.23407546 -0.61448944 0.16252346 -0.347855 -0.79169965 -0.996575 1.6552391
-0.8824803 1.0207247 0.17054579 -0.9537661 -1.332434 -0.27015838 -1.0194012 -0.6708122
0.18359028 0.107957385 -1.6636418 1.687184 -1.3199723 -0.41595945 0.0065991688 -0.36134738
-0.17186892 0.11033282 0.104273915 1.8791053 -0.79978126 0.42366126 1.2217206 -2.2993193
0.44580415 -0.573674 -1.1847135 1.9863273 -1.1594005 -0.4043223 -2.2121782 1.4919739
-1.6466103 -1.8962402 1.4513106 -0.64877415 0.20863992 0.5346757 1.500532 0.9863663
0.06653723 1.9239892 -2.253271 -0.60305923 -1.8922536 0.23008978 0.9790792 1.6408637
0.47512946 -0.5624262 -0.22002009 -1.323066 -1.0867403 0.071242385 -1.4071141 -0.017812097
-0.51113796 0.3016959 -1.5311022 -0.5838223 -1.0586505 -0.18382223 -1.0446564 1.3608255
-0.50908107 0.28373107 -0.44623542 -0.40232185 -0.17531605 -0.76343906 -1.8955638 -1.1842797
-0.8067882 -0.18561745 -2.021896 1.5721031 -2.9341567 -0.5401927 -0.67563856 -1.941418

lstm.weight_hh_l0 f4 [128, 32]
00000000: e7ba 453e 4e05 6c3e 72bf 6ebe df38 debd
00000010: 4b1f 2fbe 3a72 a5bd b106 533d 460f 16be
00000020: 6e4d c1be 40ed a93e 3139 96bd f609 ad3e
00000030: 04d6 293d 1b4e d03e 9f92 923c 8407 aa3c
00000040: 28e7 c0bd 54f7 023f 6eec adbe 3f5e a83d
00000050: 6a1b 51be ca8b 073e 4f3b 1cba ecb3 06be
00000060: 6770 5fbe 2c69 c3be 5f71 173e 7b2c aa3e
00000070: ede9 303e db93 d6bd 49f0 2fbe e12a 9ebe
00000080: 3609 28be c882 6cbe 0282 d83e b59d 603e
00000090: 4fdd adbd cfa2 06be 2a22 313f b4e8 a9be
000000a0: a3e2 f13d 97eb 94be 67aa ac3d c64f 743d
000000b0: 0861 dabc b970 7ebb f92a 60be 7e6e 963d
000000c0: ffbe d63d d86a 40be db78 033f 4fa1 e6bd
000000d0: e64f 503e 836a aa3e 1a8b 313e dbe6 f43e
000000e0: 1626 923e 1c23 aa3e 4840 e8bd b987 563e
000000f0: 2c77 17bf d9aa 33be 43b9 1d3f 4ae5 d63e
00000100: 8276 063e 0da3 a9bd 8c72 9abe 354a 183c
00000110: 238e 98bc 599d 1cbe 02f6 fdbe 5668 433e
00000120: 7361 ff3c 9c56 123e 942d b1bd b334 37bf
00000130: db9c bc3d f645 093f c2d7 4abc 5db5 a5be
00000140: 54c7 d4be 2e60 293f 0899 dfbe 7f1e 913e
00000150: 3db3 15bf 65f4 083e 307c 9cbd 5c98 04bf
00000160: 6316 b4be 7262 83bd aa0d 13be dcf4 3b3e
00000170: 95bf 923e 8a43 8c3e 9bcc aa3e ddbb 3abf
00000180: 82b4 a73e 7582 803c 9633 2ebd 9c3f ebbd
00000190: a7df 06be 37ed d13e 447d 2abe b975 92bd
000001a0: b1ec 93bd 491b 493e 146a 6fbd a265 e23e
000001b0: 7fa2 9f3c 0ffb 20be 3f1c 173f bc6e 4c3e
000001c0: a6fd d73e 7234 233d c1af 66be 42f2 b83e
000001d0: 1806 a03d 1058 a1be b27b 5d3e 3999 cf3c
000001e0: 01d0 e13e 1f2e 6bbd 13ea f23e 5f04 acbd
000001f0: e309 f23d 4cf4 2ebe 3c07 e4bc 2400 2e3d
00000200: 177b ae3e 60ef 923e 5bc7 af3e 17b8 293e
00000210: 24a2 aebe 6e1f 9cbd 59e3 303e fa65 17be
00000220: ef83 b9be ab5e 863e dc1c 45bd c314 05bf
00000230: 8202 20be 51e7 38be 1751 013e bc48 d53e
00000240: 130f b93c 91e1 0fbe 0e9d f13c d7f2 b53d
00000250: 09be a33d c396 c7bd cc65 233e 30f3 bebd
00000260: c0dd 46be c274 b0be 636d b73d ee13 e3bd
00000270: 0652 0abd 5760 49be f35a 2cbd f44b 0b3d
00000280: 5e62 033f 00a0 debd 25ce 953e 6974 33be
00000290: f264 afbe ddab 6b3e 8f04 a33e 985e cd3e
000002a0: 4e52 14bf f98d e13e 8213 083c dff4 c9be
000002b0: 2eec ce3d 0bc0 14bf 4cf0 71be 9ade 05be
000002c0: 58f1 f93e dd44 66bd ba51 c33d 8285 5cbd
000002d0: ed40 f03e fb45 0bbe 38aa edbd 2da7 cb3e
000002e0: 2713 96bd 9f8b bfbd de94 0abe a5b3 01bf
000002f0: 7869 c13d c99d e4be 76d3 40bf 1ada 00bf
00000300: dc6a dc3e 5557 073e b110 673e 890e 4a3e
00000310: 39cb 9abe f62e be3e 730f 75be 62cc e3be
00000320: 2504 a43d 3125 0e3e a454 65be 2a89 2e3f
00000330: f6a1 08be 356f 9fbd d3dc a63d 9c40 b53c
00000340: edb2 9a3d d2cc 423e fe43 4cbc bdab ae3e
00000350: e893 33be c9c6 733e be57 36bd 4e14 8ebd
00000360: 42e4 9d3d 8a3a f4bc 0520 863e 6409 0bbf
00000370: 324a 1f3d f48a 3a3e 7410 7e3d f9ce 36be
00000380: c9ff 4d3f e46f 3dbe 053a 203f f8ba 23bf
00000390: b36b e2bd ac26 3c3f 3023 99bd db2a 063d
000003a0: c45e 74bf 3fe6 c23e 10ba 103f 3f36 06be
000003b0: 5bee fb3e cce8 aabf e246 373f aedf ec3e
000003c0: fcc9 883f eef8 35bf f513 4a3b 427b 8e3d
000003d0: 1e59 1a3f f262 86bf 063f 25bf 1d17 bebe
000003e0: 5db3 2bbf 5fc6 09be fd1d 9c3f 3bba 88bf
000003f0: 1636 7f3f 2c1f 50bf 3845 42bf 3832 b4be
0.19309579 0.23048899 -0.23315218 -0.10850691 -0.17101781 -0.080784276 0.051520053 -0.14654264
-0.37754387 0.3318882 -0.07335127 0.33796662 0.041463867 0.4068459 0.01789218 0.020755537
-0.094190896 0.5115864 -0.33969444 0.08221101 -0.20420614 0.13236919 -0.00059597654 -0.13154572
-0.21820222 -0.38166177 0.14789341 0.3323706 0.17276736 -0.1047742 -0.17181505 -0.3089209
-0.16409764 -0.23096764 0.42286688 0.2193516 -0.08489477 -0.13148044 0.69192755 -0.3318535
0.11810806 -0.2908599 0.08430939 0.05964639 -0.026657596 -0.0038824512 -0.21891393 0.073452935
0.10485648 -0.18790758 0.51356286 -0.11261236 0.20342979 0.33284387 0.1733822 0.4783238
0.28544682 0.3322991 -0.11340386 0.20950212 -0.59166217 -0.17545642 0.6161081 0.4197181
0.13131145 -0.082830526 -0.30165517 0.009295036 -0.018622464 -0.15294398 -0.49601752 0.1908277
0.031174397 0.14290851 -0.086512715 -0.7156479 0.09209605 0.53622377 -0.012380542 -0.32364932
-0.41558325 0.66162384 -0.4367144 0.2834358 -0.5847662 0.13374479 -0.076408744 -0.5179498
-0.3517333 -0.06415261 -0.14360681 0.18355125 0.2866179 0.27395278 0.33359227 -0.72942907
0.32754904 0.015687207 -0.042529665 -0.11486742 -0.13171254 0.41001293 -0.16649348 -0.0715136
-0.0722288 0.19639315 -0.058450773 0.44218165 0.019486664 -0.15720771 0.59027475 0.19964117
0.42185706 0.039844938 -0.22527982 0.36122328 0.07813662 -0.315125 0.21629217 0.025341617
0.44104007 -0.05741703 0.4744421 -0.08399271 0.11818292 -0.1708538 -0.02783548 0.042480603
0.34078285 0.28698254 0.34331784 0.16574131 -0.34108078 -0.07623182 0.17274226 -0.14784995
-0.3623347 0.262441 -0.048123226 -0.51984805 -0.15625957 -0.1805699 0.1262859 0.41657054
0.022590196 -0.1405089 0.029493835 0.08884209 0.07995231 -0.097455524 0.15956801 -0.09323728
-0.19420528 -0.3446408 0.08956411 -0.11087786 -0.03376963 -0.19665657 -0.042078923 0.03400798
0.5132197 -0.10870361 0.29258838 -0.17524876 -0.34256703 0.2301478 0.31839415 0.40111232
-0.57938087 0.4405363 0.008305432 -0.39444634 0.101036415 -0.58105534 -0.23626822 -0.13073197
0.48816943 -0.056218017 0.095370725 -0.05383826 0.46924534 -0.13600914 -0.11604732 0.39775982
-0.07327872 -0.093528025 -0.13533351 -0.5066474 0.09443945 -0.4465163 -0.75322664 -0.50332797
0.43050277 0.13216908 0.22564961 0.19732107 -0.30233172 0.37145203 -0.23931675 -0.4449187
0.08008603 0.13881375 -0.22395569 0.68178046 -0.13343033 -0.07784883 0.081475876 0.022125535
0.07553659 0.19023445 -0.0124673825 0.341154 -0.1753689 0.238063 -0.04451727 -0.069374666
0.07709552 -0.02981307 0.26196304 -0.54311204 0.038889118 0.18217069 0.06202741 -0.17852391
0.8046842 -0.18499714 0.6258853 -0.63957167 -0.11055698 0.7349651 -0.074774146 0.032755714
-0.954571 0.3806629 0.5653391 -0.1310663 0.49205288 -1.3352294 0.71592534 0.46264404
1.0686641 -0.7108296 0.003083465 0.06957103 0.6029223 -1.0498946 -0.6454929 -0.3712701
-0.6707056 -0.13454579 1.2196652 -1.0681833 0.99691904 -0.81297565 -0.7588687 -0.35194564

lstm.bias_ih_l0 f4 [128]
00000000: b5c5 bcbc 3ea3 90be d5d7 b8be 17eb 123e
00000010: c13b 563c 661e 983d 3135 433d 43a2 353f
00000020: 7a90 b9bd 2ac5 073e e92f 923b 38bc 773f
00000030: a07f afbc 0ae6 393e 3639 f63d f381 27bd
00000040: b601 ff3e b5da 40ba 6bbf 04bd 12a4 60be
00000050: f44a b13e 3fb9 e5bb 6ab0 35be b76e 713d
00000060: d3b3 56bd 3faa 1f3f bbbb 053f 7703 8a3e
00000070: e845 de3c 0017 92bd 0120 f2bd 34f5 6e3d
00000080: c727 a8bb 13e2 b2bb 331b 143d c774 0cbe
00000090: bbc2 713d fb08 94bd 87bc ca3c d3f1 1f3e
000000a0: fe50 90bd 27ea 7e3c 7746 2b3e e2c7 19bf
000000b0: 23af b0bd 41cc 0d3d eba7 0dbe 732b da3c
000000c0: 8c0f 0c3c f020 323e 3cc5 38be 7b1a e6bd
000000d0: fc09 c13d 4f97 cabd d0e4 82be 02e5 dfbd
000000e0: a2ee 82bd 38b9 533e 8109 e83d 7685 b63d
000000f0: ea05 7abe 8d62 89be 55ae 7bbd 9d84 e23d
00000100: 9473 23bb a947 b23d 3e17 0cbd f81e 8f3d
00000110: ba7a 39bc 2cce 0fbd fece 4dbd 7dce 1cbd
00000120: 4bfa a9bd b776 233c c30e e83b 5fff 1b3d
00000130: 0829 8f3d 1fcc 3b3d 6b0c 2c3d 6f30 a93d
00000140: 7d77 13bd 093d fd3c 3cd5 553d 34f8 f4bd
00000150: 8ad5 e33d ab93 d3bc 5526 74bd f038 913d
00000160: b180 563d c043 08be 23d8 2d3d 21e8 87be
00000170: aab1 a53d c618 15be ab44 0b3d 06bc 96bb
00000180: 6d7a 1a3d 310e 45be 28e3 8cbe 93e0 ca3d
00000190: 1dc0 13be ed43 27be a5a5 efbd 209d 413f
000001a0: 7dd9 c4bd 3f22 f13c d3b6 253d 0aa6 863f
000001b0: 3e60 583d 5893 773e ac00 3b3e 2b2f 453e
000001c0: b71b 023f ce85 30bd b5c4 acbd 23f3 20be
000001d0: 81ec 1d3f f25f 82be 92c7 48be 16d1 14be
000001e0: a81c 703d f879 3a3f 1da8 983e c6df c03d
000001f0: 203b cbbc 3069 aabe 3de8 91ba f931 d83c
-0.023043493 -0.28249544 -0.36102167 0.14347492 0.01307577 0.07427673 0.04765815 0.70950717
-0.0906076 0.13258806 0.0044612777 0.96771574 -0.021423161 0.18154159 0.12022631 -0.040895414
0.49805993 -0.00073568086 -0.032409113 -0.21937588 0.34627497 -0.0070106084 -0.17743078 0.058943477
-0.052417587 0.6236915 0.5223958 0.26955768 0.027132943 -0.07133293 -0.118225105 0.058339313
-0.005131695 -0.005459079 0.03615875 -0.13716422 0.0590236 -0.072282754 0.0247481 0.15619592
-0.07046698 0.015558756 0.16726099 -0.6007062 -0.08627155 0.03461862 -0.13833587 0.026632046
0.008548629 0.17395377 -0.18043989 -0.112355195 0.094257325 -0.09892141 -0.25565195 -0.10932352
-0.06393172 0.20676124 0.11329938 0.089121744 -0.24416319 -0.26833 -0.061445553 0.1106045
-0.0024940716 0.08705074 -0.034201853 0.06988329 -0.011320764 -0.03510873 -0.05024623 -0.03828286
-0.08299693 0.009977034 0.007081838 0.038085338 0.06990248 0.045848962 0.04200403 0.08261191
-0.036002625 0.030912893 0.05220531 -0.119614035 0.11124714 -0.02582725 -0.05960687 0.07090938
0.052368823 -0.13307095 0.042442452 -0.26544288 0.08090527 -0.14560232 0.034001034 -0.004600051
0.03771441 -0.19243695 -0.27517056 0.099061154 -0.14428754 -0.16334505 -0.11701516 0.7563038
-0.09611795 0.029435275 0.040457558 1.0519421 0.05282616 0.24177301 0.18261975 0.19256274
0.5082354 -0.043096356 -0.084359564 -0.1571775 0.61689 -0.25463825 -0.1960738 -0.14532885
0.05862108 0.7284236 0.2981576 0.094176814 -0.024808466 -0.33283377 -0.0011131834 0.026391016

lstm.bias_hh_l0 f4 [128]
00000000: 570b d8bd 6ef3 a7be 8f8f 91be 0a36 8f3e
00000010: 4040 bfbd 4a27 91bc 4799 8a3c 06c3 263f
00000020: 7f57 74be 3487 d43b 569c 873d e879 523f
00000030: c933 6cbd 80c1 e73d 00b2 403e ce17 49bd
00000040: bfd8 dc3e 8202 333e 042c 25be 4be0 65bd
00000050: a17f a73e d7e4 c9bd 6e84 eebd e1bd 63be
00000060: 6aca d4bd da62 df3e ef35 683e f0b4 7c3e
00000070: 7894 dbbc d29d 96bb b32f f83d b395 de3c
00000080: 3fd6 e43d e5f1 7abe e2f0 47be 53a3 3dbe
00000090: 3dba 03be c09b 543e 6c26 1b3e 7057 0c3e
000000a0: 54fa ecbd e915 a33d 29cf ad3d b740 0dbf
000000b0: 85bf 4f3d c86c a83e 230e 50bc 2520 1e3d
000000c0: 0f7a ccbd 9356 78bd dfdc b1bd 551f 37be
000000d0: a248 be3c acc5 b7bd c877 253a 5eb4 00be
000000e0: 0573 11bd 829e cd3e 7638 1d3e bef6 513e
000000f0: ffcb 82be 8d42 dbbd 3c02 3fbe 179e d23d
00000100: dfa6 8b3d 16ce d1bd dd4f cc3d da14 14be
00000110: 693d f03d 1a87 cb3c 14d6 183d a6f7 9b3d
00000120: f624 e13c 16e0 a53d 2ca5 413d 9a56 fbbd
00000130: 2320 da3b d0b4 07be 764d d0bc 6409 a3bd
00000140: 77b8 c03d 203f b9bd ab8c bfbd 3ac3 693d
00000150: 395d eabd 1868 5dbd 9e82 1fbd ee3c b0bd
00000160: af4a 54bd ca80 023e bf71 0e3c 874d 9e3d
00000170: 6005 cdbb 558e 733d 88e0 20be ede7 303c
00000180: 0cee 743d c46f 9bbd 4ffc 83be 5eef 563e
00000190: f2be d1bd 1032 2e3e c696 0e3b 5563 843f
000001a0: eea7 f3bd 0df3 ee3d 5e61 97bd f85c 853f
000001b0: b8f2 1abd 398e 403e 024d 313e 8e2a 07bb
000001c0: 0565 173f 182a 023e cda5 ab3c 09b4 02be
000001d0: d539 113f 8bdf 46be 433a 963c e3b0 32be
000001e0: 3cb2 4bbe f0cd ec3e 3988 bb3e 33ff 923e
000001f0: 0842 4c3e ef5f 8fbd 2ba8 dc3b f36a 363e
-0.10549038 -0.3280291 -0.2842984 0.27970916 -0.093384266 -0.01771893 0.016918791 0.6514133
-0.23861502 0.006485844 0.066216156 0.82217264 -0.057666574 0.11316204 0.18817902 -0.049094968
0.43134114 0.17481425 -0.16130072 -0.056122106 0.3271456 -0.09858101 -0.11646353 -0.22240402
-0.1039017 0.43630105 0.22676824 0.24678397 -0.026804194 -0.0045964504 0.12118473 0.027170992
0.11173677 -0.24506338 -0.19525483 -0.18519334 -0.12864013 0.20762539 0.15151376 0.1370523
-0.11571184 0.079631634 0.08486778 -0.5517687 0.050719757 0.32895494 -0.012698683 0.038604874
-0.09984218 -0.06062944 -0.08684706 -0.17883046 0.023227993 -0.0897325 0.0006312099 -0.12568805
-0.03551008 0.40159994 0.1535357 0.20504281 -0.25546262 -0.10706053 -0.18653196 0.102840595
0.068189375 -0.10244386 0.0997617 -0.14461079 0.11730463 0.024844695 0.037313536 0.076155946
0.027483445 0.080993816 0.04727666 -0.12272377 0.006656663 -0.13252568 -0.025427561 -0.079607755
0.09410184 -0.09045243 -0.09353002 0.05707095 -0.11443562 -0.05405435 -0.038942926 -0.086053714
-0.051829036 0.12744442 0.008694111 0.07729631 -0.0062567443 0.05946191 -0.15710652 0.010797483
0.05979733 -0.07589677 -0.25778434 0.20989749 -0.10241498 0.17011285 0.0021757348 1.0342814
-0.118972644 0.11667452 -0.07391618 1.0418997 -0.03782913 0.18804254 0.17314532 -0.002062473
0.5913852 0.1271137 0.020953083 -0.1276399 0.5672887 -0.19421212 0.018338328 -0.1745029
-0.1989221 0.46250868 0.36627367 0.28710327 0.19947064 -0.0700072 0.0067339144 0.17814235

lstm.weight_ih_l1 f4 [128, 32]
00000000: b955 8cbd 1c0d 403e 54b9 56be 3d8b 7bbd
00000010: 4b28 b33d c803 f8bd 3f39 eb3c 2342 863e
00000020: 8a2d 6e3e 0e88 e83c 7db2 6dbe d9fd fd3e
00000030: a77d cfbd 572a 133d b7c1 febd 53d9 9cbd
00000040: 2407 e53d d339 d13e 771a 353d 016a 9a3d
00000050: bb16 8bbe 1570 623e f382 483e 2b3e 19be
00000060: a157 0e3e 0173 d5bd 69a7 bd3c 2010 b03e
00000070: 6215 bfbd 3641 983e 9d43 663d 434e f73d
00000080: e640 d53e 880e f93c 32fd 6f3e 041b 6ebe
00000090: 79a0 0ebe 3085 bb3c 654c 15bd 54c6 643c
000000a0: 8d53 5cbe 490e 003e ff4b 0a3e de7f 2cbe
000000b0: 4ec7 033f b1ca 453e 3421 9d3d 853f 7c3e
000000c0: bca4 ba3d 391c 443e 4b75 92be f06e 983e
000000d0: 4f61 a3bb e282 87be fa58 42be 67c2 30be
000000e0: 1e1d 14be 1df4 78be 07a9 b93e 0431 993c
000000f0: c2d9 9e3e aa0b 1ebe b872 96ba 93b6 95bd
00000100: 7637 1cbe 52cd acbe 5f67 49be 3266 163f
00000110: 1575 a53d 171b 523d affb a53e d40b 84bf
00000120: a7a9 483f c130 e8be 5733 d53e cf31 863f
00000130: 5526 883d d20e 0b3f 569a 09bf 1be2 a83e
00000140: 4b80 83bf 4235 07be 93d8 9b3e 72d8 97be
00000150: a39c 05bf fd4e 4f3e 1d2a e8bd 7e79 61bd
00000160: a0d9 493e e8e2 e83e 4285 6bbe 76ff dd3e
00000170: dbda 44bf 690f d93e 774e 5c3f 81d5 2c3f
00000180: 0a2c 473e 0116 ddbd c3d7 323e 4056 8cbe
00000190: 31a7 9abe 6f77 173f 688c 99be 66e8 2bbf
000001a0: 7d95 3dbe 0e8e 963e a164 bc3e 0ed4 033f
000001b0: 59d1 053f 2643 b93e fe4e 80bb b5cb 9c3e
000001c0: a568 89be 3ea9 4fbd 7a0e 26bf 348d 563e
000001d0: 845f 62bf 7746 803e cd5c 85be 565a 4c3d
000001e0: bdb6 b23d 1224 2f3f bb63 743b e3a1 7ebe
000001f0: bf2d b13e 382d 27bd 4889 f1bd f27f 93be
00000200: d48c cdbc a2cd 41be c282 1f3e 7419 ab3e
00000210: 0a45 753e ab43 4d3e b0d4 1b3e a3d7 36be
00000220: c524 2a3c edd8 d9be 27c3 03bf 342e d7bd
00000230: 56db c7be 86b5 c9be c301 40be faca 83be
00000240: 5193 ffbd ffd0 12bf 60f4 f23e 3179 afbe
00000250: fad5 653e 1c14 a03e c0fb 483e 2ae2 993e
00000260: d53a 023e 128a 443e 626e d0be be16 b7be
00000270: 7602 88be 9d0b 5e3d 1492 823e 651c 323e
00000280: 8db5 eabd 97ae f43e 260f ca3e e5d5 163f
00000290: 48a3 4cbe 904d 933e 26c3 583e 57ec 7ebf
000002a0: f66e f53e 8f7b b6be e1ed b43d 8f11 bf3e
000002b0: 246c 0dbe ebd8 ec3b eba7 8fbe 9822 2b3f
000002c0: df2a f8be ed53 9b3e 0720 5b3e 4bb1 a73e
000002d0: d3aa d03c aeb1 87be e056 403e d176 b8bc
000002e0: f3a9 6dbe 7923 53bf 9ad9 a93e 1b70 1a3f
000002f0: a77e b4be e480 6f3d e768 293f 2db9 e63e
00000300: d2c1 e2bc b57b bf3b cdad 7b3e 6824 7dbd
00000310: 6198 a1be 7685 7d3e 8b54 f23c 3b2a 96bd
00000320: 7859 cb3d 6d7d 9b3d da58 673d 2bca b03d
00000330: 3baa ccbe 33d7 9fbe 2775 4bbe 936f 173e
00000340: 207d 453e 0621 853d c8ac c73e ac30 083e
00000350: 1572 cdbc 9a8c e7bd 2c48 a43e be31 10be
00000360: ea11 d2bd 8f8e 23be e7cb 24bb 92e3 23bd
00000370: 9cd6 7bbd 4b8b 1cbe 093d 6a3c cc2e 8fbe
00000380: 357b 733e 2dad f9be 0be1 253f 1afe 9e3e
00000390: b9aa 92be 662b fc3d 580a 173e 9408 d1be
000003a0: a542 d2be 9d78 623d 09e2 d33e b3c1 c3be
000003b0: d9be 35bd c123 2dbf ed23 9abe 28a3 a03e
000003c0: d7b8 443e c2f3 0dbf c6fc b53c 4f0d ebbd
000003d0: 0171 a43e e34e c8bd ad07 1e3e 64cf 053e
000003e0: 5f51 0c3e e9fd 8ebe c337 e1bd ddd1 a53c
000003f0: 0cb8 48bd 5b2a 33be c1a7 8fbe e013 9d3d
-0.06852288 0.18755001 -0.20969135 -0.061412085 0.0874792 -0.12110096 0.02871382 0.26222333
0.2325956 0.028385188 -0.23212619 0.49607733 -0.10131388 0.03592905 -0.12439292 -0.07658639
0.111830026 0.4086443 0.044214692 0.0753975 -0.2716578 0.22113068 0.19581203 -0.14965121
0.13900615 -0.10422326 0.023151116 0.34387302 -0.0933025 0.29737252 0.056216825 0.12075474
0.41651076 0.030402437 0.2343643 -0.23252493 -0.13928403 0.022890657 -0.03644981 0.013963301
-0.21516247 0.1250545 0.13505553 -0.16845652 0.5147599 0.19315602 0.076723486 0.24633606
0.09113452 0.19151391 -0.28605112 0.2977214 -0.0049859653 -0.26467043 -0.18979254 -0.17261659
-0.14464232 -0.24311872 0.3626177 0.01870013 0.3102551 -0.15434137 -0.0011478281 -0.07310214
-0.15255532 -0.33750397 -0.19668339 0.5874969 0.08078972 0.051295366 0.32418582 -1.031611
0.7838387 -0.45349696 0.41640732 1.048395 0.06647936 0.5431949 -0.5375112 0.32985005
-1.0273527 -0.1320391 0.3043867 -0.29657322 -0.52192134 0.20244975 -0.113361575 -0.055047505
0.19711924 0.45485616 -0.23000053 0.43358964 -0.76896447 0.4239457 0.8605723 0.6751328
0.19450393 -0.107952125 0.17465119 -0.27409554 -0.30205682 0.59166616 -0.29989934 -0.67151487
-0.18514057 0.29405254 0.36795524 0.51495445 0.52272564 0.36184043 -0.0039156666 0.30624166
-0.2683765 -0.05069851 -0.6486584 0.20952302 -0.88426995 0.2505376 -0.26047364 0.04989084
0.08726261 0.68414414 0.003729089 -0.24866442 0.34605214 -0.04081461 -0.117937624 -0.28808552
-0.025091566 -0.18926099 0.15577224 0.33417857 0.23952118 0.20045345 0.15217853 -0.17855696
0.010384743 -0.42548314 -0.51469654 -0.105068594 -0.39034528 -0.39396304 -0.18750672 -0.25740796
-0.1247927 -0.5735015 0.47452068 -0.3427215 0.22444907 0.31265342 0.19627285 0.30055362
0.12717755 0.19193295 -0.40709215 -0.35759538 -0.26564378 0.054210294 0.25502074 0.17393644
-0.11460409 0.4778945 0.39464682 0.5892013 -0.19984162 0.28770113 0.21168193 -0.99579376
0.4793622 -0.35641143 0.08834434 0.37318084 -0.13810784 0.007228007 -0.280578 0.6684966
-0.48470208 0.30337468 0.21398936 0.3275245 0.02547208 -0.26502746 0.1878314 -0.022517594
-0.23209362 -0.82476 0.3317383 0.6032731 -0.35252878 0.05847253 0.66175693 0.45063153
-0.027680311 0.0058436044 0.24578018 -0.061802298 -0.31561568 0.24757943 0.029581329 -0.073322736
0.09929174 0.075922824 0.05648122 0.086323105 -0.39973626 -0.3121887 -0.19868909 0.14788656
0.19286013 0.06500439 0.3899901 0.13299817 -0.025078813 -0.113061145 0.32086313 -0.14081475
-0.10257323 -0.1597235 -0.002514595 -0.04001195 -0.061483964 -0.15287511 0.0142967785 -0.2796539
0.23777469 -0.48764935 0.64796513 0.3105324 -0.28645876 0.12312965 0.1475004 -0.40826857
-0.4106647 0.055290807 0.4138339 -0.38233718 -0.04437146 -0.6763268 -0.30105534 0.31374478
0.19211136 -0.5545007 0.022215258 -0.11477148 0.32117465 -0.097806714 0.15432616 0.13067394
0.13702916 -0.27928093 -0.10996964 0.020241672 -0.049003646 -0.17496626 -0.28057674 0.076698065

lstm.weight_hh_l1 f4 [128, 32]
00000000: ad59 ec3b ea42 123f d197 3fbb 4a07 ce3e
00000010: 9de4 dc3d faba b8bd 5dc5 d3bc bdde 92be
00000020: 9d3c 093e b4bc 8fbe 0682 d43c 8d06 91be
00000030: b299 06be 0dde 02bf 4980 8abd 76cf 2c3e
00000040: 4a12 98be 0690 cdbd 1720 f1be 332c a23f
00000050: 4be7 eabe f3c2 833e 4262 e6bd e1f1 0abe
00000060: 1eb5 4a3e 1cc0 0abf 0dd8 2b3f 1280 71be
00000070: 8f62 d2bd 7d0a debd 61ff ddbd bcc8 21be
00000080: c4ba d2bc cd42 063e 82f9 0ebe a05c c3be
00000090: 876b 753e 4dbd 55bd 77f1 be3e ac12 f7bd
000000a0: 2093 bf3e f331 aebe 64f6 493e a4c2 e3be
000000b0: 4b2a 843c 9109 07bf 6d17 483e 6c8c 43bf
000000c0: 2ed3 c33e 152e b0bd edde 11be 633c 113e
000000d0: 3816 f0bc 0b10 113d 4c6e ee3d 98ae 63bd
000000e0: 3c00 98be 8a7b 4cbf 640b 0c3e 633e da3e
000000f0: 65ca b93b 203e d23e a189 98be 7ade fb3e
00000100: 7180 ca3d a82a e4be 514d 603e 77f5 043f
00000110: 5c67 12bf a802 bdbe 528f 0e3a f016 7b3e
00000120: 204c 243e a924 96bd 2ead f5bd 4f0b 32bd
00000130: fa08 50bf bdac 90be 052d 983d c0a1 dabe
00000140: b9d7 10bf 00fc 503e 7316 a5be 08c5 d43e
00000150: a187 173e 83cf 44be c5b9 be3d 4c55 083f
00000160: ee8a e7bd 0720 cfbd 2586 403e 53b8 8cbf
00000170: ec47 803d 4df4 c8bd 6ba9 84bd bed1 06bd
00000180: 097f 0e3f d781 083f 1463 a0bd b905 02bf
00000190: 770b 2a3e 4992 fbbd a34d aa3d e169 2f3d
000001a0: 3278 32bd 6523 eb3d b298 1abf 6f68 b6be
000001b0: 5d7b d6be 8dd8 3bbe e009 32be 8a0b debe
000001c0: c29a 3bbe db88 a1be 0611 cf3e b1b6 023f
000001d0: afed a23e 24d3 d83d ab14 0abf 4fd4 76be
000001e0: 4da5 8bb8 3c5d 22bf de5a 3abe 34dc af3e
000001f0: 8033 3d3e cda1 5a3e 1923 62bf 3f09 193f
00000200: e473 8e3e 3ab1 913e e493 3ebf 8bf1 5f3e
00000210: e6ad 23bf 70f0 b33e 9d32 463e 1080 8c3e
00000220: e42e 10bf 6dea e73e 6b45 a2be 4a40 3b3f
00000230: 699e 663e 750b ee3d c843 143e e184 0a3f
00000240: c70b 40bd 1ace 86be 3760 8ebe 599e 8cbc
00000250: acf1 14be ef2f 9b3e 3d27 8a3e 4592 ffbe
00000260: 8396 80be 2a66 1fbe 11e5 cc3d c5f2 2dbe
00000270: 9423 c13c f17b e1bd ccc1 a63f c7df 4cbf
00000280: f6df 02be 552d 65bd e861 5f3e b3be 8fbe
00000290: 4dfc b83c 2900 bcbe 4501 30be 9d47 873e
000002a0: f016 a0bc f28b c8be 597e d9bc 499c b43e
000002b0: 3c23 dbbd 4761 f63d 1a8e ae3d 5a4c 27be
000002c0: 21ed 343f 90ab 32be d37c 42be 7151 f7bd
000002d0: cfbc 6fbc a55f 61be 13a0 9f3d eaf1 aa3e
000002e0: 8ce2 5fbd a07d 53bf 895a b23e f657 3f3e
000002f0: 2099 86bb d113 6f3e b7be 203f aae5 46be
00000300: 80a4 dabe 473e 413e cb4e 82bc 4947 dabd
00000310: c450 803e 5588 efbe 3190 023d 5462 49be
00000320: da57 8c3a fafe b53c dd21 60bd 23d0 ab3d
00000330: bb13 813e 0041 5bbd 8a38 b2bc 022d 2fbe
00000340: 856a 23be ce82 073c 50de e6be bdb1 943e
00000350: 79e1 54be 5bd4 723e c35e 24bf 9c4e 4cbd
00000360: ad3d c6bd 6666 01bf 98c1 9a3d 147d 223e
00000370: db82 82bd 407d 9b3e 0145 963e f96c 6dbd
00000380: a43c 483f e8fb 203f 170f 9bbe 8f45 e2be
00000390: 324c 1dbe 29ae 833e 67e2 adbd 7688 b3be
000003a0: 1c5a 073d 3cb1 de3c 63db 1abe 2628 afbe
000003b0: b988 3dbe 3bb6 a23d a027 fc3e 1e56 a5bd
000003c0: bca2 573e f1a2 b0be dd27 89be 47ed 103e
000003d0: e08f 22bf 786b 213e ff3f 60be 3844 98be
000003e0: 0b8a 313c 9eac f3be 141e 143f 9db1 72be
000003f0: 3124 9b3e d505 b1be 1c73 65be 18a4 803e
0.0072128386 0.5713335 -0.0029234777 0.40239936 0.10785792 -0.09020038 -0.025850946 -0.2868556
0.13402028 -0.28073657 0.025940906 -0.2832531 -0.13144568 -0.5112007 -0.0676275 0.16876015
-0.29701453 -0.10037236 -0.47094795 1.2669739 -0.45879588 0.25734672 -0.1124921 -0.13568832
0.19795653 -0.54199386 0.6712654 -0.23584011 -0.10272705 -0.10841844 -0.10839725 -0.1579923
-0.025723822 0.1311142 -0.13962367 -0.38156605 0.239668 -0.052182484 0.37293598 -0.12064108
0.37416935 -0.34022483 0.19722897 -0.44484437 0.016133448 -0.5274897 0.19540186 -0.7638614
0.38247055 -0.086025394 -0.14245196 0.14183192 -0.02930747 0.03541569 0.11642131 -0.055586427
-0.2968768 -0.79876006 0.1367622 0.42625722 0.0056698793 0.41063023 -0.29792503 0.49193174
0.098877795 -0.44563794 0.21904494 0.5193705 -0.57188964 -0.3691609 0.00054382265 0.24520469
0.16044664 -0.07331211 -0.11995922 -0.043467816 -0.812637 -0.2825679 0.07430462 -0.4270153
-0.56579167 0.2040863 -0.3224369 0.41556573 0.14797832 -0.19219784 0.093127765 0.5325515
-0.113057956 -0.101135306 0.18801172 -1.0993751 0.06263718 -0.09812222 -0.064776264 -0.03291487
0.5566259 0.5332312 -0.07831398 -0.5078998 0.16605936 -0.12283761 0.08315589 0.042825583
-0.04357166 0.1148136 -0.60389245 -0.35626552 -0.41890994 -0.18344326 -0.1738658 -0.4336818
-0.18320754 -0.31549725 0.40442675 0.51060015 0.31821963 0.10587147 -0.53937787 -0.24104427
-6.658826e-05 -0.63423514 -0.18198726 0.3434769 0.18476677 0.21350785 -0.88334805 0.59779733
0.27822793 0.28455526 -0.74444413 0.21869485 -0.6393722 0.35144377 0.19355245 0.27441454
-0.5632155 0.4529604 -0.31693587 0.7314497 0.22521366 0.11623279 0.14478981 0.5410901
-0.04688623 -0.26329118 -0.2780778 -0.01716535 -0.14545316 0.30310008 0.2698306 -0.49916282
-0.2511483 -0.15566316 0.100046284 -0.1698714 0.023576535 -0.11009968 1.3027892 -0.8002896
-0.12780747 -0.055951435 0.21814692 -0.2807518 0.022581244 -0.36718872 -0.17187984 0.26421824
-0.019542187 -0.3916927 -0.026549505 0.35275486 -0.1070008 0.12030273 0.085231975 -0.1633772
0.7067433 -0.17448258 -0.18992929 -0.120760806 -0.014632418 -0.22009142 0.077942036 0.3338769
-0.05465941 -0.82613564 0.34834698 0.18685898 -0.0041076094 0.23347403 0.6279101 -0.19423547
-0.4270363 0.18871413 -0.015906712 -0.10658128 0.2506162 -0.467837 0.031875793 -0.19666415
0.0010707334 0.022216309 -0.054719795 0.08389308 0.25210366 -0.053528786 -0.021755476 -0.17107013
-0.15958603 0.008270932 -0.45091486 0.29041854 -0.20789136 0.2371382 -0.64207095 -0.049879655
-0.096797325 -0.5054687 0.07556456 0.15868026 -0.06372615 0.30368996 0.2934952 -0.057965253
0.7821753 0.6288438 -0.3028495 -0.44193694 -0.15361097 0.2571881 -0.084904484 -0.3506505
0.03304492 0.027184121 -0.15122752 -0.34210318 -0.18509187 0.07944914 0.4924898 -0.08073066
0.21058172 -0.34499314 -0.26788226 0.14153014 -0.63500786 0.15763652 -0.21899413 -0.29739547
0.010836135 -0.47592634 0.57858396 -0.23700567 0.3030105 -0.34574762 -0.22407192 0.25125194

lstm.bias_ih_l1 f4 [128]
00000000: 81a7 4dbe c9c5 963d 2e33 1c3e b968 293d
00000010: 7537 d03d 7a14 dd3d d455 683c bb38 0e3a
00000020: db10 5bbe da58 b83d d0b3 57bc fc76 67bb
00000030: f402 50bb c1b8 e43b 17aa e03d e07b 3b3e
00000040: 03d2 3a3e ae7c a03e cae2 9f3c b688 863e
00000050: 7afa a63e 427b 933e 84a9 dd3c 7df0 003e
00000060: 8785 a43d ff50 033f 35fd e93d 2d2c c2bd
00000070: 0d6a 3e3e e0bc 8b3e a6ac 2d3e a5bb 90bd
00000080: f2cd 333a 4987 f4bd a61f 76be c8b4 8c3d
00000090: 382b 973d ee30 8dbd 19a7 e63c ab2d d63d
000000a0: 5d8a 263d 39a8 e43d f71d 243e 83b1 763d
000000b0: 0d3d 62be 9d59 0b3e 2ec4 9e3d 848c 133d
000000c0: eb80 1ebe efc4 86bd 9cf7 4b3e 0e94 4cbf
000000d0: bdcd b9bc 80a9 233c f7db 123d 4e03 243d
000000e0: 1b4f 3f3e 28d3 93be b017 90be 3aff 4abe
000000f0: 7b1c c9bd 85b0 d4bd a000 12be 2e2c 9abe
00000100: 3769 0f3d d114 0ebe 75fc 953b 7806 c4bd
00000110: bf55 e73d c378 de3d bfce 18be 2ee3 c03d
00000120: 5dfc 07be 02bd 2f3e 1fcf 2fbc 0ca2 5f3c
00000130: 38e0 e0bc f3af e2bd dcec f8bd 7c38 593d
00000140: 8535 803d 320d eabc dd71 47bc 825f febd
00000150: 8931 f83c 330e debd ecdd 3e3d 2645 263d
00000160: 22b6 02be 697a c9bd 06bc 2cbe 15d8 193d
00000170: 24b8 8f3d c63b 04bc d197 1a3e 93e1 e83c
00000180: b2f6 5e3c 3566 0abd f05c e53e 13d3 d93c
00000190: 99ab 82bd fc0e 723e fa9b 61be 343c b53c
000001a0: f984 05bd a6f5 263c 5d84 b53d bdf0 84bc
000001b0: 279d 2fbe 548a 2f3e f304 843e a61a 9c3e
000001c0: d23e 643e 47ac 723e 321b 803e bf09 233e
000001d0: f7b3 4f3e e38d 5a3e 2e1c 2d3e 62f5 e43d
000001e0: 8ae0 e83d 9b37 ce3e 1d74 7a3e 64b7 c6bc
000001f0: eac8 c3bd af44 aa3e fadd 7abd ab37 cb3d
-0.20083429 0.07361943 0.15253899 0.041359637 0.101668276 0.10794921 0.014180619 0.00054253236
-0.21393149 0.09001322 -0.013165429 -0.0035318723 -0.0031740041 0.006980032 0.10969942 0.18308973
0.18244176 0.31345123 0.019517321 0.26276177 0.32612973 0.28804976 0.02705837 0.12591739
0.08033281 0.51295465 0.114252485 -0.09481082 0.18595143 0.27292538 0.16960391 -0.0706704
0.00068589963 -0.11939866 -0.2403551 0.06870419 0.0738129 -0.06894098 0.02815585 0.10457929
0.040659297 0.111648984 0.16027056 0.060227882 -0.22093602 0.13608404 0.07752262 0.036022678
-0.15478866 -0.06580531 0.19918674 -0.79913414 -0.022681111 0.009989142 0.035854306 0.040042214
0.1868252 -0.28872037 -0.28143072 -0.19823924 -0.09819885 -0.10385231 -0.14258051 -0.3011183
0.03501245 -0.13875128 0.0045772144 -0.09571546 0.11295652 0.10862877 -0.14922617 0.09418331
-0.13279863 0.17161945 -0.010730534 0.013649475 -0.027450666 -0.11068716 -0.12154552 0.053032383
0.06260208 -0.028570745 -0.012173143 -0.124205604 0.030297058 -0.10842552 0.04659836 0.04059329
-0.1276479 -0.09837801 -0.168686 0.037559588 0.07017544 -0.008070892 0.15096976 0.028427875
0.013608621 -0.03378888 0.44797468 0.026589906 -0.06380386 0.23638529 -0.22032157 0.022123434
-0.032597516 0.010190403 0.08863137 -0.016228074 -0.17149793 0.17142612 0.25785026 0.3048908
0.22289589 0.23698531 0.25020748 0.15921687 0.20283495 0.21343188 0.16905281 0.111796156
0.113709524 0.402768 0.24458356 -0.02425737 -0.09559806 0.33255526 -0.06124685 0.09922727

lstm.bias_hh_l1 f4 [128]
00000000: bed0 1dbd 22d9 0e3e ba40 233e 26ed e83d
00000010: 1ea6 6d3d 17ec b63e 8947 b83d e361 1c3d
00000020: b91e 343d 845c 803e 5954 3abd 6df4 a0bd
00000030: f958 5e3e 65d4 ddbd d12f bd3d 6cc2 103e
00000040: f2ad a13e 4b9c e73e 4d75 cdbd 1b5a 413e
00000050: 3fbb aa3e 71c1 093e ac40 a33b 21e8 843e
00000060: 1a4d 5f3e bcb3 c33e 9a9e 99bd f804 b23d
00000070: 9e0d 893d 7f5b 8b3c 035f 183e 89c6 10be
00000080: c77e 973d b5e6 e1bd ce0f 5dbe 4bdc 7c3d
00000090: ba39 0ebd 5ed5 b8bd fa8f 0d3b 58e2 f5bd
000000a0: 7af5 40be c0e4 da3c 4cb8 0c3e 2eae 07be
000000b0: daba 3cbe 88fa 713e 8c3d 013e 8ba2 303e
000000c0: c4cd 2dbe e02c f2bc 4ff5 d03c 5cf3 35bf
000000d0: f408 acbd e6ca 45bd a15f 06be 9c97 2ebe
000000e0: 1919 a73e f4dc 83be 1bdb 55be c611 ac3d
000000f0: 287e 85bd dd76 873c b818 e1be 689a 853c
00000100: dfb0 9cbb 481d 0abe b681 30be 5a44 0f3d
00000110: 3239 373d 6ee2 3b3d e935 b13b 85e1 9a3d
00000120: 258a 853d 8ad6 d9bd 6fd9 733d 8906 6a3d
00000130: 2c2e 6d3d a41a f23d 5285 323e 271d 99bd
00000140: d665 933c 9f8a 3dbd 4d71 0b3e 0902 5cbe
00000150: 1ebf 66bd 9ac5 173d 18e7 923c 6595 5abd
00000160: 0410 b53d d954 1ebd 5033 c83d ca3d 98bd
00000170: c3ae 523d 8ea1 f1bb c2c0 783c 2507 0cbe
00000180: b9a5 9fbe 7114 123e 1a42 553e 7ade 643e
00000190: e4df fe3d 9ecc 8bbb bef7 79be 3dcc e93d
000001a0: 7f09 88be dbf8 5e3e 9478 b8bd 47ed 57be
000001b0: d8ca f2bd 2d50 223e 51e7 293e be63 8b3e
000001c0: 729c 373e 5825 ca3e d7ce 803e 49d1 2a3e
000001d0: 1bef 263e 6693 453e 394e 173e 9516 6ebd
000001e0: 002d 023e ff5c c33e 8c5b 273e d8fc b73c
000001f0: fa33 053e 2ef0 163e 6064 2a3e cfbb ee3d
-0.03852915 0.13950017 0.1594266 0.113733575 0.05801975 0.35726997 0.08998019 0.03817929
0.043974612 0.25070584 -0.045490596 -0.078591205 0.21713628 -0.10831527 0.09237636 0.14136666
0.31578022 0.4523643 -0.10032139 0.18882029 0.33345982 0.13452698 0.0049820747 0.2595835
0.21806756 0.38223064 -0.07500954 0.08692354 0.066920504 0.017011402 0.14879994 -0.14138235
0.07397228 -0.11030332 -0.2158806 0.061733525 -0.03472302 -0.090250716 0.002160071 -0.12006062
-0.18843642 0.026720405 0.13742179 -0.13250038 -0.18430653 0.23630726 0.12621135 0.17249505
-0.16973025 -0.029562414 0.025507597 -0.7107446 -0.08400145 -0.048289202 -0.13122417 -0.17050022
0.32636335 -0.2575451 -0.20884363 0.084018275 -0.06518203 0.01653617 -0.4396417 0.016308978
-0.004781827 -0.13487732 -0.17236981 0.034977295 0.04473228 0.045870237 0.005408038 0.07562546
0.065204896 -0.10636623 0.059533533 0.05713514 0.05790536 0.118214875 0.1743367 -0.074762635
0.017992895 -0.046274778 0.1361744 -0.21485151 -0.056334607 0.037053682 0.01793246 -0.05336513
0.08840945 -0.038655136 0.09775412 -0.0743366 0.051436197 -0.007373995 0.015182676 -0.136746
-0.31181124 0.1426561 0.20825997 0.22350493 0.124450475 -0.0042663356 -0.24410912 0.114159085
-0.26569745 0.21774618 -0.090073735 -0.21086608 -0.118550956 0.15850897 0.16592146 0.27224535
0.17930773 0.39481616 0.25157806 0.16681398 0.16302149 0.1929451 0.14775933 -0.058127005
0.12712479 0.38156888 0.16343516 0.022459432 0.13008109 0.14740059 0.16639853 0.116569154

fc.weight f4 [1, 32]
00000000: de4e 2abc 421a 26bd fdff 4d3d 1dca 91bd
00000010: c9d6 35bd c68d 993d 79f7 a8bd 4ca3 913d
00000020: 3b14 9abd eb77 283d bd29 463b 1ae5 913d
00000030: e7ff 2fbd 1e70 c2bc 763c 58bd e015 543d
00000040: 804f 9dbd c577 973d acf0 9a3d 9d53 f6bc
00000050: f468 403d ed83 12bc 2dc0 ee3d 90b6 863d
00000060: b29e cdbb 659e 0b3e f3c5 bcbd 65c1 d0bd
00000070: 2c95 483d 7c4e 763c 7979 523d 6576 0e3d
-0.01039478 -0.040552385 0.050292958 -0.07118628 -0.04439429 0.07497744 -0.08250327 0.071112245
-0.0752339 0.041129988 0.003023728 0.07123776 -0.042968657 -0.023735102 -0.052792035 0.051778674
-0.07681179 0.07395891 0.07565436 -0.030069167 0.04697509 -0.008942586 0.11657748 0.0657779
-0.0062750215 0.13634641 -0.09217443 -0.10193137 0.048970386 0.015033361 0.051385377 0.03478088
