time_series_intro_class/final_project/submission/model_params/1_layer_16_size_model_epoch_1300.pth (torch, 6435 bytes, 5 tensors)

lstm.weight_ih_l0 f4 [64, 1]
00000000: af04 5740 1280 0fbf b065 53bf 199e 28bf
00000010: 071c c23e f03c 5b40 7005 303c 4115 103f
00000020: 8086 c23f 2a5d 5b3e 0133 05be 7e3d 4dbf
00000030: 5432 ddbd c5ff 923c 47c0 08be 1302 1c3f
00000040: 1fc4 f83f 9a7c 20be e61a 35bf f8c3 a83d
00000050: 6a83 b6bf c340 683f 1b64 1a3f 8b35 13bd
00000060: b8f3 94bf 7add 8a3f b76c 17bf 3a2b 373e
00000070: 5699 2dc0 af69 283f 8945 d1bd 1098 30c0
00000080: 9841 1f3f a74f 03bf ad07 123e 666b b63e
00000090: 06c1 c23e f2f3 c6be 3a2f 5dbf 325a 333d
000000a0: 909b aa3e 6ac8 0ebf f422 65be d9b2 4dbe
000000b0: 3b41 e73e 6ee2 8f3f 04c8 1cbf 159d bbbd
000000c0: d74a 0a40 1ce8 afbe 530a a3be aedc f0be
000000d0: fc1c 94be d911 af3f a80d e93f bdeb 5f3f
000000e0: 7ea3 4d3b e5f6 8bbe ce13 05bf 1f39 eabe
000000f0: 8091 86bf b248 883f 0861 28be f53c bbbf
3.3596609 -0.56054795 -0.8257704 -0.6586624 0.37912008 3.4255943 0.010743484 0.5628243
1.5197296 0.21422258 -0.13007738 -0.80171955 -0.10800615 0.017944226 -0.13354598 0.60940665
1.9434851 -0.15672532 -0.7074417 0.08240503 -1.4258854 0.9072382 0.60309 -0.035939734
-1.1636877 1.0848839 -0.5915026 0.17887583 -2.712484 0.6578626 -0.10218341 -2.7592812
0.62209463 -0.51293415 0.1426074 0.35628814 0.3803789 -0.3885799 -0.86400187 0.04378719
0.3332181 -0.5577456 -0.22376615 -0.20087756 0.45166954 1.1240976 -0.612427 -0.091608204
2.1608179 -0.34356773 -0.31843814 -0.47043365 -0.28928363 1.3677322 1.8207293 0.87469083
0.0031377967 -0.27336803 -0.51983345 -0.45746705 -1.0513153 1.0647185 -0.16443264 -1.4627978

lstm.weight_hh_l0 f4 [64, 16]
00000000: cc88 9c3f 0bb0 083e 3ca3 073f 6cf1 e43b
00000010: 4dc9 af3d 00fa 84be 1a85 44bf 3d66 c0bd
00000020: 247b ec3e dbe8 26bf 472f d23d bf94 ccbd
00000030: 8cde f83d 6d95 d83e fa75 b53c 616a a9be
00000040: 2e49 b4bd 90b4 c7bd 8ba7 0c3d a86b 79bd
00000050: ff87 9b3e 1f6e db3e db96 72bd 55d6 b9bd
00000060: 0539 21bd 5576 84be a5c0 103e 30fb 453d
00000070: acd6 d43d abce 013e ab8d 6cbe 12cc 233e
00000080: c351 123e 08f7 08bd 8bdc 953c 33d5 1fbe
00000090: d55d 9ebe 0432 c73d c695 9a3b 4c12 0f3e
000000a0: 1abd 30bd b8f2 693e d9f8 363d 4427 67be
000000b0: c697 debe 2d7d 09bf 89fd dabd 4294 163f
000000c0: 9c6c 423e d9c6 21bd 2e41 c83c a2cd 82bd
000000d0: 41af 40bd 3847 013e 4f6b 7fbe 9a09 8abe
000000e0: a43b 8b3d 90d6 c73d 2082 133e 0e13 fd3d
000000f0: 1644 a8bd fb65 963e 8df9 113e acc4 46be
00000100: b8f2 d33e 0dac 8abe 2353 7d3e eafa 8d3e
00000110: 2a67 fe3d bbb2 57bd 17b5 893e 7cf3 4abd
00000120: f0c2 893d cf64 fd3b 6fed d8be 9bcb 19bd
00000130: b063 ccbd c16b f53d 7f69 02bd 4508 c2bd
00000140: c7e1 193f 0169 bf3d f336 fb3e ec4f 3e3e
00000150: b854 66bd ccfa e8bd d1c4 06bf 2af6 923d
00000160: cefb 563d 660b 31be 5ac5 e23c 64c9 913d
00000170: 65a0 1ebf 7211 db3d 6843 b9bd 47ff 233e
00000180: 5df8 c53d ff74 c63e 0c97 1bbf c1a4 10bf
00000190: c664 f8bd cca1 aabe 85f1 02bf ed53 e83e
000001a0: 1103 bcbe c12a acbd 1719 183f 5295 213f
000001b0: d1f3 2e3f 5c16 133d 0a21 043f 1e4d 09bf
000001c0: 6e9c f93d fcea 1abe 636d 933d 5a0a 7cbd
000001d0: 68ef a4ba 8bfa e13d e8e8 8ebe f618 3dbe
000001e0: 8531 ac3e b08d 5bbc a598 afbe 074e 10be
000001f0: 65c9 df3c 34a9 2a3e 59c3 063e 83f4 7abb
00000200: 2eb0 71be 46bb a23d 6560 47be 636c a73e
00000210: d75e 75be 88a8 ce3d c1c1 db3e 2606 cebd
00000220: 24bd a03d 768d f93d 0b9c b2be 1f84 c2bd
00000230: 382c 15be 50aa fc3d 26f2 bdbe 79b1 4a3e
00000240: 7125 ac3e 7aa8 62be 08eb 8dbe cd83 a23c
00000250: 0770 d4bd a4a8 f6bc 83b3 34bf d98d 473e
00000260: cfe4 7bbe 4cdc c2be 99bc 26be b0ae 063d
00000270: 9979 4ebf 3977 823e 976d 1bbd a6da d73e
00000280: 166d f2bd fc7d 83bd 8a23 4a3e fdb7 e23d
00000290: b093 a33c e7df b03b 8d60 293d 0a00 ee3d
000002a0: bd2c 593e 4b44 6c3e fc8c 7cbd 1151 f4bc
000002b0: da2c e5bd ea1d 2b3e 117e 593d 96ec 0b3d
000002c0: ed0b 71be a6c8 5fbe 5e81 4cbd ef53 c23d
000002d0: 58de 21be f429 a23d 04b2 b63d 54bb 36be
000002e0: e371 293e e602 003d a702 29be a736 073e
000002f0: 0626 1abe 1b53 7d3d 2813 32be fa26 993e
00000300: 588a ba3e dbab df3e 61a7 92be 8bc3 e2bd
00000310: 4666 683d 5898 94be 0524 dabe c7d2 853e
00000320: a7e8 7ebd 4b8d 743d c96d 613e a304 9b3e
00000330: 61e6 2ebc f80a 43be 1397 8b3e 2641 483d
00000340: e3c7 4dbe a915 b93e 2dbc 0a3f fb96 1e3c
00000350: 5856 2dbc 70c9 5c3e fd58 073f daa5 51be
00000360: 5936 3b3e 7ea1 dfbe 0599 143e aa68 023f
00000370: 1947 953e 926a 23bf e807 e1bd a953 d8be
00000380: 478b 59be 248e 87be f188 2c3e ed7d 7b3e
00000390: e506 043d 2bd9 c63e 8bcb ce3d 979a 4f3d
000003a0: 9ba7 933d fc56 543e 6cf2 f3bc 5a6c 29bd
000003b0: 6090 a43d 80a3 283e 341b 8cbe 61d4 693e
000003c0: 8c7c a73e 5881 70be d26f 5bbe 4ff6 b7bd
000003d0: 7ec7 cf3d 44d2 523e 44db 8e3e b606 843e
000003e0: d8d5 e2bd 5ccd 07be 5ad6 ae3d dae0 083d
000003f0: 9f2d 8e3e f8e0 b13c 56d7 4dbe 3d29 b83c
1.2229247 0.13348405 0.5298345 0.0069867875 0.08583317 -0.25971985 -0.76765597 -0.093945004
0.461877 -0.6519906 0.10262924 -0.099893086 0.121518224 0.42301503 0.022150982 -0.33088973
-0.088030204 -0.097512364 0.03433947 -0.060893685 0.30377194 0.42857453 -0.0592259 -0.09074084
-0.03936102 -0.2587153 0.14135988 0.048335254 0.10392508 0.12676494 -0.23100917 0.15995815
0.14289002 -0.033438712 0.01829364 -0.15608673 -0.30930963 0.097263366 0.0047175614 0.13971823
-0.04314909 0.22846496 0.044670913 -0.22573572 -0.4347517 -0.5370663 -0.10692889 0.58819973
0.18986744 -0.039496277 0.024445143 -0.063868776 -0.047042135 0.12624824 -0.24943279 -0.2696045
0.06798485 0.097577214 0.14405107 0.1235715 -0.08216111 0.2937468 0.14255352 -0.19410962
0.41396117 -0.2708439 0.24738745 0.27730495 0.12422021 -0.052660685 0.26895973 -0.04954861
0.067266345 0.0077329646 -0.42368647 -0.03754769 -0.099799514 0.11983443 -0.03183889 -0.094742335
0.60110134 0.093462 0.4906536 0.18585175 -0.056233138 -0.11375961 -0.5264407 0.07175858
0.052486233 -0.17289504 0.027681995 0.0711849 -0.6196349 0.10696687 -0.0904606 0.1601535
0.09666512 0.38761136 -0.60777354 -0.56501395 -0.12128596 -0.33326566 -0.5114978 0.4537653
-0.3672109 -0.08406592 0.59413284 0.6311847 0.68340784 0.035909995 0.51612914 -0.53633296
0.1218804 -0.15128702 0.07198598 -0.06153331 -0.0012583556 0.110341154 -0.27912068 -0.18466553
0.3363153 -0.01340048 -0.34296146 -0.14092265 0.027317712 0.16666108 0.13160457 -0.0038292713
-0.23602363 0.07945876 -0.19470365 0.3269988 -0.2396196 0.100907385 0.4292126 -0.100597665
0.07848576 0.12185185 -0.34884676 -0.09497856 -0.1456765 0.12337172 -0.37098807 0.19794263
0.33622316 -0.22134581 -0.27718377 0.019838238 -0.1037293 -0.030109711 -0.70586413 0.19487704
-0.24599002 -0.38058698 -0.16282882 0.03288144 -0.80654293 0.25481585 -0.03794631 0.42159003
-0.11837213 -0.06420514 0.1974012 0.11070249 0.019967884 0.005397785 0.041351844 0.11621101
0.21208473 0.23072927 -0.06165789 -0.029823812 -0.111901954 0.1671063 0.053098742 0.034161173
-0.23539706 -0.21853885 -0.04992806 0.09488665 -0.15807474 0.07918158 0.089206725 -0.17844898
0.1654735 0.031252764 -0.16504918 0.13204442 -0.15053567 0.061846834 -0.1739012 0.2991255
0.36433673 0.43685803 -0.28643325 -0.11072453 0.05673816 -0.2902248 -0.42605606 0.26137373
-0.062233593 0.05970506 0.22014536 0.30276975 -0.010675044 -0.19047153 0.27263698 0.048890255
-0.20095782 0.36149338 0.54193383 0.009679551 -0.010579668 0.21561217 0.5287016 -0.20473424
0.1828245 -0.43677896 0.14511497 0.50940955 0.29155806 -0.6383449 -0.10987836 -0.42251328
-0.21244536 -0.26475632 0.16849114 0.24559756 0.032233138 0.3883756 0.100974165 0.050684538
0.072097026 0.20736307 -0.029778682 -0.041363098 0.0803535 0.1646862 -0.27364504 0.22834922
0.3271221 -0.2348684 -0.21429375 -0.089825265 0.10145472 0.20588022 0.2790166 0.2578637
-0.11075944 -0.13261932 0.08536978 0.03341756 0.2776918 0.021713719 -0.20101675 0.022480601

lstm.bias_ih_l0 f4 [64]
00000000: fb73 8abd 45c6 d53d a143 55be ca87 183d
00000010: daca c8bd 3d14 a23b 1b26 b03e b182 8fbe
00000020: f27a 21be a21c 4dbe 2356 2cbe cd52 78bb
00000030: 431e c33d e108 ba3e 0562 b83d c44e 143e
00000040: 6e70 8abe 86d1 5dbe 6602 a53d c3f4 4fbe
00000050: 66da d3bc 2c89 74be 4c7c 3e3e 3ad4 a5be
00000060: fd16 523d b66f 5ebd 1dbd 1ebe a655 43be
00000070: e3f7 cb3e 22fd 4b3d 4053 47bc 7d4f 6dbd
00000080: 6857 123d 721e 05be 6350 f4ba 093d 7bbe
00000090: dfad 3fbd 30fe 7bbe 96fd b63c cd12 0a3e
000000a0: 66e7 943d 9491 743d 31d3 cf3d 138b 9dbc
000000b0: 1e14 063e c65f 0f3e 2b35 323e dbd1 77bc
000000c0: 7843 76bc 883d 52be 12ef 24bd 793e 6f3d
000000d0: 65c3 b73c deb1 383d b76d fc3e b493 b1bd
000000e0: 56cf a13d 8a54 d13d 43b2 8bbe 82a5 d53c
000000f0: 4d61 3f3e 997d 353c 1b08 d93d af48 6d3d
-0.06760403 0.104382075 -0.2082658 0.037238874 -0.09804316 0.0049462602 0.34404072 -0.28029397
-0.15769556 -0.20030454 -0.16829734 -0.003789115 0.09527256 0.363349 0.09003071 0.14483172
-0.27038902 -0.21661958 0.08057098 -0.20308213 -0.025860976 -0.23880452 0.18602103 -0.3238848
0.051291455 -0.054305755 -0.15501828 -0.19075641 0.3983756 0.049801953 -0.012165844 -0.057937134
0.03572789 -0.12999895 -0.001863968 -0.24535002 -0.046796676 -0.24608684 0.022337716 0.13483734
0.07270698 0.059709147 0.101477034 -0.019231355 0.13093612 0.14001378 0.17403094 -0.015125717
-0.015030734 -0.20531285 -0.040267058 0.058409188 0.022432039 0.045091502 0.49302456 -0.0867075
0.07900874 0.10221203 -0.2728444 0.026079897 0.18689461 0.011077308 0.10597249 0.057930645

lstm.bias_hh_l0 f4 [64]
00000000: 6499 61be bb6b 89be 0e75 4a3d 246d a3bd
00000010: 5435 1ebe fc26 6a3d d4ac f93e 51b1 943d
00000020: 05fa a6be 9975 c33a bffe 5dbe b55a 2abd
00000030: 1f54 b93e edf5 e0bd 0d25 593e 3a3c dcbd
00000040: 72b0 623d cc86 0d3e 89c8 63be 45a1 8bbe
00000050: c881 6fbd 9d78 e63d 43e1 6b3e 3f13 59bd
00000060: 324a 47be 88cf 153d 7dee a8bd 7687 c2bc
00000070: 324f 0d3d 5c5e 173d 5718 f53d 768c a83e
00000080: 3020 573d 627f 4d3e 92b1 8fbc 1fb0 1fbd
00000090: fb40 213d b287 103e d1b9 2e3d fbae 8fbd
000000a0: 08df 39bd 0455 1ebe 3e68 223e c82f 2c3e
000000b0: 3cc2 21be e1af 6cbd 8bf5 4f3e 9dab e0bd
000000c0: 5e01 6ebc 5265 453d f557 60bd 5639 c03d
000000d0: 5d21 66be b6db debd c3c3 143f b888 b1bc
000000e0: 1341 8b3d e60a 67be 55fd 28be 6457 d83c
000000f0: 256f 9e3e 9876 753e 5d10 ae3d 5c9e b7bd
-0.2203117 -0.26840004 0.04942804 -0.07979801 -0.1545003 0.057166085 0.4876467 0.07260383
-0.32612625 0.0014912366 -0.21679209 -0.04159041 0.36196992 -0.109844066 0.2120554 -0.10753675
0.055344053 0.13820952 -0.22244467 -0.27271476 -0.05847338 0.11253474 0.2303515 -0.05299687
-0.19461897 0.03657487 -0.08248613 -0.023746233 0.034499355 0.036955222 0.11967533 0.32919663
0.05252093 0.20068124 -0.017540727 -0.03898632 0.03936861 0.14114264 0.042657677 -0.07015797
-0.045378715 -0.15462118 0.15860078 0.16815102 -0.15796751 -0.05778492 0.20308511 -0.10970233
-0.014526693 0.04819233 -0.054771382 0.09385936 -0.22473665 -0.1088175 0.5811121 -0.021671638
0.06799521 -0.22562751 -0.16502889 0.026408859 0.30944172 0.23971021 0.08499215 -0.089657515

fc.weight f4 [1, 16]
00000000: 4632 643e fe87 0c3e 9209 3d3d bc90 61be
00000010: 4acc bb3c a5f8 1ebe 128f 87bb 10fc 213c
00000020: b913 953d 1d72 30be e757 713e 9a28 d03d
00000030: 753c 3e3d a958 15be 2b18 143e ccad a9bd
0.22284803 0.13723752 0.046151705 -0.22027868 0.022924561 -0.15524538 -0.0041369284 0.009886757
0.072791524 -0.17231031 0.23568688 0.10163994 0.046444375 -0.14584602 0.14462344 -0.08285102
