time_series_intro_class/final_project/submission/model_params/1_layer_32_size_model_epoch_100.pth (torch, 19555 bytes, 5 tensors)

lstm.weight_ih_l0 f4 [128, 1]
-0.13262475 -0.12520993 -0.048035715 0.037487153 0.14010523 0.097276844 -0.157168 0.1076359
0.14387868 0.15162484 0.14562865 -0.031005852 -0.04133377 0.14221928 0.12936513 0.08208637
-0.14031956 -0.06826466 0.11811693 -0.016263407 0.050391078 0.09922199 -0.0931362 -0.005686159
-0.051281117 0.06992504 0.15618327 0.1380563 -0.020957658 0.112113126 0.05188264 -0.119164236
0.046147343 -0.1569769 -0.16335478 0.092448615 -0.011815715 -0.0019197313 -0.14824168 0.0425604
-0.09842018 0.10708168 0.10180518 0.0949976 -0.107953005 -0.093627 0.12694222 0.052971847
-0.06166431 0.0099962205 0.014386707 0.1015613 0.12181313 0.14935441 0.09244803 -0.08243966
-0.025573187 -0.15431523 -0.14119305 -0.044873286 -0.18055153 -0.114169836 0.0059005106 0.14823587
0.06521678 -0.058937646 -0.042792227 0.1320468 0.029640004 0.045816388 -0.118300445 0.009444651
-0.14150104 -0.04342669 0.026013857 -0.08502095 0.04703144 -0.006712316 0.16935928 -0.0061464715
-0.124533944 0.16845345 0.059393965 0.14328982 -0.12823144 0.06411336 0.1333373 0.051301148
0.026853824 0.039734837 0.07599794 0.13020414 -0.013266627 0.09941881 0.14309561 -0.12663701
0.09571781 -0.00853193 -0.053333145 -0.15254205 -0.031750314 0.009652044 0.15147656 -0.10383575
0.103882305 -0.113501295 0.162781 0.04659601 -0.10636056 0.12638928 -0.12364366 0.17335194
0.105736464 0.15094176 0.07453517 -0.009042102 0.091559514 0.16903028 -0.026310476 -0.021453261
0.054761216 -0.13870215 -0.12289724 0.010286329 -0.027778821 -0.13210152 0.10759059 0.122572035
00000000: c8ce 07be 0837 00be 19c1 44bd 218c 193d
00000010: bf77 0f3e 1539 c73d a6f0 20be 3670 dc3d
00000020: ef54 133e 8b43 1b3e ad1f 153e fcff fdbc
00000030: 994d 29bd eea1 113e 4b78 043e e61c a83d
00000040: eeaf 0fbe 58ce 8bbd 4ae7 f13d d63a 85bc
00000050: e066 4e3d e634 cb3d 31be bebd f552 babb
00000060: 260c 52bd dc34 8f3d 82ee 1f3e a15e 0d3e
00000070: 65af abbc 919b e53d e482 543d 610c f4bd
00000080: ff04 3d3d 8dbe 20be 7a46 27be b355 bd3d
00000090: b396 41bc 7e9f fbba abcc 17be d053 2e3d
000000a0: 8590 c9bd a44d db3d 3c7f d03d 1a8e c23d
000000b0: 7716 ddbd 83bf bfbd 24fd 013e 02f9 583d
000000c0: b793 7cbd 30c7 233c 39b6 6b3c 5fff cf3d
000000d0: 2a79 f93d 5df0 183e 6555 bd3d 20d6 a8bd
000000e0: dc7e d1bc d004 1ebe e994 10be 0dcd 37bd
000000f0: 80e2 38be e0d1 e9bd 1259 c13b 25cb 173e
00000100: 6090 853d 9a68 71bd e746 2fbd 4737 073e
00000110: 98cf f23c f7a9 3b3d 8147 f2bd bdbd 1a3c
00000120: a6e5 10be 2fe0 31bd 031b d53c 771f aebd
00000130: 0aa4 403d fdf2 dbbb 856c 2d3e 5768 c9bb
00000140: a70b ffbd 107f 2c3e 1647 733d 91ba 123e
00000150: 1a4f 03be de4d 833d 9389 083e 2721 523d
00000160: 8dfc db3c ffc0 223d cfa4 9b3d 3c54 053e
00000170: 445c 59bc 179c cb3d a887 123e 22ad 01be
00000180: b307 c43d 82c9 0bbc db73 5abd fc33 1cbe
00000190: 9e0c 02bd 9b23 1e3c ac1c 1b3e d6a7 d4bd
000001a0: 3fc0 d43d 5e73 e8bd 10b0 263e 75db 3e3d
000001b0: 91d3 d9bd 316c 013e e338 fdbd 2c83 313e
000001c0: 5c8c d83d 7a90 1a3e e5a5 983d 5325 14bc
000001d0: 8e83 bb3d 4616 2d3e 1189 d7bc c0be afbc
000001e0: 4c4d 603d f007 0ebe 8cb1 fbbd fe87 283c
000001f0: 6990 e3bc 9f45 07be 7558 dc3d 0c07 fb3d

lstm.weight_hh_l0 f4 [128, 32]
-0.09333801 0.008947202 -0.10859979 0.108421035 -0.12126445 0.11093352 0.012321188 0.04775143
0.11984395 0.044077463 0.10483695 -0.0069505204 -0.17821445 0.13085139 0.10435384 0.033542845
-0.031162983 -0.06301258 0.031311207 0.1806142 0.110521115 -0.05148837 -0.14944388 0.16125779
0.1617096 -0.02734057 -0.09484188 -0.16129996 0.009729733 0.14770749 0.0018934266 -0.16714515
0.11086416 -0.00081968936 -0.15962239 0.09231973 0.10078614 0.18703207 -0.020504026 -0.0202611
-0.109646305 -0.08657194 0.12661208 -0.113199055 0.123229764 -0.06245336 -0.18704315 0.13037914
-0.17058146 0.05978633 -0.11285853 0.015568549 0.0071590543 -0.09437427 -0.18176852 0.055535566
-0.1654517 -0.098887056 -0.04113828 0.05773454 0.11446904 -0.054868776 0.12637356 0.0786108
-0.12413884 0.167392 0.05322105 -0.084882766 0.026523074 -0.07196148 0.09471099 0.13905135
0.08865068 0.055603273 -0.16550976 -0.056170203 0.12905654 0.060380686 0.13717887 0.10595422
-0.04635718 0.16936068 0.07723331 -0.07222351 0.1361598 0.09977808 0.09369297 0.17090912
-0.14526337 -0.10947195 -0.037881207 0.076485954 -0.15556587 -0.06977849 0.06574254 0.022063024
0.11226923 -0.15008755 -0.09933806 -0.04278592 0.111202836 -0.07545588 -0.0075124004 0.15312342
-0.0808226 0.16809252 0.0065460335 0.09155087 0.13253197 0.16067672 0.13642116 -0.07042464
-0.0033470138 -0.065585285 0.03144631 0.007149005 -0.023486625 0.16272688 -0.06284416 -0.13591051
0.153663 -0.0989711 -0.112661414 0.087142326 0.0985295 0.093551986 0.14823493 -0.1265569
-0.02988717 -0.027441822 0.03852676 -0.1098818 -0.05109759 0.14091727 0.027695283 0.004245663
-0.115855046 0.1779538 -0.019564865 0.12928596 -0.15751018 0.009604274 -0.16129626 0.0022567476
-0.15762803 -0.1393609 -0.011012685 -0.043427017 0.04734841 -0.1447641 -0.12342447 0.0955832
0.12918745 -0.060747974 -0.13546382 0.06698064 -0.06941656 0.07860527 -0.04615004 -0.0049216324
0.067830876 -0.12169995 0.023602214 0.010380138 -0.020240208 0.04281837 -0.121554345 -0.15610537
-0.15393785 -0.025902594 -0.04030323 -0.05713657 0.014697927 -0.11394718 0.11830712 -0.15899552
0.06397504 -0.10000971 -0.12761378 0.14665504 0.013222246 -0.055240102 -0.14652872 0.060130432
-0.16280718 0.17983064 0.05445089 0.02808936 -0.112276986 -0.06217801 -0.08372941 0.048106708
0.08880953 0.029177194 -0.109501 -0.12499589 0.06522393 0.051622596 0.11673151 -0.092996925
-0.09985778 0.16177954 -0.03883874 0.010218977 0.10679064 0.04994715 0.0935034 -0.08066155
-0.026422344 0.17427285 -0.06560398 0.044596735 0.039148644 0.063374706 0.09090195 -0.09287354
-0.11170033 -0.07504139 0.1543746 -0.0076448442 -0.12464143 0.01496351 -0.12003791 -0.061434917
-0.055028405 0.0049135643 -0.11899999 -0.036903672 -0.15611719 0.16147879 0.15949976 -0.1506418
-0.0035488363 0.009288636 0.047144204 -0.006691178 0.099994086 0.08199452 0.1648641 -0.10550596
-0.14891885 -0.0028386542 0.12947983 0.02769005 0.1757011 0.014268636 -0.019900464 0.139423
-0.13916877 0.15414786 -0.031365126 0.110201634 -0.13497715 0.11562571 0.13586041 -0.1125838
00000000: 0028 bfbd 4997 123c 9169 debd d90b de3d
00000010: 7f59 f8bd 1d31 e33d cfde 493c 0197 433d
00000020: bf70 f53d 928a 343d c1b4 d63d 31c1 e3bb
00000030: d97d 36be e8fd 053e 77b7 d53d 3964 093d
00000040: 8349 ffbc bd0c 81bd 2e40 003d eef2 383e
00000050: e558 e23d 78e5 52bd d107 19be c320 253e
00000060: 3497 253e 55f9 dfbc 763c c2bd d12b 25be
00000070: 7569 1f3c a240 173e db2c f83a 1928 2bbe
00000080: c00c e33d 6ce0 56ba 0d74 23be 2012 bd3d
00000090: f768 ce3d 5685 3f3e 0ff8 a7bc 9bfa a5bc
000000a0: 3e8e e0bd a14c b1bd 99a6 013e e8d4 e7bd
000000b0: e35f fc3d 18cf 7fbd 3d88 3fbe 1c82 053e
000000c0: e8ac 2ebe 83e2 743d 5f22 e7bd 3a13 7f3c
000000d0: 8096 ea3b 4c47 c1bd 8721 3abe 4379 633d
000000e0: 2c6c 29be 4c85 cabd 9d80 28bd 0e7b 6c3d
000000f0: be6e ea3d 15be 60bd 1268 013e b3fe a03d
00000100: 813c febd cf68 2b3e 51fe 593d 04d7 adbd
00000110: eb46 d93c 8a60 93bd d6f7 c13d 7a63 0e3e
00000120: 7d8e b53d 42c0 633d 647b 29be ba12 66bd
00000130: 6627 043e bd51 773d 9e78 0c3e 87fe d83d
00000140: 07e1 3dbd e36c 2d3e 7f2c 9e3d ebe9 93bd
00000150: 7a6d 0b3e 7358 cc3d 1ae2 bf3d cd02 2f3e
00000160: ecbf 14be d432 e0bd 5329 1bbd aba4 9c3d
00000170: a94c 1fbe 06e8 8ebd 06a4 863d 84bd b43c
00000180: 69ed e53d 8db0 19be c171 cbbd 4a40 2fbd
00000190: 50be e33d 9d88 9abd 952a f6bb 63cc 1c3e
000001a0: 5286 a5bd 7220 2c3e 1c80 d63b 067f bb3d
000001b0: 76b6 073e 7088 243e fdb1 0b3e cb3a 90bd
000001c0: 9359 5bbb 9451 86bd d9cd 003d 3342 ea3b
000001d0: 0667 c0bc e0a1 263e 70b4 80bd 202c 0bbe
000001e0: d559 1d3e 5cb1 cabd 07bb e6bd ad77 b23d
000001f0: d6c9 c93d 2f98 bf3d e6ca 173e 2298 01be
00000200: f0d5 f4bc accd e0bc 3cce 1d3d b609 e1bd
00000210: b54b 51bd 9e4c 103e 38e1 e23c 341f 8b3b
00000220: 6945 edbd 8539 363e 7f46 a0bc 8a63 043e
00000230: 594a 21be 3f5b 1d3c d92a 25be f1e5 133b
00000240: 3e69 21be a0b4 0ebe 8c6e 34bc 87e0 31bd
00000250: 68f0 413d 0a3d 14be f8c5 fcbd 20c1 c33d
00000260: b749 043e ded2 78bd 07b7 0abe 252d 893d
00000270: 452a 8ebd cdfb a03d d307 3dbd a545 a1bb
00000280: eaea 8a3d d33d f9bd 6e59 c13c 7411 2a3c
00000290: cbce a5bc 5162 2f3d 7cf1 f8bd 16da 1fbe
000002a0: e2a1 1dbe ad31 d4bc 0015 25bd 0908 6abd
000002b0: 93cf 703c 245d e9bd 014b f23d b9cf 22be
000002c0: 5905 833d e4d1 ccbd 30ad 02be bd2c 163e
000002d0: 1fa2 583c 7243 62bd a00b 16be 544b 763d
000002e0: edb6 26be 8625 383e e507 5f3d a81b e63c
000002f0: 7af1 e5bd 5eae 7ebd 537a abbd 8a0b 453d
00000300: c5e1 b53d 0305 ef3c 0f42 e0bd d8fd ffbd
00000310: 2094 853d 3772 533d ee10 ef3d 2c75 bebd
00000320: 3c82 ccbd 89a9 253e 5f15 1fbd 7f6d 273c
00000330: 0db5 da3d 6295 4c3d b67e bf3d e231 a5bd
00000340: ac73 d8bc 9574 323e 615b 86bd 11ab 363d
00000350: 545a 203d 99ca 813d cd2a ba3d 7c34 bebd
00000360: 25c3 e4bd 4daf 99bd 6014 1e3e 9a81 fabb
00000370: 0244 ffbd 8329 753c 70d6 f5bd 2ea3 7bbd
00000380: 7765 61bd f701 a13b 44b6 f3bd 4e28 17bd
00000390: 2fdd 1fbe b25a 253e e853 233e d841 1abe
000003a0: 9893 68bb 5d2f 183c 481a 413d ab41 dbbb
000003b0: b3c9 cc3d beec a73d 22d2 283e 8213 d8bd
000003c0: 2f7e 18be b708 3abb 5c96 043e 3ed6 e23c
000003d0: fdea 333e ffc6 693c 4c06 a3bc e7c4 0e3e
000003e0: 4282 0ebe f0d8 1d3e b878 00bd 65b1 e13d
000003f0: 7337 0abe 2ccd ec3d fe1e 0b3e 5692 e6bd

lstm.bias_ih_l0 f4 [128]
-0.009752359 0.11105231 -0.17004214 0.12767008 -0.0038211385 0.07815597 0.010601882 -0.11331457
0.02192146 -0.1530761 0.17367765 0.14375925 0.14585565 -0.14487508 -0.09480339 0.18163456
-0.07104151 -0.023363642 -0.066898115 0.140433 0.12903477 0.11151117 -0.08974275 -0.073140115
-0.05541254 0.13714506 0.14735283 0.06172108 -0.051909544 0.06085542 -0.03833517 -0.123749666
0.0065735364 0.15276353 -0.07041174 -0.11363324 -0.0020411646 0.13947284 0.053963695 0.062339954
0.04605376 -0.15907021 -0.16301021 0.15557566 -0.052361757 0.14340019 -0.1479216 0.08482182
-0.08649706 0.13114749 0.15499067 0.0050885757 -0.014204058 0.097114876 0.0656015 0.06907692
-0.030166268 0.08736513 0.12579882 0.04382911 0.09420556 -0.07573184 -0.072003916 0.07904793
-0.07571841 0.064976975 0.06000564 -0.052801415 0.12637258 0.15320332 -0.16964449 -0.1752732
0.12724352 -0.054851472 -0.016644783 -0.0031174547 0.1521266 -0.07924192 -0.09379355 -0.058638398
-0.03141097 0.100898646 0.1005417 -0.038744476 -0.018745184 -0.12492986 -0.10538175 -0.075051464
0.022293696 0.12661384 0.12582329 0.0003780052 0.14717059 -0.067483224 0.08537076 -0.1040572
-0.12913993 -0.00046629796 0.08829464 -0.085923456 0.15049106 0.079067364 -0.117648415 0.10988719
-0.111475945 -0.14881276 0.1447998 0.048314035 0.07043878 -0.046410438 -0.026230808 0.041417178
-0.13719676 -0.092185624 0.10767048 0.107497595 0.11938272 -0.08034961 -0.054172013 -0.0050621135
-0.05091044 0.031613108 0.07234388 0.15526257 0.14515035 -0.007198816 -0.117727935 0.097622536
00000000: 5cc8 1fbc 656f e33d 871f 2ebe f2bb 023e
00000010: 116c 7abb 3d10 a03d 84b3 2d3c 7811 e8bd
00000020: a294 b33c fbbf 1cbe 8ed8 313e a035 133e
00000030: 2f5b 153e 225a 14be 4828 c2bd 69fe 393e
00000040: 367e 91bd 1c65 bfbc e101 89bd abcd 0f3e
00000050: b121 043e f85f e43d 0ccb b7bd 7cca 95bd
00000060: 42f8 62bd c16f 0c3e a9e3 163e 3ecf 7c3d
00000070: 1a9f 54bd 8843 793d 5705 1dbd 7770 fdbd
00000080: d266 d73b 0b6e 1c3e 0834 90bd 8bb8 e8bd
00000090: 0fc5 05bb f8d1 0e3e 0909 5d3d 2e58 7f3d
000000a0: dea2 3c3d 4de3 22be 26ec 26be 3a4f 1f3e
000000b0: 4879 56bd 80d7 123e c378 17be 10b7 ad3d
000000c0: 5f25 b1bd 874b 063e e0b5 1e3e 11be a63b
000000d0: 23b8 68bc 2ae4 c63d 145a 863d 3378 8d3d
000000e0: 401f f7bc 7dec b23d 68d1 003e 2786 333d
000000f0: d8ee c03d 4c19 9bbd ca76 93bd e2e3 a13d
00000100: 4112 9bbd a612 853d 79c8 753d 4c46 58bd
00000110: d067 013e 55e1 1c3e 49b7 2dbe d17a 33be
00000120: 204c 023e f0ab 60bd a45a 88bc 364e 4cbb
00000130: 13c7 1b3e 9649 a2bd d516 c0bd d12e 70bd
00000140: caa8 00bd f3a3 ce3d cfe8 cd3d 87b2 1ebd
00000150: 808f 99bc 3adb ffbd 63d2 d7bd 95b4 99bd
00000160: 45a1 b63c 0fa7 013e d2d7 003e 002f c639
00000170: e3b3 163e a534 8abd ddd6 ae3d f11b d5bd
00000180: 423d 04be 7479 f4b9 d2d3 b43d a3f8 afbd
00000190: 541a 1a3e 12ee a13d a7f1 f0bd 890c e13d
000001a0: 804d e4bd 5f62 18be 6646 143e f0e4 453d
000001b0: 3542 903d df18 3ebd fee1 d6bc 0fa5 293d
000001c0: 4f7d 0cbe d1cb bcbd 5782 dc3d b327 dc3d
000001d0: ed7e f43d 568e a4bd 79e3 5dbd 16e0 a5bb
000001e0: 7787 50bd bf7c 013d 0729 943d 27fd 1e3e
000001f0: 4ba2 143e 0ce4 ebbb 581b f1bd 53ee c73d

lstm.bias_hh_l0 f4 [128]
-0.039208088 0.017824955 -0.018670617 0.07499308 -0.17733805 0.17602989 0.049987417 -0.055953767
-0.10432541 -0.13675 0.1210671 -0.10080887 0.037474025 0.17114224 0.11248725 0.037977368
-0.073141225 -0.124186404 -0.09986228 0.17854954 0.05582366 0.13769683 0.027309563 0.020036468
-0.057832096 0.06056585 0.16923 0.05289062 0.08747257 0.04037832 -0.15701292 0.15820554
0.004241796 0.115489006 -0.13316803 -0.16507743 -0.16892712 -0.15930778 0.071661785 0.18269598
0.15247735 -0.15401745 -0.008386095 0.16082859 -0.16867863 -0.01915203 0.04259085 0.025336975
0.13050248 -0.11413103 0.106801346 -0.026828667 0.026945522 0.15681612 -0.12569211 0.03833547
0.116755985 -0.05774394 0.05804986 0.043280523 -0.09445173 -0.06035338 0.14658083 -0.17601138
0.09016219 -0.03633598 -0.028351776 0.06620393 0.06565401 0.15125047 0.13583149 -0.08000324
-0.030838538 0.07766002 -0.096320614 -0.111482576 -0.13598892 0.04722577 -0.17394611 -0.005635504
-0.029805481 -0.13764828 0.07704685 -0.040411107 0.1258724 -0.14600356 -0.039765224 -0.037526198
-0.17772134 0.08467399 0.08657924 -0.021552008 0.037391108 0.13337587 0.0075818663 0.13662596
-0.11848152 -0.097635075 -0.17575407 -0.07398711 -0.15504706 -0.12556484 -0.13425757 -0.15179704
0.07073436 0.0013615426 0.16058967 -0.043151185 -0.11537419 -0.044054028 -0.09100958 0.058742773
0.1389982 0.072598845 -0.0832032 -0.08199998 0.039288968 0.06387381 0.110956475 0.03739862
0.042191323 -0.07206611 0.031684946 -0.03488397 -0.05013547 -0.079756476 -0.036467694 -0.17130117
00000000: a998 20bd a405 923c 1ff3 98bc f995 993d
00000010: 1b98 35be 2e41 343e 9bbf 4c3d c72f 65bd
00000020: 90a8 d5bd 3108 0cbe 07f2 f73d e174 cebd
00000030: 5d7e 193d e93f 2f3e b75f e63d 288e 1b3d
00000040: 11cb 95bd 7155 febd 9884 ccbd b1d5 363e
00000050: 5aa7 643d 6600 0d3e 4eb8 df3c 8523 a43c
00000060: 59e1 6cbd e613 783d a14a 2d3e d6a3 583d
00000070: d224 b33d bd63 253d ffc7 20be a200 223e
00000080: c4fe 8a3b 8085 ec3d 335d 08be 0f0a 29be
00000090: 3bfb 2cbe 9421 23be 6ac3 923d a814 3b3e
000000a0: 0623 1c3e c0b6 1dbe d565 09bc 40b0 243e
000000b0: 17ba 2cbe b8e4 9cbc be73 2e3d 7d8f cf3c
000000c0: 71a2 053e 88bd e9bd aaba da3d cbc7 dbbc
000000d0: dbbc dc3c 6894 203e 6fb5 00be a705 1d3d
000000e0: c31d ef3d e984 6cbd b1c5 6d3d eb46 313d
000000f0: e96f c1bd 1b35 77bd 4919 163e 543c 34be
00000100: f4a6 b83d 09d5 14bd fc41 e8bc ed95 873d
00000110: 9c75 863d 67e1 1a3e 6917 0b3e bdd8 a3bd
00000120: 1aa1 fcbc 370c 9f3d be43 c5bd fa50 e4bd
00000130: ae40 0bbe cf6f 413d ee1e 32be 09aa b8bb
00000140: a02a f4bc acf3 0cbe bdca 9d3d 1e86 25bd
00000150: b2e4 003e f581 15be dce0 22bd 12b5 19bd
00000160: 95fc 35be 8f69 ad3d 7550 b13d d68d b0bc
00000170: 6b27 193d af93 083e 4e71 f83b ade7 0b3e
00000180: 70a6 f2bd e6f4 c7bd e0f8 33be 8e86 97bd
00000190: a8c4 1ebe 1294 00be d17a 09be af70 1bbe
000001a0: 2ddd 903d ca75 b23a 9e71 243e 4cbf 30bd
000001b0: 4e49 ecbd ff71 34bd 3b63 babd 439c 703d
000001c0: 8b55 0e3e b4ae 943d 7066 aabd 9bef a7bd
000001d0: 78ed 203d 46d0 823d 263d e33d 4c2f 193d
000001e0: cfd0 2c3d 6697 93bd 13c8 013d 7ee2 0ebd
000001f0: da5a 4dbd 5d57 a3bd 265f 15bd 9369 2fbe

fc.weight f4 [1, 32]
0.1301445 -0.18517037 0.16786845 0.015758255 0.10021899 -0.07479815 -0.0050954698 0.020857435
0.08923378 0.087871425 0.16399513 0.02726037 -0.020613482 0.112126 -0.023946654 0.13130921
0.11568607 -0.112227015 -0.14842093 0.03369569 0.06211829 0.13725431 -0.14958823 -0.113619775
0.08377908 -0.16172731 0.028976979 -0.04686714 0.1638418 0.05193992 -0.1544837 0.16160034
00000000: 9a44 053e 4d9d 3dbe b5e5 2b3e 7517 813c
00000010: 9d3f cd3d c62f 99bd e6f7 a6bb 36dd aa3c
00000020: 33c0 b63d eff5 b33d 57ee 273e 2451 df3c
00000030: 9bdd a8bc 51a2 e53d c62b c4bc ec75 063e
00000040: d1ec ec3d 47d7 e5bd a8fb 17be 7e04 0a3d
00000050: c06f 7e3d 658c 0c3e a82d 19be 7cb1 e8bd
00000060: 5e94 ab3d d89b 25be 2161 ed3c c2f7 3fbd
00000070: 25c6 273e f4be 543d fa30 1ebe 8f7a 253e
