time_series_intro_class/final_project/submission/model_params/2_layer_64_size_model_epoch_1500.pth (torch, 203811 bytes, 9 tensors)

lstm.weight_ih_l0 f4 [256, 1]
0	0xbf817d93	-1.0116447
1	0x3f69a0dc	0.91261077
2	0x3f063e23	0.52438563
3	0xbed1f9cb	-0.4101089
4	0xbf8cb5d0	-1.0992985
5	0xbe202951	-0.15640761
6	0x3ef91dcb	0.48655543
7	0xbf867a29	-1.050603
8	0xbffac341	-1.9590837
9	0xbf8d07c9	-1.1018001
10	0xbf679f11	-0.9047709
11	0xbf3d4ad0	-0.7394228
12	0xbefe27e0	-0.49639797
13	0x3d521f32	0.05129928
14	0xbfade42b	-1.3585256
15	0x3f4a6e80	0.7907486
16	0x3da6fe8b	0.08154019
17	0xbf779212	-0.9670726
18	0xbf0c86ef	-0.5489339
19	0x3f17d1f6	0.5930475
20	0xbf195148	-0.5988965
21	0xbebe0682	-0.3711434
22	0xbec3b370	-0.38222837
23	0xc0228c3a	-2.5398088
24	0x3f6b9b00	0.92033386
25	0xbf1e4629	-0.61825806
26	0xbe1f1786	-0.15536317
27	0xbf34e41a	-0.70660555
28	0x3f4a9ba9	0.7914377
29	0xbee32c0a	-0.44369537
30	0xbeac3632	-0.33635098
31	0x3f0f40e9	0.5595842
32	0xbf87f25b	-1.0620836
33	0xbf154772	-0.5831214
34	0xbf6709b9	-0.9024921
35	0xc0072daa	-2.112162
36	0x3f8d0137	1.1015996
37	0xbfb23ccb	-1.3924803
38	0xbf96cb02	-1.1780703
39	0x3da3d3b7	0.07999366
40	0xbf2cb55b	-0.67464226
41	0x4017d9c9	2.3726676
42	0x3e34cf00	0.17657089
43	0x3d9def6d	0.077116825
44	0x3f1c3c56	0.61029565
45	0x3e5310aa	0.20611826
46	0xbfd0b119	-1.6304046
47	0xbf4c47b0	-0.79796886
48	0xbf12a882	-0.5728837
49	0xbffe8c43	-1.9886554
50	0x3e638a7a	0.22220793
51	0xbed3a24c	-0.4133476
52	0x3f3808f6	0.71888673
53	0xbe8364b3	-0.25662765
54	0xbf839af5	-1.0281664
55	0x4000fbf5	2.0153782
56	0xbe6609f7	-0.22464739
57	0xbdb83612	-0.08994688
58	0xbfb2865e	-1.3947256
59	0xbe87eb8e	-0.265469
60	0x3df1dcea	0.11809714
61	0xc00d4fc6	-2.207994
62	0x3db7ae19	0.08968753
63	0xbd9b3010	-0.075775266
64	0x3e283671	0.16427018
65	0xbf2358e1	-0.63807493
66	0xbdb31a9c	-0.0874531
67	0x3ee2a066	0.44263
68	0xbf0c6458	-0.5484061
69	0xbe36fda7	-0.17870198
70	0xbf2a6636	-0.6656221
71	0x3f38c783	0.7217943
72	0xbef09ac5	-0.4699308
73	0xbf62fc53	-0.88666266
74	0xbe94f782	-0.29095083
75	0x3d9b9b2f	0.07597958
76	0x3de5c353	0.11218896
77	0xbd87c8a0	-0.06630063
78	0x3f8ae567	1.0851258
79	0xbf828c1c	-1.0199008
80	0x3ebd6fb5	0.36999288
81	0xbe573c9c	-0.21019214
82	0x3e9e68b8	0.3093927
83	0xbe32cc5b	-0.17460768
84	0x3e1f22e4	0.15540653
85	0xbdaa3a2a	-0.08311875
86	0x3fa844d9	1.3146011
87	0xbf1e63f5	-0.6187127
88	0x4013c552	2.3089185
89	0xbe7efdad	-0.24901457
90	0x3f52175a	0.8206688
91	0x3f090dc5	0.53536636
92	0x40097f38	2.1483898
93	0xbe3c2707	-0.18374263
94	0x3f139db0	0.5766249
95	0x3f3932be	0.7234305
96	0x3f618d73	0.8810646
97	0x3f7be19f	0.98391145
98	0xbec56f1c	-0.38561332
99	0xc0319a1f	-2.7750318
100	0x3fae6999	1.3625976
101	0xbf8921de	-1.071346
102	0x3fdb6c2a	1.7142384
103	0x3e614ea8	0.22002661
104	0xbe95dd43	-0.29270372
105	0x3f816c5a	1.0111191
106	0xbe29a958	-0.16568506
107	0xbf0febb6	-0.5621904
108	0x3f1a9fbd	0.6039999
109	0x3e6ad2b9	0.22931947
110	0xbf112638	-0.5669894
111	0x3f689895	0.9085782
112	0xbe1adab2	-0.15122488
113	0xbecff3f5	-0.40615812
114	0x3f70b9e8	0.9403367
115	0x3e610f29	0.2197844
116	0x3f83a90e	1.0285966
117	0xbf582465	-0.84430534
118	0x3f925095	1.1430842
119	0x3ebaa007	0.36450216
120	0x3e97ed53	0.29673252
121	0xbf0e0170	-0.55470943
122	0x3fccc6f2	1.5998213
123	0x3e93863b	0.28813347
124	0x3d7ad187	0.061234977
125	0x3f0f17c0	0.55895615
126	0x3eb12a2d	0.3460249
127	0x3f6d1298	0.92606497
128	0x3f119514	0.568681
129	0x3fcac4c8	1.5841303
130	0xbf4b3742	-0.7938119
131	0xbfda46db	-1.7052873
132	0xbfe23219	-1.7671539
133	0x3fd39973	1.6531204
134	0x3f197d61	0.5995694
135	0x3f92adc7	1.1459283
136	0xbf8f3fd6	-1.1191356
137	0xbfabd3cc	-1.342401
138	0x3f75c5ea	0.9600512
139	0xbec92846	-0.3928854
140	0xbe535e9e	-0.20641562
141	0xbf17142f	-0.5901517
142	0x3e94ec36	0.29086465
143	0x3f8e60b8	1.1123266
144	0xbf30c1af	-0.6904554
145	0x3f797ec0	0.9745903
146	0x3f16ec59	0.5895439
147	0xbf2b2a7f	-0.6686172
148	0xbf094a6f	-0.536292
149	0xbf45b5e5	-0.77230674
150	0x3fdaf3c2	1.7105639
151	0xbfb39586	-1.4030006
152	0xbf57138b	-0.84014195
153	0x3f5d2c4f	0.86395735
154	0xbfd57feb	-1.6679662
155	0xbf293dcd	-0.66109926
156	0x3ea41502	0.32047278
157	0xbeb31e27	-0.34983942
158	0xbf3f02da	-0.74613726
159	0x3ff47bbe	1.9100263
160	0xbf83771b	-1.0270723
161	0x3f2752be	0.6536063
162	0x3fa94c6c	1.3226447
163	0xbf8d5064	-1.1040158
164	0x3eab6744	0.33477223
165	0xbfdc83ad	-1.7227684
166	0xbf6a1264	-0.9143431
167	0xbe13050e	-0.14357397
168	0x3f328f73	0.69750136
169	0x3ec4633f	0.3835697
170	0xbf6db847	-0.9285931
171	0x3e318484	0.17335707
172	0xbf721183	-0.9455797
173	0x3f4d86d3	0.8028385
174	0xbf0db3ae	-0.55352294
175	0x3f053d68	0.52046824
176	0x3eb7f642	0.35930067
177	0xbfe91314	-1.8208947
178	0x3dc89dc6	0.09795718
179	0x3e9445d5	0.28959528
180	0x3f8af9ac	1.0857444
181	0x3f8448e4	1.0334744
182	0x3f929f6b	1.14549
183	0xbdf85e4f	-0.12127363
184	0xbf7b2c6d	-0.98114663
185	0x3e9e7d45	0.30954948
186	0xbfaa44c2	-1.3302233
187	0x3ebb2b1d	0.3655633
188	0x3d806140	0.06268549
189	0x3f89928d	1.0747849
190	0x3f2b03d6	0.6680273
191	0xbf9069f0	-1.128233
192	0xbe1ce33c	-0.15321058
193	0x3f26d4e2	0.65168583
194	0x3f160406	0.5859989
195	0xbe50632e	-0.20350334
196	0xbf924cf3	-1.1429733
197	0xbe0f3932	-0.13986662
198	0xbdaa934d	-0.08328877
199	0x3b9b4b3e	0.004739194
200	0xbfb426b7	-1.4074315
201	0xbf7dd15e	-0.99147594
202	0xbf3a55b8	-0.72787046
203	0xbeeb4db7	-0.4595773
204	0x3e916fc0	0.2840557
205	0x3ed0c615	0.40776125
206	0xbeed1cec	-0.46311128
207	0x3eb955db	0.36198315
208	0x3daa818b	0.083254896
209	0xbebfcce9	-0.37461022
210	0x3e4469de	0.1918101
211	0x3ebe75d1	0.37199262
212	0xbea4f2a3	-0.32216367
213	0xbddd2d37	-0.1079964
214	0xbd0c0ff3	-0.034194898
215	0xc0335044	-2.801774
216	0x3fdf2f8a	1.7436383
217	0xbf2d7def	-0.67770284
218	0x3d995328	0.07486564
219	0xbeae58a3	-0.34052
220	0x3fd59d85	1.6688696
221	0xbf0b7fc9	-0.5449186
222	0x3e37c716	0.17947039
223	0x3eb92a85	0.36165252
224	0xbe98109a	-0.29700166
225	0xbe9597a9	-0.2921727
226	0xbf368094	-0.71289945
227	0xc00309ec	-2.0474806
228	0x3fc22fca	1.5170834
229	0xbf820323	-1.0157207
230	0x3f288493	0.6582729
231	0x3c80d553	0.01572672
232	0xbf1113c1	-0.5667077
233	0x402276d2	2.5385022
234	0x3f4a2ee3	0.78977793
235	0xbec3e5c3	-0.38261232
236	0x3f44d9f8	0.76895094
237	0xbcb75682	-0.022380117
238	0xbfda2ae0	-1.7044334
239	0x3e5c0639	0.21486749
240	0xbeaf6543	-0.34256944
241	0xbfa1512e	-1.2602899
242	0x3f1b7bcb	0.6073577
243	0x3dc8c9ca	0.09804113
244	0x3f838822	1.027592
245	0xbef728dc	-0.4827336
246	0x3ea7d8d9	0.3278263
247	0x3fb8931a	1.4419892
248	0xbe9ec602	-0.31010443
249	0x3e5738e4	0.21017796
250	0x3f355696	0.70835245
251	0x3eb27059	0.3485134
252	0x3eecf4f0	0.46280622
253	0xbf8b7d12	-1.0897543
254	0x3d107478	0.035267323
255	0x3f42bd5b	0.76070184

lstm.weight_hh_l0 f4 [256, 64]
0	0x3e81e74f	0.25371787
1	0xbec1ba0f	-0.37837264
2	0x3e6b18cb	0.22958677
3	0x3eaa07b4	0.33209002
4	0x3ee639fc	0.44966114
5	0xbeed99a6	-0.46406287
6	0xbe192880	-0.14956856
7	0x3e7d92df	0.24763058
8	0xbeb5b218	-0.35487437
9	0xbea580cb	-0.32324824
10	0x3ed61529	0.4181302
11	0xbebb94e7	-0.3663704
12	0xbe8ac001	-0.27099612
13	0x3df20dc5	0.118190326
14	0x3e2a4af3	0.16630153
15	0xbe85c9d9	-0.2613056
16	0x3c1a1148	0.009403534
17	0x3e870c12	0.26376396
18	0x3e90bccf	0.2826905
19	0x3e1c1bff	0.15245055
20	0xbdc4ff8f	-0.096190564
21	0x3e1ab4d4	0.15108043
22	0xbee3784a	-0.4442771
23	0x3ce89ddf	0.028395591
24	0x3dd950d9	0.106111236
25	0x3d4c86b8	0.049933165
26	0x3ecd781b	0.40130696
27	0xbda538f0	-0.080675006
28	0xbda7994f	-0.08183538
29	0xbe76b27f	-0.24091528
30	0xbd99a394	-0.07501903
31	0xbe506fbb	-0.20355122
32	0x3d17ceac	0.037062332
33	0x3e3476e8	0.17623484
34	0xbda5af03	-0.080900215
35	0x3f3cb95e	0.7372035
36	0x3ec27b8d	0.37984887
37	0xbdc73664	-0.09727171
38	0xbdf396bc	-0.11893985
39	0xbec6f037	-0.38855144
40	0x3e0f1a5c	0.13974899
41	0x3ee078dc	0.43842208
42	0xbe6acfd9	-0.2293085
43	0x3e6b6e2c	0.22991246
44	0x3e21253b	0.15736859
45	0x3e3371be	0.17523858
46	0xbe12f36d	-0.14350672
47	0x3e26b263	0.16278987
48	0xbe789a59	-0.24277629
49	0xbe16d658	-0.14730203
50	0x3e9d25b4	0.30692828
51	0x3ddfcf66	0.1092823
52	0xbe6868b0	-0.22696185
53	0xbe088a42	-0.13333991
54	0x3ddd9334	0.108190924
55	0x3f0aaf82	0.54174054
56	0xbd85d780	-0.06535244
57	0x3d327957	0.04357275
58	0xbe8e8935	-0.27839056
59	0xbf2354e1	-0.6380139
60	0x3df959d1	0.12175334
61	0x3e41e86f	0.18936323
62	0xbe7a462b	-0.2444083
63	0xbe22ad34	-0.15886384
64	0x3df93413	0.121681355
65	0xbf6bcab4	-0.92106175
66	0xbe3fe592	-0.18739918
67	0xbec895d5	-0.39176813
68	0xbcdbcc4d	-0.026830817
69	0x3dbf8b31	0.093527205
70	0xbe97d2fd	-0.2965316
71	0xbe6d2f3e	-0.23162553
72	0x3ee67f04	0.4501878
73	0x3ed05299	0.40688017
74	0xbe7ed5ca	-0.24886242
75	0x3eafe477	0.34353992
76	0x3f28263f	0.6568336
77	0xbf016a9d	-0.50553304
78	0xbe894152	-0.26807648
79	0xbf66cbed	-0.90154916
80	0xbea6e166	-0.3259384
81	0xbe140274	-0.14454061
82	0x3e114ace	0.14188692
83	0x3f606c42	0.8766519
84	0x3f06b8cb	0.5262572
85	0xbde57087	-0.112031035
86	0xbf13f994	-0.578027
87	0x3e352930	0.17691493
88	0xbe47815e	-0.19482943
89	0xbf149801	-0.5804444
90	0xbf2ee049	-0.6831098
91	0x3eccb9b1	0.3998542
92	0x3f06a974	0.52602315
93	0x3eb4351f	0.35196778
94	0xbeae947a	-0.34097654
95	0x3ef250f1	0.47327378
96	0xbdfcea33	-0.123493575
97	0x3f82754d	1.0192047
98	0x3f770aa4	0.9650061
99	0x3e2e989b	0.17050402
100	0xbeda73ba	-0.42666417
101	0x3f3c09cd	0.73452455
102	0x3c1406d7	0.009034834
103	0x3f2d712d	0.6775082
104	0x3f3fc06d	0.74902993
105	0xbe8e7277	-0.27821705
106	0x3f17a873	0.5924141
107	0xbf60a370	-0.87749386
108	0xbf2ef2a4	-0.6833899
109	0x3e983b38	0.2973268
110	0x3ebff0f6	0.37488526
111	0x3e06f497	0.13179241
112	0x3f1295e7	0.5725998
113	0x3eaf2797	0.34209892
114	0xbe2b985c	-0.16757339
115	0x3e936786	0.2878992
116	0x3e857d4e	0.26072162
117	0xbf2d6677	-0.67734474
118	0xbe504fcf	-0.20342945
119	0xbde3bfb6	-0.1112055
120	0x3e4a9f06	0.19787225
121	0xbee5cd44	-0.44883168
122	0x3f1ff7f9	0.6248775
123	0xbf185f1f	-0.59520143
124	0xbe9d98a5	-0.3078052
125	0xbeeabdb4	-0.45847857
126	0x3f2d01b3	0.6758072
127	0x3d81c931	0.06337202
128	0xbdd11818	-0.10209674
129	0x3df86608	0.12128836
130	0xbd692a9d	-0.056925405
131	0x3ddaf3ab	0.10691007
132	0xbe4105fc	-0.18849939
133	0x3dd934f5	0.10605804
134	0x3e8ff3b6	0.28115624
135	0x3d6c672d	0.057715584
136	0x3c9dfd4e	0.019285824
137	0x3d809f4f	0.06280386
138	0xbd876cc2	-0.06612541
139	0x3d01f2f7	0.03172585
140	0x3dbb4445	0.09143881
141	0xbe71c209	-0.23609175
142	0xbeab08e3	-0.33405218
143	0xbeebab4e	-0.46029133
144	0x3c351907	0.01105333
145	0xbe17873e	-0.14797685
146	0x3e087031	0.13324048
147	0x3e1e7409	0.15473951
148	0x3e98eea6	0.29869574
149	0xbdc93605	-0.098247565
150	0xbdb98dc3	-0.09060242
151	0x3e101825	0.1407171
152	0xbe7cbdd9	-0.24681796
153	0xbda28be2	-0.07936837
154	0xbe12dde8	-0.14342463
155	0x3e024fff	0.12725829
156	0x3e7f1141	0.24908926
157	0x3e1c7933	0.15280609
158	0x3e0d655f	0.13808201
159	0x3e561640	0.20906925
160	0x3d740279	0.05957267
161	0xbf1cdc1e	-0.6127337
162	0x3db5afe9	0.08871443
163	0xbe0722b4	-0.13196832
164	0xbda2c223	-0.07947185
165	0x3de65001	0.11245728
166	0x3d694774	0.05695291
167	0x3e5911b5	0.21198161
168	0x3eab303b	0.33435234
169	0xbdee0514	-0.11622062
170	0xbe43409b	-0.19067614
171	0xbe962358	-0.2932384
172	0xbd84bebb	-0.064816914
173	0xbd69c22c	-0.057069942
174	0xbd5ef08c	-0.054428622
175	0x3e0a392c	0.13498372
176	0x3e3ce68f	0.18447326
177	0x3df7d907	0.121019416
178	0x3d0b8af6	0.03406807
179	0xbe799e39	-0.24376763
180	0x3ee4a8ae	0.44659942
181	0xbdb87809	-0.0900727
182	0xbd9dcfa8	-0.07705623
183	0xbdbf8be3	-0.09352853
184	0x3eb54f90	0.35412264
185	0x3e8074e3	0.25089177
186	0xbe6fa9a5	-0.23404558
187	0x3eab61d2	0.33473068
188	0x3daf9455	0.08573214
189	0x3c5c87c8	0.013460107
190	0x3ebb657c	0.36600864
191	0xbe798165	-0.24365766
192	0xbec80419	-0.39065626
193	0x3dfd845e	0.12378763
194	0xbc464562	-0.012101503
195	0xbd943dd0	-0.07238352
196	0x3e1b8be8	0.15190089
197	0x3dd6d3b5	0.10489599
198	0xbe344547	-0.17604552
199	0xbe11d1af	-0.14240144
200	0x3e4044fd	0.18776317
201	0x3e157c7f	0.14598273
202	0xbe7f70b7	-0.24945341
203	0x3e8eb1e3	0.27870092
204	0xbdf36788	-0.118849814
205	0xbe4c8ef4	-0.19976407
206	0x3df6ff81	0.12060452
207	0x3e0ad3cc	0.13557357
208	0xbca88e73	-0.020575738
209	0xbea09d10	-0.3136983
210	0xbd740850	-0.05957824
211	0xbe932c93	-0.28744945
212	0xbdd44b22	-0.10365893
213	0xbea90f5d	-0.33019534
214	0x3ebbdcff	0.36692044
215	0x3e489dfd	0.19591518
216	0xbe382b73	-0.17985325
217	0xbd6ac786	-0.057319187
218	0x3e011711	0.12606455
219	0x3d24a788	0.040198833
220	0x3ed60c71	0.41806367
221	0x3d3e9593	0.046529364
222	0xbbcec874	-0.006310517
223	0xbd4ed468	-0.050495535
224	0xbc1ada2c	-0.00945143
225	0x3eac3a3d	0.33638182
226	0x3e1c82c5	0.1528426
227	0xbf48641c	-0.78277755
228	0xbe936112	-0.28784996
229	0x3d19d237	0.037553992
230	0x3d628f76	0.055312596
231	0xbde17b37	-0.110098295
232	0x3d248aeb	0.040171545
233	0xbed69f13	-0.4191824
234	0x3ebc0b96	0.3672759
235	0xbea0547f	-0.31314465
236	0xbec6ecfe	-0.38852686
237	0xbe8a8c19	-0.2706001
238	0xbe6abc86	-0.22923478
239	0xbd13af18	-0.036055654
240	0x3dd755a8	0.105143845
241	0x3dfecb8b	0.124411665
242	0x3c68a2c0	0.014198959
243	0xbea9112f	-0.33020923
244	0x3e818da5	0.2530338
245	0x3de63e8a	0.11242397
246	0xbe16beb8	-0.14721191
247	0xbe8f41ff	-0.2798004
248	0x3d6f40f1	0.058411542
249	0xbe761f0d	-0.24035282
250	0x3e9eabb8	0.30990386
251	0xbe088772	-0.13332918
252	0xbdc8c10d	-0.098024465
253	0xbe9ab51e	-0.30216306
254	0xbdb486d5	-0.0881478
255	0xbd805001	-0.062652595

lstm.bias_ih_l0 f4 [256]
0	0xbe4cf823	-0.20016532
1	0x3e4cb6dc	0.1999163
2	0xbd7ca668	-0.061682135
3	0x3ec67ba0	0.38766193
4	0x3e0bd1ab	0.136542
5	0x3eacbe67	0.33739015
6	0x3dca97d0	0.09892237
7	0xbd929395	-0.07157055
8	0x3c774b44	0.015093628
9	0x3e2d80f4	0.16943723
10	0x3eb9becc	0.3627838
11	0xbe958a62	-0.2920714
12	0xbe23cb7b	-0.1599559
13	0xbe4ff127	-0.20306836
14	0x3ecda5fc	0.401657
15	0x3ef2a83b	0.47393975
16	0xbe6bbd13	-0.23021345
17	0xbeab5c80	-0.3346901
18	0xbd06aabd	-0.032877672
19	0xbd7814c5	-0.060566682
20	0xbe299edc	-0.16564506
21	0xbdd85ac9	-0.10564191
22	0x3ec02f60	0.37536144
23	0xbd4274fc	-0.047474846
24	0x3bdf7b65	0.0068201297
25	0xbe5f8aa9	-0.21830238
26	0x3eadb7d9	0.33929327
27	0x3dfb638e	0.12274848
28	0x3cbbf1e0	0.022942483
29	0xbe24e3ec	-0.1610257
30	0xbe286a52	-0.16446808
31	0x3eea56db	0.4576939
32	0xbe89bb6d	-0.26900807
33	0x3f465cbb	0.77485245
34	0x3eb1608a	0.34643966
35	0x3efbc5b7	0.49174282
36	0xbd3a3930	-0.045464694
37	0x3ec76d94	0.3895079
38	0xbdf546ec	-0.11976418
39	0xbeefd9cf	-0.46845862
40	0xbd56cb6f	-0.052440103
41	0x3e04577c	0.12923998
42	0xbe06baf7	-0.13157259
43	0x3e4b2712	0.19839123
44	0xbe85cf7a	-0.26134855
45	0xbc6663a5	-0.014061843
46	0xbe855990	-0.26044893
47	0xbe314546	-0.17311582
48	0xbc965a74	-0.018353678
49	0xbd7a64d1	-0.061131302
50	0xbcb643a1	-0.022249045
51	0xbd9510b2	-0.07278575
52	0x3dd3d73c	0.10343787
53	0x3ea13f15	0.3149344
54	0x3c0d8a88	0.008638985
55	0x3e7586e0	0.23977232
56	0xbd0bbdd7	-0.034116592
57	0xbdd1ebd7	-0.10250061
58	0x3e33cf57	0.17559563
59	0x3ee73653	0.45158634
60	0xbebec2ac	-0.37257898
61	0x3d183e97	0.037169065
62	0xbc81a18b	-0.0158241
63	0x3c1f8b0c	0.009737741
64	0x3e51e59d	0.20497747
65	0x3e0e4fa8	0.13897574
66	0x3e3ac7a4	0.1824022
67	0xbd2e8f9e	-0.042617433
68	0xbc913e68	-0.017729953
69	0x3e0bc796	0.13650355
70	0xbe23abab	-0.15983455
71	0xba9b9ae4	-0.0011871723
72	0x3cc0964d	0.023509169
73	0xbc95e8c5	-0.01829947
74	0x3e0514cf	0.12996219
75	0xbe3e514f	-0.18585704
76	0xbdc5f10a	-0.09665115
77	0x3d89464a	0.0670286
78	0xbb234e5c	-0.0024918532
79	0xbea5d72c	-0.32390726
80	0xbd018206	-0.03161814
81	0xbde450b7	-0.11148208
82	0xbcfae5e8	-0.030627206
83	0xbe5244e5	-0.20534094
84	0xbec1ab78	-0.37826133
85	0xbe1cb71b	-0.15304224
86	0xbe46ea23	-0.19425254
87	0xbe00101b	-0.12506144
88	0xbd8b3091	-0.06796373
89	0xbe9f5925	-0.311227
90	0xbe30915e	-0.17242953
91	0xbcd76cd0	-0.026297003
92	0x3df28b32	0.11842956
93	0xbe5c7294	-0.21528083
94	0xbe3a6d6e	-0.18205807
95	0xbd1e3886	-0.038628124
96	0xbe2c6586	-0.16835603
97	0xbf282a28	-0.65689325
98	0xbe544c7e	-0.20732304
99	0xbe31b868	-0.17355502
100	0xbcab162d	-0.020884598
101	0xbe346bce	-0.17619249
102	0x3d40f3ed	0.047107626
103	0xbe91db42	-0.28487593
104	0xbe98badd	-0.29830065
105	0x3e569cec	0.20958298
106	0xbca9778e	-0.02068689
107	0x3d945631	0.07243002
108	0x3d12912f	0.03578299
109	0x3c400fd0	0.01172252
110	0xbc746eb7	-0.014918975
111	0xbe32e8d9	-0.17471637
112	0xbd9dc5be	-0.07703732
113	0xbdf7d988	-0.12102038
114	0xbe2f3067	-0.17108308
115	0x3d6501c5	0.05590989
116	0xbd315fc0	-0.043304205
117	0xbe84ffdc	-0.25976455
118	0x3d6d51af	0.057939228
119	0x3c28024b	0.010254453
120	0x3d288723	0.0411445
121	0xbe1dd686	-0.15413865
122	0x3e1a7e11	0.15087153
123	0xbda8f127	-0.08249121
124	0xbe74ac60	-0.23893881
125	0xbdcb2681	-0.099194534
126	0xbca5cc1d	-0.02023893
127	0xbd599343	-0.053118955
128	0x3c4072dd	0.011746136
129	0x3d533c29	0.051571045
130	0x3d45bd4b	0.048276227
131	0x3d9a6d25	0.07540349
132	0xbd8db4b7	-0.06919234
133	0xbcbf8f08	-0.023383632
134	0x3dae7c54	0.085198075
135	0xbda11c56	-0.07866733
136	0x3d3af4b4	0.045643523
137	0xbd1db9de	-0.038507335
138	0xbcf99425	-0.030466149
139	0xbcf11225	-0.029427597
140	0x3b929132	0.004472875
141	0xbd22da00	-0.039758682
142	0xbd2b6e21	-0.041853074
143	0xbcb4d543	-0.022074347
144	0x3d861140	0.06546259
145	0xbc521ca1	-0.0128242085
146	0xbd8fb26c	-0.07016453
147	0x3dc9ede4	0.09859827
148	0xbae4f581	-0.0017468185
149	0x3b7bf149	0.0038443378
150	0xbdae06d2	-0.084973946
151	0x3d9f9dbf	0.077937596
152	0x3d137860	0.03600347
153	0xbc8fb9b5	-0.017544607
154	0x3cd73e7f	0.026274918
155	0xbd2a2731	-0.041541282
156	0x3dda5fb2	0.10662784
157	0xbb32b20f	-0.0027266776
158	0xbd8359df	-0.06413626
159	0x3c0c1f1f	0.008552342
160	0x3c9f53f0	0.019449204
161	0x3bce7ca7	0.006301481
162	0xbd967063	-0.07345655
163	0xbd1e6ffd	-0.03868102
164	0xbe11931b	-0.14216273
165	0x3d4633c5	0.048389215
166	0x3c350c75	0.011050333
167	0x3c3fdc4a	0.011710236
168	0xbd6337c8	-0.05547312
169	0x3d31034b	0.04321603
170	0x3cc57d8b	0.024107715
171	0xbd63bf67	-0.055602457
172	0xbd4af6e9	-0.049551878
173	0x3d6b7eaf	0.05749386
174	0xbbbf355f	-0.0058352198
175	0xbc02de15	-0.007987519
176	0x3d8b2a2b	0.06795152
177	0x3cfd1a55	0.030896345
178	0x3d2b06fc	0.041754708
179	0x3bbe4f51	0.005807795
180	0x3dbb3788	0.09141451
181	0x3d1d93eb	0.038471144
182	0x3d7985df	0.060918685
183	0x3dac5330	0.08414304
184	0xbc65cb7d	-0.014025566
185	0xbd1e8e78	-0.038710088
186	0x3d8790d9	0.066194244
187	0xbd57a726	-0.05264964
188	0xbc85c69d	-0.016330058
189	0x3c68551e	0.01418045
190	0x3cb8c766	0.022556018
191	0x3d8a8f9a	0.06765671
192	0xbd461de6	-0.048368357
193	0x3f1c92c2	0.61161435
194	0xbd37a0e1	-0.04483116
195	0x3e66c81a	0.2253727
196	0x3e6827de	0.22671458
197	0x3e10baca	0.14133754
198	0x3d9b448d	0.075814344
199	0xbd4e4c34	-0.05036564
200	0xbdc54987	-0.09633165
201	0x3e19fdeb	0.15038268
202	0x3e8696aa	0.26286823
203	0xbea5accf	-0.32358405
204	0xbe4f27e8	-0.20230067
205	0xbe4deb70	-0.20109344
206	0x3ecdfae5	0.4023048
207	0x3eeee19c	0.466565
208	0xbdb4e524	-0.088327676
209	0xbea91a96	-0.33028096
210	0xbe8a9af0	-0.27071333
211	0xbdbdfe7f	-0.09277057
212	0xbdf7fef4	-0.12109175
213	0xbe99d4b7	-0.300451
214	0x3ee9bc65	0.45651546
215	0xbcffaae2	-0.031209413
216	0xbd4f1370	-0.050555646
217	0xbe862745	-0.26201835
218	0x3edbd99c	0.4293946
219	0x3db2b237	0.08725398
220	0x3d174a12	0.036935873
221	0xbe4c5ba5	-0.19956835
222	0xbe6ac493	-0.2292655
223	0x3e6741e8	0.22583735
224	0xbdfa25a0	-0.12214208
225	0x3f20e92b	0.62855786
226	0x3eac58cf	0.33661506
227	0x3f0b6d6d	0.54463845
228	0xbd839ebe	-0.06426762
229	0x3eb082d9	0.3447483
230	0x3c6b3fb2	0.014358448
231	0xbea21c1f	-0.3166208
232	0x3e1b600e	0.1517336
233	0x3d895ec6	0.0670753
234	0xbe0e0762	-0.13870004
235	0x3e906f9f	0.2821016
236	0xbe6b1653	-0.22957735
237	0xbca6f6ed	-0.020381415
238	0xbe579076	-0.21051201
239	0xbe1d7d42	-0.15379813
240	0xbd374fd4	-0.044753864
241	0x3e1c5b33	0.15269165
242	0x3c8fc954	0.017552055
243	0xbdce1ffc	-0.10064694
244	0x3d296c79	0.041363213
245	0x3e8e1b54	0.27755225
246	0x3c63c7f7	0.013902656
247	0x3d28961d	0.041158784
248	0xbd83ebf1	-0.064414866
249	0xbe8cf019	-0.2752693
250	0x3e5c6833	0.21524124
251	0x3f077d91	0.52925974
252	0xbeb68c9c	-0.3565415
253	0xbbc48746	-0.005997571
254	0xbe0fa5d8	-0.14028108
255	0xbd914b3b	-0.07094427

lstm.bias_hh_l0 f4 [256]
0	0xbe46a503	-0.19398884
1	0x3e703db9	0.23461045
2	0xbd624d5d	-0.05524956
3	0x3eaa6c93	0.3328596
4	0x3dc15630	0.09440267
5	0x3ea482a3	0.32130918
6	0x3c621422	0.013798745
7	0xbe3369ca	-0.17520824
8	0xbe0e6102	-0.13904193
9	0xbd15d0c6	-0.036576055
10	0x3ec0a8fb	0.37628922
11	0xbe8d142e	-0.27554458
12	0xbe853660	-0.26018047
13	0xbe6e6526	-0.23280773
14	0x3e7f9a79	0.2496127
15	0x3f03fb4c	0.51555324
16	0xbe183b0b	-0.14866273
17	0xbe96c8c9	-0.29450062
18	0xbe5bfd8e	-0.21483442
19	0x3ccf5b57	0.025312109
20	0xbe88eb1d	-0.26741877
21	0xbe37f581	-0.17964746
22	0x3f151ccb	0.5824706
23	0xbd837128	-0.06418067
24	0xbd1b2ed6	-0.037886463
25	0xbe71ea33	-0.23624496
26	0x3eb22374	0.34792674
27	0x3d96c633	0.07362022
28	0xbd86def4	-0.06585494
29	0xbd9aa461	-0.07550884
30	0xbea01730	-0.3126769
31	0x3e6efe32	0.23339155
32	0xbe24df96	-0.16100916
33	0x3f1e6a56	0.61881006
34	0x3e83fa72	0.25777012
35	0x3ebcd085	0.36877838
36	0xbe101fe7	-0.1407467
37	0x3eccd4ae	0.40006012
38	0x3dbc0663	0.09180906
39	0xbe86690c	-0.2625202
40	0xbcc209fe	-0.023686405
41	0x3dcb21c6	0.09918551
42	0xbdb9fdb0	-0.0908159
43	0x3e54de2c	0.20787877
44	0xbd318df0	-0.043348253
45	0xbe111a8d	-0.14170285
46	0xbe3c12ab	-0.18366496
47	0xbe9996a7	-0.2999775
48	0xbd0e48e0	-0.034737468
49	0x3db37439	0.08762402
50	0xbe42ec81	-0.19035532
51	0xbe2eaf5c	-0.17059082
52	0x3cc621a3	0.024185961
53	0x3e8c3e14	0.27391112
54	0x3b24bc96	0.002513682
55	0x3e74c3a8	0.23902762
56	0x3d222ffe	0.03959655
57	0xbdb1c82e	-0.08680759
58	0x3e8dd603	0.2770234
59	0x3eb8fd74	0.3613087
60	0xbec1b8a2	-0.37836176
61	0xbd633e81	-0.05547953
62	0x3d6badf4	0.05753894
63	0xbe52d32f	-0.20588373
64	0x3e809ac2	0.2511807
65	0x3d800bc3	0.06252243
66	0x3e09c5df	0.13454388
67	0xbe09fd22	-0.13475469
68	0xbd70326b	-0.058641832
69	0x3e53584d	0.20639153
70	0xbde907f8	-0.11378473
71	0x3ce5ab06	0.028035652
72	0xbc1c3c0e	-0.0095358025
73	0xbd1b5113	-0.037919115
74	0x3e60b299	0.2194313
75	0xbdc38e23	-0.09548595
76	0xbd80cd8c	-0.06289205
77	0x3c1f16f5	0.009710063
78	0xbdc9198d	-0.098193265
79	0xbdf307e3	-0.11866739
80	0xbb724875	-0.0036969457
81	0xbdb5ca82	-0.08876516
82	0x3d95e91f	0.07319855
83	0xbd995e0d	-0.07488642
84	0xbe98d21a	-0.29847795
85	0xbe38f926	-0.18063793
86	0xbd2d6ff5	-0.0423431
87	0xbe21e8e6	-0.158115
88	0x3e057da6	0.13036212
89	0xbdc87ac5	-0.097890414
90	0xbe36b94c	-0.17844123
91	0x3c262c6d	0.010142428
92	0x3d12a646	0.035803102
93	0xbe75c19b	-0.23999636
94	0xbdde4e34	-0.1085476
95	0x3e05a318	0.13050497
96	0xbe5915ac	-0.21199673
97	0xbf28a553	-0.65877265
98	0xbeb36f38	-0.3504579
99	0xbd94befc	-0.0726299
100	0xbd133f9a	-0.035949327
101	0xbe30a92a	-0.17252031
102	0xbdd8593b	-0.10563894
103	0xbe50cbc0	-0.20390224
104	0xbe502b81	-0.20329095
105	0x3e46e7bf	0.19424342
106	0xbc89aa22	-0.016804758
107	0x3d888389	0.06665713
108	0x3ba52083	0.005039276
109	0x3c6af01b	0.014339472
110	0xbdaa126f	-0.08304297
111	0xbd8b9cb9	-0.06817002
112	0xbcd75fc2	-0.026290778
113	0xbe0c0dd1	-0.13677146
114	0x3c078317	0.008271
115	0xbdaa65b8	-0.083201826
116	0x3d9632e8	0.07333928
117	0xbe07b486	-0.13252458
118	0xbc888a5f	-0.016667543
119	0x3d5873da	0.05284486
120	0x3ddbc7c3	0.10731461
121	0xbe437fbc	-0.19091696
122	0xbb917cac	-0.004439911
123	0xbd575e5c	-0.052580222
124	0xbe0d7b66	-0.13816604
125	0xbdb8171a	-0.08988781
126	0x3e04df1a	0.12975731
127	0xbcc4cf1b	-0.024024537
128	0xbd33a554	-0.04385884
129	0xbdeeccfd	-0.11660192
130	0xbd0a4f48	-0.033767015
131	0xbd9857c2	-0.074386135
132	0x3d8b2d0a	0.067957
133	0x3d30bcdf	0.04314887
134	0xbd931694	-0.07182041
135	0x3dd53948	0.10411316
136	0x3c4afad3	0.012388903
137	0x3d2610f8	0.040543526
138	0xbc3aafc5	-0.011394446
139	0x3d5acd69	0.05341855
140	0x3d2ae7ed	0.041725088
141	0x3a684dcc	0.00088616903
142	0x3bc8b3ce	0.00612495
143	0xbc5bd7f5	-0.013418187
144	0xbd917654	-0.071026474
145	0xbc786cae	-0.01516263
146	0x3daad4d8	0.08341378
147	0xbda6fa7a	-0.08153243
148	0x3cb1a490	0.021684915
149	0xbc9ded15	-0.019278089
150	0x3d87379a	0.06602402
151	0xbc2f74ff	-0.010709046
152	0xbde175d0	-0.11008799
153	0xbb188982	-0.002327532
154	0xbd3152d5	-0.043291885
155	0x3e017ce3	0.12645297
156	0x3d3991d0	0.045305073
157	0x3d511f43	0.051055204
158	0x3d80d7d3	0.06291165
159	0x3c4f0d13	0.0126373945
160	0xbd0d8b25	-0.034556527
161	0xbcfcac1d	-0.030843789
162	0x3daacd71	0.08339966
163	0x3dce3a6a	0.10069735
164	0xbbdbc8b9	-0.0067072776
165	0xbc871fba	-0.01649462
166	0xbd0e1472	-0.034687467
167	0x3b77b867	0.0037799121
168	0x3d172903	0.036904346
169	0xbde549df	-0.111957304
170	0xbc4f3893	-0.012647766
171	0xbccf5055	-0.02530686
172	0xbba5397b	-0.0050422526
173	0xbcd987fe	-0.026554104
174	0x3d0e6d20	0.03477204
175	0x3d9c2799	0.0762474
176	0xbd1119e4	-0.03542508
177	0x3c66d3d2	0.014088588
178	0x3ca3c6fa	0.01999234
179	0xbcbe0d95	-0.023199836
180	0xbd7dc25c	-0.061952934
181	0xbc8b2f3e	-0.0169903
182	0xbc21e175	-0.009880413
183	0xbde851aa	-0.11343701
184	0x3a580fc1	0.00082420936
185	0x3c8f3201	0.017479898
186	0xbda07af1	-0.07835949
187	0x3db67363	0.08908727
188	0xbbc803b1	-0.0061039557
189	0xbd497fd6	-0.04919418
190	0x3cad3c20	0.021146834
191	0xbddce16a	-0.10785182
192	0xbdc6a8b9	-0.0970015
193	0x3f29f0b0	0.66382885
194	0xbe00a726	-0.12563762
195	0x3eb14855	0.34625497
196	0x3e8e3691	0.27776006
197	0x3e86ef0a	0.26354247
198	0xbd6c01b9	-0.05761883
199	0xbdeeb207	-0.1165505
200	0xbc52f30a	-0.012875328
201	0x3e351c22	0.17686513
202	0x3e758e8d	0.2398016
203	0xbe3d04d4	-0.18458873
204	0xbd2bedb6	-0.041974746
205	0xbdd38a83	-0.103291534
206	0x3eaa1ab4	0.33223498
207	0x3f078330	0.5293455
208	0xbdf0eb72	-0.11763658
209	0xbe9fa7c8	-0.31182694
210	0xbd585f18	-0.052825063
211	0x3db388f0	0.08766353
212	0xbe649c15	-0.22325166
213	0xbe8dc05f	-0.2768583
214	0x3eb2631c	0.3484124
215	0x3c0651be	0.0081982
216	0x3dd2053a	0.10254903
217	0xbe3985c0	-0.18117428
218	0x3e866e0c	0.26255834
219	0x3e35fe15	0.17772706
220	0x3c5857e1	0.013204546
221	0xbd9f111d	-0.07766936
222	0xbea600fe	-0.32422632
223	0x3eb06035	0.344484
224	0xbe2d8e7c	-0.16948885
225	0x3f25ed77	0.6481547
226	0x3e4979a7	0.19675313
227	0x3f09bf26	0.53807294
228	0xbdea0afa	-0.11427875
229	0x3ee25cee	0.44211525
230	0xbd6b60b5	-0.057465274
231	0xbe973208	-0.29530358
232	0x3e23ce2e	0.1599662
233	0x3c1a395c	0.00941309
234	0xbe2fc8b6	-0.17166409
235	0x3e8f74f5	0.2801892
236	0xbe8201f4	-0.25392115
237	0xbe0aaeec	-0.1354329
238	0xbe85cea0	-0.26134205
239	0xbe343bb4	-0.176009
240	0xbe77802a	-0.24169984
241	0x3e53dfb6	0.20690808
242	0xbd47a1b8	-0.04873821
243	0xbe340013	-0.17578153
244	0xbc1f69db	-0.009729828
245	0x3e9170f0	0.28406477
246	0xbdf3052e	-0.11866222
247	0x3e3b53ae	0.1829364
248	0x3c89abce	0.016805556
249	0xbe924f47	-0.2857611
250	0x3e8fcdbc	0.2808665
251	0x3f0bee7c	0.54660773
252	0xbeb87965	-0.36030117
253	0xbcda520e	-0.026650455
254	0xbc8c597a	-0.01713251
255	0xbdd1f19a	-0.1025116

lstm.weight_ih_l1 f4 [256, 64]
0	0xbd86f17e	-0.0658903
1	0x3bfb7430	0.0076737627
2	0x3dba43eb	0.090949856
3	0x3e0606bf	0.13088511
4	0x3da15b7e	0.07878779
5	0xbd742836	-0.05960866
6	0xbdc8fe11	-0.09814084
7	0xbd2086af	-0.039190944
8	0xbda6cc5a	-0.08144446
9	0xbd71e7ec	-0.05905907
10	0x3e92031c	0.28517997
11	0xbe432c83	-0.19059949
12	0xbcbcb60f	-0.023036031
13	0x3d30c12a	0.043152966
14	0x3e0d9b0e	0.1382868
15	0xbe34c32a	-0.17652574
16	0xbd8d104b	-0.06887873
17	0x3c6c7954	0.014433224
18	0x3df1fbff	0.118156426
19	0x3e0e1678	0.13875759
20	0xbe4f998a	-0.20273414
21	0xbd1b59ec	-0.037927553
22	0x3d55d968	0.052209288
23	0xbdf8f556	-0.12156169
24	0xbd10caf6	-0.03534981
25	0x3e1b581b	0.15170328
26	0xbd9319fb	-0.0718269
27	0xbce61381	-0.028085472
28	0xbdfee81f	-0.12446617
29	0xbda86c20	-0.08223748
30	0x3e5b135c	0.21394104
31	0x3dfc9408	0.12332922
32	0xbe39dfe0	-0.18151808
33	0x3e28ffe4	0.16503865
34	0x3d56b2c0	0.052416563
35	0x3d87e2bc	0.06635043
36	0x3dd0b9fc	0.10191724
37	0x3c951a32	0.018200967
38	0xbd3e8ce8	-0.046521097
39	0xbe3a4455	-0.18190129
40	0x3dcba85b	0.09944221
41	0xbbe3ea00	-0.006955385
42	0xbca253f5	-0.019815424
43	0xbd6c4f72	-0.057692952
44	0x3ddb3bea	0.10704787
45	0xbda71fde	-0.08160375
46	0x3e4d18fe	0.20029065
47	0xbbf0f85d	-0.007353826
48	0x3c9e89e7	0.019352866
49	0xbd3e934e	-0.0465272
50	0x3d9983fd	0.07495878
51	0xbd2a7507	-0.041615512
52	0xbdfc05ea	-0.123058155
53	0xbe86fa48	-0.26362824
54	0x3e034e6f	0.12822889
55	0x3e04de86	0.12975511
56	0xbdab6d71	-0.08370484
57	0xbcaf0de0	-0.02136892
58	0xbc63410c	-0.013870489
59	0xbe1eaa84	-0.15494734
60	0x3d1718ee	0.03688901
61	0xbd8832e4	-0.066503316
62	0xbd9c98e0	-0.07646346
63	0xbde4c27d	-0.11169908
64	0x3dd23256	0.10263507
65	0x3eb767ac	0.35821283
66	0xbceb61dc	-0.028733186
67	0xbe12d82e	-0.14340279
68	0xbe5eef05	-0.21770866
69	0x3d0f7dfd	0.03503226
70	0x3e068ab7	0.13138853
71	0x3e243441	0.16035558
72	0xbe26e5b4	-0.16298562
73	0xbe40ae29	-0.18816437
74	0xbf1274c4	-0.5720942
75	0xbe3ac564	-0.18239361
76	0xbe54dcd1	-0.2078736
77	0x3d9aaf8f	0.075530164
78	0x3dc7a152	0.09747566
79	0x3e3d45bf	0.18483637
80	0x3de14122	0.10998751
81	0x3ebf944c	0.3741783
82	0x3e53f42b	0.20698611
83	0xbe73650c	-0.23769015
84	0xbe534d15	-0.20634873
85	0x3d5239e1	0.05132473
86	0x3d43588d	0.04769187
87	0x3bd1648a	0.006390159
88	0xbeef7a16	-0.46772832
89	0x3e84f41a	0.25967485
90	0xbd8a5da8	-0.06756145
91	0x3f0b3e46	0.54391897
92	0x3ed1b8de	0.40961355
93	0xbda44818	-0.08021563
94	0xbd6f7f0a	-0.058470763
95	0xbead703d	-0.33874694
96	0xbdc3a272	-0.09552468
97	0xbeed80e0	-0.46387386
98	0x3d1bb013	0.038009714
99	0xbd88b4ce	-0.06675111
100	0xbeb78cf8	-0.35849738
101	0xbeb77c11	-0.35836843
102	0xbeef3120	-0.46717167
103	0xbdcba224	-0.09943035
104	0x3c8435a4	0.01613886
105	0xbeaf0696	-0.34184712
106	0x3d70cde0	0.058790088
107	0x3e0f8407	0.14015208
108	0x3e1b845c	0.1518721
109	0x3d706ec9	0.058699403
110	0x3dcb2edc	0.09921047
111	0x3e840caf	0.25790927
112	0xbd18a099	-0.037262533
113	0xbe90e485	-0.28299347
114	0x3e393e4d	0.18090172
115	0x3e68926e	0.22712108
116	0x3ecd493d	0.4009494
117	0x3d607cb0	0.05480641
118	0x3ebe4e6e	0.37169212
119	0xbea4ff91	-0.32226232
120	0xbd017c96	-0.031612955
121	0xbd0d1fc2	-0.034454115
122	0xbe7a2e45	-0.24431713
123	0x3ec3b18d	0.38221398
124	0xbdb746e0	-0.08949065
125	0x3e7992e7	0.24372445
126	0xbda36681	-0.079785354
127	0xbecf7590	-0.4051938
128	0xbe46e631	-0.19423749
129	0x3d8f390b	0.06993302
130	0xbe5ebddd	-0.21752115
131	0xbf3fa619	-0.7486282
132	0xbecfc2ed	-0.40578404
133	0xbf1a4ca0	-0.6027317
134	0xbf0df95c	-0.5545862
135	0x3e1e66d2	0.1546891
136	0x3c5b1db4	0.013373781
137	0x3eeac182	0.4585076
138	0xbf11efa5	-0.57006294
139	0x3d09d2fc	0.033648476
140	0x3f35987f	0.70935816
141	0xbe92e45b	-0.28689846
142	0xbddc799d	-0.107653834
143	0xbf478c57	-0.77948517
144	0xbdcd129b	-0.10013314
145	0x3e8cf68b	0.27531847
146	0x3de58bd7	0.11208313
147	0xbd3b42f8	-0.045718163
148	0x3e900833	0.28131256
149	0xbea6f6ca	-0.3261016
150	0x3f32c072	0.698249
151	0xbe5cd026	-0.21563777
152	0xbee7343b	-0.45157036
153	0xbe0802e8	-0.13282359
154	0xbe972b14	-0.29525054
155	0x3f21374c	0.62975
156	0x3ef3ecb7	0.47641537
157	0xbf00583c	-0.50134635
158	0xbec9b65f	-0.3939695
159	0xbd413888	-0.047173053
160	0xbe817550	-0.25284815
161	0x3fac9745	1.3483664
162	0x3f5ab964	0.85439134
163	0xbd9bacb1	-0.07601298
164	0xbed0f142	-0.40809065
165	0x3de97d3e	0.11400841
166	0xbe94bd1e	-0.29050535
167	0x3de440f9	0.11145205
168	0x3f87606b	1.05763
169	0xbf4499af	-0.76797
170	0x3f008bc9	0.50213295
171	0xbf421591	-0.7581416
172	0xbe4d97dd	-0.20077462
173	0xbe16972d	-0.14706106
174	0x3e03a56e	0.12856075
175	0x3eaec833	0.34137115
176	0x3f214a30	0.63003826
177	0x3dc47fe7	0.09594708
178	0xbda0025e	-0.078129515
179	0x3da907dd	0.08253453
180	0x3ec22df9	0.379257
181	0xbf770f13	-0.96507376
182	0x3e76b7bf	0.24093531
183	0xbed9451c	-0.4243554
184	0x3e6bb9b2	0.23020056
185	0xbf09f149	-0.53883797
186	0xbeb9b761	-0.3627272
187	0xbf3c89ad	-0.73647577
188	0xbe8a676a	-0.27032024
189	0xbc95881a	-0.018253375
190	0x3e295b79	0.165388
191	0xbe1cdca6	-0.15318546
192	0xbe7c9a76	-0.24668297
193	0x3d62d0ec	0.055375025
194	0x3d92a0c9	0.071595736
195	0x3e1bcb92	0.15214375
196	0x3e96413c	0.29346645
197	0xbebaf809	-0.3651736
198	0xbe58923b	-0.21149532
199	0xbe40778b	-0.18795602
200	0xbd803327	-0.062597565
201	0x3d804848	0.062637866
202	0x3e6a3cc6	0.22874746
203	0x3d8b6d92	0.06808008
204	0xbe3aa398	-0.18226469
205	0xbdd53a83	-0.10411551
206	0x3e7f765e	0.24947497
207	0x3e80690f	0.25080153
208	0x3e4225d3	0.18959741
209	0xbe3a12d8	-0.18171251
210	0x3babcfe3	0.005243288
211	0xbe58b967	-0.21164475
212	0xbe2637cb	-0.16232221
213	0x3c95a7f8	0.01826857
214	0xbd6f0fa1	-0.058364514
215	0xbe044316	-0.12916216
216	0xbd06c78c	-0.032905146
217	0x3d6196c3	0.05507542
218	0x3ec89344	0.39174855
219	0x3d9a91a5	0.07547311
220	0x3dc77371	0.097388156
221	0x3d26963e	0.040670626
222	0x3e6b30e8	0.22967875
223	0xbda25b2f	-0.07927548
224	0x3e101d61	0.14073707
225	0xbe5816f7	-0.2110251
226	0xbe20aa39	-0.15689935
227	0xbe60f9ba	-0.21970263
228	0x3d98509d	0.07437251
229	0x3e29fa22	0.16599324
230	0x3db42cc6	0.08797602
231	0xbea9cd5e	-0.33164495
232	0xbe969784	-0.29412472
233	0x3dcb89a9	0.09938366
234	0x3d080ac6	0.0332134
235	0xbe20d5bd	-0.15706535
236	0x3de9e1b8	0.114200056
237	0xbe97712c	-0.2957853
238	0xbcd6a42c	-0.02620133
239	0x3d8eb733	0.06968536
240	0x3e507172	0.20355776
241	0xbcbfe48e	-0.023424413
242	0xbdf4c013	-0.11950698
243	0xbe973ca6	-0.2953846
244	0x3deb2b0a	0.114828184
245	0xbeaee064	-0.3415557
246	0xbdf378ae	-0.11888252
247	0x3e2cbcbb	0.1686887
248	0x3e805bb7	0.25069973
249	0x3da19487	0.078896575
250	0x3dcce0d5	0.10003821
251	0xbd1fba6c	-0.038996145
252	0x3e69fb2a	0.22849718
253	0xbdf9ade8	-0.12191373
254	0xbd25ce95	-0.040480215
255	0x3e235b4c	0.15952796

lstm.weight_hh_l1 f4 [256, 64]
0	0x3defeaab	0.11714681
1	0xbddf58bd	-0.10905597
2	0xbdc228e0	-0.094804525
3	0x3da1e991	0.079058774
4	0x3c9b9728	0.018992975
5	0xbe068c07	-0.13139354
6	0x3cb3c76c	0.021945678
7	0x3ccc6d45	0.024954448
8	0x3e32f7dc	0.17477363
9	0xbd98be91	-0.07458223
10	0x3e1eab8c	0.15495127
11	0xbdc1e2fa	-0.094671205
12	0xbcf21cbf	-0.029554723
13	0xbe1c6c03	-0.15275578
14	0x3e226e59	0.15862407
15	0x3cd387d0	0.025821596
16	0x3d9f34f0	0.07773769
17	0xbe3c4989	-0.18387426
18	0x3e1ad749	0.15121187
19	0x3d7232ec	0.059130594
20	0xb7e3d760	-2.71608e-05
21	0xbd4456ae	-0.047934227
22	0xbdc64746	-0.09681563
23	0xbd8e6210	-0.06952298
24	0x3e800f49	0.25011662
25	0xbe3857b6	-0.18002209
26	0xbde7bd3a	-0.11315389
27	0x3e8bd003	0.27307138
28	0xbe63966f	-0.22225355
29	0x3e5b34f3	0.21406917
30	0xbe0e3d65	-0.13890608
31	0xbd95e407	-0.073188834
32	0x3e456dfe	0.1928024
33	0x3e301c43	0.17198281
34	0x3e813b6b	0.25240645
35	0x3e85c985	0.2613031
36	0xbe032257	-0.12806068
37	0xbe052efb	-0.13006203
38	0x3e4a516e	0.19757625
39	0xbcd4b5a4	-0.02596552
40	0x3c78437c	0.015152808
41	0xbe8f8756	-0.2803294
42	0xbdfdc49d	-0.12391017
43	0xbe6e20a6	-0.23254642
44	0x3d86d7af	0.06584107
45	0x3e8f969f	0.28044602
46	0x3db186f0	0.086683154
47	0xbe5ee8ec	-0.2176854
48	0xbdeb8e27	-0.11501723
49	0x3e6996f0	0.22811484
50	0x3e1ee326	0.15516338
51	0xbe450f27	-0.19244061
52	0xbe80a877	-0.25128528
53	0xbe858ab7	-0.26082394
54	0x3c8d5501	0.017252447
55	0x3e5fbca6	0.21849307
56	0x3dfbfde0	0.12304282
57	0x3e804233	0.25050506
58	0xbcbddb6a	-0.023175914
59	0x3db8d664	0.09025267
60	0xbe13a33d	-0.14417739
61	0x3e2d0790	0.16897416
62	0xbb969ee7	-0.0045965794
63	0x3dc58e3e	0.09646271
64	0x3e8a6449	0.27029637
65	0x3ded013e	0.115725026
66	0xbddf2113	-0.1089498
67	0xbe4b3f1a	-0.1984829
68	0xbf18614c	-0.59523463
69	0x3e3400b6	0.17578396
70	0xbd881dcb	-0.066463076
71	0xbd515474	-0.05110593
72	0xbdeff03a	-0.117157415
73	0x3d921fd1	0.07134975
74	0xbe3cdc76	-0.18443474
75	0x3e511ca7	0.20421086
76	0xbe2e7935	-0.17038424
77	0xbf2aa3c8	-0.6665616
78	0xbe826881	-0.25470355
79	0xbeb29695	-0.3488051
80	0xbe8eff63	-0.2792922
81	0x3c14f683	0.009091976
82	0xbf2aaf04	-0.666733
83	0xbce43b52	-0.027860317
84	0x3e07ee6c	0.13274544
85	0x3d9c8638	0.07642788
86	0xbe04d352	-0.12971237
87	0x3c657d1a	0.014006877
88	0xbe7f04c3	-0.2490416
89	0x3c86e451	0.016466292
90	0x3e1fd50f	0.15608619
91	0x3cfcd500	0.030863285
92	0x3def596b	0.11686977
93	0x3e57ed62	0.21086648
94	0x3dbb3690	0.09141266
95	0xbe2fdfb4	-0.1717518
96	0xbe3d2a9f	-0.1847329
97	0xbe33c751	-0.17556502
98	0x3d8028b5	0.06257764
99	0x3b87a8f5	0.0041400143
100	0x3e05b385	0.13056763
101	0x3e60e7eb	0.2196347
102	0x3e9e486a	0.30914623
103	0xbe37ad37	-0.1793717
104	0x3cd5d779	0.026103722
105	0x3e1d08bd	0.15335365
106	0x3e5c2e9f	0.2150216
107	0xbe8e34a8	-0.2777455
108	0xbd04183c	-0.032249674
109	0xbe13f5c5	-0.14449222
110	0xbdff43b4	-0.12464085
111	0xbe205dbb	-0.15660755
112	0xbce41e6c	-0.027846538
113	0x3ec6287b	0.3870276
114	0xbe7c62a9	-0.24647011
115	0xbe9d45c5	-0.30717292
116	0x3edcaf46	0.43102473
117	0x3efb48bc	0.4907893
118	0x3e1a2836	0.15054402
119	0xbe5f0b7c	-0.21781725
120	0x3dc51827	0.09623747
121	0xbd9f3ca5	-0.07775239
122	0x3cf82f3c	0.03029596
123	0xbe0a1a71	-0.13486649
124	0x3e5eba6a	0.21750799
125	0xbd99890a	-0.07496841
126	0x3e703c01	0.2346039
127	0x3dde6b7b	0.10860344
128	0x3e96e5bc	0.29472148
129	0x3e453796	0.19259486
130	0xbeff37ba	-0.49847203
131	0x3e5a2098	0.21301496
132	0x3d8ac092	0.06775011
133	0xbd3dbe84	-0.046324268
134	0x3ec8ad35	0.39194646
135	0x3efeff34	0.4980408
136	0x3d198e89	0.037489448
137	0xbe1fd377	-0.15608011
138	0xbe8eb420	-0.278718
139	0xbea7f2a2	-0.32802302
140	0x3c390928	0.011293687
141	0x3e20ed9e	0.15715644
142	0x3e722fde	0.23651072
143	0xbde1ebd8	-0.11031312
144	0xbe5b6363	-0.21424632
145	0xbdff6999	-0.12471313
146	0x3e99126a	0.2989686
147	0x3d8b3e6a	0.06799014
148	0xbe6812ed	-0.2266347
149	0xbe8ad3ec	-0.2711481
150	0xbea32f90	-0.31872225
151	0x3d673714	0.05644901
152	0x3ee5f60c	0.4491428
153	0x3d1bd3f0	0.038043916
154	0x3e9765df	0.2956991
155	0x3dcfc47a	0.10144897
156	0xbd3292e7	-0.04359713
157	0x3e567368	0.20942461
158	0x3ea80602	0.32817084
159	0x3e997262	0.2997008
160	0x3e912120	0.28345585
161	0xbe13fc83	-0.14451794
162	0x3e23ece3	0.16008334
163	0x3f06e52f	0.52693456
164	0xbdf6e42a	-0.120552376
165	0x3eac9d3b	0.33713707
166	0x3f092eb2	0.53586876
167	0x3c7934dc	0.015210357
168	0x3d0e120a	0.034685172
169	0xbc7f83fc	-0.015595432
170	0xbd98f49c	-0.074685305
171	0xbdfb61af	-0.12274491
172	0x3e15e857	0.14639412
173	0xbdf88fc3	-0.12136795
174	0x3e4d98de	0.20077845
175	0xbe6b271b	-0.22964136
176	0xbec195c9	-0.3780959
177	0x3e677730	0.2260406
178	0x3e048880	0.12942696
179	0xbf08cf45	-0.5344127
180	0xbcb5ae69	-0.022177892
181	0xbddc9e64	-0.10772398
182	0x3c337ff5	0.0109558
183	0xbe0ce620	-0.1375966
184	0x3ec399be	0.38203233
185	0x3cba01bb	0.022705903
186	0xbe2fcef1	-0.17168786
187	0xbe95d52c	-0.292642
188	0x3ea3c6fc	0.3198775
189	0x3db98428	0.0905841
190	0x3ea07560	0.3133955
191	0x3df523ac	0.119696945
192	0x3e2b6296	0.16736826
193	0x3e7abfe2	0.2448726
194	0x3da0b959	0.07847852
195	0x3e1068f9	0.14102544
196	0xbeeb221b	-0.45924458
197	0x3e9bf348	0.30459046
198	0xbdf66496	-0.12030904
199	0xbea7adb7	-0.3274972
200	0xbe47cd7c	-0.1951198
201	0xbd32ad63	-0.043622386
202	0x3eef219a	0.46705323
203	0x3e92fe4b	0.28709635
204	0xbea49841	-0.3214741
205	0x3ea435e6	0.3207237
206	0x3e89710d	0.26844063
207	0xbd8de1a0	-0.069278
208	0xbed7660d	-0.42070046
209	0xbe1196a9	-0.14217629
210	0xbeada63a	-0.33915883
211	0xbe7775c5	-0.2416602
212	0x3e38baf2	0.18040064
213	0x3e0011d6	0.12506804
214	0xbda83135	-0.082125105
215	0xbea7a8ba	-0.32745916
216	0x3e260b6f	0.16215299
217	0x3cecfb97	0.028928561
218	0xbdb7b1b4	-0.08969441
219	0xbd9e0cf0	-0.077173114
220	0xbd3bbaf6	-0.045832597
221	0x3d5e2ab5	0.054239947
222	0x3e392c5f	0.18083332
223	0x3dd524df	0.10407423
224	0xbee5ada3	-0.44859037
225	0x3eb74470	0.357944
226	0x3e975af7	0.29561588
227	0x3da3f055	0.08004824
228	0xbddcb93a	-0.10777517
229	0x3e9cfc0f	0.30661055
230	0xbd4a0012	-0.049316473
231	0xbdc2e1fa	-0.09515758
232	0x3e381de9	0.1798016
233	0x3e816998	0.25275874
234	0xbe8a7e74	-0.270496
235	0xbe14f454	-0.14546329
236	0x3e0f1040	0.13971043
237	0xbd20d4d7	-0.03926548
238	0x3d07eeac	0.0331866
239	0x3db36bfc	0.08760831
240	0xbed15b27	-0.40889856
241	0x3e98dcee	0.29856056
242	0x3e79552f	0.24348901
243	0xbedf2521	-0.43583015
244	0xbed5caac	-0.4175619
245	0x3e030397	0.12794338
246	0x3e7c5685	0.2464238
247	0x3e397fd5	0.1811517
248	0x3f2c4b66	0.6730255
249	0x3e275179	0.16339673
250	0xbe7529e7	-0.23941766
251	0x3e64c2fb	0.22340004
252	0x3e299e4f	0.16564296
253	0x3ea29c2c	0.31759775
254	0xbe926131	-0.28589776
255	0xbe55bd4c	-0.20872992

lstm.bias_ih_l1 f4 [256]
0	0xbe398525	-0.18117197
1	0xbd83501e	-0.064117655
2	0xbccd1f58	-0.02503936
3	0xbd038a8f	-0.03211456
4	0xbb073325	-0.002062985
5	0xbdf97adf	-0.12181639
6	0xbded7472	-0.11594476
7	0x3e0d4dc5	0.13799198
8	0xbe1de65a	-0.15419903
9	0xbe260687	-0.16213427
10	0x3da9fbb7	0.08299964
11	0x3e418148	0.18896973
12	0xbe242413	-0.16029386
13	0x3c8f9c35	0.01753054
14	0x3e48bd6d	0.1960351
15	0xbe145968	-0.14487231
16	0xbe1a0d74	-0.15044194
17	0xbd857e2a	-0.065182045
18	0x3e1934da	0.14961568
19	0xbe074ab6	-0.13212094
20	0xbe25308d	-0.16131802
21	0xbe240497	-0.16017376
22	0xbe889c7c	-0.26681888
23	0xbd834d69	-0.06411249
24	0x3c299006	0.010349279
25	0xbe4f68d1	-0.20254828
26	0xbe11d8b8	-0.14242828
27	0xbd8c5919	-0.068529315
28	0xbd46d819	-0.04854593
29	0xbd32046a	-0.04346124
30	0x3b8f6cd2	0.004376986
31	0x3e327ebb	0.17431156
32	0x3e3093ba	0.17243853
33	0xbbe92061	-0.0071144556
34	0xbe3df32a	-0.18549791
35	0x3c0e9f88	0.008705027
36	0xbcdd9511	-0.02704862
37	0x3dc05b6a	0.09392436
38	0x3e451074	0.19244558
39	0x3de94ff8	0.11392206
40	0xbd3fe5c2	-0.046849973
41	0xbe289482	-0.16462901
42	0x3b722523	0.0036948405
43	0xbda857f7	-0.08219903
44	0xbc6c6611	-0.014428631
45	0x3ce40a6a	0.027836997
46	0xbdc8633b	-0.09784552
47	0x3e50ab48	0.20377839
48	0x3e3e453e	0.18581101
49	0xbc6c46ce	-0.014421178
50	0xbe9f0049	-0.31054905
51	0x3de29403	0.11063387
52	0x3c6c1a1c	0.014410522
53	0x3ed35b52	0.4128061
54	0x3d936fcf	0.0719906
55	0xbd4c12ee	-0.04982274
56	0x3def4df7	0.116847925
57	0xbe5bbcff	-0.21458815
58	0xbe3670b4	-0.1781643
59	0x3dad3a21	0.08458353
60	0xbd92f34b	-0.07175311
61	0xbd33184d	-0.043724347
62	0xbc9219f2	-0.017834637
63	0xbc2b3173	-0.010448801
64	0xbc98dfc7	-0.018661393
65	0xbd83a23b	-0.064274274
66	0xbe65c62e	-0.22438881
67	0x3db19246	0.086704776
68	0x3de2f5f3	0.11082067
69	0x3d4c04d3	0.04980929
70	0xbdc0e703	-0.09419062
71	0x3dae0a83	0.08498099
72	0xbe1d578b	-0.15365426
73	0xbd42d178	-0.047563046
74	0xbea4ee7c	-0.322132
75	0xbd811fac	-0.06304869
76	0xbdf71113	-0.120638035
77	0xbcc8f441	-0.024530532
78	0x3e671783	0.22567563
79	0x3c848a81	0.016179325
80	0x3d5c188c	0.053734347
81	0xbe2658c1	-0.16244794
82	0xbe911bd1	-0.28341535
83	0xbe0492c8	-0.12946618
84	0x3d90bb7f	0.07067012
85	0xbcac91bb	-0.021065583
86	0xbdc4e990	-0.09614861
87	0xbe58f2fc	-0.21186441
88	0xbe4e9621	-0.20174457
89	0xbc3e248d	-0.011605394
90	0xbd6eed23	-0.05833162
91	0xbdc330bd	-0.095307805
92	0xbe4c0ece	-0.19927523
93	0x3e1231db	0.14276831
94	0xbde8b37e	-0.113623604
95	0xbe3d498f	-0.18485092
96	0x3e1db4da	0.1540102
97	0xbce5625c	-0.028001003
98	0xbe0a3311	-0.13496043
99	0x3e2908e3	0.16507296
100	0x3e1b78b1	0.15182759
101	0x39e557ed	0.00043743794
102	0x3e14b90e	0.14523718
103	0xbd94fda4	-0.072749406
104	0xbdffc80d	-0.124893285
105	0xbd43bcb9	-0.0477874
106	0x3d8fb562	0.07017018
107	0x3c72eb73	0.014826643
108	0xbe1158a4	-0.1419397
109	0xbda032d9	-0.078221984
110	0x3d24d6d7	0.04024395
111	0x3e182699	0.14858474
112	0xbea26674	-0.3171879
113	0x3d6c2c04	0.057659164
114	0xbdf8d6ca	-0.12150343
115	0x3af29865	0.0018508552
116	0xbe01652e	-0.12636253
117	0xbd887446	-0.066628024
118	0x3d8804c5	0.06641535
119	0x3d0c737e	0.03428983
120	0x3e2ccc74	0.16874868
121	0xbe5526ab	-0.20815532
122	0xbca35002	-0.019935612
123	0x3c41d961	0.011831612
124	0x3d9ad865	0.07560805
125	0x3b264635	0.0025371436
126	0x3da2728a	0.07932003
127	0xbdec23ac	-0.11530241
128	0xbd819b68	-0.063284695
129	0x3d7b5cb4	0.061367705
130	0x3d148f4c	0.03626947
131	0x3c433838	0.011915259
132	0x3d3c28e1	0.045937423
133	0x3de74e0e	0.112941846
134	0xbcfda268	-0.03096123
135	0x3d5eca07	0.054391887
136	0xbcbc17a2	-0.022960488
137	0x3cbfa782	0.023395304
138	0xbe58f42b	-0.21186893
139	0xbc0cfc96	-0.008605143
140	0x3cbf82c2	0.02337778
141	0xbd2fcdef	-0.042921003
142	0x3dcf7cfc	0.10131261
143	0xbd0c0fbc	-0.034194693
144	0xbdc28101	-0.09497262
145	0x3ce9b019	0.028526353
146	0xbdff6ea9	-0.124722786
147	0xbbbbcb92	-0.0057310546
148	0x3db5b12f	0.08871686
149	0xbd95342c	-0.072853416
150	0xbdd727be	-0.10505627
151	0xbd5559a9	-0.05208746
152	0x3dcb9985	0.09941391
153	0xbd573fba	-0.05255101
154	0xbd5ebc9e	-0.054379098
155	0xbb8c0ae6	-0.00427376
156	0x3ca492ea	0.020089585
157	0xb82ab9df	-4.0704264e-05
158	0xbd8ef214	-0.069797665
159	0xbd3d8b4e	-0.04627543
160	0xbdfaa2c3	-0.122380756
161	0x3b97ab3f	0.0046285684
162	0x3c29f5c4	0.0103735365
163	0xbd1c81e0	-0.038209796
164	0xbd5c629b	-0.053804975
165	0x3c852674	0.016253687
166	0xbc6e190e	-0.014532341
167	0xbd5b8e06	-0.05360224
168	0xbcc4d627	-0.024027897
169	0x3dbb6780	0.091506004
170	0x3da41c7c	0.080132455
171	0xbc8e787f	-0.017391441
172	0xbd108ab3	-0.035288524
173	0x3d62549a	0.055256464
174	0xbb08d3ae	-0.0020878124
175	0xbc552aab	-0.013010661
176	0x3c26d47d	0.010182497
177	0xbd966585	-0.07343582
178	0xbad8ab0b	-0.0016530467
179	0xbd25983e	-0.040428393
180	0x3e356513	0.17714338
181	0xbc00214c	-0.007820439
182	0x3d081a4c	0.033228204
183	0xbdb9d37e	-0.09073542
184	0xbde892f9	-0.11356158
185	0x3c814580	0.01578021
186	0xbd591383	-0.052997123
187	0xbd69597d	-0.05697011
188	0xbdb1f5d5	-0.08689467
189	0xbbe8566c	-0.0070903804
190	0x378967a9	1.6379943e-05
191	0x3d7b7910	0.06139475
192	0xbe22aef1	-0.15887047
193	0xbcf69fe4	-0.030105539
194	0x3e06de81	0.13170816
195	0xbe0375a9	-0.12837853
196	0xbe254f2c	-0.16143483
197	0x3d1cb816	0.038261496
198	0xbd94d079	-0.072663255
199	0x3d51f983	0.051263344
200	0xbe7bb3ef	-0.24580358
201	0x3d8c88d5	0.06862036
202	0x3cd25882	0.02567697
203	0x3c327420	0.010891944
204	0xbe0b1267	-0.13581239
205	0x3e1698e3	0.14706759
206	0xbd714e82	-0.05891276
207	0xbe2d4ec1	-0.16924573
208	0x3df73595	0.12070767
209	0xbda9c4f8	-0.08289522
210	0x3d57df1a	0.052703
211	0xbdc4a767	-0.09602242
212	0xbc0d53ac	-0.008625906
213	0xbd9358d7	-0.07194679
214	0xbdd781ed	-0.10522828
215	0xbc96694f	-0.018360762
216	0xbd6b9d09	-0.057522807
217	0xbdf9888d	-0.12184248
218	0xbd65c72a	-0.05609814
219	0x392c14bb	0.00016410921
220	0xbd9e679a	-0.07734604
221	0xbe2e279b	-0.17007296
222	0xbe2119f1	-0.15732552
223	0x3eaf350b	0.34220156
224	0xbca509e7	-0.020146323
225	0xbd0727be	-0.032996885
226	0xbe0f4722	-0.13991979
227	0x3df1a40d	0.11798868
228	0xbaa46166	-0.0012541234
229	0x3da565e4	0.08076075
230	0x3d13553d	0.03596996
231	0x3e2a9514	0.16658431
232	0xbc912ee9	-0.017722564
233	0xbe61e412	-0.22059658
234	0x3b4a7e68	0.0030898098
235	0xbd8c7709	-0.06858642
236	0x3e0aed6c	0.13567132
237	0x3c986d58	0.018606827
238	0xbe2b3dbb	-0.16722767
239	0xbb3c2482	-0.0028708284
240	0xbe0eeccf	-0.13957523
241	0xbd9197df	-0.07109045
242	0xbe487034	-0.19574052
243	0x3d625013	0.055252146
244	0x3d8aed88	0.06783587
245	0x3f3075dc	0.6892984
246	0x3cfe9366	0.031076144
247	0xbdbb98d1	-0.09160007
248	0xbdf1e2c8	-0.11810833
249	0xbd9a07c7	-0.07521015
250	0xbe804895	-0.25055376
251	0xbdb83ff7	-0.08996575
252	0xbd362357	-0.044467296
253	0x3d6627ec	0.056190416
254	0xbe7010ab	-0.23443858
255	0x3d3c71d2	0.046006985
