time_series_intro_class/final_project/submission/model_params/2_layer_8_size_model_epoch_2000.pth (torch, 5603 bytes, 9 tensors)

lstm.weight_ih_l0 f4 [32, 1]
00000000: 829b 683f 75e2 92c0 72a6 52bd f5e6 9cc0
00000010: e299 673e 07c1 aabf eb02 55c0 a7f7 ab3f
00000020: f865 ebbf 04bc 8dc0 d7c5 56be 9fee 13bf
00000030: 5b50 7b40 531b 02c0 7575 0ebf 3710 803f
00000040: 8eff cd3e 1085 4740 bda1 2dbf 1fe8 27c0
00000050: f697 1b3f 2895 a93f 310a 9ebf b72d fe3e
00000060: 770e 9f3f e4b0 70c0 07f3 193e 8c40 3ec0
00000070: 4def 6140 5ce3 1bc0 0a02 e0bf 3a2c 7e3f
0.90862286 -4.5901437 -0.051428266 -4.903193 0.22617295 -1.3340157 -3.328303 1.3434952
-1.8390493 -4.429201 -0.20973907 -0.5778598 3.9267795 -2.0329177 -0.55647975 1.0004948
0.40234035 3.1174965 -0.6782492 -2.6235425 0.6077875 1.3248644 -1.234686 0.49644253
1.2426289 -3.7607965 0.15034114 -2.9726896 3.5302308 -2.435752 -1.7500622 0.99286234

lstm.weight_hh_l0 f4 [32, 8]
00000000: 0325 433f 2f95 3ebf 2534 ac3d a324 ca3f
00000010: d9c6 983e fa4a dfbe 2fd0 383f 9d86 573e
00000020: a4b6 f83e c33f 31bf a2f1 36bf ad74 f5be
00000030: 92c3 96bf 781f 66bf 0631 ad3e 7f30 23bf
00000040: e069 8e3d 19e7 a43e f4ef b93d d890 f23e
00000050: c216 18bf fd9b 123e 7424 133f e48a 0f3d
00000060: 6e5b 503f 1747 10be 7399 f0be 628e bb3e
00000070: 54c3 8d3e 438a 76be 18fe 053f 6195 1d3f
00000080: 7b4e 103f 89d7 bfbf 662e 91be bb46 673f
00000090: 1b00 d5be 1fae 54bd 132e 8d3e cd88 853d
000000a0: 5ce2 32bd 2c11 923e d60e 0d3e 5a7f 36bf
000000b0: f731 48be d4cd 443e cd3a 5ebd 66da 9dbd
000000c0: ec2f 863e 91ec 9ebe f8e6 6f3e 42f0 d93d
000000d0: 1b17 d8be e6a4 a7bd 0803 a33e b832 9c3e
000000e0: a872 013d dfe9 cb3d c7b2 89be 04a4 9bbe
000000f0: b6a3 2d3e fa86 613e 1432 f83d 3ace 32be
00000100: f787 30be 6416 9dbd 10af cb3d 5753 633f
00000110: 7dd0 b63e 4ee8 02bf 79b5 c93c 92ad 7f3e
00000120: 7f3f f43e 6d2b 48bf 141d e4bd fd12 01bf
00000130: 2551 4ebf 6863 00be 2ba8 1c3e deca 37bf
00000140: 5ce5 f0bd 243e d5bd dca1 4abe 2d50 cebd
00000150: 2026 3bbf d5de 4e3e 42ce 6b3e 9810 0bbf
00000160: 4581 663e 916b 24bf e5d2 053e b21d bc3f
00000170: e701 35bf 7919 66bd f902 ef3e e72f c6be
00000180: b813 2c3e 2e32 04be dd63 d5bd 24c8 86be
00000190: 4b7a 58bc ac25 10be ad59 20bf 579b 25be
000001a0: 8573 e0bd f3f6 abbe 09ec 3b3b 152e f9be
000001b0: 2e5e ccbe 6cdb f73d ab66 c6be dd30 02be
000001c0: c5c7 1c3e 87fd 62bf 3b6f 383e 107a 553e
000001d0: 23fa de3e 306e 10bf 2453 523c 6808 fe3c
000001e0: 1be9 693e 893e 7e3e 8cd2 1b3e d6d6 f0be
000001f0: 8fd4 c3bd bb81 e23d f16c a6be 6b89 5dbe
00000200: 619c 063f cc89 c8bd a8b1 47bd c933 c63f
00000210: a92b 983e 6730 c73c d384 9a3e c02b 483d
00000220: 4b8e 753d 06c4 b8bd 6e58 5f3d 925d acbb
00000230: e24e f83e 3bed ab3e 140a a3bd d2fd 48be
00000240: de4d 17bf 93a5 f5bc 1d57 6d3e 822f b93c
00000250: 6b1a a53e 9041 83be f591 e6be 41f5 d6bd
00000260: cde8 edbe d0c1 7ebc 332f 2b3f 33f3 7c3e
00000270: fe9e cf3e cda0 38be 7c16 93bd 8db6 fe3e
00000280: 2e4a 13bf 84e8 e6be 484b 203e ca66 8fbf
00000290: e385 0e3f f04b d1be 772a dfbe 5ab8 e63d
000002a0: 88d9 e93d b299 a53e 7c30 81be 458f 2e3f
000002b0: a106 283e 6e73 92be b75d 433e 7331 09be
000002c0: 6b80 8c3e 06db c73e 65d5 cc3e 204a 5a3e
000002d0: d386 ae3e 1d2f 5a3e 2d20 8f3e 2ba6 4ebd
000002e0: 8ad9 dcbe fd4e e0be 451b f0bb bbf4 2dbe
000002f0: 8313 a93e 1c23 19be 12de e4be b2b0 983e
00000300: da87 123f 61e9 c8be 1eb2 e13d 0fc4 2040
00000310: c365 4d3f 1aab 22be d73d 113f 75bc a03e
00000320: 7e86 00be beb2 eabf a9bc ebbe cba7 5abf
00000330: a34f c2bf bf2f babf d6a2 ac3e 3d5d 32bf
00000340: 9e68 833e 9911 c5be 6269 d93d e911 db3e
00000350: 87f9 0bbf 1d0c e93d 0a00 903d 1c11 cdbe
00000360: b60e 8d3f 533a 8abf 0c39 d3be 1b47 753f
00000370: 376a 6f3f cf9f 98bf 769a 663f fe77 403f
00000380: 08a6 6d3f 7aee 6ebe 502d 1bbd ddab 423f
00000390: e5e6 fe3c 773d 9abe 7949 873e 92c6 a33e
000003a0: b6e4 27bf ccfe f8bc 00dd 6b3c 46dc 51bf
000003b0: 71fb ccbd 9366 64be c50d 453d 2c29 c5be
000003c0: 31a0 a7be 88ff b1be 44cb 67bd f3bf 5d3e
000003d0: 6e8d bf3d 0f6c 1bbf 8681 613e c458 19be
000003e0: 950a c83e 7f39 c83e a226 bebe ba3d 4e3e
000003f0: ed02 c5bb 4a10 44be b854 82be 796f 80be
0.7622835 -0.74446386 0.08408383 1.5792431 0.2983921 -0.4361189 0.7219266 0.21047445
0.48576844 -0.6923792 -0.7146245 -0.4794058 -1.1778433 -0.8989177 0.33826464 -0.63745874
0.06953788 0.32207564 0.090789706 0.47376132 -0.59409726 0.14317317 0.574775 0.035044566
0.8138951 -0.14089619 -0.46992072 0.36632067 0.27688086 -0.2407618 0.5234084 0.6155606
0.5636975 -1.4987651 -0.28355712 0.903423 -0.41601643 -0.051923867 0.27574214 0.06520233
-0.043672904 0.28528726 0.1377519 -0.71288073 -0.1955031 0.19219142 -0.054255296 -0.07707672
0.26208436 -0.3103986 0.23427951 0.10641529 -0.42205128 -0.08185749 0.3183825 0.30507445
0.031603485 0.09956717 -0.2689421 -0.30398571 0.16956982 0.22024146 0.12118927 -0.17461482
-0.17239366 -0.07670286 0.099455 0.8879904 0.3570594 -0.5113572 0.024622666 0.24968556
0.47704694 -0.7819126 -0.11138359 -0.504196 -0.80592567 -0.1253792 0.15298526 -0.71793926
-0.11762497 -0.10412243 -0.19788307 -0.10073886 -0.7310505 0.20202191 0.230279 -0.54322195
0.2251025 -0.64226633 0.13068731 1.4696562 -0.7070603 -0.056176636 0.46681955 -0.38708422
0.16804397 -0.12909767 -0.10419438 -0.2632457 -0.013212751 -0.1407687 -0.62636834 -0.16172539
-0.109595336 -0.33586845 0.0028674623 -0.4866797 -0.39915603 0.12102398 -0.38750204 -0.12713952
0.15310581 -0.886681 0.18011181 0.20847344 0.43550214 -0.5641813 0.012837205 0.031009868
0.22842829 0.24828543 0.15217036 -0.47038907 -0.09562027 0.110599004 -0.3250499 -0.21634452
0.52582365 -0.09791908 -0.04875341 1.5484554 0.2972081 0.024315072 0.30179462 0.04886985
0.059950154 -0.090217635 0.054527692 -0.005260178 0.48497683 0.3357943 -0.079609066 -0.19628075
-0.5910319 -0.029986179 0.23177762 0.022605661 0.32246718 -0.25635958 -0.4503323 -0.10495997
-0.46466675 -0.015549138 0.66868895 0.24702148 0.4055099 -0.1803009 -0.07182023 0.4974865
-0.57535064 -0.4509927 0.15653718 -1.1203244 0.55673045 -0.40878248 -0.43587086 0.11265631
0.11418444 0.32343823 -0.25232303 0.6818736 0.16408779 -0.2860369 0.19078718 -0.1339777
0.27441725 0.3903429 0.40006557 0.21317339 0.34087238 0.21307035 0.27954236 -0.05045144
-0.4313472 -0.43810263 -0.0073274695 -0.16987889 0.330227 -0.149548 -0.44700676 0.29822308
0.57238543 -0.39240554 0.11020301 2.5119665 0.802334 -0.15885583 0.56734985 0.3139378
-0.12551305 -1.8335798 -0.46042374 -0.8541228 -1.5180553 -1.4545821 0.33717984 -0.6967352
0.25665754 -0.38489988 0.10615803 0.42787102 -0.54677624 0.113792636 0.070312575 -0.40052116
1.1020114 -1.0799049 -0.4125446 0.95811623 0.93521446 -1.192377 0.9007944 0.75183094
0.9283147 -0.23333159 -0.03788501 0.7604349 0.031115958 -0.3012502 0.26423243 0.31987435
-0.6558336 -0.030394934 0.014395952 -0.81976736 -0.10008896 -0.22304754 0.048108835 -0.38507974
-0.32739404 -0.34765267 -0.056590334 0.21655254 0.093531474 -0.6071176 0.22022066 -0.14975268
0.39070573 0.39106366 -0.3713885 0.20140734 -0.0060123117 -0.19146839 -0.2545526 -0.25085047

lstm.bias_ih_l0 f4 [32]
00000000: 55f3 c3bc 4b55 d23c ccd8 b4be 0cb9 513f
00000010: 4f32 d73e c608 8dbe 7049 2f3e e20f 52be
00000020: ff62 843e d415 623d 2689 d5bd b637 7a3d
00000030: e3f4 163e c0d8 c83d 40b7 ec3d f7dc 4cbe
00000040: d677 c93d 13aa c0bd c763 473d 3796 aa3d
00000050: 80c3 f53e 5de4 46be 1fe4 08be aa3e aa3d
00000060: e71e 0c3f fd83 043f 1536 5abd 3730 993f
00000070: 8ac9 f93e 54f2 91be 93f9 983e 7691 e03d
-0.02391974 0.025675436 -0.35321653 0.81922984 0.4203057 -0.27545756 0.17117858 -0.20513871
0.25856778 0.0551966 -0.104265496 0.061088286 0.14741854 0.09806967 0.1155839 -0.20006166
0.0983731 -0.09407439 0.04867914 0.083294325 0.48000717 -0.19423051 -0.13368271 0.083127335
0.54734653 0.517639 -0.053274233 1.1967839 0.48786575 -0.28505194 0.2987791 0.109652445

lstm.bias_hh_l0 f4 [32]
00000000: 2ee0 ea3e aa37 c43e ec14 a5be 833b 1f3f
00000010: 7e96 bb3e 7fdd 53bd 7a88 863d e5bf 9cbe
00000020: de29 c93e af9a 74bd 601e db3e a7d7 e63e
00000030: d65f 8c3e 553c e2bd 85ac 033e 03d4 a0bd
00000040: 198e 243e 0266 f9bd 7ea3 76be f460 a2bd
00000050: afc4 003c 2ba1 2abe b837 3e3e 6c0f 1ebe
00000060: 73bf 3dbc 6472 17bd 09c7 773e 9633 853f
00000070: 9b60 213f b54b 413e 989d 54be 9a92 bb3e
0.4587416 0.38323718 -0.32242525 0.6220018 0.36638254 -0.051724907 0.065689996 -0.30615154
0.39289755 -0.05971783 0.42796612 0.45086405 0.27416867 -0.11046664 0.1285878 -0.07852938
0.16069831 -0.121776596 -0.24085805 -0.079286486 0.007859393 -0.16663043 0.18575943 -0.1543557
-0.01158129 -0.036974326 0.2419702 1.0406368 0.63038033 0.18876536 -0.20763242 0.36635286

lstm.weight_ih_l1 f4 [32, 8]
00000000: 014c d6bd f7c2 b43d 7c8f 303e 2868 39be
00000010: 3e33 493e 6cd2 b0bd 33a9 58bd 1e48 10bd
00000020: 6b7f 06be 5d72 693e 969c 89be fe1b 15bf
00000030: d962 9c3e a6dc e0be 0b35 a03d 98fb 18bb
00000040: 0657 e83d bfb1 80bd cc93 113e 4e72 9abe
00000050: c443 193e b9a3 0abe 425c 3e3f 5e98 b6be
00000060: aeba d63e 90a0 bcbd 7feb 4fbe 8f7e 0abf
00000070: fbf7 133d 15b1 9a3e 791d 883e be75 d9be
00000080: 9a95 3fbd e27b 66bf 92cf acbe 5b42 b6bd
00000090: 0de9 fabe acd5 163f c365 e13e 11f8 d8be
000000a0: c43f 203e e63a 913e 9e6e 65bf 0e42 8a3f
000000b0: ea40 51be 6624 4cbe 15ba c93e 5683 9b3d
000000c0: 5dd7 a53e 7116 cd3e 53e6 c7be 4d22 713f
000000d0: 5ab6 343f 206e 2bbc 67a9 093e 8c85 d33e
000000e0: 9a34 813e 01f4 acbe f79d ad3d 0edf b0be
000000f0: 4f2b 9dbe 00e2 643e 98e4 e7bc cf24 053e
00000100: c227 b4be 82be 1c3f d0f8 063f 70a5 f5bd
00000110: 41a5 90be 81a4 9bbd a808 7bbe 0e1b c63d
00000120: 0d4c 793e 40ec 5f3e da3d b73e 55a6 09bc
00000130: 9e9b 963e 27f5 8cbd 23c2 403f 8cd3 dcbe
00000140: 853a 90be 913a 383f ded2 25be 4926 74be
00000150: 3117 1a3d 4151 a7be 7ef3 13be 0e9d 0f3c
00000160: d80d cabe 46a1 053f bc58 2b3e 80c3 563e
00000170: 187f dcbd 11c6 2d3f 7dbc 0cbe 6a1b 2dbe
00000180: ab9f 88be 7ddf 3d3f 8fb4 293e d781 793e
00000190: 127d 2dbf a3e5 bd3e ee77 e73e dd2d 15bf
000001a0: ce6e b83e 37c7 873e 0bf6 c23e 311e d63f
000001b0: f80b cdbe b3dd 683f 9ada 3f3f 8f02 b63d
000001c0: 88ae 04be de40 0a3f eee3 a93e fecc 3c3e
000001d0: 06db 073f de92 cbbe 38de 23bc 5ea1 343f
000001e0: 5fe9 1c3e 9897 e73e e8b7 0a3f 98eb 2c3f
000001f0: 3b18 fcbe 2c3c d33e c288 a1be 9212 883d
00000200: a150 8d3e 2585 8fbe 8305 0e3e 35ce c6be
00000210: 8cfe c83e f149 d23d 9243 4a3e fbc4 813e
00000220: 8110 c23e 4538 993d be6a 0d3e f7bb ddbe
00000230: 3614 a3bd bdd8 bfbe 4e08 633e a16b aebd
00000240: a10e 93be 994f 413e ad73 e6bd 7078 823e
00000250: 43c3 b4be e597 853d c66b 5e3d c053 24bd
00000260: 59cd 7cbe a50c 613b edae f8bd 15d2 bbbe
00000270: ec38 9f3e 18d6 5c3e ac89 a8be e039 903e
00000280: e8e4 873d ce87 a4bc ebf7 253e 88ed 71be
00000290: a103 5a3f 24f1 1f3e 127a 56be ff9f 45be
000002a0: 52d9 dfbe 1e20 24bf a954 763e 7ed7 183f
000002b0: 48e7 03bf 101c 85be 4577 d23e fe82 17be
000002c0: 6969 49be 4fcc ebbe ccf0 543e 92f4 60be
000002d0: 3454 b03e d0d9 523e 6b87 53be 3c60 383f
000002e0: 5d62 4ebe 610d 8bbe da78 43be ab8c 51be
000002f0: c9a2 83bd 5548 b8be 0920 ab3d c810 c4bc
00000300: 4827 253d 3798 1ebe e067 8b3c 5458 d7be
00000310: 8216 12be 639a 84be bcbf 393d 4574 1b3d
00000320: 70f7 703e b23c 863e c855 b4be 6089 54bf
00000330: 2e53 b23d afa3 423f d6b4 8dbe c465 17be
00000340: f102 1a3c 1a45 163f f69d 713e 503f 3abe
00000350: df17 5cbe ffd1 debe e918 283f 906c 933e
00000360: 2afe b73e 5839 f93e e742 87be defe 0ebf
00000370: 89b5 7cbe 4953 dd3e 59f8 c93e dd42 58bf
00000380: 9cc8 d93e 2b54 09bf c3d8 40bf cb2e 0fbf
00000390: de22 33be 538c e43e d5f1 c8bd e534 79bf
000003a0: 9880 033c eb1c 5e3d fbde 8abe 5a85 ab3f
000003b0: 0857 57bf f851 e9be a8c7 df3e 7d43 0abf
000003c0: f935 c13e f5ff 1e3e 7144 053e 94d8 c93f
000003d0: 03cd 543e a671 d43d f7ab 463f abba c13e
000003e0: f76e b7be be32 e5bc 7ec6 363e 1b8b 88bd
000003f0: 538f 4a3e ecbc 12bd cf90 1e3c f42a 4dbe
-0.10463715 0.08826249 0.17242235 -0.18106139 0.19648454 -0.08633885 -0.052895736 -0.035225026
-0.13134544 0.22797532 -0.26877278 -0.5824584 0.30544165 -0.4391834 0.07822617 -0.002334332
0.113447234 -0.062839024 0.14216536 -0.30165333 0.14967257 -0.13539018 0.74359524 -0.35663122
0.419393 -0.09210312 -0.20304678 -0.54099363 0.036125164 0.30213228 0.26584986 -0.42472643
-0.04677353 -0.9003278 -0.33752114 -0.08899375 -0.4900593 0.5891979 0.4402295 -0.4237676
0.15649325 0.28365248 -0.89621913 1.0801408 -0.20434919 -0.1993576 0.39399782 0.0759341
0.32390872 0.40056184 -0.3904291 0.94192964 0.70590746 -0.010463268 0.13443528 0.41312826
0.25235444 -0.3377991 0.08477395 -0.34545177 -0.30697104 0.22351837 -0.028307244 0.13002323
-0.35186583 0.6122819 0.5272341 -0.11994445 -0.2825108 -0.07599736 -0.24515021 0.09673129
0.24345417 0.21867466 0.35789376 -0.008401473 0.29415601 -0.068826966 0.7529623 -0.43130147
-0.28169647 0.71964365 -0.1619372 -0.2384273 0.037619773 -0.3267918 -0.14448354 0.008765472
-0.39463687 0.5219921 0.16733068 0.20973015 -0.10766429 0.6788035 -0.13743778 -0.16904989
-0.26684317 0.7416914 0.16572784 0.24365936 -0.6776897 0.3708926 0.45208687 -0.58273107
0.36022037 0.26519176 0.3807834 1.6727964 -0.40048194 0.90963286 0.74942935 0.08887207
-0.12957203 0.5400523 0.3318171 0.18437573 0.5306858 -0.39760488 -0.010001712 0.70558727
0.15323399 0.45232844 0.5418687 0.6754699 -0.49237236 0.41256845 -0.3154965 0.06644167
0.27600577 -0.2803127 0.1386929 -0.38829198 0.39256704 0.102680095 0.19752339 0.25345597
0.37903216 0.07481436 0.1381025 -0.43307468 -0.07962839 -0.37470046 0.22171137 -0.08516622
-0.28722098 0.1887802 -0.11252532 0.25482512 -0.35305223 0.06523112 0.054302 -0.040118933
-0.24687709 0.0034339812 -0.121427394 -0.36683717 0.31098115 0.21566045 -0.32917535 0.28169155
0.06635457 -0.020084288 0.16207854 -0.23625767 0.8516179 0.15619332 -0.20945004 -0.19299315
-0.4372049 -0.64111507 0.24055733 0.59703815 -0.5152478 -0.25997972 0.4110662 -0.14796063
-0.19669117 -0.46054313 0.20794982 -0.21968296 0.34439242 0.20590901 -0.20657127 0.7202184
-0.2015471 -0.27158645 -0.1908907 -0.20463817 -0.06427533 -0.35992685 0.083557196 -0.023933783
0.040320665 -0.15487753 0.017017305 -0.42059577 -0.14266399 -0.25899038 0.045348868 0.03795268
0.2353189 0.26218182 -0.35221696 -0.8302212 0.087072715 0.7603101 -0.2767703 -0.14784914
0.009400115 0.5869919 0.23595414 -0.18188214 -0.21493481 -0.4351959 0.6566301 0.28793764
0.359361 0.48676562 -0.2641823 -0.55857646 -0.24678625 0.43227604 0.39447287 -0.84477025
0.42535865 -0.53644055 -0.7533075 -0.55930775 -0.1749377 0.4463831 -0.09811751 -0.97346336
0.008026265 0.054226797 -0.27123246 1.3400071 -0.84117174 -0.4557035 0.43707013 -0.5400923
0.3773649 0.15527327 0.1301439 1.5769219 0.20781331 0.10373239 0.7760615 0.3783773
-0.35826847 -0.027978297 0.17849156 -0.06667157 0.19781236 -0.0358247 0.00967808 -0.20035917

lstm.weight_hh_l1 f4 [32, 8]
00000000: dde3 733e 877c 233f 4447 f7be 916f 213f
00000010: 5e50 d93e ed7b 30be 2076 d03e 4927 59be
00000020: 8adc 73be 3294 bc3f 61ca 5cbd 0330 06be
00000030: 383b 323e b9f1 e0be b35b 32be 17a2 643e
00000040: 124d c9bb 1e39 1e3d f064 9dbe 1020 37be
00000050: 5be2 3c3f ed06 c2bf 8550 3e3d ad49 cd3d
00000060: 0a88 ca3d fcb7 393e e573 4dbf 5fb3 cabc
00000070: a166 313f 0cd3 34bf ad7e 31bf a2ef 5e3e
00000080: e55e 053d 023f bf3f 56b2 3c3e ca37 19bf
00000090: c157 77bf 50dc 773f 9a7f ddbb f663 e3bd
000000a0: ce19 40bf 2c99 eabd 7c78 0a3f e0a9 3abf
000000b0: 7446 2a3f 3eb1 d13e 7bc6 35c0 d4e6 b53e
000000c0: 3368 0c3e 61eb 3ebe 9dcb cbbe 8d0d 6cbe
000000d0: efcd fe3e 4b34 543d 9b8e 383e 544d 26bd
000000e0: 7760 af3e 643f 4f3f 6b98 16bf bc09 203f
000000f0: 600a 233e a573 fa3e 7ce7 8c3d b983 b7be
00000100: e36c 083e 85a1 9c3e e04b d8be d0f2 083f
00000110: 90fb 133f cc29 cb3e 2678 c1be 0f8c 88be
00000120: 9089 443e 624f 003f 557c 74bf d0e6 adbe
00000130: 9d36 af3f 46d5 03c0 1c56 25bf f6d7 52be
00000140: 23ee 2a3e a503 183f 53ff c6bc 5209 f83e
00000150: e1c2 4c3e bb53 66bf bf79 8b3e 33ed 3abf
00000160: f5a0 2e3f b4c0 85bf acde 3ebe 9941 8fbe
00000170: ef81 ca3d f055 fb3d 7344 fc3e 0531 d7be
00000180: 211a 9c3e 12ff 8e3f aa5b 623e cbe7 febe
00000190: 0dcb 64be a534 713f 1227 bd3d 0782 97bf
000001a0: 8637 813f 6fe3 b4bf 567c 3dbf 5c83 92be
000001b0: 4c16 983f 0d3b 72bf 70bd b13f 51e8 8cbf
000001c0: 5e56 183f 0e42 1dbd c5eb a3bf 93f3 6c3e
000001d0: 20b4 563f 6345 12c0 96df 4e3e 1741 1a3e
000001e0: 1ba1 913e 979e 773e e6dd abbe 11df 553e
000001f0: 3539 423f a08e 103f 1c2f 3b3e 5456 31bf
00000200: 9ea6 733e f198 16bf 0d30 e1bd 182f 4c3d
00000210: 176f a8be cf4f 16bf 356e e23e c4d2 0a3f
00000220: d6e2 e83e d0da f23c afeb 40bf 2d44 4ebc
00000230: 062e 833e 5b92 83bf df95 6e3b 098a 313e
00000240: 49fa c1be fddf 073f 30a8 083e c140 c03e
00000250: 3b55 00bd 9873 043f 8599 733e 019b acbe
00000260: b3a6 a5bd 36a5 48bd 30c9 073e dcce 2ebd
00000270: ca76 c0be 25ba e2be 04b0 2ebe 3c4d 9cbd
00000280: 441c 3f3e 116b c8be 250b 1a3e 2301 f93e
00000290: a5a1 aebe 4654 8f3e cfea b2be 9735 16be
000002a0: 9e66 07be 2ae0 973e 19f7 443e 4021 febe
000002b0: 26ef 2bbf 5902 1cbe b5a3 113e c5cb 0fbf
000002c0: bcdb 76be 7414 3abf 14f2 10bf e9f9 a83d
000002d0: 551e 35bd 5ecb 63bf 904e 093f f977 863e
000002e0: ca87 2cbe 173f d73e 537f 203e a777 f73c
000002f0: 3709 c1bc f77c 713f e4fa e6be a135 73be
00000300: 9518 88be 9965 5d3e ce8d 8bbe 3a3c 133f
00000310: 5282 ce3d eecf d2bd 5d30 b8bd a482 38be
00000320: 0dee fa3d ff4f 383f 916a a63d 43bb 26bf
00000330: 3ed3 21be f13f a1bf 00f6 e9be bbbe 6abe
00000340: 949f 273e 7367 5a3e d8a9 7d3c 683f 28be
00000350: 38f8 5c3f 0210 42bf 7b7e 10be 0040 683e
00000360: e072 17bd b4d2 9f3e 4740 c2be e17b 06be
00000370: d565 dd3e 74b7 84bf bb16 fcbe 7002 8e3e
00000380: c411 1dbc 5546 9f3f 7310 e83d d699 65be
00000390: 35a5 81bf 798d 1f40 f38f 2ebe 394b 0ebf
000003a0: f3ea 36bf 5164 f0be 81dd 8b3e b9da 40bf
000003b0: 3e96 403f 0dc7 453f 8a71 03c0 3841 ae3e
000003c0: 9da7 98be fc10 153e 8bd6 4ebf 1905 d6be
000003d0: a027 533f 5daf 78bf 8ef9 fdbd 73f0 873e
000003e0: b632 b73e f90f 5b3e a41f 4cbe b9b2 7c3e
000003f0: 730e 013e e6d8 9a3f 3f17 e63d d323 f43d
0.23817392 0.6386189 -0.4829656 0.6306086 0.42444128 -0.17234774 0.40715122 -0.21206392
-0.23814598 1.4732726 -0.05390394 -0.13104253 0.17405403 -0.4393442 -0.17417793 0.22327457
-0.0061432207 0.03862869 -0.30741072 -0.17883325 0.7378289 -1.5158364 0.04646351 0.10023818
0.09889229 0.1813659 -0.80254966 -0.024743734 0.69297224 -0.7063453 -0.69333917 0.217711
0.0325612 1.4941103 0.18427405 -0.5985075 -0.96618277 0.96820545 -0.006759596 -0.111030504
-0.75039375 -0.114549965 0.54090095 -0.7291546 0.6651375 0.40955538 -2.8402393 0.3552767
0.13711624 -0.18644477 -0.39803782 -0.23052044 0.4976649 0.051807683 0.1802315 -0.04060109
0.34253284 0.809561 -0.5882632 0.62514853 0.15921926 0.48916355 0.0688009 -0.35842684
0.13322787 0.3059198 -0.42245388 0.534955 0.5780573 0.39680326 -0.37786978 -0.26669356
0.19193101 0.5012113 -0.95502216 -0.33965158 1.3688542 -2.0598922 -0.6458452 -0.20590195
0.16692404 0.5938056 -0.02429167 0.4844461 0.19996215 -0.8997151 0.27241322 -0.7301819
0.6821435 -1.0449433 -0.1863963 -0.27979735 0.09888064 0.12272251 0.49270973 -0.42029586
0.30488685 1.1171591 0.2210528 -0.4978622 -0.22343083 0.94220954 0.09235968 -1.1836556
1.009507 -1.4131907 -0.74017847 -0.28615844 1.1881804 -0.94621354 1.3885937 -1.1008397
0.59506786 -0.038393073 -1.2806326 0.23139791 0.838686 -2.285485 0.20202479 0.15063892
0.28443226 0.24181591 -0.33567733 0.20885874 0.7586854 0.5646763 0.1827969 -0.6927235
0.23794028 -0.5882712 -0.10995493 0.0498496 -0.32897255 -0.5871553 0.44224706 0.5422785
0.45485562 0.029645354 -0.75359625 -0.012589497 0.2562105 -1.0279039 0.0036405248 0.17337812
-0.37886265 0.53076154 0.13345408 0.37549403 -0.031331282 0.5173888 0.23789032 -0.3371201
-0.08088436 -0.048985682 0.1326034 -0.042677745 -0.3759063 -0.44282642 -0.17059332 -0.07631919
0.18663126 -0.39144185 0.15043314 0.4863368 -0.341077 0.27993983 -0.3494477 -0.1466888
-0.13222739 0.2966321 0.19234885 -0.49634743 -0.67161787 -0.1523527 0.14222606 -0.561703
-0.2410726 -0.7268746 -0.5661938 0.082507916 -0.04421838 -0.8898219 0.536355 0.26263407
-0.16848674 0.4204032 0.1567357 0.030208422 -0.023563964 0.94331306 -0.4511329 -0.23750927
-0.26581255 0.21620788 -0.27256626 0.57513773 0.100834504 -0.10293566 -0.089935996 -0.18018585
0.12252436 0.71997064 0.08125795 -0.6512949 -0.15803239 -1.2597638 -0.45695496 -0.2292432
0.16369468 0.21328525 0.015482388 -0.16430438 0.8631625 -0.75805676 -0.14110748 0.22680664
-0.036974788 0.3121544 -0.37939665 -0.13133194 0.43241754 -1.0368485 -0.49236092 0.27736235
-0.009586755 1.2443339 0.113312624 -0.22421965 -1.0128542 2.4930098 -0.170471 -0.5558353
-0.71452254 -0.46951535 0.27317432 -0.75333744 0.7522925 0.7725685 -2.0538049 0.34034133
-0.2981538 0.1455726 -0.80796117 -0.41800764 0.8248234 -0.97142583 -0.124011144 0.26550636
0.35780877 0.21392812 -0.19933945 0.24677552 0.12603168 1.2097442 0.112349026 0.119208954

lstm.bias_ih_l1 f4 [32]
00000000: a886 acbe c2f6 a83e 38bf eabd 43af 8ebe
00000010: bbc7 3d3e 4e82 993e 2e2f 263e 371e 4bbe
00000020: 7d8f 8c3e 1150 a33e 8621 9bbe 1a55 1dbe
00000030: 4891 38bf df3b acbe 42db fb3d 3563 03bb
00000040: 6e13 58be c817 0dbe 67ed c43d 08ca 5d3e
00000050: 1f52 cb3e e46e b5bd 6dc0 2fbe 71af 74be
00000060: eb00 7bbd 8db4 dc3d 363c a23c d34a 7ebb
00000070: 1fe4 ecbc 5a71 573e 0918 403e 41e7 05be
-0.33696485 0.3300076 -0.11462253 -0.2786809 0.18533222 0.29982227 0.16228935 -0.19835745
0.27453223 0.31897023 -0.30299014 -0.15364495 -0.7209668 -0.33639428 0.122976795 -0.0020048146
-0.21101162 -0.13778603 0.096155934 0.216591 0.3971109 -0.08859041 -0.17163248 -0.2389505
-0.061280172 0.10776625 0.019804101 -0.0038801923 -0.02891737 0.21039334 0.18759169 -0.13076498

lstm.bias_hh_l1 f4 [32]
00000000: bbe8 3bbd 1ad1 cb3e de3f 21be 93f6 e53c
00000010: 1f54 9f3e 18e7 263f bd4c c63e cb5f 023e
00000020: 1826 24be 1017 033e dc9a 103d 1084 03bf
00000030: 4424 ccbe 3754 c9bc d6c9 0d3d 883c 98be
00000040: 2f39 34be b4cc 843d e00c b53d 6bce b6be
00000050: 7700 8bbd ef84 973d 15f1 2a3d 92fd 863e
00000060: 9e47 43be 5667 54be d138 b73e ad5f d8be
00000070: efb2 86be d8af 9e3e d440 9ebd 2021 883e
-0.045876246 0.3980797 -0.1574702 0.028071677 0.31118867 0.6519637 0.38730422 0.12731855
-0.16030157 0.12801766 0.035303935 -0.51373386 -0.39871418 -0.02457629 0.034616314 -0.29733682
-0.17599939 0.064843565 0.08840346 -0.3570436 -0.06787198 0.07398402 0.04173382 0.26365334
-0.19070289 -0.20742545 0.35785535 -0.42260495 -0.2630839 0.30993533 -0.07727209 0.26587772

fc.weight f4 [1, 8]
00000000: d620 393e 2d10 183e 3d1c 26bd aac3 cf3d
00000010: a5a5 5b3b 34a3 863e 93db 6bbc ec4c 40be
0.18078932 0.1484992 -0.040554274 0.10144742 0.003351548 0.2629639 -0.014395612 -0.18779343
