time_series_intro_class/final_project/submission/model_params/2_layer_8_size_model_epoch_100.pth (torch, 5603 bytes, 9 tensors)

lstm.weight_ih_l0 f4 [32, 1]
00000000: ce88 99be 774e 50bd 86d6 78be 07ce 8d3d
00000010: 91de 0f3e 2202 da3c 8374 2d3e eaca 5ebe
00000020: 3070 cc3c 302d c1be ce2d 8a3e 1213 85bd
00000030: 3cd9 0ebe 8c07 babe 9d47 243e 1df7 e33d
00000040: 640a 783e 9bf1 41be 4363 d83d 7036 ffbb
00000050: ce20 afbc 793f 663e e3a3 fc3d 6983 6ebe
00000060: 38aa 8b3e c034 c9be 8161 723e f273 34bd
00000070: 10cb a13e 0d46 8bbd 363d 96be 32d0 88be
-0.29987186 -0.05085608 -0.24300584 0.06924062 0.14049746 0.026612345 0.16938977 -0.21757093
0.024955839 -0.37729788 0.2698807 -0.06497778 -0.13950056 -0.36333883 0.16042943 0.111311175
0.24222714 -0.18939821 0.10565808 -0.007788472 -0.021377947 0.2248515 0.123359464 -0.23292316
0.27278304 -0.39298058 0.23670007 -0.044055887 0.31600237 -0.068004705 -0.29343575 -0.2672134

lstm.weight_hh_l0 f4 [32, 8]
00000000: 2478 ab3e 0e97 95be 7ba2 a93d 30a0 2b3e
00000010: e5b5 afbe 8f5f 18bd 6b3e 10bd 8e79 92be
00000020: 9de9 a83e c55b b93d a59b 93bd b909 773e
00000030: 7a9b 51be aabb 123e 75f5 a9be 2082 1b3e
00000040: 4ae7 4abe 7374 24bc 18b2 613e 7250 a53e
00000050: a15c 35be cfa8 d4bd c71a a93e dc0c 893e
00000060: 8769 5c3d 2638 493e 1510 7dbd ea69 a23c
00000070: 7b72 edbd d0ce b03d 1c3b 5bbd 0ee7 78bc
00000080: 7b83 2c3c 0ec5 8bbe 5aef 203d 1e26 d43d
00000090: 1bee 18be b929 823e 7d37 aabe 242f 38bd
000000a0: 888a 0b3e 76bb 993e 496c abbb d789 2bbe
000000b0: b2a7 06be 4128 493e 7f3f f83d ed4e fa3b
000000c0: d70e 8a3e a9de f2bd 732f 983e e614 b9bd
000000d0: 49c6 acbe 5b36 063d 8a1e a23e 481b 4a3e
000000e0: d324 28bd 4605 163e 7c3e 5fbe f526 a6be
000000f0: 99dd 8e3e 736b 093e 196e 213e 6c56 b13b
00000100: 9c08 5ebe 6c2d df3d e0bf d03d 1dee a7be
00000110: b983 a5bc 9a07 aabe be6e 54be b5a3 793e
00000120: 3386 d9bd 3fad d0bd f967 943e 24e8 31be
00000130: 9dc5 67bd 81da 183e a00e fa3c 1379 f5bd
00000140: 581a 82be 3d5e 1abe 6dff 82bd 8fc6 00be
00000150: 397b acbe 6386 843e 955c 4e3e c53d 82be
00000160: c2ea 6f3d e28c 7cbd 8d74 893e aa74 66bc
00000170: a3e2 a0be 5d03 463e 60c8 713e 7509 b5be
00000180: 3c26 3a3e 3a4e 403e fd0f a83d 5d21 ed3d
00000190: 7f4f 833e a86e 1ebe 537c 95be dc4d dcbc
000001a0: a9c2 0f3e 1f3f 37be 16d1 adbd 2ac9 c13c
000001b0: 205c 64be 70b1 cb3d d8b0 00be 95f3 98bc
000001c0: a645 7b3e 5305 13bd 70d9 a13e bfe9 223e
000001d0: d693 7d3e 2397 a53d ff6d cd3d 407e 753c
000001e0: 87d7 993e 5269 363e e5e5 643e 0b9b d7bc
000001f0: 02ec bc3c 0ac2 183e 071a dfbd 5435 d13c
00000200: d717 5e3e 125a 44bd b8c0 3fbe 12bc 713e
00000210: bf06 f5bd d699 eb3d fa71 e8bd ce4c 49bd
00000220: 669d 213e 9e76 7fbe 32cf b13d 664a 50bc
00000230: b0d3 543e b535 533e 0772 823e 013f 64be
00000240: 3f15 b2be fe6a 663e 2694 a63d bcfd 173e
00000250: 6aad 4f3e 212f 91be c787 e9bc f113 86be
00000260: 6b18 95be e6d0 423d 1d93 433e e7e4 a9bb
00000270: dd4c dfbd e56f 4fbe 0d2e 363e 429e 883e
00000280: 7a8a acbe b415 cc3d fe2e 7d3e e35f acbe
00000290: 8b0c b13e 12f9 f5bd c418 71be f90b f83d
000002a0: 790d a1bd b57d 323e e1cd 76bd 27e7 473e
000002b0: aad5 e1bd 167a 34be c252 c03c e52a 6abe
000002c0: ce6a 113e e63d d2bd 78a3 ab3e 3892 653e
000002d0: 32a6 063e f47d fb3d 3221 c33c eb16 13be
000002e0: e034 f6bd 89e9 aabe 6da5 30be 23fd a33d
000002f0: ef97 a83e be95 aebe e50d 743c d879 923e
00000300: c1bd 253e 1b58 04bd 471d 0b3e be58 aa3e
00000310: 432a a33e d61b 1c3e 9dc8 9d3e aee5 a8bd
00000320: d2a8 91bb fa0c 65bd d614 1f3e ca1e 27be
00000330: d0de 8abd 057a 57be 5539 2fbe e343 853e
00000340: 1efc cf3d ee56 b5bd 3558 593e 4e19 763e
00000350: 5e67 dcbd 3963 0f3e 75c7 83be 3c33 17be
00000360: edc5 633e 13b7 4f3e b08a af3e ddf8 a83e
00000370: b63f 933e 3de2 70be 39ca 09bc ebc4 a93d
00000380: 877d 9d3e f1d8 4f3e adbf 8b3e 498d 403b
00000390: cbea 67bb b65b 9ebe df98 3ebe 641f 693e
000003a0: cefa b5be 2c3e 14bd 8f23 39be 293f 83bd
000003b0: 535c 9cbc 0bc1 18be 42a0 ac3e d9d0 a3be
000003c0: d641 98be ddb6 cf3d c1c6 b3bd 0e9e 61be
000003d0: 073e 713e a9df 38be fa9d 153e 8005 8ebe
000003e0: d0e3 b53e 880d 963e 4dc8 9ebe 6702 8c3e
000003f0: 0cd2 ff3c 0528 8cbe abdd 54be acba 3bbd
0.33490098 -0.29216808 0.08282944 0.16760325 -0.34318462 -0.037200507 -0.035215776 -0.28608364
0.32990733 0.09050707 -0.07207421 0.24124803 -0.20469466 0.143294 -0.3319508 0.15186357
-0.19814792 -0.010037529 0.22040594 0.32287937 -0.17711116 -0.1038376 0.33028242 0.26767623
0.053811576 0.19650325 -0.061782915 0.019825894 -0.11594101 0.08633196 -0.053523168 -0.0151918065
0.010529394 -0.27298778 0.039290763 0.10358833 -0.1493458 0.25422457 -0.3324546 -0.04496683
0.13627064 0.30025834 -0.0052314145 -0.167518 -0.13149908 0.19644262 0.12121486 0.007638803
0.26964447 -0.11858875 0.297237 -0.09037189 -0.3374503 0.03276668 0.31663924 0.1973697
-0.041050743 0.14650449 -0.2180118 -0.32451597 0.2790344 0.13419895 0.15764655 0.0054119136
-0.21682972 0.108973354 0.10192847 -0.32798854 -0.020204412 -0.33208925 -0.2074537 0.24378856
-0.106212996 -0.10189294 0.28985575 -0.17373711 -0.056584943 0.14927103 0.030524552 -0.11985984
-0.25410724 -0.15075012 -0.06396375 -0.12575744 -0.3368776 0.2588378 0.20152505 -0.2543775
0.058573492 -0.061657794 0.26846734 -0.014065901 -0.3142291 0.1933722 0.23611593 -0.35358778
0.18178648 0.18779841 0.082061745 0.11578629 0.25646588 -0.154719 -0.29196414 -0.026892595
0.140391 -0.17895173 -0.084871456 0.023655493 -0.22300768 0.09945953 -0.1256746 -0.018670836
0.24538288 -0.03589375 0.31611204 0.1590948 0.24763426 0.08085468 0.10030746 0.014983714
0.30047247 0.17813614 0.22353323 -0.026319047 0.023061756 0.1491777 -0.10893636 0.025538124
0.21688782 -0.04793746 -0.1872586 0.236069 -0.11964177 0.11503951 -0.11349864 -0.049145512
0.15782699 -0.24947593 0.086820975 -0.0127130505 0.20783877 0.20625956 0.2547762 -0.22289659
-0.34781834 0.22501752 0.08133726 0.14842886 0.20280996 -0.2835627 -0.028507126 -0.2618709
-0.29120192 0.047562502 0.19099088 -0.005184758 -0.109033324 -0.20257528 0.17791004 0.2668324
-0.336994 0.09965077 0.24724957 -0.33666906 0.34579882 -0.12010397 -0.23544604 0.121116586
-0.07863898 0.17430766 -0.060254935 0.19521771 -0.11027081 -0.17624697 0.023476962 -0.22867925
0.14200899 -0.102657124 0.33523154 0.2241906 0.13149336 0.12279883 0.02381954 -0.14364211
-0.12021804 -0.33381298 -0.17250605 0.08007266 0.32928416 -0.3409862 0.014895891 0.28608584
0.16185667 -0.032310586 0.13585387 0.3327083 0.3186818 0.15244994 0.30817118 -0.08246933
-0.004445174 -0.05592058 0.15535292 -0.16320339 -0.06780779 -0.2104264 -0.17111714 0.26028356
0.101555094 -0.08854471 0.21225055 0.2403309 -0.10761903 0.14002694 -0.2573811 -0.14765638
0.22243471 0.20284681 0.34285498 0.33002368 0.28759545 -0.23523803 -0.00841003 0.08289512
0.30759832 0.202976 0.27294675 0.0029381088 -0.003538775 -0.30929345 -0.18613003 0.22765881
-0.3554291 -0.036192104 -0.18079971 -0.06408531 -0.019086992 -0.1491739 0.33716017 -0.31995276
-0.2973773 0.101423 -0.08778144 -0.2203295 0.23558818 -0.1805407 0.14611045 -0.2773857
0.3552537 0.293072 -0.31012192 0.27345583 0.031228088 -0.27374282 -0.20787685 -0.04583232

lstm.bias_ih_l0 f4 [32]
00000000: 879c 77be 27c6 9dbe c027 b2be 035b 513d
00000010: eb02 d63b 33cc 82be cda8 c33d c577 66be
00000020: f7fa 813b ab7a 3bbd fc54 75be 37e2 0cbe
00000030: 24ed da3d f6c7 573e cf02 59bd f70e 69be
00000040: a3f7 de3d d410 11be 31b8 3bba af7f 8d3d
00000050: d8fd a13e bbe2 abbe 3679 adbd fba8 3e3e
00000060: 1e4a 843e 7863 a93e 92fe a3bd 315d 7b3d
00000070: af10 fa3d 82e2 63be 5875 6e3e 86d4 c43d
-0.24180804 -0.3081524 -0.34795952 0.051112186 0.0065311096 -0.25546417 0.095536806 -0.22506626
0.003966685 -0.045771282 -0.239582 -0.13758169 0.10689762 0.21072373 -0.052981194 -0.22759615
0.10887077 -0.14166576 -0.00071609305 0.06909119 0.3163898 -0.3357142 -0.08470385 0.18619148
0.25837797 0.330837 -0.0800754 0.06136817 0.122102134 -0.22254375 0.2328695 0.09610848

lstm.bias_hh_l0 f4 [32]
00000000: 3da3 763e 2d61 4a3d cf63 a2be 5a9f 15be
00000010: 581e 42bd dbf6 01bd 140d 23bc 14f4 a6be
00000020: 229e 0d3e c58a 24be fdd5 953e cb1f 813e
00000030: 4b41 6f3e ff6a 0f3b 97bf 23bd 2238 d9bd
00000040: a34d 2f3e cb6e 2dbe 6e9c 94be 3177 bfbd
00000050: 867f 1fbe 34c1 9dbe 055f 703e e816 52bd
00000060: aee1 99be e325 65be 5855 5c3e dd1e c2bd
00000070: 087c 873e c2a6 803e a80d 8cbe 54a3 b43e
0.24085708 0.04940908 -0.31716773 -0.14611569 -0.04739222 -0.03172956 -0.009951849 -0.32608092
0.13829854 -0.16068561 0.29264823 0.2521957 0.23364751 0.0021883843 -0.039977636 -0.106064096
0.1711946 -0.16936795 -0.29025596 -0.09348906 -0.1557599 -0.30811465 0.23473747 -0.051291376
-0.30054992 -0.22377734 0.21516931 -0.09478543 0.26461816 0.25127226 -0.2735417 0.3528086

lstm.weight_ih_l1 f4 [32, 8]
00000000: 835c a23d 1f12 a7be 10ca 04bc ed27 333e
00000010: 64b9 a73c b8d5 6e3d d7b9 453e 701c cfbd
00000020: 2c68 2cbe b3a4 243e f5b0 9dbe 40d6 4a3e
00000030: a41d 94bd 6c36 88be b926 f03d 67d3 ae3d
00000040: e95f 1ebe d386 34be 139e 6b3e 9426 9ebd
00000050: 71fc 013e 8bdf 56bd c241 af3e f88f 97be
00000060: e357 843e 66d3 88be a5f1 86be e14c 203d
00000070: 13c2 f03d 74ff b5bd 315e e33c ce41 653e
00000080: 1b8d 4fbe c82b 60be c43c 163e d144 2f3e
00000090: b5ac 3bbe 3f45 a03e 629e 4a3e 922b b33e
000000a0: 1d36 cc3d 1934 863d 9d27 9ebd 2cc6 a03c
000000b0: 012b cabc 8cfc 873c 7c8e 09bd e181 8b3e
000000c0: 3ee1 1fbe 8d3a 223e 25db 9fbe 3440 d73d
000000d0: a3c1 a23e 10a2 163d 1096 91be 3e78 413d
000000e0: b289 973e 4de7 62be 0623 12bd d25c a0be
000000f0: 2050 a6be 5b6e 963e d889 96bd 730a 8d3e
00000100: c10c 3ebe f670 813d 63ec 8d3e a458 22be
00000110: 6971 66be 6e55 edbc 28df f1bd 5502 033e
00000120: 5083 56be 66d7 91be 658d 813e e812 973d
00000130: cd06 a03d 1080 23bd 1f2d 5a3e 6661 0bbd
00000140: 94a4 17be b9ca 263e e45e 8fbe 6d9f f23b
00000150: c253 f63d 9c73 87be 792e fd3b 5b6e 1a3d
00000160: 85c5 adbe 597f aebd 7867 7d3c 0a63 b0bd
00000170: 077d 923e d9d4 a03e d6df e03c 41ea 5d3e
00000180: e954 9dbe 84b8 aa3e fac4 80bd f943 1e3e
00000190: 060f 713d 247b a8be 4a84 7b3e a0b9 07be
000001a0: 314b 0dbe 13ef 84be 616c 733d 62da a4be
000001b0: 11f5 3fbe bcb3 633e cc8c 683d 13b8 703e
000001c0: 2ac6 fcbd 97f3 093e 4510 d93c 009d b5be
000001d0: fbb0 85be ce0d 19bd 74fc 9fbe ae67 1a3d
000001e0: 8194 8b3e 4798 de3d 478f b43b baf0 873d
000001f0: 40b8 a5be dd3a 4d3e 9fda 9fbe 4ea1 373d
00000200: f4e8 703e ad0c 19be e18a 583e ee19 8cbe
00000210: 7986 353e 5118 043e b274 733e 3784 12bc
00000220: 9e84 a43e 750b 29be 26f1 273e ae36 8abe
00000230: a1bf 14be 4f7f 7fbe 889f 393e 5a79 6dbd
00000240: 371c febd 8559 b03e 8d16 3bbe 808e 5b3e
00000250: ba52 2ebe 8503 4b3e 1de0 5dbb 6c8b ab3d
00000260: 86a3 98be 64c8 d0bd 362f d3bd 0515 1abe
00000270: da22 393a 282e c8bd 1cc8 10be e7df 593e
00000280: 9ecb 96bc f6fe 03be c54f b53e 7e2a f93d
00000290: 06e1 943e c923 573e b6de c1bd 9a94 0bbe
000002a0: 6895 b0be 5023 94be 7c1e 783e c9a8 7c3e
000002b0: ae55 a4be a5f4 3cbe 1f4b 9e3e dde9 ddbd
000002c0: 3143 7bbe ec17 9abe 77c1 5c3e 3d1a 48be
000002d0: 5cf6 2bbd 8d99 463e bf2f 3bbe 32a5 303d
000002e0: 40b3 44be 4e81 09be 77e9 62be 7a3d 34be
000002f0: a718 4c3d 17a2 b6be e84c 4e3d 5489 183e
00000300: 7e4e 443e 9e2e a0be 9af3 4ebe 8b45 21be
00000310: 87e3 70be ece4 abba e705 593e 37de abbd
00000320: 5dbb 1d3e df5f aebe 9e57 a6be fa2b e9bd
00000330: d335 8f3e 04b9 aa3e 7984 95be bbe4 4e3e
00000340: d64d 9dbe 9d76 a73e 82c4 643e b19e 1abd
00000350: 0810 27bd 8849 afbe 0fa8 063e af77 8f3e
00000360: 9135 653e f4af 3c3e 18d5 a6be c264 8abd
00000370: 8e1e 28be fc50 0c3c 8b9e 3a3e 2b21 77be
00000380: d63d a43e 3271 a0bd 41bd 35be 4a9d 82be
00000390: e2f4 1f3e 9d7b 59bd 2a2e b53b 1e2c 85bd
000003a0: 242b ac3d fd6d 723d 4802 7d3e c4a0 25bd
000003b0: 2fa7 c8bd 0fe8 02be d669 d9bd 6486 9dbe
000003c0: 4894 b63d a9d6 4a3e 49dc 50be 236d 3a3e
000003d0: 2c14 1c3d 051a 973e 0999 dfbd 06e8 853e
000003e0: af7d adbe c221 503e e5d8 1a3e cbae d83d
000003f0: b766 5c3e bad6 be3d 058e bbba 0063 4abd
0.079278015 -0.32631013 -0.008104816 0.17495699 0.020474143 0.058309287 0.19309174 -0.10112846
-0.16836613 0.16078453 -0.3079907 0.19808292 -0.07232216 -0.2660402 0.11726136 0.085364155
-0.15466274 -0.17629556 0.2300952 -0.07722202 0.12693955 -0.05245928 0.34229857 -0.29602027
0.25848302 -0.26723784 -0.26356235 0.039135817 0.11755767 -0.088866144 0.027754875 0.22388384
-0.20268671 -0.21891701 0.14671618 0.17116095 -0.18327601 0.3130283 0.19786981 0.3499418
0.09971259 0.065529056 -0.077223994 0.019625746 -0.024678709 0.016599916 -0.03358315 0.27247527
-0.15613267 0.15842648 -0.31221882 0.10510293 0.31788358 0.03677565 -0.284348 0.047233813
0.2959724 -0.22158547 -0.035677932 -0.31320816 -0.32483006 0.2938107 -0.0735051 0.27547035
-0.18559553 0.06320374 0.2771941 -0.15854126 -0.225042 -0.0289714 -0.11810142 0.12793858
-0.20948529 -0.28484648 0.25303188 0.07376653 0.07813797 -0.03991705 0.21306275 -0.034028433
-0.14808875 0.1628827 -0.28002083 0.007404259 0.12027694 -0.2645539 0.0077264872 0.0377029
-0.33939758 -0.085203834 0.015466563 -0.0861264 0.28611013 0.3141239 0.027450483 0.21671392
-0.30728844 0.333439 -0.0628757 0.15455617 0.058852218 -0.3290645 0.24562183 -0.13254404
-0.13798214 -0.2596365 0.05942953 -0.32197863 -0.18745829 0.22236532 0.0567749 0.23507719
-0.12342484 0.13471828 0.026497016 -0.35471344 -0.26111588 -0.03736668 -0.31247294 0.037696533
0.27261737 0.10868888 0.005510244 0.06637712 -0.32367134 0.20041986 -0.31221482 0.044831567
0.23526365 -0.14946242 0.21146728 -0.27363533 0.17727078 0.12899901 0.23774984 -0.008942655
0.3213243 -0.16508277 0.16400585 -0.26994842 -0.14526226 -0.24950908 0.18127263 -0.057977058
-0.12407725 0.34443298 -0.18270321 0.21441078 -0.17023745 0.19825561 -0.0033855506 0.08376202
-0.29812258 -0.101944715 -0.10311739 -0.15047081 0.0007062383 -0.097744286 -0.14138836 0.21276818
-0.01840764 -0.12890229 0.35412422 0.12166308 0.2907793 0.21009745 -0.09466307 -0.13630906
-0.34488988 -0.2893319 0.24230379 0.24673761 -0.32096618 -0.184527 0.30916688 -0.108356215
-0.2453735 -0.30096376 0.21558176 -0.19541259 -0.041982993 0.19394512 -0.18279932 0.043126293
-0.19209003 -0.13428232 -0.22159372 -0.17601576 0.049828198 -0.3567054 0.050366312 0.14896137
0.19170567 -0.31285566 -0.20210114 -0.15749185 -0.23524295 -0.0013114489 0.21193658 -0.083919935
0.15403505 -0.3405752 -0.32488722 -0.11385341 0.27970752 0.3334428 -0.2920263 0.20204441
-0.30723447 0.32707682 0.22340587 -0.037748996 -0.040786773 -0.34235787 0.13150047 0.28021
0.22383715 0.18426496 -0.32584453 -0.06757499 -0.16417906 0.00856423 0.18224542 -0.24133746
0.32078427 -0.0783409 -0.17747976 -0.25510627 0.15620759 -0.053096402 0.005529185 -0.06502555
0.08406666 0.059186924 0.24707901 -0.04043652 -0.09797513 -0.12783836 -0.1061589 -0.30766594
0.08915001 0.19808449 -0.20396532 0.18205695 0.038105175 0.2951204 -0.10917861 0.26153582
-0.3388495 0.20325378 0.15121801 0.10580214 0.21523558 0.093182996 -0.0014309293 -0.04941082

lstm.weight_hh_l1 f4 [32, 8]
00000000: 670a 3b3e 8108 713e 99c7 19be ef1c f83d
00000010: 9745 8c3e 84f8 8fbe 80f2 883e 5b8a 0ebe
00000020: a512 a43d 9b7b 863e 94b0 a03d f6e9 1cbe
00000030: 9911 663d 616e d83c 089f 0c3e 6e41 afbb
00000040: 9fed 403e 4518 00bd 1b77 cfbd 6829 f6bd
00000050: bcdb a13e 2d17 8dbe 3503 a83e 160a b5bd
00000060: 71eb 6c3e 9710 433e 6aac 9bbe 816c ba3d
00000070: 69e5 8c3e 5532 753e 074f 8cbe 5312 103d
00000080: 0c31 553e cc42 8a3e 46ab 51be 1414 3bbe
00000090: 048a 6fbe af0f 18be 0e53 623e 6ff0 b13e
000000a0: c6da 3a3e 6f21 943d ffa2 fa3d 8d5c 5abe
000000b0: 3b62 11be 4184 a5be df6e a0be 4b45 e93c
000000c0: cc8f 063e 86eb b8bd d2f5 433e c662 31be
000000d0: a070 90be 78b1 06be aa8f 593b 4904 4dbe
000000e0: c964 593e 590f b63e 279f a8be b630 883d
000000f0: 6ba8 5b3c 2fdf a43e 53f0 7bbd 92eb b33c
00000100: 38a4 b23c 47d9 08be a455 1dbd c81e bebc
00000110: 4f1a 4d3e 398f 423e bbd5 b2be 049c 943d
00000120: e717 b23b d723 88be 773c 083e 5af6 12bd
00000130: 26d3 b13e 30ea 9abe 6a97 513d c149 debc
00000140: 6be7 59be 6d2a b43e bd77 803e 1dcc 383e
00000150: fe53 33bc bb87 dc3d 43c2 97bd 62b5 e0bd
00000160: beeb 183e b591 a8be 827f 813d ee3f 72be
00000170: 2e4c 08bd 2bde 5e3e 0efe 67bd b7fc a4be
00000180: d94d cd3d 6ac8 8a3e da2d 6f3e 7532 103e
00000190: 94e3 41be 0504 0fbc c62c d03d b18e 66be
000001a0: 7c20 9f3d 5254 1f3d b8d0 743e 313b 1e3e
000001b0: ae36 213d 956a adbe 7570 06be 25e8 1bbe
000001c0: 4c7d a73e 6887 8ebe a48b 8dbe 077f 723d
000001d0: 037a 8f3d 9e99 1bbe 3642 58bd c891 753d
000001e0: 3299 14be b505 07bc 395a 3e3e 9f19 90be
000001f0: 6776 713e 44d5 56be 85a5 9b3e ee5f 9fbc
00000200: dc1f 9c3e 47e2 1bbe 38aa dfbd b020 b03e
00000210: 4ba9 54bc f55a 3bbc eb25 a73e 4453 373e
00000220: fc2b 7b3e c947 95bd 5df1 78be 8cfb 653e
00000230: d8df c83d 3e12 343e 97c0 ecbd d445 0c3e
00000240: 70bf 45be e7d6 d63d 8934 663e d015 f03d
00000250: 3715 9cbe 86c9 493e b8e5 5c3e 1828 44be
00000260: fafc dc3c 9c8f e63d 2c7f 293e 64d7 243e
00000270: 24f5 0f3e f0ec f5bd 3940 8abe d88d dbbc
00000280: 69d8 813e af7b a5be 7454 0cbd 5a25 123e
00000290: fa46 213e 7453 a9be 954a 80be f758 78be
000002a0: 3555 30be 4194 0f3d ed70 be3c 38ed 90be
000002b0: ad0a 84be 680e 78be f36c dd3d aa19 58be
000002c0: 42e6 1ebd c4fc 89bd a4c1 93be 3832 78be
000002d0: bb43 2abb 5132 c7bd 4574 273e 28e8 4abe
000002e0: e055 44be 6258 f43c b9d1 b03d c9c0 56be
000002f0: 9f98 48be c4e4 0a3e 56e5 7dbe c271 1f3d
00000300: 066a 89be 3086 6ebd 2537 d1bd 0727 8abd
00000310: 8ab0 3dbe b9cb aebe 5126 edbd 2ec9 fdbd
00000320: 87ed 173e 939a 8e3c 6351 d53d 0b46 603e
00000330: 174e 91be 35ba 773e 5be4 4dbe cdc2 26be
00000340: b8b7 a63e 9011 61bd 1892 623e 96a1 cabd
00000350: 3011 af3e 4d7e 0e3e d4a4 4f3e 179f a13e
00000360: 878b f43c 8396 9d3e d7be 533e 8cbf ffbd
00000370: 92a6 733d 94dd 493c 7a31 3bbd 7cdd e93d
00000380: 15ce 113e c6fb dbbd 931a 69be 6443 4c3e
00000390: c86a 6ebc 6767 633e 9c9e 153e 3a6f c33d
000003a0: a53d 75be b6c6 853a 7780 1abe 0c3f 83be
000003b0: 37c9 57bd 4385 453e 7485 6c3e fe29 603e
000003c0: dc69 85be 591a db3c 15fa 81be 1c9d 8cbe
000003d0: 748c 89bd 6bd5 853c bcb2 4abe a528 7d3e
000003e0: a04d b23e 6766 6abe 3b99 94bd 7508 64be
000003f0: 76bd 43bd bc1c d13c 3b33 7d3e 5743 b23e
0.18265687 0.235384 -0.15017547 0.12114894 0.27396843 -0.2811929 0.26747513 -0.13919966
0.08011369 0.26266178 0.078461796 -0.15323624 0.056169126 0.02641982 0.1373254 -0.005348376
0.18840645 -0.031273145 -0.101301394 -0.12019616 0.31612957 -0.27556744 0.32814947 -0.08839814
0.23136689 0.19049297 -0.3040498 0.09102727 0.27518776 0.23944981 -0.27404043 0.035173725
0.20819491 0.27004087 -0.20475492 -0.18269378 -0.23392493 -0.14849733 0.22101995 0.3475375
0.18247518 0.072329395 0.1223812 -0.21324368 -0.14197628 -0.32327464 -0.31334588 0.028475424
0.13140792 -0.090292975 0.19136742 -0.17322835 -0.28210926 -0.13153636 0.0033197203 -0.20021166
0.21229853 0.35558584 -0.32933924 0.06649916 0.013406853 0.32201526 -0.061508488 0.021962915
0.021806821 -0.13364135 -0.03841175 -0.023208037 0.20029567 0.18999948 -0.34928688 0.0725632
0.0054349783 -0.26589844 0.13304316 -0.03587947 0.34731406 -0.30256796 0.05116979 -0.027134778
-0.21279685 0.35188618 0.25091353 0.18046613 -0.010945318 0.10768076 -0.07410099 -0.10972096
0.14933679 -0.32923666 0.06323148 -0.236572 -0.033275776 0.21764438 -0.05663877 -0.32224056
0.10024614 0.2710603 0.23357335 0.14081748 -0.1893447 -0.008728986 0.1016479 -0.2251537
0.07769868 0.038898773 0.23907745 0.15452267 0.039358787 -0.33870378 -0.13128836 -0.15225275
0.3271278 -0.27837682 -0.276456 0.059203174 0.07005694 -0.15195319 -0.05279752 0.05995348
-0.14511564 -0.008241107 0.18589105 -0.28144547 0.23580323 -0.20979792 0.3039972 -0.019454923
0.30493057 -0.15223037 -0.109211385 0.3439994 -0.012979816 -0.01143526 0.32646117 0.17902857
0.24528497 -0.072890826 -0.24310823 0.22459239 0.0980832 0.17585084 -0.11560171 0.13698512
-0.19311309 0.10490208 0.22480978 0.117229104 -0.30484936 0.19705781 0.21572006 -0.1915592
0.026976097 0.1125786 0.16552418 0.1609779 0.14058357 -0.12008083 -0.27002123 -0.026801035
0.2536042 -0.32320926 -0.03426023 0.14272061 0.15749732 -0.33071482 -0.25056902 -0.24252687
-0.17220004 0.035053495 0.023247207 -0.28305984 -0.25789395 -0.24224246 0.10811796 -0.2110354
-0.03879381 -0.06737664 -0.28858674 -0.24237907 -0.0025980312 -0.09726394 0.16352947 -0.19815123
-0.19173384 0.0298273 0.086337514 -0.20971979 -0.1958947 0.1356383 -0.24794516 0.038926847
-0.26838702 -0.05823344 -0.10215596 -0.06745725 -0.18524376 -0.34139803 -0.11579574 -0.123918876
0.14836703 0.017407691 0.10415914 0.2190172 -0.2837989 0.24192126 -0.20106642 -0.16285248
0.3256204 -0.05494839 0.22126043 -0.09894101 0.341928 0.13915367 0.2027772 0.31566688
0.029851688 0.30778894 0.20678268 -0.124877065 0.059485026 0.012320895 -0.04570148 0.11419198
0.1423877 -0.10741381 -0.22764044 0.19947582 -0.014551826 0.22207414 0.14611286 0.09542699
-0.23949297 0.0010206315 -0.15088068 -0.25634038 -0.052682128 0.19289117 0.23097783 0.21891019
-0.26057327 0.026745962 -0.2538611 -0.27463615 -0.067162424 0.016337117 -0.19794744 0.24722536
0.34824848 -0.22890626 -0.07255789 -0.22268851 -0.047788106 0.025526397 0.24726574 0.34817

lstm.bias_ih_l1 f4 [32]
00000000: 26de a2be 72ff 603e e554 88be 9620 37be
00000010: d3a8 c53c ad27 6bbd 2ebe 46be 7644 36be
00000020: c6b5 b03e 628c 3d3e da49 8cbe 5ff1 b53d
00000030: 703b a3be 2715 acbe 02d9 50be 92ec 8b3e
00000040: 7522 6abe d3be 22be e79a 803d 1120 933e
00000050: d945 8b3e ff5d 2abd fad5 75be 1942 80be
00000060: 4ba9 a0bd dc01 213e f666 03be 55ba e73d
00000070: 99b7 8bbd 4921 1f3e 0e79 a2bd 3075 c1bd
-0.3181011 0.21972445 -0.2662727 -0.17883524 0.024128353 -0.057410885 -0.19408485 -0.17799553
0.34513682 0.18510583 -0.27400094 0.088839285 -0.31881285 -0.33609888 -0.20395282 0.27328926
-0.22864707 -0.15893106 0.06279545 0.28735402 0.27201727 -0.041593548 -0.24007407 -0.25050429
-0.0784479 0.15723366 -0.12832245 0.11314837 -0.06822128 0.15540041 -0.079332456 -0.0944618

lstm.bias_hh_l1 f4 [32]
00000000: 854b ddbc 335a 933e 0545 9ebe 3dfd 023e
00000010: af95 193e 93e7 963e 7e5f fd3c 9f39 173e
00000020: 11b3 b7bd 7599 bfbb d9ac 833d 16e1 8abe
00000030: 5a78 613b e8e1 c6bc 61aa 95be 6591 b4bc
00000040: 3648 46be e0fc 323d 7274 613d 7693 92be
00000050: 5898 45be f6c4 f73d 87cc dabc 1713 813e
00000060: 04dc 54be b5bf 21be 12c3 563e 9b74 9cbe
00000070: acd2 9abe 2888 823e b23a b0be 5ab7 9a3e
-0.02701355 0.28779754 -0.30912033 0.12791915 0.14998506 0.29473552 0.030929323 0.14768074
-0.08969701 -0.005847151 0.064294524 -0.27124852 0.003440401 -0.024277642 -0.2923155 -0.022041986
-0.19363484 0.04369819 0.05504269 -0.2862813 -0.19296396 0.12098114 -0.026708854 0.25209877
-0.20787054 -0.15795787 0.20972851 -0.30557713 -0.30238855 0.25494504 -0.3441978 0.3021801

fc.weight f4 [1, 8]
00000000: e245 243e 63a1 8d3e 5081 b0bc 5cbb 903e
00000010: 8b7d 513e 19f2 a63e 7387 2abd 42b6 97be
0.16042283 0.2766219 -0.021546036 0.28267944 0.20458047 0.3260658 -0.04163308 -0.2963124
