time_series_intro_class/final_project/submission/model_params/2_layer_8_size_model_epoch_1200.pth (torch, 5603 bytes, 9 tensors)

lstm.weight_ih_l0 f4 [32, 1]
0.51964545 -2.131631 -0.13772118 -4.2878985 0.049574222 -0.27036 -1.8667917 0.15066977
-0.8670619 -2.3138828 -0.050694846 -0.5492635 2.617677 -0.7002759 -0.5857021 0.39770988
0.47802895 1.0817057 -0.33451176 -2.091824 0.4700377 0.3502023 -0.8022454 0.3061696
0.78357804 -2.0780106 0.32167956 -2.2503223 2.622795 -1.0309241 -1.5230749 0.2316054
00000000: 7c07 053f a46c 08c0 c806 0dbe 7736 89c0
00000010: 570e 4b3d a06c 8abe 08f3 eebf 2d49 1a3e
00000020: c5f7 5dbf a816 14c0 66a5 4fbd 889c 0cbf
00000030: 0588 2740 4845 33bf 93f0 15bf a1a0 cb3e
00000040: 36c0 f43e 5575 8a3f 2045 abbe 72e0 05c0
00000050: c8a8 f03e b74d b33e f45f 4dbf 43c2 9c3e
00000060: 9298 483f 20fe 04c0 2fb3 a43e 4805 10c0
00000070: e0db 2740 52f5 83bf 1ef4 c2bf f729 6d3e

lstm.weight_hh_l0 f4 [32, 8]
0.6536885 -0.64762515 0.092979565 1.5267386 0.23192905 -0.38275576 0.56172 0.077154644
0.33676234 -0.031649552 -0.2301243 -0.19913651 -0.32889518 0.018285098 -0.4218499 0.0050053135
-0.07366837 0.04532128 0.17635745 0.4780221 -0.49874136 -0.058258906 0.5377879 0.09844914
0.7027555 -0.40317374 -0.5902305 0.5204452 0.13701156 -0.5055994 0.5972903 0.5007915
0.5004722 -0.83915025 -0.3909037 0.50202787 -0.18477593 -0.12819175 0.0076676765 0.048085954
-0.019500097 0.349777 0.05576158 -0.6705307 -0.25945565 0.25964284 0.0026424176 -0.107282765
0.29294947 -0.16835749 0.26688096 0.15160088 -0.49555275 0.015671046 0.3340631 0.12721737
-0.08162438 0.093315616 -0.24337931 -0.4545433 0.13676573 0.16095261 0.089469686 -0.12513714
-0.2166221 0.070880085 0.2159129 0.83324337 0.3823437 -0.4352046 -0.12375292 0.36664337
0.09186803 -0.11971811 0.22760558 -0.5098742 -0.2919109 0.16961588 0.065865554 -0.35020906
-0.17667834 -0.07969535 -0.055983692 -0.06258328 -0.592019 0.30740944 0.3321978 -0.4064146
0.19531748 -0.43224713 0.15124995 1.4199038 -0.70049775 -0.051862154 0.47689658 -0.3444321
0.16526191 0.10227655 0.057061683 -0.24238132 0.18804424 -0.21453528 -0.4544326 -0.05305189
-0.033547502 -0.12120097 -0.026422093 -0.44380924 -0.3644832 0.16978091 -0.22760662 -0.14667675
0.23364443 -0.21815418 0.3355954 0.26168814 0.34628338 -0.042983547 0.032011 -0.071004085
0.21217275 0.16115622 0.24401242 -0.34218016 -0.09816407 0.1915194 -0.21579234 -0.11201232
0.4502603 -0.13654056 -0.0016977102 1.5098616 0.2889642 0.060292687 0.12899505 0.1320142
0.058755264 -0.30069843 0.10102338 0.19097364 0.37242472 0.18609583 0.09096881 -0.13272986
-0.47717473 0.2071582 0.100303784 0.03235502 0.33356705 -0.29411954 -0.32893625 -0.15195012
-0.43003234 0.05085015 0.56124955 0.24570139 0.41735893 -0.20069146 -0.024505073 0.4726129
-0.598803 -0.23218615 0.18035793 -0.9776197 0.4598373 -0.35328272 -0.48343575 0.1525781
0.06538936 0.11855456 -0.14068688 0.66751605 0.027029531 -0.24942864 0.12746911 -0.12144724
0.20726146 0.05459061 0.40158725 0.24703106 0.27025357 0.17926985 0.053080376 -0.054467794
-0.3550694 -0.29731426 -0.10379552 -0.16720703 0.32130235 -0.26316604 -0.3082569 0.23868273
0.51210177 -0.3636031 0.12100924 2.428513 0.6240595 -0.09126934 0.55649215 0.25228968
-0.079226516 -0.44724315 0.101455234 -0.62758094 -0.323426 -0.4819669 -0.2162827 0.09331093
0.1552154 -0.1920427 0.16283189 0.45589375 -0.48306465 0.14393458 0.017358875 -0.36157525
0.99264103 -0.9537009 -0.44468972 1.0626835 0.7656157 -1.2805419 0.9396523 0.67590094
0.6515473 -0.08673416 0.039440513 0.727344 0.087098174 -0.5132697 0.005071375 0.3537614
-0.5974866 -0.016821295 -0.09927286 -0.81369096 -0.10538532 -0.10791638 0.1399261 -0.4258068
-0.28384012 -0.12938006 -0.10175971 -0.011967095 0.010354132 -0.3243204 0.23066382 -0.35274684
0.30098996 0.25833607 -0.35430038 0.19787537 -0.0720564 -0.23742017 -0.2581161 -0.17675915
00000000: 2158 273f c3ca 25bf 126c be3d 2c6c c33f
00000010: cf7e 6d3e 90f8 c3be e2cc 0f3f 4103 9e3d
00000020: 1d6c ac3e f6a2 01bd b4a5 6bbe 71ea 4bbe
00000030: f364 a8be a1ca 953c b6fc d7be 9d03 a43b
00000040: 71df 96bd cea2 393d 0c97 343e 50bf f43e
00000050: 075b ffbe e4a0 6ebd 78ac 093f b49f c93d
00000060: c9e7 333f ca6c cebe 5919 17bf e63b 053f
00000070: c24c 0c3e f66e 01bf 04e8 183f df33 003f
00000080: f21e 003f 8dd2 56bf 8824 c8be e684 003f
00000090: e735 3dbe b344 03be 2241 fb3b c7f5 443d
000000a0: abbe 9fbc f915 b33e 4166 643d e6a7 2bbf
000000b0: 5fd7 84be e8ef 843e 692c 2d3b 11b7 dbbd
000000c0: 79fd 953e e865 2cbe 9fa4 883e 433d 1b3e
000000d0: 17b9 fdbe 9160 803c 520a ab3e 4545 023e
000000e0: af2a a7bd 421c bf3d 6d38 79be e6b9 e8be
000000f0: 510c 0c3e c3d0 243e e23b b73d f323 00be
00000100: 2fd2 5dbe 9429 913d 4518 5d3e 704f 553f
00000110: 8ec2 c33e 23d3 debe 2c72 fdbd aeb8 bb3e
00000120: 4e25 bc3d c52e f5bd 7011 693e 1e87 02bf
00000130: 5875 95be c9af 2d3e 85e4 863d 9a4e b3be
00000140: 2beb 34be 5137 a3bd 284f 65bd aa2b 80bd
00000150: 8f8e 17bf c564 9d3e d415 aa3e 9315 d0be
00000160: 4e01 483e 7f4f ddbe 44e1 1a3e 68bf b53f
00000170: d253 33bf 696d 54bd ca2b f43e 6759 b0be
00000180: 6b3a 293e 5e76 d13d 83b9 693d cf32 78be
00000190: ab8e 403e 23af 5bbe 64ab e8be f04c 59bd
000001a0: 1b69 09bd 3738 f8bd 2573 d8bc f73a e3be
000001b0: 8b9d babe 0cdb 2d3e b611 69be 6e32 16be
000001c0: 7c40 6f3e cf63 5fbe 29d3 ab3e fdfb 853e
000001d0: 0e4c b13e 840f 30bd f71d 033d 976a 91bd
000001e0: d043 593e 2306 253e 64de 793e 3d32 afbe
000001f0: 3e0a c9bd a91d 443e abf8 5cbe b766 e5bd
00000200: 8588 e63e 4ad1 0bbe b485 deba 2543 c13f
00000210: 1ef3 933e 77f5 763d 4717 043e bb2e 073e
00000220: 5ca9 703d 25f5 99be 59e5 ce3d 988e 433e
00000230: 74ae be3e e88f 3e3e db4d ba3d 56ea 07be
00000240: 3f50 f4be 4721 543e 126c cd3d b386 043d
00000250: 4dc9 aa3e d696 96be 556a a8be d098 1bbe
00000260: 332d dcbe 3f48 503d 0dae 0f3f 2599 7b3e
00000270: 12b0 d53e 1082 4dbe ddbe c8bc 51fa f13e
00000280: 274b 19bf 35c2 6dbe c0af 383e 4945 7abf
00000290: cb6f eb3e 79e1 b4be e484 f7be 6f3d 1c3e
000002a0: dbea 853d bccc f23d 3910 10be 55e2 2a3f
000002b0: 096d dd3c 396a 7fbe 4387 023e 55b9 f8bd
000002c0: 593c 543e 679a 5f3d d89c cd3e b6f5 7c3e
000002d0: ad5e 8a3e 8492 373e cf6a 593d 9f19 5fbd
000002e0: a8cb b5be 9339 98be bf92 d4bd 5238 2bbe
000002f0: be81 a43e b3bd 86be d9d3 9dbe 3f69 743e
00000300: 1a19 033f 2f2a babe b1d3 f73d c26c 1b40
00000310: 5dc2 1f3f 6beb babd 4576 0e3f 1d2c 813e
00000320: 8341 a2bd 0efd e4be c3c7 cf3d 25a9 20bf
00000330: 1898 a5be 5ec4 f6be 3679 5dbe cd19 bf3d
00000340: c9f0 1e3e d7a6 44be 67bd 263e e86a e93e
00000350: 4054 f7be 9663 133e 3334 8e3c 6420 b9be
00000360: b91d 7e3f be25 74bf 5fae e3be 0306 883f
00000370: 64ff 433f cce8 a3bf 0e8d 703f d807 2d3f
00000380: cecb 263f aea1 b1bd 608c 213d 3733 3a3f
00000390: 8760 b23d a565 03bf c72d a63b 3720 b53e
000003a0: e2f4 18bf d0cc 89bc 924f cbbd 0d4e 50bf
000003b0: 42d4 d7bd 4303 ddbd ca48 0f3e 5903 dabe
000003c0: 7e53 91be 357c 04be 6567 d0bd a211 44bc
000003d0: 61a4 293c 530d a6be 2333 6c3e 3c9b b4be
000003e0: 5b1b 9a3e a044 843e dc66 b5be d79f 4a3e
000003f0: 4e92 93bd 461e 73be cb27 84be 5a00 35be

lstm.bias_ih_l0 f4 [32]
0.041784994 -0.22894777 -0.3052043 0.8168086 0.40394348 -0.31459686 0.122164585 -0.24725755
0.16961567 -0.13204004 -0.22856136 0.061993927 0.16457182 0.12978032 -0.028818786 -0.26910558
0.12379597 -0.11991717 0.023196405 0.10147488 0.4171132 -0.27014372 -0.10273087 0.12429707
0.52892804 0.3388898 -0.05126365 1.092986 0.4061953 -0.30511537 0.26470378 0.07591117
00000000: be26 2b3d 4971 6abe bd43 9cbe 5e1a 513f
00000010: aed1 ce3e d712 a1be 6d31 fa3d 1531 7dbe
00000020: bbaf 2d3e 8135 07be fd0b 6abe 58ed 7d3d
00000030: 8485 283e 22e5 043e 6015 ecbc 35c8 89be
00000040: be88 fd3d 2297 f5bd 6306 be3c 10d2 cf3d
00000050: dd8f d53e 4750 8abe 9064 d2bd 768f fe3d
00000060: d467 073f f782 ad3e d5f9 51bd f7e6 8b3f
00000070: d5f8 cf3e 1538 9cbe 4187 873e 5177 9b3d

lstm.bias_hh_l0 f4 [32]
0.52445 0.128614 -0.2744125 0.61958057 0.35002032 -0.09086365 0.01667569 -0.348271
0.3039466 -0.24695471 0.3036691 0.45176932 0.29132178 -0.07875521 -0.015814917 -0.14757344
0.18612018 -0.14761911 -0.26634184 -0.061105765 -0.05503477 -0.24254389 0.21671088 -0.11318575
-0.030000899 -0.21572423 0.24398151 0.9368352 0.54870784 0.1687011 -0.24170749 0.33261037
00000000: 5b42 063f 63b3 033e cc7f 8cbe d59c 1e3f
00000010: dd35 b33e b916 babd 759b 883c 9450 b2be
00000020: e49e 9b3e b2e1 7cbe 847a 9b3e 4f4e e73e
00000030: 2128 953e 694a a1bd 498e 81bc 7e1d 17be
00000040: 4a96 3e3e 7729 17be f55d 88be 0a4a 7abd
00000050: 246c 61bd 6d5d 78be 75e9 5d3e eecd e7bd
00000060: 72c4 f5bc d0e6 5cbe 4ad6 793e 6fd4 6f3f
00000070: 1e78 0c3f fbbf 2c3e 2b82 77be e84b aa3e

lstm.weight_ih_l1 f4 [32, 8]
0.082885146 -0.25980088 0.010921437 0.13806066 -0.09373677 0.10170269 0.21034266 -0.2050604
-0.18471807 0.39712247 -0.21759067 -0.6690683 0.009568733 -0.1371169 0.016080368 -0.046509285
0.09727378 -0.0074953665 0.14790541 -0.14525019 -0.36101258 0.1361946 0.5453643 -0.5872383
0.10687701 -0.19851694 -0.15994136 -0.31723526 -0.09039928 0.04231817 -0.0635962 0.11413521
-0.3751381 -0.25030133 0.055020712 0.29846516 -0.68771994 0.3715697 0.08994305 -0.07425723
0.14522134 0.12936106 -0.07843809 1.358267 0.41703895 0.03525203 -0.02303483 0.4998942
-0.10516994 0.41880012 -0.12534486 0.6286712 0.4125607 0.14459537 -0.2766368 0.24352878
0.31016058 -0.12218598 0.052586164 -0.22323923 -0.4226409 0.38402823 -0.064237595 0.14437573
-0.18596163 0.19601125 0.33300012 -0.07242477 -0.40834594 0.07853838 -0.06797811 -0.043224607
-0.23697148 0.040751167 0.43315175 -0.1080608 0.11978035 0.16051422 0.27082914 -0.18359527
-0.077260315 0.48743308 -0.22274649 -0.14402975 -0.3070062 -0.02118853 0.051186807 -0.26661742
-0.47821763 0.08678244 0.17389873 0.19610025 -0.10793584 0.49437606 -0.08307982 0.06738839
-0.25240597 0.46577954 -0.16608563 0.09058946 -0.54983515 -0.22208652 0.18059115 -0.6091374
-0.078732535 0.222436 0.56243604 0.94414735 -0.19490787 0.6625215 0.22697848 0.2896625
-0.24403524 0.32523122 0.252802 -0.16238424 0.15747099 -0.06642381 -0.3863362 0.3592418
0.27558652 0.25409532 0.16670099 0.30793726 -0.38562682 0.35521144 -0.20493995 -0.1336181
0.27082497 -0.1875321 0.1792839 -0.37292048 0.29039297 0.0837024 0.20733073 0.11933524
0.35713962 -0.04677825 0.20741749 -0.41080737 -0.094164774 -0.2584876 0.19136544 -0.0010292021
-0.17112851 0.24654947 -0.19431464 0.21705525 -0.26415688 0.16278675 0.045169827 -0.014523657
-0.2755509 -0.10747999 -0.118567 -0.25348017 0.0317657 -0.099433884 -0.1312477 0.2430322
-0.04415416 -0.11260034 0.38632324 0.10190075 0.3711498 0.20765835 -0.15268356 -0.053535994
-0.3588742 -0.3444835 0.29698697 0.34515905 -0.37781847 -0.23320213 0.34816033 -0.10647138
-0.082354054 -0.35476717 0.078322075 -0.12179289 0.17421533 0.16841757 -0.16843939 0.23877634
-0.19768362 -0.15783125 -0.22378725 -0.08801126 -0.011990235 -0.3460226 0.0873948 0.059059363
0.20187691 -0.27722406 -0.2177256 -0.27850327 -0.3596386 0.041979462 0.20134725 -0.21591976
0.0052526896 -0.1083184 -0.2101028 -1.084667 0.21997273 0.47757852 -0.3055849 -0.012500376
-0.025294932 0.49377182 0.1018844 -0.27231577 -0.66949636 -0.17883962 0.37160137 -0.12137045
0.04387066 0.30468157 -0.21100982 -0.36523917 -0.38192427 0.13664441 0.06566028 -0.31893906
0.134067 -0.11881143 -0.2819563 -0.024937527 -0.2853602 -0.046432402 -0.33309504 -0.46203116
0.16969636 0.15946196 0.27607054 1.1860493 0.20684351 -0.091107816 0.029138172 -0.13970982
0.09895773 0.41287586 0.03406961 0.82149804 0.052680727 0.4038341 0.03360707 0.35967132
-0.2796589 0.2797525 0.17298543 0.15383455 0.1308966 0.19388732 -0.008331149 -0.22158638
00000000: b0bf a93d 9f04 85be d4ef 323c c65f 0d3e
00000010: 10f9 bfbd 8049 d03d 1164 573e 5afb 51be
00000020: bc26 3dbe a353 cb3e 17d0 5ebe 0f48 2bbf
00000030: 2dc6 1c3c 5f68 0cbe faba 833c 8580 3ebd
00000040: 7a37 c73d b19b f5bb 8474 173e 77bc 14be
00000050: a4d6 b8be 9976 0b3e ff9c 0b3f 4055 16bf
00000060: 55e2 da3d 0648 4bbe abc7 23be a96c a2be
00000070: 4223 b9bd d155 2d3d b93e 82bd b9bf e93d
00000080: 1a12 c0be 7f27 80be 665d 613d 6dd0 983e
00000090: 6a0e 30bf 623e be3e 1034 b83d 2d14 98bd
000000a0: e7b4 143e 3a77 043e 26a4 a0bd b1db ad3f
000000b0: 2186 d53e 6f64 103d 8ab3 bcbc 22f2 ff3e
000000c0: 5663 d7bd f86c d63e 675a 00be 99f0 203f
000000d0: 283b d33e cf10 143e 57a3 8dbe 9c5f 793e
000000e0: 5ecd 9e3e a53c fabd 9764 573d d398 64be
000000f0: 6364 d8be 599f c43e 008f 83bd 3bd7 133e
00000100: ba6c 3ebe 2cb7 483e fe7e aa3e 7053 94bd
00000110: b812 d1be bbd8 a03d 1b38 8bbd 490c 31bd
00000120: a7a8 72be b2ea 263d 11c6 dd3e fb4e ddbd
00000130: 664f f53d d75d 243e 1eaa 8a3e 6600 3cbe
00000140: a83a 9ebd d490 f93e a817 64be 897c 13be
00000150: eb2f 9dbe 9193 adbc 42a9 513d 1482 88be
00000160: f1d8 f4be feba b13d 8212 323e 81ce 483e
00000170: 770d ddbd dc1e fd3e c125 aabd ed02 8a3d
00000180: 5b3b 81be a87a ee3e 5a12 2abe f886 b93d
00000190: ffc1 0cbf a66a 63be e3ec 383e 6ef0 1bbf
000001a0: 863e a1bd 43c6 633e cffb 0f3f a4b3 713f
000001b0: ee95 47be 029b 293f 0c6d 683e a54e 943e
000001c0: 60e4 79be b584 a63e 446f 813e 0e48 26be
000001d0: 1340 213e 3509 88bd dccd c5be 8bee b73e
000001e0: ad19 8d3e c818 823e aab3 2a3e f4a9 9d3e
000001f0: e170 c5be 46de b53e c7db 51be 2fd3 08be
00000200: 92a9 8a3e 6a08 40be 3396 373e 6fef bebe
00000210: 63ae 943e 2a6c ab3d 824e 543e 0966 f43d
00000220: 01db b63e 8d9a 3fbd 4065 543e 5855 d2be
00000230: 76d9 c0bd 7d58 84be 4df5 433e 4be6 86ba
00000240: 503c 2fbe 7777 7c3e 6bfa 46be bb43 5e3e
00000250: 923f 87be 92b1 263e ff03 393d a2f4 6dbc
00000260: 0215 8dbe 781e dcbd 41d3 f2bd 27c8 81be
00000270: c01c 023d fea3 cbbd cc65 06be 6fdd 783e
00000280: feda 34bd 029b e6bd 29cc c53e 57b1 d03d
00000290: 5907 be3e 64a4 543e 1459 1cbe 8f48 5bbd
000002a0: 5cbe b7be 2460 b0be ad0e 983e b0b8 b03e
000002b0: 6c71 c1be 8acc 6ebe 1242 b23e ab0d dabd
000002c0: 3ea9 a8bd 0ba4 b5be 5367 a03d 8d6e f9bd
000002d0: 8165 323e a875 2c3e 607b 2cbe c981 743e
000002e0: 936d 4abe 849e 21be 7c28 65be 3f3f b4bd
000002f0: b172 44bc e029 b1be 0bfc b23d 3be8 713d
00000300: d2b8 4e3e 50f0 8dbe 76f3 5ebe fb97 8ebe
00000310: 8d22 b8be a8f2 2b3d f92d 4e3e 121a 5dbe
00000320: c11e ac3b 0ad6 ddbd 3025 57be 5ed6 8abf
00000330: 8840 613e 2c85 f43e a075 9cbe 61ce 4cbc
00000340: 5137 cfbc a9cf fc3e c5a8 d03d f96c 8bbe
00000350: 1d64 2bbf bc21 37be 8942 be3e 1291 f8bd
00000360: b9b1 333d 39ff 9b3e f512 58be a100 bbbe
00000370: 948b c3be 83ec 0b3e e678 863d fb4b a3be
00000380: dc48 093e 6853 f3bd 935c 90be c949 ccbc
00000390: bb1a 92be e72f 3ebd 6f8b aabe 598f ecbe
000003a0: e2c4 2d3e ff49 233e 1e59 8d3e 77d0 973f
000003b0: c9ce 533e bc96 babd 2db3 ee3c 1710 0fbe
000003c0: 5aaa ca3d 7764 d33e 938c 0b3d b24d 523f
000003d0: bfc7 573d 58c3 ce3e 91a7 093d d726 b83e
000003e0: 742f 8fbe b83b 8f3e 1823 313e ce86 1d3e
000003f0: c209 063e 668a 463e 5f7f 08bc 8ae7 62be

lstm.weight_hh_l1 f4 [32, 8]
0.2341399 0.6175311 -0.1872938 0.24325684 0.46872333 0.05105348 0.27844536 -0.31472546
0.26094547 0.9819716 -0.46083587 -0.13210377 0.4356612 -0.3305758 0.27588165 -0.2902863
0.18679018 -0.26605403 -0.050122224 -0.40970784 0.4212597 -0.74589807 0.2856743 -0.39419153
0.34174898 0.0831599 -0.28220978 -0.008956003 0.37772378 0.028246827 -0.37703004 -0.007885474
0.19988227 0.75423187 0.15605786 -0.270166 -0.6206561 0.71917003 0.10851818 0.024484938
0.09994759 -0.39289156 -0.10982294 0.0898185 0.26542804 -0.2560641 -0.5869279 0.2781649
0.2033513 -0.40727907 -0.11314789 -0.14368707 0.11557494 -0.015118018 0.24250554 -0.1360508
0.3323619 0.6286931 -0.3803395 0.2913603 0.13199499 0.51605153 0.11794609 -0.22455078
0.12616368 0.21731669 -0.10659005 0.08720298 0.4434104 0.56316364 -0.37482688 -0.21754007
0.28384796 0.1228767 -0.49015903 -0.09443774 0.9201425 -0.8989814 -0.032111313 -0.40095392
-0.037122756 0.45464367 0.13972957 0.12901804 0.116355814 -0.44891408 -0.029198283 -0.70029193
0.30556133 -0.4768377 0.1814229 -0.22305837 -0.0124409385 0.42658764 0.0069238837 -0.42200273
0.13160902 0.7633288 0.45047933 -0.0032485581 -0.33839154 0.4091096 0.04255677 -0.6686894
0.41088286 -0.71771795 -0.5542118 0.08955061 0.72545713 -0.81842893 0.37766626 -0.2796203
0.47759798 -0.33863312 -0.7593555 0.20344043 0.49632785 -1.2331258 0.23582809 0.17145608
0.042797044 0.38663006 -0.2060611 -0.049655933 0.64734674 0.17065312 0.24105465 -0.28866923
0.2545519 -0.5854171 -0.08306941 0.15877128 -0.21739475 -0.5613724 0.4308447 0.34701177
0.37359762 -0.11830504 -0.5851657 0.009125054 0.23193073 -0.48972544 -0.05072171 0.07974334
-0.20049071 0.47228807 0.12453224 0.15950601 -0.18224034 0.49897105 0.1653782 -0.29109544
0.02271818 -0.09547389 0.12550493 -0.074164934 0.0465634 -0.46319062 -0.23613477 -0.020799985
0.2797487 -0.4442532 -0.10893766 0.094667904 0.04289368 -0.27583885 -0.23074742 -0.18674657
-0.11260146 0.07563935 -0.16435423 -0.4371039 -0.31377956 -0.31896472 0.16284612 -0.30572528
-0.32595983 -0.6227234 0.049002063 -0.16011235 -0.09063206 -0.40936294 0.19075848 0.10517104
-0.18541858 0.4217198 0.12928766 0.01322666 -0.07798755 0.7665461 -0.34578115 -0.059280843
-0.25344005 0.22040425 0.029217955 0.085829526 -0.11879216 -0.002058829 -0.15906955 -0.24233595
0.3622111 0.6697821 -0.30578178 -0.004056988 0.117274016 -0.71703106 -0.09892229 -0.47314584
0.32851666 -0.030634528 0.28383556 -0.41621518 0.38049263 -0.08718834 0.093857385 -0.13584271
0.16947158 0.18411095 0.17336117 -0.21584173 0.1838984 -0.42582884 -0.16921586 0.09860726
0.12810838 0.4470667 0.1175245 0.31103215 -0.41155118 1.656311 0.005668849 -0.1486127
-0.2616869 -0.46384624 -0.51393175 -0.14798568 0.41286117 -0.1417466 -0.051938288 0.3865207
-0.14778756 -0.21475291 -0.494435 -0.31172603 0.30183822 -0.14960724 0.07353034 0.2118114
0.40297017 0.024257958 -0.041981563 -0.020903254 0.06510613 0.674104 0.33337763 0.1762577
00000000: 5fc2 6f3e 8516 1e3f f2c9 3fbe 5218 793e
00000010: 81fc ef3e 741d 513d 6490 8e3e b223 a1be
00000020: a59a 853e 7e62 7b3f aef2 ebbe 3646 07be
00000030: fc0e df3e 3b41 a9be 5c40 8d3e 68a0 94be
00000040: ed45 3f3e 3c38 88be f64c 4dbd 3ac5 d1be
00000050: 5aaf d73e 2df3 3ebf e743 923e 79d3 c9be
00000060: b9f9 ae3e bd4f aa3d cd7d 90be 33bc 12bc
00000070: 0365 c13e e465 e73c 150a c1be 1332 01bc
00000080: f0ad 4c3e 5715 413f a2cd 1f3e 3353 8abe
00000090: 51e3 1ebf 871b 383f c83e de3d a394 c83c
000000a0: 52b1 cc3d 1529 c9be d9ea e0bd c3f2 b73d
000000b0: 2fe6 873e d51a 83be e840 16bf a16b 8e3e
000000c0: 533b 503e e286 d0be 15ba e7bd b422 13be
000000d0: 8eb2 ec3d 90b1 77bc 5f53 783e e750 0bbe
000000e0: 572b aa3e 08f2 203f dcbb c2be 2d2d 953e
000000f0: b229 073e f41b 043f b88d f13d a4f0 65be
00000100: 0d31 013e 4488 5e3e e24b dabd 7a97 b23d
00000110: b006 e33e 7e2b 103f 4fe9 bfbe d3c2 5ebe
00000120: 8554 913e c7a6 fb3d 20f6 fabe 9368 c1bd
00000130: 758e 6b3f a523 66bf 2787 03bd d549 cdbe
00000140: 080e 18bd 0ec7 e83e 4515 0f3e 4e1d 043e
00000150: f54b ee3d 11d8 e5be 3d31 efbc 5546 33bf
00000160: 8972 9c3e 1224 f4be edc6 393e 6a69 64be
00000170: 14d5 4bbc b269 da3e bfe1 e23b be10 d8be
00000180: 84c4 063e 8469 433f 3aa5 e63e c3e5 54bb
00000190: a841 adbe d076 d13e 0250 2e3d 3b2f 2bbf
000001a0: 3d5f d23e 5dbc 37bf d3e0 0dbf 4f66 b73d
000001b0: 8fb7 393f 8f84 51bf 795d c13e 642a 8fbe
000001c0: b987 f43e 5261 adbe 1f65 42bf b052 503e
000001d0: af1e fe3e 11d7 9dbf eb7c 713e 2f92 2f3e
000001e0: f44b 2f3d 60f4 c53e ae01 53be 0564 4bbd
000001f0: 84b8 253f b1bf 2e3e 08d7 763e 74cc 93be
00000200: a054 823e e5dd 15bf 4b20 aabd f094 223e
00000210: bb9c 5ebe 1ab6 0fbf ad97 dc3e 87ab b13e
00000220: 3048 bf3e ea49 f2bd 6bcd 15bf 4081 153c
00000230: 407f 6d3e 4bbd fabe 91c1 4fbd 7a50 a33d
00000240: 704d 4dbe becf f13e c20a ff3d 8b55 233e
00000250: 369d 3abe 2279 ff3e e758 293e 760a 95be
00000260: 7a1b ba3c d187 c3bd 5d84 003e c9e3 97bd
00000270: 44b9 3e3d 5227 edbe 50cd 71be bb64 aabc
00000280: 393b 8f3e 2875 e3be b51a dfbd 3fe1 c13d
00000290: 49b1 2f3d c03a 8dbe 0d49 6cbe 7e3a 3fbe
000002a0: 989b e6bd cee8 9a3d 7a4c 28be 15cc dfbe
000002b0: b7a7 a0be 584f a3be 22c1 263e 0688 9cbe
000002c0: 35e4 a6be cd6a 1fbf 63b6 483d 7ef4 23be
000002d0: 4d9d b9bd 0598 d1be 3156 433e ea63 d73d
000002e0: 5ede 3dbe a8eb d73e fc63 043e a2b4 583c
000002f0: f0b7 9fbd 5d3c 443f 3a0a b1be 78d0 72bd
00000300: e5c2 81be a7b1 613e 7e5a ef3c 64c7 af3d
00000310: 4e49 f3bd 6bed 06bb 21e3 22be ea26 78be
00000320: bc73 b93e d776 2b3f 6e8f 9cbe 7bf0 84bb
00000330: 5c2d f03d 598f 37bf c597 cabd 2c40 f2be
00000340: 5633 a83e 43f5 fabc e552 913e 281a d5be
00000350: eecf c23e cd8f b2bd 4d38 c03d 5a1a 0bbe
00000360: f589 2d3e 9587 3c3e 9785 313e 9d05 5dbe
00000370: dd4f 3c3e 3d06 dabe ec46 2dbe 9af2 c93d
00000380: d82e 033e ede5 e43e afb0 f03d 9b3f 9f3e
00000390: d6b6 d2be 0002 d43f c1c1 b93b ed2d 18be
000003a0: d3fb 85be 417d edbe 0891 03bf 8f89 17be
000003b0: 8a62 d33e 0526 11be 3ebd 54bd 0be6 c53e
000003c0: 9f55 17be 30e8 5bbe 9626 fdbe 8e9a 9fbe
000003d0: 8a8a 9a3e a432 19be 1397 963d 16e5 583e
000003e0: 1b52 ce3e a0b8 c63c dcf4 2bbd 4d3d abbc
000003f0: 5d56 853d 1492 2c3f 79b0 aa3e e67c 343e

lstm.bias_ih_l1 f4 [32]
-0.32244644 0.19798017 -0.29844123 -0.32810926 -0.11131925 -0.0071209124 -0.19920856 -0.22701791
0.29494858 0.09511291 -0.40425473 -0.11939198 -0.40049836 -0.5439397 -0.15995513 0.16815774
-0.20874263 -0.12917435 0.07348862 0.28526297 0.25011224 -0.053888377 -0.14015327 -0.24083556
-0.08768104 0.112120114 -0.16291064 -0.04788537 -0.21661867 0.18850054 -0.09124 -0.14139725
00000000: b317 a5be 50bb 4a3e 4acd 98be f0fd a7be
00000010: 59fb e3bd 8b56 e9bb 54fd 4bbe 6277 68be
00000020: 8003 973e 8fca c23d 7afa cebe c883 f4bd
00000030: 1f0e cdbe a23f 0bbf 47cb 23be 8b31 2c3e
00000040: a1c0 55be 4846 04be 3481 963d fd0d 923e
00000050: b60e 803e 0fba 5cbd 5784 0fbe 999d 76be
00000060: 1e92 b3bd 3b9f e53d 0cd2 26be 7323 44bd
00000070: 49d1 5dbe 4906 413e 0adc babd 71ca 10be

lstm.bias_hh_l1 f4 [32]
-0.031358168 0.26605272 -0.34128886 -0.021354888 0.014537001 0.34502262 0.025806475 0.09865874
-0.13988549 -0.09584001 -0.06595918 -0.47948113 -0.078245506 -0.23212162 -0.24831533 -0.12717472
-0.1737304 0.07345512 0.06573627 -0.28837234 -0.21487021 0.10868596 0.07321249 0.2617675
-0.21710384 -0.20307148 0.17514046 -0.4666106 -0.45078436 0.28804374 -0.3561038 0.25524637
00000000: 6c71 00bd 1038 883e 6abd aebe 72f0 aebc
00000010: 9a2c 6e3c cea6 b03e 1a68 d33c 980d ca3d
00000020: 243e 0fbe c447 c4bd 9b15 87bd 8d7e f5be
00000030: 2e3f a0bd 4ab1 6dbe 6046 7ebe 173a 02be
00000040: 62e6 31be a36f 963d bda0 863d 8aa5 93be
00000050: f006 5cbe bf96 de3d 6ef0 953d 6406 863e
00000060: 7850 5ebe f8f1 4fbe 0558 333e 96e7 eebe
00000070: 35cd e6be 787a 933e 3d53 b6be a7af 823e

fc.weight f4 [1, 8]
0.17723137 0.14709967 -0.022644982 0.15313478 0.054535937 0.21505862 -0.037188143 -0.23736085
00000000: 247c 353e 4ca1 163e f881 b9bc 5dcf 1c3e
00000010: 1361 5f3d 5438 5c3e 9852 18bd b90e 73be
