time_series_intro_class/final_project/submission/model_params/2_layer_16_size_model_epoch_800.pth (torch, 15459 bytes, 9 tensors)

lstm.weight_ih_l0 f4 [64, 1]
000000 ad 2e 96 3e 7d e1 da bf 69 cf 70 bf 3b 8b 34 bf
       0.29332486 -1.7100064 -0.9406648 -0.7052495
000010 96 c1 83 bf b5 2b d3 3f 00 c7 07 bf fd d7 ee be
       -1.0293453 1.6497713 -0.53038025 -0.4664916
000020 52 43 91 3f 1c ee ec 3f 7e 38 3b bf e7 ec 71 3e
       1.134867 1.8510165 -0.73133075 0.23625527
000030 52 22 1b 3f 36 98 8f 3e af 99 f6 bf 3c a3 27 3c
       0.60599244 0.28045815 -1.926565 0.010231789
000040 03 f0 20 bf 3b 29 59 bf 6b cf e1 3d de d3 6b 3d
       -0.6286623 -0.8482854 0.1102589 0.0575751
000050 4e 45 85 bf 08 ac f6 3e c7 61 02 be 43 26 d2 be
       -1.0411775 0.48178124 -0.12732612 -0.41044816
000060 f3 22 17 3e 5d cc b6 3e 0a be 57 bf bc 1e eb 3d
       0.14759426 0.35702792 -0.8427435 0.114804715
000070 70 68 8e bd 80 1b e8 3d ea b1 30 c0 02 33 02 3f
       -0.069535136 0.1133337 -2.760859 0.5085908
000080 ba f1 7c bf dc 87 4d bf be 88 85 bf c5 a8 1f bf
       -0.98806345 -0.8028543 -1.0432355 -0.62366897
000090 ed 7d 63 bf a4 ac 98 3d ef e9 f4 be d4 fd e5 be
       -0.8886402 0.074548036 -0.47834727 -0.44920218
0000a0 b7 b2 b4 3e bd 5f 01 bf 8a 7e ff 3e 58 a6 a6 bd
       0.352926 -0.5053671 0.4990123 -0.08137196
0000b0 86 c2 7b be b2 78 03 bf 3a 06 5b 3f 6e 00 30 bf
       -0.24585924 -0.5135604 0.85556376 -0.68750656
0000c0 1d 69 19 3f 76 1f a9 bf 64 8b a3 3e 06 cc 12 bb
       0.59926015 -1.3212726 0.31942284 -0.002239944
0000d0 4b d6 47 bd cc aa d8 3f 41 fc 42 be 82 ec b5 3e
       -0.04878835 1.6927123 -0.1904154 0.35532004
0000e0 48 17 c9 3e 6a 4b 10 40 5e de ac be 4e 12 26 3e
       0.39275575 2.254603 -0.33763403 0.1621792
0000f0 86 6c c8 3e 72 39 84 be 24 6b 05 c0 49 f7 38 3f
       0.39145297 -0.25825077 -2.0846643 0.7225233

lstm.weight_hh_l0 f4 [64, 16]
000000 53 f0 25 be e7 d2 90 3d 60 34 a3 3e aa 6c 1d be
       -0.16204958 0.070714764 0.31875896 -0.15373483
000010 df e7 c7 3e ab 83 b5 be 1d b3 32 be 47 c9 79 be
       0.3904409 -0.35452017 -0.17451139 -0.24393187
000020 b2 5d 01 3e c2 0c 71 3e 38 54 2a bd af ee d3 3d
       0.12633398 0.23540023 -0.041584224 0.1034826
000030 9c f9 9f bc e4 3b ac 3e 17 5a 85 bf 01 2b 7a 3d
       -0.019528203 0.33639443 -1.0418118 0.061076168
000040 32 4e 4c 3e 2d 2d b8 3c e4 40 5c be 90 c6 7e be
       0.19951704 0.022482479 -0.21509129 -0.24880433
000050 39 10 18 3e 93 61 ba bd ce b0 91 bd 8f bf 69 3e
       0.14849938 -0.09100642 -0.07113801 0.2282698
000060 e3 7d 10 be af 72 d9 3e bd f9 2b bd 72 31 49 3d
       -0.14110522 0.4247031 -0.041986216 0.04911942
000070 89 78 0c bc 6a 6a bf bc de 20 25 bd 86 a7 fe be
       -0.00857366 -0.023366172 -0.040314548 -0.49737185
000080 57 ee df 3d 22 f5 b5 3e 59 8b a0 3e 98 c7 40 3d
       0.109341316 0.35538584 0.31356314 0.047065347
000090 cd 54 7a bc f6 5a 74 be 3c 26 7f bd 62 80 38 bc
       -0.015279007 -0.23862824 -0.062292323 -0.011261078
0000a0 7f 6e 84 bd c1 0e b9 3e 2f 7f 8c bc c4 9d 26 3a
       -0.06466388 0.3614407 -0.01715049 0.00063559064
0000b0 7a 9b af bd 6f a1 f8 bd 21 6d e8 3e 81 5f ca be
       -0.08574577 -0.12140166 0.4539576 -0.3952599
0000c0 33 95 23 bb 4f bd 23 3e e2 1b 24 3e c5 a6 ca 3d
       -0.0024960756 0.15990184 0.16026261 0.0989509
0000d0 e7 47 8c 3d c9 ae d2 bd a5 3c f5 bc 2d 8c ab 3d
       0.06849652 -0.10287244 -0.029936144 0.08376346
0000e0 f3 97 35 bd 39 42 71 3e 10 88 72 be de b3 27 be
       -0.044334363 0.23560418 -0.23684716 -0.16377208
0000f0 17 97 55 3e 60 db 89 3e d6 e2 d3 3d f0 e4 94 be
       0.20858417 0.26925182 0.10346 -0.29080915
000100 46 3a 80 3e 08 1d 28 bc e3 3a 17 3f 72 e6 cb 3e
       0.2504446 -0.010260828 0.5907423 0.39824253
000110 7f eb aa 3e 86 7c 2c be 2b b2 ac 3e a4 30 bb 3e
       0.33382794 -0.16844377 0.3372968 0.36560547
000120 e2 9a 93 3e a9 c9 a4 3c 81 ea c6 be 54 35 0a 3e
       0.28829104 0.02011569 -0.38850787 0.13496906
000130 35 6c 80 bd 3d 88 4e 3e 24 fc 9d 3c 32 93 94 be
       -0.06270639 0.20169158 0.01928527 -0.2901855
000140 9e e7 01 3e 05 d4 a1 3d d6 b4 41 3e c7 86 83 bd
       0.12686011 0.07901768 0.1891664 -0.06422191
000150 55 05 22 bd 11 82 cb 3e ec a1 89 3c 24 0a 14 bd
       -0.039555866 0.3974767 0.016800843 -0.036142483
000160 c3 fe df 3d 77 21 ee 3c 49 27 25 bc 3c 83 7d 3e
       0.10937264 0.029068692 -0.010080167 0.24757093
000170 64 23 95 3d d5 e7 52 be ab df 12 bf c8 7c e9 bc
       0.07282141 -0.2059625 -0.5737254 -0.028501883
000180 9f 67 12 be 62 32 65 3e 30 0e 66 3e 5a 85 d5 bd
       -0.14297341 0.22382501 0.2246635 -0.104258254
000190 e3 3a 3b 3e 1a 66 01 be 8c d9 54 be 36 6a 88 bd
       0.18284182 -0.12636605 -0.20786113 -0.06660883
0001a0 29 29 86 3d 51 c7 1a 3e 31 c3 94 be 33 d5 4b bd
       0.065508194 0.15115096 -0.2905517 -0.04976387
0001b0 60 fa 5f 3c ff 0f 2f bc fa ea 31 3f 30 1c 70 3e
       0.013670534 -0.010684966 0.6949917 0.23448253
0001c0 03 b1 dd 3d d0 bc 15 be a2 f0 a9 3e 7f b4 05 bc
       0.10824778 -0.14622808 0.331914 -0.008160709
0001d0 21 94 27 3e dd eb 12 be f4 93 37 3e 40 30 59 3e
       0.163651 -0.14347787 0.17927533 0.21209812
0001e0 b6 8d 46 be c4 ff 96 3d fc ed 46 be 4d 70 4f 3d
       -0.19389996 0.07373002 -0.19426721 0.050644208
0001f0 75 e0 50 bd 77 e9 8b 3e fa bf 21 3c 3f 46 64 be
       -0.05099531 0.27326557 0.009872431 -0.22292422
000200 34 8e 69 3e 51 c1 fb 3d 45 c5 09 bc 36 a2 6e 3d
       0.22808152 0.122927316 -0.008408849 0.058260165
000210 3f 1d 09 bd f2 50 57 3e a9 74 0a 3e 9b fa ba bd
       -0.033475157 0.21026972 0.13521065 -0.091298304
000220 d8 e3 ea 3d c2 16 b7 be 63 95 b3 bd 54 6a a7 3b
       0.11469239 -0.3575955 -0.08768728 0.005109111
000230 c9 73 89 be 1a 92 ea bd 48 50 4d 3f 4c aa 6b 3d
       -0.2684615 -0.11453648 0.80200624 0.057535455
000240 4d 28 43 3d 84 29 b4 3d 13 fb 33 3e 35 dc 45 3e
       0.047645856 0.08796981 0.17576246 0.19322284
000250 8f 0b 6b bd 51 1f 53 bd f2 ac 65 3e 0e 7b 95 3b
       -0.05738407 -0.051543538 0.22429255 0.0045617884
000260 9b 12 58 3e 32 a5 93 be 04 90 a0 3d 43 cc 36 bd
       0.21100847 -0.28836972 0.07839969 -0.044628393
000270 ed 42 e2 3d 63 f9 30 be 15 a2 7b bf 4b 50 b3 3c
       0.11047921 -0.17282633 -0.9829419 0.021888873
000280 f3 99 9e 3e 54 06 2b 3e 4e 4d a4 bd 65 31 3b 3d
       0.3097683 0.16701633 -0.08022557 0.045701403
000290 f2 45 65 3e d0 d0 12 3e 1b cf d3 3d 75 36 67 bd
       0.22389963 0.14337468 0.103422366 -0.05644842
0002a0 d0 f3 60 bd 25 7b c6 3d b7 d6 82 bd f9 a0 92 be
       -0.054920018 0.09691457 -0.0638861 -0.28638437
0002b0 0d 63 0d 3c 1b df 3e be 32 da 5d be 8d 76 10 be
       0.008629573 -0.18639795 -0.21665266 -0.14107724
0002c0 a3 8d cb 3c ba 8a e5 bd 8e 68 2b be 8f 82 15 be
       0.024847811 -0.112081006 -0.16739103 -0.14600585
0002d0 ed 00 37 be 2e 51 06 3e ee 6b 46 bb bd 87 08 3e
       -0.17871447 0.13116905 -0.0030276733 0.1333303
0002e0 93 10 28 be 50 da 2a 3e f7 87 32 be 02 c8 00 be
       -0.16412573 0.16684842 -0.17434679 -0.12576297
0002f0 2d 0f 7e be ae e5 73 bd 76 d2 e3 3e c1 cf 90 3d
       -0.24810477 -0.05954521 0.44496506 0.07070876
000300 23 e7 4c be 75 bb d3 bd 4c c6 e3 3b 84 23 91 bd
       -0.20010047 -0.10338489 0.006951129 -0.07086852
000310 f3 36 45 3e 9b b5 ec bd cd 6f a5 bc 3f eb 3e be
       0.19259243 -0.11558076 -0.020194912 -0.18644427
000320 6d 50 49 be ab 23 64 be 02 e1 d3 bc f5 98 f0 bc
       -0.19659586 -0.22279231 -0.025864128 -0.02936981
000330 a9 7d a1 3d e4 a2 54 3e 15 59 c3 be f7 4f af bc
       0.07885296 0.20765263 -0.38153902 -0.021400435
000340 c5 a1 02 3d 52 48 27 be 7b e7 e5 bb 62 94 1f 3e
       0.031892557 -0.16336182 -0.00701612 0.15583947
000350 81 8c 72 3e c6 a6 46 3d f3 04 18 3e 86 e9 6e 3e
       0.2368641 0.04849889 0.14845638 0.2333127
000360 26 29 35 be 52 1c 81 be c0 ba 0f be 75 21 32 3b
       -0.17691478 -0.2521692 -0.14036083 0.0027180586
000370 94 ba cc bd 44 b6 27 be 67 f9 c3 3e 66 1e 6e 3d
       -0.099965245 -0.16378123 0.38276216 0.05813446
000380 17 a2 b8 3e 0b c4 b8 3e e4 e8 05 bf cf 92 17 3f
       0.36061165 0.3608707 -0.5230849 0.5920839
000390 fe b5 ae 3e f0 50 ef be 9f 8c a5 3e b0 2f 05 3f
       0.34123224 -0.46741438 0.32333848 0.5202589
0003a0 d6 7b 33 3f da 44 26 3f ff be 4e be 85 dd 42 bf
       0.70110834 0.6494881 -0.20190047 -0.7611926
0003b0 7d 68 40 3f 65 65 e6 be 89 d3 15 bf 49 d4 d4 be
       0.75159436 -0.44999233 -0.585259 -0.4156821
0003c0 e5 17 94 3e 7d 5f 99 3d e9 0f 24 3d e0 97 a9 3e
       0.2892448 0.07488916 0.040054236 0.33123684
0003d0 62 ec 87 bd d8 e0 74 be 88 8e af bd b1 59 52 3e
       -0.06636883 -0.23913896 -0.085721076 0.20542027
0003e0 12 78 95 3e 5a cd 92 3e 98 11 93 bd f5 07 42 be
       0.2919317 0.28672296 -0.0718109 -0.18948348
0003f0 20 ae bd bc 3e cc c6 bc e2 fe a7 bf 0e ba e4 bd
       -0.023154318 -0.024267312 -1.3124659 -0.111682996

lstm.bias_ih_l0 f4 [64]
000000 ad 19 7d 3d c6 cc 45 be ea 7a 54 3e 2e f0 0a 3e
       0.061792064 -0.19316396 0.20750013 0.13568184
000010 aa 53 98 3d 55 85 27 be 2e 9e 52 3e 52 d3 57 be
       0.07437833 -0.16359456 0.20568153 -0.21076706
000020 a9 3f 72 be 37 f9 a0 3e 06 6b 14 bd fb 11 13 3e
       -0.23657097 0.31440136 -0.036234878 0.14362328
000030 b9 e9 99 be 4a 61 87 be f1 69 ae 3e 41 7f b4 3c
       -0.3006113 -0.26441413 0.34065202 0.022033336
000040 ad 92 29 3e 2e 5a 50 3e 60 33 a5 3e 5d 1e 25 3e
       0.16559859 0.20346901 0.3226576 0.16124864
000050 7e ed b2 3d 7b 6f 08 be 70 a4 fc bd 90 34 c9 3d
       0.08736704 -0.13323776 -0.123360515 0.098244786
000060 fd c5 2e 3e 9f b8 0b 3e 49 cc 45 be b0 c6 32 3c
       0.17067714 0.13644646 -0.1931621 0.010911629
000070 89 ac 2f 3e 5d 11 2c be a6 dd 69 be f2 c8 0c be
       0.1715566 -0.16803499 -0.22838458 -0.1374853
000080 27 63 74 3d 33 38 b6 3c 18 b2 18 bd 62 a7 35 bd
       0.05966487 0.022243595 -0.03727922 -0.04434908
000090 96 ac 8f 3d 27 c7 1e 3d ee 1c 46 3e ce b3 d1 bd
       0.0701534 0.038764145 0.19346973 -0.10239373
0000a0 46 a3 1f bd 44 ba b2 bd 00 fd c6 bd d5 3f 14 be
       -0.03897407 -0.087269336 -0.09716225 -0.14477475
0000b0 32 5f 60 3a 4b 44 ea bd 3e 2b eb 3c 31 ee 80 bc
       0.0008559107 -0.11438807 0.028707143 -0.015738579
0000c0 d1 6c 43 3e a1 62 13 3e e2 be 80 3e 31 73 76 3e
       0.19084479 0.14393093 0.25145632 0.2406738
0000d0 4a 75 55 3e f0 b0 a2 bd b9 2e 4d 3d e7 17 ae 3d
       0.20845523 -0.079439044 0.050093386 0.08500653
0000e0 f9 77 17 be 1f d5 d3 3e bd 5c 7a bd b7 fc 41 be
       -0.1479186 0.41373536 -0.0611236 -0.1894406
0000f0 b5 c6 28 bd a0 5a 83 3d 5e 01 e4 3e f2 e8 ca 3b
       -0.041205127 0.0641377 0.44532293 0.00619232

lstm.bias_hh_l0 f4 [64]
000000 3a 87 10 3e 2c fc 08 3e 69 0d 62 3e 5a 28 b6 bd
       0.14114085 0.13377446 0.22075428 -0.08894415
000010 cd a7 c4 3d 34 b9 6d be e0 ab 18 bd c1 fd 8f bd
       0.09602318 -0.2321518 -0.037273288 -0.070308216
000020 20 9a c3 3b 53 9c a0 3e 90 cb fa bd 4d 51 b9 3c
       0.005969301 0.31369266 -0.12245858 0.022621775
000030 e9 96 93 be d0 84 22 be 93 94 4a 3f e6 f4 30 3e
       -0.28826073 -0.15870976 0.79132956 0.17280921
000040 23 8a 32 be 16 1c 25 3d da ce 5a 3e f1 d2 0e be
       -0.17435507 0.040309988 0.2136797 -0.13947655
000050 25 60 de 3d 58 80 97 3d be 31 2c 3e 18 67 3e 3e
       0.10858182 0.073975265 0.1681585 0.18594015
000060 e3 fe 5f be 5b b2 23 3e 3d 3e 84 3e bf db 91 be
       -0.21874575 0.15986006 0.25828734 -0.28487965
000070 f4 ed fd 3c 09 25 8d 3d 1c d7 14 be ee 4c 28 be
       0.030997254 0.068918295 -0.14535183 -0.16435596
000080 60 ba f3 3c 7a 72 b2 3d 77 11 ea 3c a5 df 2c 3d
       0.029751956 0.08713241 0.028572781 0.04220547
000090 c5 3d 06 bd f4 b5 fd bd bc 37 52 3e fc 08 fe 3d
       -0.03277375 -0.123882204 0.20529073 0.124040574
0000a0 65 8c 53 3e c8 64 c8 3d 08 db c8 3d 43 8e 24 bd
       0.20659025 0.097848475 0.09807402 -0.040174734
0000b0 43 fe 1e 3e 2d f8 58 3d 02 bd f6 bd fc a8 08 bd
       0.1552668 0.052971054 -0.12047769 -0.03336428
0000c0 8f c5 c1 3d d8 4d 26 be 05 5a be 3b 46 32 b2 bd
       0.094615094 -0.16240633 0.005809071 -0.08700995
0000d0 07 eb 8d 3e 17 f3 40 3e 8d 53 2e 3e d5 d9 b7 bc
       0.27718374 0.18842731 0.1702406 -0.022442738
0000e0 5a d5 c5 3c b5 53 06 3e 92 f4 8a 3d d4 e1 cf 3d
       0.024149586 0.13117869 0.06784929 0.10150495
0000f0 b1 5a c1 3c 79 41 3d 3d 23 2c 4b 3f 59 b4 20 be
       0.023602815 0.046205018 0.7936422 -0.15693797

lstm.weight_ih_l1 f4 [64, 16]
000000 d7 0f 88 bd f8 e6 41 3e 7f 31 2c be f8 52 1a be
       -0.06643646 0.18935764 -0.16815756 -0.15070713
000010 f7 8e 53 be 26 9c c2 3d 9a c2 68 3e 62 3d 80 3e
       -0.20660006 0.09502439 0.22730485 0.2504683
000020 7a f3 11 be d2 f9 b5 3d ba 48 ca 3d a5 16 a1 bd
       -0.14253035 0.0888554 0.09877153 -0.07865647
000030 b5 e8 78 be e1 d0 65 3d 03 e9 6d bd e2 0f bf 3d
       -0.2430752 0.056107406 -0.058083545 0.09329201
000040 1a 56 2a 3e 85 5c 69 3e 8a 52 89 3e 9e 6d 80 bd
       0.16634408 0.227892 0.26820785 -0.06270908
000050 7d 2e c2 3d 66 ff 38 3e e1 50 22 3e ff 1b 66 3e
       0.09481523 0.18066177 0.15851165 0.22471617
000060 f6 dd 91 bd 7a 4a e6 bc 4b b3 5e be de 8f 66 be
       -0.07122414 -0.028111685 -0.21748082 -0.22515818
000070 de 0e 2e be 46 27 5c 3c c6 66 44 bf 1a af d8 3d
       -0.16997859 0.013437098 -0.7671932 0.10580273
000080 26 5d 42 3e 76 fc fe 3d a9 cd 08 3e cf 2c 4b 3e
       0.18980846 0.12450497 0.13359703 0.19841312
000090 48 45 43 be 74 ae f4 3d b3 57 7d be 29 c0 1a 3e
       -0.19069397 0.11947337 -0.24740486 0.15112366
0000a0 67 6a 52 bd d4 a1 94 bd d8 db 85 be 0a 29 94 3d
       -0.051371004 -0.07257429 -0.2614429 0.0723439
0000b0 75 f1 da 3d 9b 4f 02 3e 9a 46 bc 3d 32 68 4c 3e
       0.106905855 0.1272568 0.09193154 0.19961622
0000c0 61 06 35 bc fe d5 6b 3e 65 57 ef bd dc 12 6a be
       -0.011048884 0.2303085 -0.11686591 -0.22858757
0000d0 8f 95 5a 3e 85 af bd bd ff 1f 4a bd 55 76 6f be
       0.21346115 -0.09261993 -0.04934692 -0.23384984
0000e0 44 65 9a be f4 b6 36 3d ea 25 6c be 17 10 ef bd
       -0.30155385 0.04460807 -0.23061338 -0.11672991
0000f0 65 22 3f bd b2 64 50 3e 8c ac 37 be 03 81 8b be
       -0.04666366 0.20350912 -0.17936915 -0.27246866
000100 1e 2f e4 bd 27 89 15 bd 92 eb f0 bc 47 41 15 be
       -0.111417994 -0.03650775 -0.029409204 -0.14575683
000110 71 89 03 3e 42 f4 46 3e 49 92 03 be c5 f0 7c bd
       0.12845398 0.19429114 -0.12848772 -0.061753053
000120 df 31 5c 3e b2 4e a1 3d 7b 47 be bb 3c 83 b4 bd
       0.215034 0.07876338 -0.005806861 -0.088140935
000130 50 0c f8 3d 9d 1b 60 3e 4e 50 ef 3d 4e 01 f2 3c
       0.121117234 0.21885534 0.11685239 0.029541638
000140 c6 2f 0a 3e 23 03 15 3e 63 d1 99 bd 93 97 d4 3d
       0.13494787 0.14551978 -0.075106405 0.10380473
000150 b6 26 8a 3e 01 6e 8b bc 74 a4 3e be 24 f4 83 be
       0.2698266 -0.017020227 -0.18617421 -0.25772202
000160 07 82 c7 bd 00 09 49 be 5b 4f b7 3d 1a d4 85 3e
       -0.097415976 -0.1963234 0.08950683 0.26138383
000170 c3 92 a3 3d 89 98 92 3e c7 11 37 bf 17 f1 c4 3c
       0.07986977 0.28632 -0.715115 0.024040742
000180 69 c6 91 be 86 ce ab be 6a 3c 70 be 79 2b c3 be
       -0.28471687 -0.33556002 -0.23460546 -0.38119105
000190 0f 7f cf bd 2a 8a 35 3e 33 c1 a8 be ea 63 47 be
       -0.101316564 0.17728487 -0.329599 -0.19471708
0001a0 9c 34 fe bc be d1 32 3c a3 41 6e 3e cb 4f 26 3e
       -0.031030945 0.010914264 0.23267226 0.16241376
0001b0 2d 2c 41 be d4 bf 0f be 5c b6 20 3e f3 dd f4 3d
       -0.18864508 -0.1403802 0.15694565 0.11956396
0001c0 73 61 94 be 0a 4a a0 be 58 e0 50 be 00 16 81 3d
       -0.28980598 -0.31306487 -0.2039808 0.06303024
0001d0 97 51 7b be bc f1 f6 3d 40 05 9a bd 0e 20 a1 3d
       -0.24542843 0.12057826 -0.075205326 0.07867442
0001e0 8f 8d 5c 3e f9 14 80 be 7e 8a 1b 3e 05 04 ab be
       0.21538375 -0.25016 0.1518955 -0.33401504
0001f0 87 5b 03 be 62 89 8b be 81 09 8b 3f b1 ac d1 be
       -0.12827884 -0.27253252 1.0862275 -0.40952066
000200 53 e6 dc bd 54 b3 13 3e bf 2f 77 3e a6 17 d2 3d
       -0.10786118 0.14423877 0.24139307 0.10258417
000210 55 17 c4 3d 7a 0f 78 be aa 82 2e bd 95 5d 5d be
       0.09574763 -0.24224654 -0.04260508 -0.2161773
000220 bb da 08 be 73 38 b3 3d 1e 07 0b be 55 de eb bd
       -0.13364689 0.08751001 -0.13576934 -0.11517016
000230 56 91 54 3e 9a 1f 1f be 39 15 96 be ba cc 5e 3e
       0.20758566 -0.15539399 -0.29313067 0.21757784
000240 fb 0e 78 be 24 22 90 bc 66 df 90 3e 97 d7 59 3e
       -0.24224465 -0.017594405 0.2829544 0.21273647
000250 9e 21 28 be 11 04 32 be 52 f0 4e be 6a e2 dc bc
       -0.16419074 -0.17384364 -0.20208862 -0.026963431
000260 75 ee 06 be ce 35 80 be d6 7e c6 3d 04 3b ce bd
       -0.13176902 -0.2504105 0.09692161 -0.1006985
000270 56 dd 35 3e 9d 84 c6 3d fb 09 8a bd 21 dd c4 3d
       0.17760214 0.09693263 -0.06740185 0.096124895
000280 1d 16 82 be c0 9c 59 3c 2e 1f 65 3d d8 cc 90 bd
       -0.25407496 0.013282001 0.05593794 -0.07070321
000290 5d 16 d3 3c 42 4e c0 3c cd f8 77 be 4b 59 aa bd
       0.0257675 0.023474816 -0.24216004 -0.083178125
0002a0 38 b1 90 3b ed 6a 23 be e3 2f 92 3e 5a 5b 98 3e
       0.0044156574 -0.15958758 0.2855216 0.29757196
0002b0 00 98 13 be 72 ca b5 3d ad 95 ec 3d ed 11 9f 3d
       -0.14413452 0.08876504 0.11551986 0.07767091
0002c0 b6 6a f5 bd 1f d3 4f be 7d 94 53 3e ec 0b 79 bd
       -0.11983244 -0.2029538 0.20662113 -0.060802385
0002d0 e9 da 00 be eb 5e cf 3d 84 58 73 bd 8e 7e 5d be
       -0.12583508 0.10125526 -0.059410587 -0.21630308
0002e0 c6 3a 9e bd 1d 1c c9 bd db 4c 5f be 8e 90 b3 3d
       -0.07726054 -0.09819815 -0.21806662 0.08767806
0002f0 e2 c0 9d bd fd 6d 23 3e 0f 9e 0b be 7f 45 9e 3e
       -0.07702805 0.15959926 -0.13634513 0.30912396
000300 bc 0f ce bd 60 84 8f be ca d0 40 be 01 a9 51 be
       -0.10061595 -0.28030682 -0.18829647 -0.20474626
000310 87 12 c0 3c 00 11 55 3d 97 78 58 3c 99 1e 87 bc
       0.023446335 0.052018166 0.013212345 -0.016494082
000320 cf b8 73 be 29 b0 00 3e 38 50 8b bd 0e c0 09 3e
       -0.23800968 0.125672 -0.0680241 0.1345217
000330 36 95 3e be 13 b0 b6 bd ef 65 35 3e 18 98 b6 bc
       -0.18611607 -0.08920302 0.17714666 -0.02228932
000340 92 a6 57 3e 25 f5 7f be 72 a0 1d bd 6a 9f 5f bd
       0.21059635 -0.24995859 -0.03848309 -0.05459539
000350 cc 9d 10 3d 01 6b 82 be da 74 49 3e 68 aa 0f 3d
       0.035306737 -0.25472263 0.19673482 0.03507462
000360 b2 96 43 3e d5 d9 e8 bd c9 a8 cb ba 79 72 09 be
       0.19100454 -0.11369673 -0.0015537973 -0.13422574
000370 31 54 ef 3d f7 32 54 bc 07 99 92 3c 52 fe a2 3c
       0.1168598 -0.012951604 0.017895235 0.01989666
000380 dc b2 2d 3d bb 61 4e 3e ef f4 12 bc 26 55 36 bd
       0.0424069 0.20154469 -0.0089695295 -0.044514798
000390 5a 57 23 3e 36 ea 1b bc 16 a4 d8 bd cf 06 49 bd
       0.1595129 -0.009516289 -0.10578172 -0.04907876
0003a0 01 82 76 be db 47 ef ba 42 e8 b1 bd 16 7f 14 be
       -0.2407303 -0.0018255668 -0.08686878 -0.14501604
0003b0 49 c3 07 3e ab c6 1b 3e 82 38 10 3e c4 8f 4f 3e
       0.13258089 0.15212505 0.14084056 0.20269686
0003c0 01 08 3e 3e e3 c4 e4 3c 6d 1d 64 3e 64 e0 ad bd
       0.18557741 0.027925914 0.2227685 -0.08490065
0003d0 0b eb 91 bc 41 44 b9 3e f0 98 10 3e b8 1e 15 3e
       -0.017812273 0.36184886 0.14120841 0.145625
0003e0 b5 54 99 be 77 4d 3c 3d 51 74 df bd 97 6c ff bd
       -0.2994744 0.045972314 -0.109108575 -0.12471884
0003f0 0f ef 66 be c5 01 4d 3d 18 d1 83 3d 1f b7 cd 3d
       -0.22552131 0.050050516 0.06436366 0.10044693

lstm.weight_hh_l1 f4 [64, 16]
000000 a7 76 d3 bb 98 a9 99 3e 1a 5e 20 be 0f 39 1a be
       -0.0064533534 0.30012202 -0.15660897 -0.15060829
000010 f3 8a 87 3d 6a cc b2 be c3 ca 8f 3c 12 b1 8d 3e
       0.06618299 -0.3492158 0.017552739 0.27674156
000020 7f 4e 87 be 1d 2a 12 3e cf 22 9e bd 9c 13 60 be
       -0.26427075 0.14273877 -0.07721483 -0.2188248
000030 4c 46 54 bd ea 23 1d be d4 db 81 3d b1 f5 11 bd
       -0.051824853 -0.15345731 0.06340757 -0.0356347
000040 95 45 28 be 25 4f 0e 3b fd 18 34 be 20 d8 23 bd
       -0.16432793 0.0021714654 -0.17587657 -0.040001035
000050 d8 c8 d2 3d e2 be 12 be 08 dc 3f be e7 87 24 3d
       0.10292214 -0.14330629 -0.18736279 0.04016867
000060 a6 4c 59 be 8c e8 2f 3e f4 97 a2 bc f9 d4 0b 3d
       -0.21220645 0.17178553 -0.019847848 0.034138653
000070 d9 8f 3f 3c 95 a7 16 be 8a 4f 33 3d 92 93 29 be
       0.011692011 -0.14712365 0.043777026 -0.165602
000080 65 2b 5c bd 0a 2b de 3c 23 4a a3 bd 09 01 22 3d
       -0.05375232 0.027120132 -0.07973125 0.03955177
000090 d8 d1 69 3d 84 15 a1 bc 2b f5 1a bd 8d b6 e0 3d
       0.05708489 -0.01966358 -0.037831467 0.10972319
0000a0 10 aa 24 be fa 8e b7 3d bd 01 47 be 7b 75 be bd
       -0.16080499 0.089628175 -0.19434257 -0.09299751
0000b0 ef 38 51 be b4 4d af bd 67 70 5f be 07 6b 87 3e
       -0.20431875 -0.085597426 -0.21820222 0.26448843
0000c0 f2 c4 28 bd 50 bb 43 3d 30 0f d1 bd c1 e2 ea bc
       -0.041203447 0.047786057 -0.10207975 -0.028672578
0000d0 bc 6f 9a be d5 89 84 be 91 e1 1b be d6 da aa 3e
       -0.30163372 -0.25886407 -0.15222766 0.33370084
0000e0 4c 84 cc 3c 07 2e 81 bd 9d 45 11 3e a3 98 c4 bd
       0.024965428 -0.06307607 0.14186712 -0.09599426
0000f0 07 85 95 3d b5 ba 9c bd 76 4e 4b 3e 9f fc 2e 3e
       0.073007636 -0.07652799 0.19854149 0.17088555
000100 99 25 86 3d 0b 74 26 bd 71 ff 58 3e 97 87 70 3e
       0.0655014 -0.04063801 0.21191193 0.23489223
000110 ff f4 89 3d 51 49 1e be cf e6 b6 bd 81 11 d0 bc
       0.067361824 -0.15457655 -0.08930742 -0.025398972
000120 c3 ea cd 3c 82 ca 16 3c ec b2 ed 3d cd 37 34 be
       0.025136357 0.009203555 0.11606392 -0.17599411
000130 c2 0d ea 3b d3 a1 63 3e b4 3e 18 bd 9d d8 2f bc
       0.0071427533 0.222297 -0.037169173 -0.010732797
000140 8a eb a3 3d 3f 3c 2e 3e d7 7c 96 be 76 79 0d 3e
       0.0800391 0.1701517 -0.2939212 0.13815865
000150 bf de 98 bd ae 9d ae bc 17 2b 07 bd 80 a0 9f bd
       -0.074643604 -0.021315422 -0.033000078 -0.07794285
000160 ff db 15 bd 3e c6 d4 3d 01 9a c7 3c cc 8c 88 be
       -0.036586758 0.10389374 0.024365427 -0.2666992
000170 f5 60 fd bd 90 d5 11 be 16 12 64 3e 93 d9 99 3e
       -0.12372009 -0.14241624 0.22272524 0.30048808
000180 6c b7 36 3e 28 1c 6a 3e 75 b7 40 be 21 38 34 be
       0.17843407 0.22862303 -0.18819983 -0.17599536
000190 93 94 a4 ba cd 4d 4b be f9 ae 31 be 1e e6 9a bc
       -0.0012556486 -0.19853897 -0.17351903 -0.018908557
0001a0 ff c4 1c be e1 86 0e be 28 75 1d be 34 08 09 3e
       -0.15309523 -0.1391864 -0.15376723 0.13382035
0001b0 b0 01 d2 bd 93 ae 1f 3e f9 19 1e bd ef ae 70 3e
       -0.10254228 0.15593939 -0.03859899 0.23504232
0001c0 83 8e a3 be fb d9 a0 bd 6a 86 d5 bc 6d a3 a9 bd
       -0.31944665 -0.078540765 -0.02606507 -0.08283124
0001d0 f3 3a 68 3e 14 dc c6 3d f7 1c 07 3d ff 42 99 bd
       0.22678737 0.09709945 0.032986607 -0.074834816
0001e0 94 3d 8d 3d bf 90 09 be cd 11 7f be 22 c4 8e 3e
       0.06896511 -0.13434123 -0.24909134 0.27884012
0001f0 b0 2e 38 be 4a ab f9 bd 94 5e 12 be 0e 2f 7f 3e
       -0.1798656 -0.12190874 -0.14293891 0.24920294
000200 77 3e 7e 3e 98 12 b0 bd 7d f2 51 3d 08 a4 29 be
       0.24828516 -0.085972965 0.051256645 -0.16566479
000210 55 dc 44 bd c8 1a 6e be fa 9f cd 3d bc 8b d8 3d
       -0.048061687 -0.23252404 0.10040279 0.10573527
000220 eb 02 29 3e e4 4b 4f be 6b 75 54 bd 89 c5 da 3d
       0.1650502 -0.20243794 -0.05186979 0.10682208
000230 ee be a6 bd f7 30 d4 bd f1 a1 b4 bd 7c be be 3e
       -0.08141886 -0.10360902 -0.0881995 0.37254703
000240 30 0a 5c be 1e da c8 3d 4a 0e ae 3d 11 38 99 be
       -0.21488261 0.098072276 0.08498819 -0.29925588
000250 4f 0b 1b 3e 14 a7 9b 3d ba 05 bf 3d d5 ac 26 3e
       0.15141033 0.07600227 0.09327264 0.16276868
000260 bb f6 1a 3e e4 c1 bc 3d 9d 07 f2 3d 66 0b ff 3c
       0.15133183 0.09216669 0.11817858 0.031133365
000270 e1 2a 28 be c3 d9 45 3e 65 8c 4a 3e 0a 24 9c bd
       -0.16422607 0.19321351 0.19780119 -0.076240614
000280 26 cd 93 bd bd 7c 66 3e 20 10 6c be 3f 14 5d be
       -0.07216863 0.22508521 -0.23053026 -0.21589755
000290 47 3e 64 be 61 73 0e be e5 d4 08 3e 53 99 39 be
       -0.22289382 -0.13911201 0.13362463 -0.18124895
0002a0 bf 7c 3b be c0 ac ef 3d 69 d6 41 bd fb 78 6b be
       -0.18309306 0.11702871 -0.047323618 -0.22995369
0002b0 84 47 52 3e a0 9c 7d 3e 5a b3 39 bd a8 7c 31 be
       0.20535094 0.24766779 -0.04533706 -0.17332709
0002c0 cf 03 51 be 18 c1 19 3e 45 d7 fd 3d b2 5a 64 be
       -0.20411609 0.15015066 0.12394575 -0.22300223
0002d0 23 46 6d 3e 5d 04 5f 3e 96 c1 82 3d 03 05 10 be
       0.23171286 0.21779008 0.0638458 -0.14064412
0002e0 01 66 49 bd c7 e2 94 bd 01 75 17 be 39 54 44 be
       -0.049169544 -0.07269817 -0.14790727 -0.19172753
0002f0 de 14 4c 3e 2a d5 c1 bd c6 f3 02 be a0 09 3d be
       0.19929835 -0.09464486 -0.12788305 -0.18460703
000300 6c f4 a9 bd f4 7e 27 be 60 42 2e bd f2 67 86 3d
       -0.08298573 -0.16357023 -0.04254377 0.06562795
000310 31 88 06 3e 60 4a c1 bd a5 f4 88 be c2 3c 84 bd
       0.1313789 -0.09438014 -0.2674915 -0.06456901
000320 97 0d f6 bd e5 e7 0f be 9b 08 5f 3e f0 c4 93 be
       -0.12014311 -0.14053304 0.21780626 -0.2886119
000330 1f 90 2f 3e 31 7c 20 3e 32 7f a3 bd 24 e1 e9 bd
       0.17144822 0.15672375 -0.07983245 -0.11419895
000340 a1 b2 65 3d dc 58 1d be 90 6a 08 3d fa 8b d1 bd
       0.056078557 -0.15365928 0.03330475 -0.102317765
000350 62 91 33 be 3d 27 b9 bd b9 71 3f be ac 73 27 3d
       -0.17535928 -0.09040687 -0.18695726 0.040881798
000360 c0 38 3a 3e 51 7f 28 3d 36 5f 55 be 54 d0 47 be
       0.18185711 0.041137043 -0.20837101 -0.19513065
000370 1a 8e 27 bd a1 13 79 3e e6 96 11 bc 7e 7b c3 3e
       -0.040907003 0.24323894 -0.008886075 0.38180155
000380 60 8b 34 be 7e c7 dd 3d 5a b2 94 3d b6 1c 35 bd
       -0.17631292 0.10829066 0.0726058 -0.044216834
000390 a9 95 2d be 8f 10 db 3a 80 ec 55 bd d1 09 7b 3e
       -0.16951622 0.0016713309 -0.052227497 0.24515463
0003a0 e9 c1 ec bd cf 97 b3 bb 7b 5b 38 be bb a4 ee bd
       -0.11560423 -0.0054807435 -0.18003647 -0.116525136
0003b0 2f ab 5c be 3d e1 44 3e 3c d2 47 be 46 6b 90 bd
       -0.21549676 0.19226547 -0.19513792 -0.07051711
0003c0 6a f3 a1 bd 2b 17 52 3e cf 22 80 be fa ad 9a bc
       -0.07907756 0.2051665 -0.25026557 -0.018881787
0003d0 54 07 6e bd 58 38 73 3e b4 80 da bd 2a 27 63 3e
       -0.058112457 0.23751962 -0.106690794 0.22182909
0003e0 f1 c8 75 be 8d 2e a0 be 00 38 3e 3d 1a c3 7d 3a
       -0.24002434 -0.31285515 0.046440125 0.00096802565
0003f0 7b 5e 7c be 83 2c ab bc 4a dc 3c be d8 59 58 3e
       -0.24645416 -0.020895248 -0.18443409 0.21128023

lstm.bias_ih_l1 f4 [64]
000000 d9 28 bc bd c3 47 e8 3d 9d af 85 3d cd 1d c6 bd
       -0.091874786 0.113418125 0.06527636 -0.09673653
000010 67 2b 10 3c 3a b7 8a be 0a dd 64 3d e6 89 61 3e
       0.00879941 -0.27092916 0.05587486 0.2202526
000020 4f 54 ec bc fe 7e d8 bd 97 01 89 3d aa 55 d2 bd
       -0.028848795 -0.10571097 0.06689756 -0.102702454
000030 7e b0 f9 3d 16 22 fd 3c b2 87 0e be 29 07 88 3d
       0.12191866 0.030900043 -0.13918951 0.06641991
000040 38 ae 8e 3d c7 d1 0e be f0 69 80 be 89 2a 23 3e
       0.06966823 -0.13947211 -0.25080824 0.15934195
000050 d9 c8 87 bd fd 9d 62 be a9 ef be 3d e7 7c ea bd
       -0.066301055 -0.2213058 0.09323055 -0.114496045
000060 54 b7 62 be de 56 ff bd ae fa 52 3d f9 7d 1a 3e
       -0.22140247 -0.124677405 0.051508598 0.15087117
000070 c0 88 7e be 80 5c 10 be 2b 45 07 3e 90 26 0e 3e
       -0.24856853 -0.14097786 0.13209979 0.13881898
000080 d1 c6 57 be 90 55 12 3e 81 b3 f7 3c 43 3c 32 3e
       -0.21071936 0.14290452 0.030236961 0.174058
000090 65 1f 37 bd 56 8f ec 3a c4 ad 12 3e bd ee 10 bc
       -0.044707675 0.0018048089 0.14324099 -0.008845982
0000a0 b4 c7 db 3d 53 0a 37 3e a0 13 12 be 91 3f 14 bd
       0.1073145 0.17875032 -0.14265299 -0.036193434
0000b0 4a 23 33 3d f7 25 ad bd 9a 5f 3f bd d5 1d 8d bb
       0.043734826 -0.08454507 -0.046722032 -0.004306535
0000c0 ad 90 18 3d a2 52 8e be de 8a 4a 3c dd 11 05 be
       0.03724735 -0.2779742 0.01236221 -0.12995096
0000d0 8d 61 3c be 37 ad 68 be 4f bf 6b bd b0 e4 5f 3e
       -0.18396588 -0.22722326 -0.057555493 0.21864581
0000e0 4c db 33 3b 30 c7 ac 3b 87 ed 04 be 52 9b 5f 3e
       0.0027443944 0.0052727684 -0.12981234 0.21836594
0000f0 ea 09 59 bd 73 a8 35 be c8 a1 9b 3d 49 c1 1d 3e
       -0.05298797 -0.1774004 0.07599217 0.15405764

lstm.bias_hh_l1 f4 [64]
000000 19 99 c1 bd 6c e0 16 be 37 87 c3 bd 19 9b 2c 3e
       -0.09453029 -0.14734048 -0.095472746 0.1685604
000010 e4 72 aa bd 04 0b 0f be a8 5d 3e be bf af 8c 3e
       -0.08322695 -0.13969046 -0.18590415 0.27477834
000020 e8 a7 16 3e 9a e2 e6 bd 58 f9 f9 3d 93 d9 78 3a
       0.14712489 -0.112736896 0.12205762 0.00094928703
000030 dd 56 d1 3d 97 c7 d8 bd ce 4c 97 be 5e c6 a2 be
       0.10221646 -0.10584944 -0.29550785 -0.31791967
000040 fc e6 92 3d b2 10 83 be b3 8b 6d be 31 42 66 be
       0.07172963 -0.25598675 -0.23197822 -0.22486188
000050 09 51 f2 bd a3 8b f6 3d d9 4e 6c bd df 25 14 be
       -0.118318625 0.12038352 -0.057692382 -0.14467572
000060 dc b0 be bb 8f ee 80 be 79 43 d3 bd 2f 4b 41 be
       -0.005819423 -0.25182006 -0.10315604 -0.18876337
000070 28 a6 38 3e 8a ef 01 be b0 15 e3 3d e2 78 e5 3d
       0.18032134 -0.12689033 0.11088121 0.11204697
000080 d9 df 10 be 94 c5 58 be 1a c8 2d 3e 38 1f f9 3b
       -0.14147891 -0.2116912 0.16970864 0.0076025985
000090 07 7e b8 3d 39 00 85 bc 94 48 d1 3d e6 16 06 3e
       0.09008413 -0.016235458 0.10218921 0.13094673
0000a0 25 6c 1b bc ae de e8 3d 7d 5a 88 3c af b3 3b 3e
       -0.009486233 0.11370598 0.01664471 0.18330263
0000b0 ed 1d 04 be 4a 22 48 be 39 57 a4 bd 33 08 aa 3d
       -0.12902041 -0.1954433 -0.08024449 0.08302345
0000c0 18 6e 32 bc 7e 47 1d be 8c 8d 10 bd b8 e7 8f bd
       -0.010890506 -0.15359303 -0.03529124 -0.07026619
0000d0 40 25 f9 bd 56 c7 12 3e 8b c6 80 be d7 df f6 bc
       -0.12165308 0.14333853 -0.25151476 -0.030136032
0000e0 69 6e 39 3e 88 e8 4e be ad 5f d5 bb 2a 24 39 3e
       0.18108524 -0.20205891 -0.0065116496 0.18080202
0000f0 40 e8 ef bd 79 0c 52 3e dd 95 44 3e d0 8f 4e bd
       -0.1171422 0.2051257 0.19197793 -0.05043012

fc.weight f4 [1, 16]
000000 8e 46 31 be 0c 12 56 bd 3b f3 01 3e ca bd f8 3d
       -0.1731207 -0.052263305 0.12690441 0.121455744
000010 da 12 f7 3c 38 d4 e8 3d d9 36 3e be b5 cb 40 bd
       0.030160356 0.113686025 -0.1857561 -0.04706927
000020 da 52 8b 3d 82 c8 46 3e 6e ea 94 3d e8 86 f7 3d
       0.06802912 0.19412425 0.072712764 0.12086278
000030 83 3d 42 bc 80 f0 0c be d4 22 d6 bc b4 9f 44 3c
       -0.011855486 -0.13763618 -0.026139654 0.012000967
