time_series_intro_class/final_project/submission/model_params/3_layer_8_size_model_epoch_100.pth (torch, 8227 bytes, 13 tensors)

lstm.weight_ih_l0 f4 [32, 1]
000000 f1 06 bf 3d 06 44 56 3d 10 1d 92 3e 2f d0 20 3d
       0.09327496 0.052310966 0.28537798 0.03926104
000010 f6 57 77 be 9c 7c 40 be 10 04 75 bc 31 fb 9a 3e
       -0.24154648 -0.18797535 -0.014954582 0.3026977
000020 17 63 ae bd 69 40 c4 3d b5 24 2a 3d 8e c5 6e be
       -0.08514994 0.09582598 0.041538913 -0.23317549
000030 a4 88 bf bd fc 72 51 bd 7f cc 82 bd 3d 8a a4 be
       -0.09352234 -0.05113505 -0.06386661 -0.32136717
000040 f5 b2 4b 3d 51 1c 41 3d 38 c5 7d be 0a c8 86 be
       0.049731214 0.047146145 -0.24782264 -0.26324493
000050 a6 4c 1b 3e 42 9b ff 3d 70 9b 28 bd 75 1e 80 bd
       0.15165958 0.12480785 -0.04116386 -0.06255809
000060 fd 05 e3 bd 0b 0a 34 3c 27 d6 2b 3e f1 e9 0c be
       -0.110851265 0.010988723 0.16780911 -0.13761117
000070 ad c0 9a be 85 92 a3 be 0b 7b 92 bd a4 e1 ad be
       -0.30225125 -0.31947723 -0.07152375 -0.33961213

lstm.weight_hh_l0 f4 [32, 8]
000000 4c fc 86 3e 15 14 ae be 11 59 4c be 67 96 41 be
       0.26364362 -0.33999696 -0.19955851 -0.1890503
000010 e2 62 14 3e ff c7 5a 3e 83 c1 08 bd 14 d8 d5 bd
       0.14490846 0.21365355 -0.033387672 -0.10441604
000020 1d 34 45 be 05 63 a6 3e f4 6a 50 bd c1 c8 ad 3e
       -0.19258161 0.3249742 -0.05088325 0.33942226
000030 53 db 29 be 3d 97 15 bc e6 94 9d 3e fe a7 a3 3e
       -0.16587572 -0.009130296 0.30777663 0.31964105
000040 e3 a5 a0 3e 6b 52 7b be 6f 72 9f be f6 e0 43 be
       0.31376562 -0.24543159 -0.31141993 -0.19128785
000050 91 e4 81 be 7e 47 17 bd 6d 08 d1 bd 74 82 f2 3d
       -0.25369695 -0.036933415 -0.10206685 0.11841288
000060 36 77 9f be 79 49 1e 3e 40 d1 79 be 46 50 76 3e
       -0.31145638 0.15457715 -0.24396229 0.2405406
000070 07 78 26 be d1 64 8d be fd ae c6 bc 69 58 01 bd
       -0.16256724 -0.2761598 -0.024253363 -0.031578455
000080 79 ce a5 be 44 98 9d bc 40 e2 91 be ed 84 4f 3e
       -0.3238409 -0.019237645 -0.28492928 0.20265551
000090 b1 ec 8f bd d6 b1 a0 3e 95 25 3d bd 75 a4 c5 3d
       -0.07027567 0.31385678 -0.04617842 0.09650508
0000a0 4c 8a 43 be 6f d6 40 be df 8a af 3e 54 03 95 be
       -0.19095725 -0.188318 0.34285638 -0.29104102
0000b0 ab 0a 3b be 2f d6 ab be 39 bf 40 be 7e c0 13 3b
       -0.18265788 -0.33561847 -0.18822946 0.0022545154
0000c0 e7 da 4a be ce 6e f9 3c e6 52 65 3e 05 f0 70 be
       -0.19810067 0.030448344 0.22394904 -0.2352906
0000d0 e1 39 b1 3e 89 91 ca bd 7a 43 94 3e 3c c1 e5 3a
       0.3461447 -0.0989104 0.2895773 0.0017528902
0000e0 db 17 0c be 25 7f 60 3e 3a 88 93 3e 22 59 25 3e
       -0.13680975 0.21923502 0.2881487 0.16147283
0000f0 7e 6e 5e be 2e 25 2f be 36 71 24 3e 42 de 7a be
       -0.21721837 -0.17104027 0.16058812 -0.24498847
000100 ce b1 2f 3e a2 b2 55 be f4 76 65 3e af e5 55 be
       0.17157671 -0.20868924 0.22408658 -0.20888399
000110 98 ce 58 3e 7f 6b b1 be 24 24 99 be 6d e8 5a 3e
       0.2117256 -0.34652326 -0.29910386 0.21377726
000120 6a 97 74 bd 01 d8 47 3d 8a 73 0a 3e cb 30 87 be
       -0.059714712 0.04878998 0.13520637 -0.26404414
000130 b3 f6 ad 3e 35 69 9d be 74 96 82 3e de c7 a5 bc
       0.3397728 -0.3074433 0.25505412 -0.020236906
000140 cf 9b 0a bd 91 9b a7 bb 46 45 12 3e a9 1c 14 be
       -0.033839997 -0.0051149805 0.14284238 -0.14464058
000150 16 ef b6 bd 4c 31 ab 3e 89 8a 53 3e 36 17 84 3e
       -0.08932321 0.33436048 0.20658316 0.2579896
000160 a4 b9 a7 3e 74 63 f8 bc 4c 55 aa 3e 4f aa b1 be
       0.3275882 -0.03032086 0.332682 -0.34700248
000170 7d 3e 51 3d 3f 4b 08 3e 92 9c 01 3e a2 7b 5c 3e
       0.051084984 0.13309954 0.12657383 0.21531537
000180 64 d4 96 3e a5 3b 7b be 30 92 86 bd 64 8a ac bd
       0.29458916 -0.24534471 -0.06570852 -0.084248334
000190 3b 52 34 3e 1f 5c f9 3d 47 12 f1 bd a9 52 0f be
       0.17609493 0.12175774 -0.11771064 -0.13996376
0001a0 9e a9 ad 3c 23 99 82 3e b8 d4 af 3e 19 6c 1a 3e
       0.021199044 0.2550746 0.3434198 0.15080298
0001b0 e8 78 c9 bc 54 c1 6f 3c 46 53 2f 3e 93 eb bd 3d
       -0.024593785 0.014633495 0.1712161 0.09273448
0001c0 d1 af 2c be 73 38 95 be 22 29 3e 3e 95 eb 0a be
       -0.16863944 -0.2914463 0.18570378 -0.1356643
0001d0 99 30 90 be 4e 2c 05 3e 66 6c f1 3d d0 22 71 be
       -0.28162077 0.13005182 0.117882535 -0.23548436
0001e0 13 7a b2 be 85 e6 4b be 90 5c 03 3d a3 7b b2 3e
       -0.3485876 -0.19912155 0.032070696 0.34859952
0001f0 0c 7a 75 bb 24 d2 f1 bc 16 15 ae be 51 26 e5 3d
       -0.0037456779 -0.029519148 -0.34000462 0.11188949
000200 d1 f8 2b 3e 52 79 57 bd 58 66 ad be ad 53 a7 be
       0.16794135 -0.052605934 -0.33867145 -0.32681027
000210 d0 0d ce bd 5e 40 92 3e fe c2 ce 3d 41 0b f2 3d
       -0.10061228 0.28564733 0.100957856 0.11818553
000220 2a d6 a3 bc 95 04 84 3e af 88 4f 3e bb df 42 be
       -0.019999582 0.25784746 0.20266984 -0.19030659
000230 2d 83 34 bd 2b 9f 89 be 8a 32 49 be 5a bd 32 bd
       -0.04407041 -0.26879248 -0.19648185 -0.04363761
000240 2e 0f 36 3e c8 6e 74 3e a7 29 93 be 73 a9 52 be
       0.17779228 0.23870385 -0.28742716 -0.20572452
000250 44 36 54 bd e0 72 07 be f3 a1 da bd 6c 8e b7 3d
       -0.051809564 -0.13227415 -0.106754206 0.08962712
000260 94 c6 88 be 5d 67 34 be 0a 84 22 3e f0 dc b5 bd
       -0.26714003 -0.17617555 0.15870681 -0.08880031
000270 a0 f0 73 bd 7c db 83 be 58 fa 68 be 89 33 ef bd
       -0.05955565 -0.2575339 -0.22751749 -0.116797514
000280 39 24 93 3e f1 5d 6d 3e 24 b6 56 be 94 41 4b be
       0.28738573 0.23180367 -0.20967919 -0.19849235
000290 85 7a b6 3d 3a b8 7e be 0f 86 0a 3d 25 4f 71 3d
       0.089100875 -0.24874964 0.033819254 0.05891337
0002a0 09 9b 18 3e 1c 10 15 3e 91 cf 89 3d 69 87 9f be
       0.14902891 0.14556926 0.06729043 -0.31157997
0002b0 90 13 d5 3c 36 69 5e be 8e 5d 19 3e e9 a6 e6 bd
       0.026010305 -0.21719822 0.14977095 -0.11262304
0002c0 a7 f3 bc bd 50 fd 1a 3e 0c cf ad 3d 5a e0 9a bd
       -0.092261605 0.15135694 0.08486757 -0.07562323
0002d0 56 34 15 3e d0 98 af be 8b 06 3d 3e 55 3e 34 3e
       0.14570746 -0.34296274 0.18459527 0.17601903
0002e0 c7 78 74 3e 9b 10 32 3e 52 4c a7 bd 64 3e 81 bd
       0.23874198 0.17389147 -0.08168854 -0.06310728
0002f0 84 49 08 3e 70 d2 32 be 1b fd 98 be 3b 98 aa be
       0.13309294 -0.17463088 -0.29880604 -0.33319268
000300 4b f2 5d bc 46 6c ac 3b 64 83 af be 9e 1f 9d be
       -0.013546537 0.0052619306 -0.3427993 -0.30688184
000310 31 3e 1a bd 55 63 95 3e a6 0d 4f 3d 06 76 e8 bc
       -0.037656967 0.29177347 0.050550126 -0.02837659
000320 02 cb a7 3e 41 08 2e be 63 a9 b2 be 3a a4 e9 3d
       0.3277207 -0.16995336 -0.34894857 0.11408277
000330 d4 27 a1 be f7 9b 06 be 56 15 05 3e 48 08 ab bd
       -0.314757 -0.13145433 0.1299642 -0.08351189
000340 ad 9b 5a 3e c9 2b 9c 3e 18 19 5d 3d f6 f1 ab 3d
       0.21348448 0.30502155 0.05397901 0.0839576
000350 cf 43 3a 3e 20 be 72 3e 8f 9b fd 3d 3c e1 4c be
       0.1818993 0.2370534 0.12383186 -0.20007795
000360 0d 00 2f be f1 26 a3 be e0 05 98 bd 6e 52 e1 3d
       -0.17089863 -0.31865647 -0.074229956 0.1100205
000370 d7 46 b8 3d e9 b3 a7 3e 48 e5 80 be 43 79 37 3e
       0.08997887 0.32754448 -0.25174928 0.17917351
000380 40 b2 6f be 5f 54 ed bd 20 ff 7e be 5f 46 f0 bd
       -0.2340784 -0.11588358 -0.2490201 -0.11732172
000390 47 db 97 be 8e 6c 66 3d 25 41 74 be 38 82 9d 3e
       -0.29659483 0.05625587 -0.23852976 0.30763412
0003a0 d0 42 95 bd 71 d7 40 3d 0a bb a4 3e 5f a2 8a 3e
       -0.07288134 0.04708046 0.3217395 0.27077004
0003b0 0e 44 57 be 02 7e 9c bc f5 45 09 be 2d cc b3 3e
       -0.21022055 -0.019103054 -0.13405593 0.3511671
0003c0 75 b6 51 3e 9f 14 90 3e 1c 80 a1 3e e6 15 54 3e
       0.20479758 0.28140733 0.31543052 0.20711479
0003d0 8b af 09 bd 9c 06 73 3d 48 e7 83 3e 09 7c 9b be
       -0.033614676 0.059332475 0.2576239 -0.3036807
0003e0 ed 4b 92 bd 96 9d 8c be 58 db ea 3d 8a da 6e 3e
       -0.07143388 -0.2746398 0.11467618 0.23325554
0003f0 ff 8e 65 be 4b 99 3f bd bb 63 b3 3e 06 af e4 3d
       -0.2241783 -0.04677705 0.35037026 0.111661956

lstm.bias_ih_l0 f4 [32]
000000 e1 80 30 3e 66 7f 46 3e 5b 78 6e 3e 7c 5b 55 be
       0.17236663 0.19384536 0.232881 -0.2083568
000010 8a 3c f1 3d f6 b1 3e be 34 dc 93 be 1b b1 a9 be
       0.11779125 -0.18622574 -0.2887894 -0.33142933
000020 f3 c3 53 3e d0 b8 34 be 04 94 35 be 47 81 ac be
       0.20680217 -0.17648625 -0.17732245 -0.3369238
000030 85 c8 d4 bd 12 9b 94 3e 02 a5 14 be 13 58 82 3e
       -0.103898086 0.2902456 -0.1451607 0.2545782
000040 e8 de 06 be 7d a6 0c be c7 01 74 bc 13 54 a5 3e
       -0.1317097 -0.13735385 -0.014893002 0.32290706
000050 de 71 18 3d 85 31 ae be 6f 6d 8e 3e 72 96 23 bc
       0.037217967 -0.34022155 0.27817866 -0.009984599
000060 08 50 ad be f3 18 09 be 18 77 aa be 16 37 a3 3e
       -0.33850121 -0.13388424 -0.33293986 0.31877965
000070 c2 78 ad be 6c 4d 66 be 72 94 ca bd ff 36 8d be
       -0.33881193 -0.22490472 -0.09891595 -0.2758102

lstm.bias_hh_l0 f4 [32]
000000 a6 c1 d8 bd 41 a4 93 3e 66 1c 51 bd a6 9e 90 3d
       -0.105838105 0.28836253 -0.051052473 0.0706151
000010 e5 89 8b be cb 10 9f 3e d2 3d 39 be 44 30 11 3e
       -0.27253643 0.310675 -0.18089989 0.14178568
000020 42 50 ae be c2 24 49 3c af 07 45 be 70 8e 84 3e
       -0.34045607 0.01227683 -0.19241212 0.2588992
000030 99 9e 9f 3e dd 09 aa 3d 0d 67 a4 be 4e ce b3 3d
       0.31175688 0.083026625 -0.32109872 0.08779584
000040 29 4e 33 3e ec 84 bf 3c d0 c8 9c 3e 3f c4 d9 3d
       0.17510284 0.023378812 0.30621958 0.10633134
000050 ab 2f 81 be 9b 89 85 bd 1a 8a 71 be cd 76 a2 3e
       -0.2523168 -0.06520387 -0.23587838 0.31731263
000060 a1 33 9a bd ed d9 5f be 85 84 a7 be 54 c2 b6 bd
       -0.07529379 -0.21860476 -0.32718292 -0.08923784
000070 97 8c 25 3e 35 b3 93 3d aa d9 ab be 89 c2 8f bc
       0.16166912 0.072119154 -0.33564502 -0.017548816

lstm.weight_ih_l1 f4 [32, 8]
000000 6c 33 98 bd 33 fa 25 3e d7 7c 91 3e fe db 41 be
       -0.07431683 0.16208725 0.28415558 -0.18931577
000010 ec e2 36 3e fc 87 75 be 63 ab b6 bd cd 9b 2c 3d
       0.17860001 -0.23977655 -0.08919408 0.04214077
000020 89 db 2c bd d9 3b 4d 3e f9 37 9b 3d 3f a1 97 bd
       -0.042201553 0.20042361 0.07579035 -0.07403802
000030 29 44 65 be 8f cc 9b bd 66 5d 98 bd e9 85 44 be
       -0.22389282 -0.07607376 -0.07439689 -0.19191708
000040 a4 2a 52 be 87 5c 3a 3c e9 2f 2c be 53 ec 12 be
       -0.20524079 0.011374599 -0.16815151 -0.14347963
000050 31 08 84 3d d8 30 6c be 6c 45 ea bd c4 3d 7a 3e
       0.06446875 -0.23065507 -0.114390224 0.24437624
000060 d1 be 89 be 0c b4 6f be 57 94 9c 3e 4a da 16 be
       -0.26903394 -0.23408526 0.30581924 -0.14731708
000070 b2 d1 e4 3d 80 6f b4 be 84 ec 13 be 62 92 99 bd
       0.11172809 -0.35241318 -0.14445692 -0.074986234
000080 ed fc 36 3e b4 04 e2 3d c8 4e 60 3d 36 12 12 3c
       0.17869921 0.11036053 0.05476263 0.008915475
000090 9e 23 55 3e d3 a2 7f 3e 5e ec 8c bd 43 a5 84 be
       0.20814368 0.24964456 -0.06881021 -0.25907335
0000a0 9f cc e4 bd aa ca 1e be 49 61 7c be 2f c3 a1 3e
       -0.11171841 -0.15506998 -0.24646486 0.31594226
0000b0 3b 13 72 3e 9a b2 42 be 93 b4 dd 3d 3c a3 a6 be
       0.23640148 -0.19013444 0.108254574 -0.32546413
0000c0 3b 81 96 bd cb 80 87 3e fc 82 a8 be b8 85 5d 3d
       -0.073488675 0.2646545 -0.32912433 0.054082602
0000d0 c8 d3 7f be c1 c9 84 3e d6 99 f1 bc 30 c3 82 3e
       -0.24983132 0.25935176 -0.0294923 0.2553954
0000e0 59 e1 a8 be 29 7c 94 be a4 cf 3f 3d 2e 37 55 bd
       -0.32984427 -0.29000977 0.04682888 -0.052054577
0000f0 64 91 a7 be d5 ad 82 3d c9 26 58 be 57 31 b1 3d
       -0.32728112 0.06380812 -0.21108545 0.08651989
000100 96 1f 30 ba 9e 75 ad be 6b c7 57 be 53 2b 06 be
       -0.0006718574 -0.33878797 -0.21072166 -0.13102464
000110 d7 aa b2 3e a5 15 26 bb c0 36 32 be cc 66 97 3e
       0.34895965 -0.002534249 -0.17403698 0.29570615
000120 29 ae 08 be 0d ef 61 bd 89 23 5d be 0b f5 3d be
       -0.13347687 -0.055159617 -0.21595587 -0.18550508
000130 cd db a2 3d 6c b7 06 3e b4 0a a4 3b 54 a3 c8 bd
       0.0795208 0.13155907 0.0050061587 -0.09796777
000140 f0 2f f5 3c 6b 3b 5d 3d a3 d9 b1 3e a8 eb 85 be
       0.029930085 0.054011744 0.34736356 -0.26156354
000150 1b f6 01 3e 6d 47 86 be c1 82 27 bc 3d 65 a6 3d
       0.12691538 -0.2622637 -0.010224045 0.081247784
000160 d1 3a 79 be 99 65 b0 be 68 47 35 be e0 a1 1a 3e
       -0.24338843 -0.34452513 -0.1770302 0.15100813
000170 57 d0 01 be 6d 03 92 3e 6a 11 34 be 64 2a 1a 3d
       -0.12677132 0.2851824 -0.17584768 0.037638083
000180 70 20 23 be a1 78 3a be 9e a5 64 bd 99 d3 25 3e
       -0.15930343 -0.18210079 -0.055822007 0.16194
000190 5c 4d 98 3e 52 84 0a 3b 8a c6 7d be 8e 0a 59 be
       0.2974652 0.0021135998 -0.24782768 -0.21195433
0001a0 b4 b8 91 be a2 bd 92 3c 85 39 8e 3a 39 31 00 3e
       -0.2846123 0.01791269 0.0010850882 0.12518777
0001b0 25 8c a5 be ba c2 55 ba a3 7e 83 3e 04 f7 9e 3e
       -0.32333484 -0.00081543217 0.25682554 0.31047833
0001c0 b1 4f be bd 4d 0f b2 3e 92 3f 8b be de ad 0b be
       -0.09292544 0.347773 -0.27196938 -0.13640544
0001d0 a5 6b ea 3d 16 41 ab 3c 2e 86 df bd a4 8f 1d be
       0.11446313 0.020905059 -0.109142646 -0.15386826
0001e0 91 81 75 be e1 8b 5d bc 12 0c 82 3c fb 39 78 3e
       -0.23975207 -0.013522119 0.015874896 0.24240868
0001f0 84 f5 b5 bc ab 5e eb 3d a5 28 78 3e ae dd c2 3d
       -0.022211798 0.11492666 0.24234255 0.09514938
000200 4c 1e c1 3d 43 51 99 3e 52 85 49 3e 95 30 2e 3e
       0.09429607 0.2994481 0.19679764 0.1701072
000210 48 26 5d be fe dc 13 be 90 a3 33 be 9b bb b2 3e
       -0.21596634 -0.1443977 -0.17542863 0.34908757
000220 b0 38 ab 3d bf 34 3a 3e 8b 24 00 be 6a 03 0a be
       0.08360422 0.18184184 -0.1251394 -0.13477865
000230 62 15 e4 bb 31 24 a7 bd d5 b0 3e 3e 68 1d 50 be
       -0.006960557 -0.081612 0.18622144 -0.20323718
000240 29 f8 88 be 30 97 cb 3d 2f cd 9b be a5 91 b2 3e
       -0.2675183 0.09940946 -0.3042998 0.34876743
000250 86 3a 82 3e c6 31 6c 3d 11 a9 4d bd 16 a9 34 3d
       0.25435275 0.057664655 -0.050210062 0.044106565
000260 13 ec 6e be 09 0e d6 3d 64 5b 92 be bc d4 fb bd
       -0.23332243 0.10451896 -0.2858535 -0.12296435
000270 89 2d 32 3e 9e 71 67 3e 98 c9 1b bd 93 65 82 3e
       0.17400183 0.22601935 -0.03803405 0.2546812
000280 94 12 e7 3d e8 eb ea 3d d1 cf 05 3e 8c c2 15 3e
       0.1128284 0.11470777 0.13067557 0.14624995
000290 28 32 61 3d 93 c9 d7 bc 76 2c 0c 3d db 86 35 bd
       0.054979473 -0.026341235 0.03422209 -0.04431806
0002a0 a4 8b a1 3e 3c 36 9d be 91 45 e3 3d d9 42 f2 3d
       0.3155185 -0.3070544 0.11097253 0.118291564
0002b0 dc 08 87 be bc 8f 99 3c 17 fe 14 be 7b 30 65 3e
       -0.26373947 0.018745296 -0.14550053 0.22381775
0002c0 ca ba b9 bc 7d 50 73 3e e7 30 87 bd 51 d2 81 3e
       -0.022672076 0.23761173 -0.06601124 0.2535577
0002d0 84 33 46 be cb 80 04 bc 7e a0 58 be 9d 28 11 be
       -0.19355589 -0.008087347 -0.21154973 -0.14175649
0002e0 cb e4 a0 be e2 51 4b be 9f 24 70 3e fc a1 8e bc
       -0.31424555 -0.19855455 0.2345147 -0.017411225
0002f0 20 d5 86 3e 5c df 57 3e 95 35 a6 bd 3d 0e c7 bd
       0.26334476 0.21081299 -0.08115689 -0.097195126
000300 ca 68 64 3e 19 6f 47 3e 74 83 a4 3c 50 cb 69 be
       0.22305599 0.19475974 0.020082213 -0.22831464
000310 2d 8f c9 bd 4a bc f3 bd 3d 15 76 3d 79 b1 68 3e
       -0.09841762 -0.11901148 0.06007885 0.2272395
000320 b9 b5 83 3d d2 fa 27 be 29 d4 11 3d 96 96 50 be
       0.06431145 -0.16404274 0.035602722 -0.20369944
000330 6f a9 00 3d ec dc 8f be 3d 4f 06 be b8 d6 81 be
       0.031411584 -0.28098238 -0.13116165 -0.2535913
000340 46 7d aa bd 5e 73 1c be ea ba 17 bd 0e 82 05 be
       -0.08324675 -0.15278384 -0.03704349 -0.13037893
000350 16 ab ae be 51 d1 54 be ab e3 82 3e 79 d4 a8 3c
       -0.34114903 -0.20782973 0.25564322 0.020609127
000360 7f 23 22 3e 87 8c a2 3e 08 50 24 be 92 6c f3 bd
       0.15833853 0.3174784 -0.16046154 -0.118859425
000370 0c eb 80 be 45 f9 f8 bd 9e 67 6a be ef 7f ac 3e
       -0.25179327 -0.121569194 -0.2289109 0.33691356
000380 e3 f5 86 3e 12 1c bb bd 81 8c 10 3e 8e 9c 48 3e
       0.26359472 -0.09136213 0.14116098 0.19590971
000390 3c c1 4e be f6 ec 21 bb ec be 81 be e9 d9 dc 3d
       -0.201909 -0.002470789 -0.25340974 0.107837506
0003a0 e7 4c dd bd 10 c2 9c 3e 1d 38 ff bd 28 7b 0b 3e
       -0.108056836 0.30616808 -0.12461875 0.13621199
0003b0 1c 7f 9b be f8 7e 88 be 3c e9 05 be 5f a8 8e be
       -0.30370414 -0.2665937 -0.13077253 -0.27862832
0003c0 5d ae 96 bd 1a 03 54 be f9 ea d2 bd 23 2b 9c be
       -0.07357476 -0.20704308 -0.10298724 -0.3050166
0003d0 e3 bc 1e 3e d7 b9 8d 3d b1 3b 83 be 67 aa 9e be
       0.15501742 0.06920212 -0.25631478 -0.30989382
0003e0 5a 07 14 be 55 88 63 3e 7b 22 9e be 57 d2 6f 3e
       -0.1445593 0.22219975 -0.30885682 0.23420082
0003f0 93 56 5f 3e 7e 1c e1 bd 85 cf ab 3c 4d 6b 92 be
       0.21810369 -0.109917626 0.020972976 -0.2859749

lstm.weight_hh_l1 f4 [32, 8]
000000 6c a1 ef bd e4 7f 56 be 6f 89 50 be 41 a0 a4 3e
       -0.11700711 -0.20947224 -0.20364927 0.32153514
000010 dd 36 8d bd e8 b2 a3 3e f3 d2 b9 bd dc 99 74 3e
       -0.0689523 0.31972432 -0.090734385 0.23886818
000020 e1 ba a6 3d 70 4f af 3e e0 26 3f bd e2 83 8c 3e
       0.08141113 0.34240294 -0.046667933 0.2744437
000030 13 0d 82 3e 9b c5 7b be c6 bf e8 3d a6 fb 8e be
       0.254006 -0.24587099 0.11364703 -0.27926368
000040 8c 8d 57 3e 0b 02 7c 3e c6 7b e5 3c c1 16 96 3e
       0.2105009 0.24610154 0.028013121 0.29314235
000050 81 01 87 3e e5 05 09 3e 30 99 90 3e ee a4 73 3e
       0.26368335 0.13381155 0.28241873 0.23793384
000060 a1 90 74 bd d2 43 85 be 86 86 94 bd fa ea 09 3e
       -0.05970824 -0.26028305 -0.07252221 0.13468543
000070 95 f9 6a be 9b 38 1e 3c 00 fe 8f bd 5a d3 d9 bd
       -0.2294677 0.0096570505 -0.070308685 -0.10636015
000080 ba 0e 31 3e c5 a1 d3 3d 32 a2 3d bb 44 0e a2 bd
       0.17290774 0.103335895 -0.0028935787 -0.07912877
000090 f2 e1 90 bd 54 d0 db 3d 2b 4d 58 3e a3 d1 62 be
       -0.07074346 0.10733095 0.21123187 -0.22150283
0000a0 d9 8f 4e 3e 2f 6b 22 be c3 6a 0d 3d a3 dc ee 3d
       0.20172061 -0.158612 0.034525644 0.11663177
0000b0 b6 a7 e9 bd 15 e5 46 3d be d8 47 3e eb eb 7b 3e
       -0.114089414 0.048558313 0.19516274 0.24601714
0000c0 9e c4 08 bd a7 3d 55 be da 7a 88 3d 39 65 8b be
       -0.033390634 -0.208243 0.06664057 -0.27225664
0000d0 1d 59 24 be 06 3e bd bd 99 15 96 3e 6f 4f 13 3e
       -0.16049619 -0.09240346 0.29313353 0.1438577
0000e0 fa a6 9f be 2c 80 c3 3c 66 a2 a5 bd 43 9a 4f bc
       -0.3118208 0.023864828 -0.08087616 -0.012671056
0000f0 4c 74 d1 3c cd 12 95 be 2a 56 c8 3d a0 99 68 be
       0.02556815 -0.29115906 0.097820595 -0.22714853
000100 a7 54 25 3e b0 f4 4e bc a8 60 22 be 6b 92 38 3d
       0.16145574 -0.01263158 -0.15857184 0.04506151
000110 e5 78 a6 be c3 0b 11 be d5 50 f1 bd 3b f2 87 3e
       -0.3251411 -0.14164643 -0.117829956 0.26551995
000120 0c 2a ef bc 7a c6 04 be b2 c4 c1 bd da 5d 53 3e
       -0.029194854 -0.12966338 -0.09461345 0.2064127
000130 5f d0 41 3e 8a 91 87 be a6 18 87 3d 98 d3 ff bc
       0.18927144 -0.26478225 0.06596498 -0.031228825
000140 3a 30 99 bd c4 32 cf bd e4 5b 17 3e d2 da 0c 3e
       -0.074799016 -0.10117105 0.14781147 0.13755348
000150 95 05 ad be 92 03 d7 3c cc 0c a3 3d 9a 6e ad be
       -0.3379332 0.02624682 0.07961425 -0.33873445
000160 34 53 a1 3e a7 a4 b4 3d b4 4b 2f be 78 f8 6f 3e
       0.3150879 0.088204674 -0.17118722 0.23434627
000170 88 d5 22 be 88 de 89 3d a3 56 ed bd a5 9e 1e bd
       -0.15901768 0.067318976 -0.1158879 -0.038725514
000180 e1 79 ad 3e 49 c4 06 3e 05 19 5a 3e ff 56 9a 3e
       0.3388205 0.13160814 0.21298607 0.30144498
000190 5c 3c 27 3e a5 eb dd 3d 18 06 8e 3d e3 b6 93 3e
       0.16331619 0.10835961 0.06934756 0.2885047
0001a0 23 48 1a 3e 46 56 da 3d f7 78 f3 3d 72 82 b2 3e
       0.1506658 0.106609866 0.118883066 0.34865147
0001b0 19 6c d1 bd 27 0b 2f 3e 74 df ab 3e a8 7d 56 be
       -0.10225696 0.17094098 0.3356892 -0.20946372
0001c0 79 ec 8a 3e 01 da 62 3e d5 a7 82 be c5 c2 03 3e
       0.2713354 0.22153474 -0.2551867 0.12867267
0001d0 f5 47 8e 3c d0 73 8b be 27 ec e6 3d bd 88 ab 3e
       0.017368296 -0.27236795 0.11275511 0.3350276
0001e0 74 ac 61 be 1e 0d d6 3d 0c fe 9b be 2e 71 57 3d
       -0.22038442 0.10451721 -0.3046726 0.05259817
0001f0 28 0b 88 3e 2f 28 66 3c df 00 97 be df 3a 86 be
       0.26571012 0.014047666 -0.29492852 -0.2621679
000200 13 87 df 3d 5d 3c a9 bd 0f e2 07 be cc a6 8c 3e
       0.10914435 -0.082634665 -0.13269828 0.27471006
000210 87 96 7f 3e a1 25 6d be 58 49 5e 3e ba 7d 6f 3e
       0.24959765 -0.23158886 0.21707666 0.23387805
000220 41 81 3f 3e 21 56 82 be 83 0c a8 be f7 ca 64 3e
       0.1870165 -0.25456336 -0.32822046 0.2234305
000230 57 20 50 3e 25 12 15 3e 9d 78 42 be f6 81 37 be
       0.20324837 0.14557703 -0.18991323 -0.1792067
000240 7c 54 b7 3d 6b ed a6 be 07 07 2c be 08 b7 99 be
       0.08951661 -0.3260301 -0.16799556 -0.30022454
000250 12 3f 87 be 78 a2 91 bd 19 fb 84 3e 30 5b 00 3e
       -0.26415306 -0.071110666 0.25972822 0.12534785
000260 b3 3c 1c 3e 08 c9 14 be 29 a5 63 be 50 ba 18 be
       0.1525753 -0.14529812 -0.22230972 -0.14914823
000270 95 2f 9d 3e 23 80 63 3d e3 ef 40 3e 51 b2 74 be
       0.30700365 0.055542123 0.1884151 -0.23896147
000280 13 22 27 3e 05 b1 74 be 86 83 57 be aa 79 df 3d
       0.16321592 -0.23895653 -0.21046266 0.109118775
000290 81 7c 94 3e 2b 2d 6c 3e 77 bc 80 be ba c9 6b bd
       0.2900124 0.23064105 -0.25143787 -0.05756543
0002a0 6a ae 11 3d 39 75 91 3e 50 18 13 be 55 da 91 3e
       0.035566725 0.28409746 -0.14364743 0.28486887
0002b0 91 59 aa be f8 14 b9 3c 2c 42 9f 3e 60 c0 a1 be
       -0.3327146 0.022593006 0.31105173 -0.31592083
0002c0 d7 34 bf bd 57 93 40 be 50 a6 9f be ef c1 81 be
       -0.0933625 -0.18806206 -0.31181574 -0.25343272
0002d0 67 ae 72 be 2a 85 6e be c3 50 91 3d 29 45 16 3d
       -0.23699342 -0.23292986 0.07095482 0.03668705
0002e0 b0 8d 07 3e 90 0c 14 3e 02 aa b3 be 6c 61 b2 3e
       0.13237643 0.14457917 -0.35090643 0.34839952
0002f0 09 b5 45 be 07 79 1a 3e 13 8c b1 3e e6 bb af be
       -0.1930734 0.15085231 0.3467718 -0.34323043
000300 a7 aa 08 3e 89 e5 43 3e 75 3e b2 bd f0 32 6a be
       0.13346349 0.1913053 -0.08703319 -0.22870994
000310 c4 d3 d1 3d 77 58 46 be 57 5f 1a 3c 33 d4 9d bd
       0.10245469 -0.19369684 0.009422145 -0.077064894
000320 b5 39 6b bc ed b3 aa be a9 65 0d 3e 62 82 a3 3e
       -0.01435702 -0.33340397 0.13808312 0.31935412
000330 c6 09 54 be 0d a1 85 3d 5f ab 9a 3e a8 8f 98 bd
       -0.20706853 0.065248586 0.3020887 -0.07449275
000340 69 bf 33 be 97 8b 1e 3e ba 50 8d be 1f f5 4d 3e
       -0.17553486 0.15482937 -0.27600652 0.20113038
000350 85 35 6a 3d 9c ee 71 3c 62 bf 20 3e af bf 14 3e
       0.057179946 0.014766362 0.15698007 0.14526246
000360 a5 c5 98 3d 06 c5 9b be c0 93 9a be 1f a0 8c be
       0.07459573 -0.30423754 -0.3019085 -0.27465913
000370 de 6d 37 be 9f e2 48 be d5 71 10 bd 67 8e 20 3c
       -0.17913005 -0.19617699 -0.03526481 0.009799576
000380 10 f8 77 be 32 4b 25 3e 3a 79 5f be d8 78 97 bc
       -0.24215722 0.16141966 -0.21823588 -0.01849024
000390 77 c7 8a bd 70 1a ad be f3 d6 35 be de e3 49 3e
       -0.06776326 -0.33809233 -0.17757778 0.1971583
0003a0 16 9c 62 3e 55 2f 9b bd c8 3d 9e 3d 5b c6 43 be
       0.22129855 -0.07577387 0.077266276 -0.19118635
0003b0 4a 72 36 be 9e 74 93 3d 52 8f 0b 3e 2f 55 48 3e
       -0.17817035 0.07199977 0.13628891 0.19563745
0003c0 fc 4b 94 3e d7 ea 4b be 2b 14 af 3d ff 22 8d 3e
       0.2896422 -0.19913803 0.085487686 0.27565762
0003d0 9c 63 ae 3e 64 a2 64 be 40 ca a9 3e b8 0c 42 be
       0.3406037 -0.22327572 0.33162117 -0.18950164
0003e0 7e 8a 41 3e f4 6d c1 bd cc e3 76 be 95 72 02 3e
       0.18900487 -0.094448 -0.24110335 0.12739022
0003f0 73 c6 c2 3b de bc c1 bd 67 ae a1 3e c7 6b ba 3d
       0.005944067 -0.09459852 0.3157837 0.09102588

lstm.bias_ih_l1 f4 [32]
000000 18 74 29 3e e5 a7 63 3e c2 9c 8f 3e 26 8d 9e 3e
       0.16548193 0.22232015 0.28049284 0.30967063
000010 14 a4 43 3d 19 3e d4 bd e7 23 8a 3e 24 83 2a be
       0.0477639 -0.10363407 0.26980516 -0.16651589
000020 2f e3 08 3c 30 be 4c bd 19 8b 58 be 17 b1 9a 3e
       0.008354946 -0.049986064 -0.21146812 0.30213234
000030 be cd 1b be 0c 7c d2 3d d3 40 b8 3d 1f ed 46 be
       -0.15215203 0.10277566 0.08996739 -0.19426392
000040 3d 5d 38 bd e9 50 58 bd 1f ee 29 bc 3f 2f 1d 3e
       -0.045010794 -0.052811537 -0.010371714 0.15350054
000050 5d 11 a9 3e 9a f7 8e be 7f 90 8d 3d 9a 56 7b be
       0.3302106 -0.2792328 0.06912326 -0.24544755
000060 c9 4e 8a 3d 59 13 17 be fe ed 71 bd 45 24 16 3e
       0.06753308 -0.14753474 -0.059064858 0.14662273
000070 d6 f0 a3 be f0 23 fd bc 55 33 9b be 71 7f 2c 3e
       -0.3201968 -0.030900925 -0.303126 0.1684549

lstm.bias_hh_l1 f4 [32]
000000 c8 34 66 3e b5 01 3c 3e 84 0a ae 3e cf f5 af 3d
       0.22481072 0.18360026 0.33992398 0.08591806
000010 f4 d7 32 3e c8 56 8c 3e 2d 2f 84 3e e6 6e 05 3e
       0.17465192 0.2740996 0.25817242 0.13030586
000020 0e 53 1c bc 83 5a 9b be 22 04 64 be eb 79 a8 3e
       -0.009541286 -0.30342492 -0.22267202 0.32905516
000030 20 65 87 bc 52 eb 06 be 5d 58 bc 3c 22 5c 77 3e
       -0.016527712 -0.13175705 0.022991354 0.2415624
000040 a5 0d 6a 3e c1 28 60 3e 59 d5 5c 3e 57 58 0c bd
       0.22856767 0.21890546 0.2156576 -0.034263935
000050 07 eb 11 be 86 a0 cd bd 9f 0f a2 3d 34 f0 3a 3e
       -0.14249812 -0.10040383 0.07913136 0.18255693
000060 f5 f0 a0 be aa 60 ce bd f8 f0 a6 3e 3f 71 9a 3e
       -0.31433836 -0.10077031 0.3260572 0.30164525
000070 85 5f 3c 3e 76 92 92 be ba 58 95 3e 68 2c f4 3d
       0.18395813 -0.28627366 0.29169255 0.11922532

lstm.weight_ih_l2 f4 [32, 8]
000000 9a 88 3a bd b5 6d 16 bd 01 1e 99 3e de ed 01 3d
       -0.04554043 -0.03672572 0.29905704 0.03172099
000010 ad 03 b3 3e b8 81 b4 3e 91 0a 3b be b3 2c 12 be
       0.34963742 0.35255218 -0.1826575 -0.14274864
000020 f7 ee 10 bd 68 6f 83 3e 28 ce 27 3d 73 30 df bd
       -0.035384145 0.25670934 0.04096809 -0.10897913
000030 be f3 82 be bc 6c 1a 3e 9a 72 13 3c 2d 50 a6 3e
       -0.25576586 0.15080541 0.008999491 0.32483044
000040 f0 17 15 3d 25 77 e4 bd a5 f5 80 3e 99 ac fa 3c
       0.03639978 -0.111555375 0.25187412 0.03059988
000050 2e 69 8c 3e cb 26 73 be 41 1a 81 be 35 90 33 be
       0.27423996 -0.23745267 -0.25215343 -0.1753548
000060 40 c6 9e 3e 89 ce a1 be da 62 ab 3e a2 a2 53 be
       0.31010628 -0.31602886 0.33473855 -0.20667508
000070 13 79 1c 3e a3 eb f2 bd 15 ba 1f bd f7 09 97 be
       0.15280561 -0.118613504 -0.03899582 -0.2949979
000080 d7 e3 50 3d 57 96 11 be 52 05 98 3e e4 19 af 3c
       0.050998535 -0.14217506 0.2969156 0.02137465
000090 f8 bf 3a be a5 07 61 3e ea 97 de bd 61 fc 06 3d
       -0.18237293 0.21975572 -0.10868819 0.03295553
0000a0 64 af 56 3e 47 6c 2d bc 3f 26 16 3d 54 3a 1c bd
       0.20965344 -0.010584897 0.036657568 -0.038141564
0000b0 0e 50 ce bc 90 59 7d 3d a0 e4 8d 3e 52 66 b4 3e
       -0.025184657 0.06185299 0.2771349 0.35234314
0000c0 95 f5 ac 3e 24 2b 50 be 30 2f c1 3d e9 07 cf bc
       0.33781114 -0.20328957 0.094328284 -0.025272327
0000d0 82 de 11 3e ea 4f 23 3e 42 dc 68 3e af 7d 93 be
       0.14245036 0.15948454 0.22740272 -0.28806826
0000e0 6f 26 48 3c c5 10 9e be 8d 1f 0d bc 07 6f 19 3e
       0.0122161945 -0.3087217 -0.008613479 0.1498376
0000f0 72 9a 75 be eb 21 9f be 39 6c b0 be 2a 4c ed 3c
       -0.23984697 -0.31080565 -0.34457567 0.028966982
000100 96 13 92 be df b4 53 3e 37 80 bb bd fa 75 88 3d
       -0.28530568 0.20674466 -0.091553144 0.06663127
000110 64 49 70 bc 0c 03 8d be 3e 78 a0 3e 60 8d c6 3d
       -0.014665935 -0.27541387 0.31341738 0.09694934
000120 64 3d c1 3d cf 8e 5a 3d 90 b7 ad 3e 66 e6 7a be
       0.094355375 0.05335885 0.3392911 -0.24501953
000130 1f af 01 3e 05 ae 3d 3e 1a e6 df bc 75 18 c8 bd
       0.1266446 0.18523414 -0.0273314 -0.0977029
000140 cc d8 9b be 30 c2 29 3e d2 d4 f0 3d e0 ad 0b 3e
       -0.3043884 0.16577983 0.11759342 0.13640547
000150 18 b4 9a be 49 68 76 3e a3 9e 87 3d fd 9a 72 be
       -0.30215526 0.24063219 0.066220544 -0.23691936
000160 7e d4 a1 be ef a9 0f 3e da 42 ce bd a9 f7 80 be
       -0.3160743 0.14029668 -0.10071345 -0.2518895
000170 6b 21 83 bd 8e 0c 85 3e 06 29 7e be 0d 7c 9a be
       -0.06402858 0.2598614 -0.24820337 -0.30172768
000180 21 c3 83 be 01 5d ea bd 7c 09 78 3e b1 43 d1 3d
       -0.2573481 -0.1144352 0.24222368 0.10217989
000190 b7 f1 9e be ac 2c 3e 3e 69 e2 9e be 9e d8 28 3e
       -0.3104379 0.18571728 -0.31032112 0.16488883
0001a0 6f 65 16 bd 0e c4 83 bd e1 5e aa be f6 f3 a0 be
       -0.03671783 -0.06433879 -0.33275512 -0.31436127
0001b0 39 62 7f 3e a8 c3 41 bd 05 01 26 be be c7 40 3e
       0.24939813 -0.047305733 -0.16211326 0.18826196
0001c0 fa cf bf 3d fe 15 fc bd 66 3a a4 3e 45 20 8d be
       0.0936584 -0.12308882 0.32075804 -0.27563682
0001d0 78 ab aa 3e 3f 46 00 be 74 8c fc 3d 8e 56 3c 3d
       0.33333945 -0.12526797 0.12331477 0.045980982
0001e0 67 72 39 3e 10 a2 9d 3e 8b 36 aa be 8c c6 a8 be
       0.18110047 0.30787706 -0.33244738 -0.3296398
0001f0 96 af b4 bb ee fe 55 3e 5b 12 b0 be 83 45 4f 3e
       -0.0055140955 0.20898029 -0.34389004 0.2024136
000200 46 46 eb bd 02 28 8e 3e d1 be ea bd d3 1b af 3d
       -0.11488013 0.277649 -0.114621766 0.08550229
000210 de 45 56 bd 53 47 b9 3a 78 5b ae 3e a4 f6 db bc
       -0.052312724 0.0014135636 0.3405416 -0.026851006
000220 f2 34 84 3d 83 6d 55 3e 32 67 0b 3e 2c e6 70 bc
       0.06455411 0.20842557 0.13613585 -0.014703315
000230 40 d6 cb 3d dd 44 5a be df 75 25 3e af dc 20 3e
       0.09952974 -0.21315332 0.16158246 0.15709184
000240 fb f7 7e 3e 1a 0c ad 3e 76 8b b1 3e 65 e0 59 be
       0.24899285 0.33798295 0.34676713 -0.21277006
000250 9e 61 b2 3e 65 7e ef 3d 6d 85 91 be 71 6f 5f be
       0.348401 0.1169403 -0.28422108 -0.21819855
000260 06 d6 b3 be d9 5a b3 bd 97 ab 81 be f2 fd b7 bd
       -0.35124224 -0.08757562 -0.25326225 -0.08983983
000270 65 8d 90 bd 0c bd b3 3d 17 13 83 3e 95 8d 83 3e
       -0.07058219 0.08776292 0.25600502 0.25693956
000280 f0 58 a1 be d5 73 9f be e0 ea 6e 3b 5c 24 14 3e
       -0.31513166 -0.3114306 0.0036455914 0.14466995
000290 ec 1a a1 3e 80 99 5a be 57 5a c0 bd ac 41 16 3e
       0.31465852 -0.21347618 -0.09392231 0.1467349
0002a0 a4 93 12 3e 8a c4 f4 bd 5e 66 fd bd 5c 26 ac be
       0.14314133 -0.11951549 -0.123730406 -0.33623016
0002b0 e4 d6 10 3e 5f 7f 4b be 75 e1 a4 3e 0e 26 bb 3c
       0.14144474 -0.19872807 0.3220326 0.022845294
0002c0 c1 14 59 3e 0d c3 1b 3e c5 90 70 3e 04 08 94 3c
       0.21199323 0.15211125 0.23492725 0.018070228
0002d0 05 dc 8c be f6 fd 7b bd 01 89 5e 3e 82 6c ab be
       -0.27511612 -0.061521493 0.2173195 -0.33481222
0002e0 bd 76 65 3d 16 b7 5e be c6 1f 8c be e3 30 0a be
       0.05602144 -0.21749529 -0.2736799 -0.13495211
0002f0 93 0c 92 be 91 b2 29 3c 9a c9 1f be 21 80 5b 3e
       -0.28525218 0.010357515 -0.15604249 0.21435596
000300 05 2d 95 be bf 93 a7 be 9c 28 92 3d d2 89 96 3e
       -0.2913591 -0.3272991 0.07136652 0.29402024
000310 f4 64 94 bd 27 22 89 be de c8 38 be 92 f6 5e be
       -0.07245818 -0.2678387 -0.18045375 -0.21773747
000320 49 35 85 3d 38 ee 60 be 92 fd b2 bd 19 96 0d be
       0.06504304 -0.21965873 -0.08739771 -0.13826789
000330 17 9c 65 3e 3f 0b b9 bd 87 c2 8b be 14 8f 6e bd
       0.22422825 -0.09035348 -0.2729685 -0.05824192
000340 15 0e a4 3e 57 ea 26 3c e0 42 29 3e c1 83 87 be
       0.32041994 0.010187707 0.16529417 -0.26467708
000350 40 54 ee bd 57 bf 9c 3e 00 59 83 3e 2c 26 ff 3d
       -0.11637163 0.3061473 0.2565384 0.124584526
000360 70 8e 94 3e 06 da 9a 3c 9c b6 e4 bd 9b 9d 50 3d
       0.2901492 0.01890279 -0.111676425 0.050931554
000370 52 16 85 be ec e4 a9 be ca 11 ba bc 09 2c 80 3e
       -0.25993592 -0.33182466 -0.02271356 0.25033596
000380 8e 2b 98 bd 56 ad 2b 3d 8f ec a2 3e a4 42 20 bd
       -0.074301824 0.041913353 0.31821105 -0.039126053
000390 55 5b 56 3e a3 3b 12 3e 4a ab 71 3e b8 4b e7 bc
       0.20933278 0.14280562 0.23600498 -0.028234348
0003a0 d7 7d 0d 3e cc 8b d5 3d 1f 91 71 bb e0 e1 7b bd
       0.13817535 0.10427055 -0.003686018 -0.061494708
0003b0 9c 0d b4 3d 42 06 53 be 83 8b 98 be 68 cc c5 bd
       0.08791658 -0.20607856 -0.2979394 -0.09658128
0003c0 6b 24 a2 3e 97 d4 ca 3d b3 dd 92 be 23 97 ce 3d
       0.3166841 0.099038295 -0.28684768 0.10087421
0003d0 16 dd b3 be 6a ee b8 3d 12 ab ae be bc cd 9e be
       -0.35129613 0.09029849 -0.3411489 -0.31016338
0003e0 48 0a 0d be 70 eb 93 be 04 2e 42 be 45 fb e4 ba
       -0.13773453 -0.28890562 -0.18962866 -0.0017469904
0003f0 f6 97 b6 3d 3d be a7 3e a2 71 b6 bc fc d1 96 3d
       0.08915703 0.32762328 -0.022270981 0.0736427

lstm.weight_hh_l2 f4 [32, 8]
000000 a3 cb 55 3d c4 de 87 3e 15 d3 96 be 54 4f 8b be
       0.052196156 0.26537144 -0.29457918 -0.2720896
000010 41 d7 b5 be 5a 80 b1 3e 45 93 27 3e fb e3 f3 bc
       -0.35515788 0.34668237 0.16364773 -0.029771795
000020 89 ee d0 3d ca 08 51 bd 03 ac 05 bd 13 d9 6e 3e
       0.10201747 -0.051033773 -0.032634746 0.23324995
000030 4d d6 36 be 09 4d 7d 3d 08 4c 8c 3d 73 e9 0b 3e
       -0.17855187 0.061841045 0.06850439 0.13663273
000040 0d 15 76 be a6 b9 99 3e 07 dd 6a 3e a4 ac a8 3e
       -0.24031468 0.3002445 0.22935878 0.32944214
000050 88 ce 62 3e de e0 22 3e 35 31 07 3e 06 91 ca 3d
       0.22149098 0.15906093 0.13202365 0.09890942
000060 f8 91 55 3e d4 6c a3 3e c4 2e 3c 3d 35 4f aa 3e
       0.20856464 0.31918967 0.045943037 0.33263555
000070 57 5c 91 be a5 9a 32 be 90 c9 5f 3e bc cb 71 3e
       -0.28390762 -0.17441805 0.21854234 0.23612875
000080 bf a7 9e be b0 54 8a be 4f b2 d9 3d de 8a f1 3d
       -0.30987355 -0.27017736 0.10629713 0.11794065
000090 75 1d 81 be 7b ea 10 be d3 3d 8b 3e 74 1c c8 3c
       -0.25217786 -0.14151947 0.27195606 0.02442763
0000a0 c7 4e 81 be a7 0a da 3d 5a 34 63 be 0c e9 b4 3e
       -0.25255415 0.10646563 -0.2218794 0.3533405
0000b0 d2 1b 35 bc 4b 9a a3 be 45 b9 9f 3d 40 c2 97 be
       -0.011053996 -0.31953654 0.07799009 -0.29640388
0000c0 c3 30 82 be 15 96 25 3e 5b 65 91 be 39 89 2d be
       -0.25427827 0.16170533 -0.2839764 -0.16946878
0000d0 d1 59 29 3e b2 cb 90 be 20 c2 21 3e f6 2c 3a be
       0.16538168 -0.28280407 0.15796709 -0.18181214
0000e0 ff 5f ac be ff 30 2e 3d 0e 5c f9 bd 9b a3 33 bd
       -0.3366699 0.042527195 -0.12175761 -0.0438572
0000f0 9e 87 82 bd 3f 2e 90 be f5 fb 59 be b4 4b 83 3e
       -0.06373523 -0.28160283 -0.2128752 0.25643694
000100 66 01 82 be d7 af 6e be f3 bd 8e bd 4e a6 a4 be
       -0.25391692 -0.23309265 -0.06969824 -0.3215813
000110 a9 4f 71 3e cd 29 32 3e cb 80 02 3e e4 ac 5a 3e
       0.23565544 0.17398758 0.12744443 0.21355015
000120 46 fa 1f 3e dc 22 b4 3e e4 05 07 3e 6d de 5e 3e
       0.15622815 0.35182846 0.13185841 0.21764536
000130 78 25 51 bb 11 81 56 be 82 a7 38 3e aa e8 29 be
       -0.0031913202 -0.20947672 0.18032649 -0.1659266
000140 da 01 b5 be 28 08 6f 3e 09 22 11 be cf 9f 06 3e
       -0.35352975 0.23342955 -0.1417314 0.131469
000150 cc 03 a2 be aa c9 4d bd dc 78 7a 3c 9f 01 7d be
       -0.31643522 -0.05024115 0.015287604 -0.2470765
000160 c0 c3 58 3e b9 8c 82 be 76 5d 84 be b3 45 7f be
       0.21168423 -0.25497988 -0.25852555 -0.24928932
000170 17 1f 16 be 35 6f 89 3d ad 3e a8 3e bd 1f 15 be
       -0.14660297 0.06710664 0.32860318 -0.14562888
000180 9c d8 42 3c cf 5a 5e 3e a3 e7 1a 3d 83 1e 1d 3e
       0.011892464 0.21714328 0.037818562 0.1534367
000190 57 8f d6 3d 57 53 ac 3e 47 6b a9 be 74 2b 4f 3e
       0.10476559 0.33657333 -0.3308966 0.2023142
0001a0 20 a8 6a bd 64 d5 f8 3b 34 35 dc bb c0 24 6f be
       -0.057289243 0.0075937975 -0.0067202095 -0.23353863
0001b0 5b 1d 70 be 80 39 16 3e b1 2b ea bd 10 5f 6c 3e
       -0.23448698 0.14670372 -0.11434115 0.23083138
0001c0 b6 45 7c 3e 0f ee 7d bd 5d 74 9a be b4 0d 7d 3e
       0.24635968 -0.06199461 -0.30166903 0.24712259
0001d0 03 b0 a7 be 05 f2 7d 3e dd 03 71 3e 33 fd be bd
       -0.32751474 0.24799354 0.2353663 -0.09325638
0001e0 d5 70 8e 3e 84 fd e9 bd 3a 83 a5 3d 21 ff 6c 3d
       0.2782046 -0.114253074 0.0808167 0.057860497
0001f0 2e 52 a3 3e 5a ce 26 3e 73 29 e0 3d 19 9a f9 bd
       0.31898636 0.16289654 0.10945406 -0.12187595
000200 a1 88 a1 be ed af f9 3d 65 74 77 be 54 88 0a 3c
       -0.31549552 0.12191758 -0.24165495 0.008455355
000210 b9 49 33 3e f8 87 da bd d7 ea 5f 3e 8e d6 98 3c
       0.17508592 -0.10670465 0.21866928 0.018656995
000220 f5 e9 25 3e ba 8f ad be 5d 5a 53 3e 54 82 ec bd
       0.16202529 -0.33898717 0.2063994 -0.115482956
000230 5b 25 e4 bd 7f 9b 88 3e 47 ca 16 3e 3b 51 a3 be
       -0.111399375 0.26681134 0.147256 -0.3189791
000240 72 64 74 be 51 91 5e be 80 28 e5 bc 70 ef 4a be
       -0.23866442 -0.21735121 -0.027973413 -0.198179
000250 de da 90 bd 55 09 31 bd cf 43 b3 3d 74 20 65 bd
       -0.070729956 -0.04322179 0.08753168 -0.055939153
000260 f0 7a a0 bd e8 04 0b be 9f e1 bc bd 05 43 8a be
       -0.078359485 -0.1357609 -0.09222721 -0.27004257
000270 eb 98 9d be 21 03 8a 3b 96 a5 86 3e f5 f8 59 be
       -0.3078073 0.004211799 0.26298207 -0.21286376
000280 b0 c0 64 be 73 b2 37 be 42 6a 9c 3e 43 68 8f be
       -0.2233913 -0.17939167 0.30549818 -0.28009233
000290 15 30 9c 3c 15 e2 2b 3e 1b 99 24 3e d6 e7 70 be
       0.019065896 0.16785462 0.1607403 -0.23525938
0002a0 47 39 87 3c 69 a2 8c 3c 28 1b 57 3e 95 98 89 bd
       0.016506804 0.017167287 0.21006453 -0.06718556
0002b0 8d 8f 6b bc 28 cb 8b be 94 b5 73 3e 2d 62 34 be
       -0.014377487 -0.27303433 0.23799735 -0.17615576
0002c0 cb 80 9a be ba 5e 7c 3e 0b f5 8b be 82 2a 65 bd
       -0.30176386 0.2464551 -0.2733539 -0.05594874
0002d0 92 d8 74 3d 70 1f 51 3e ea bf ad be 8a da 68 3d
       0.05977685 0.20422149 -0.3393548 0.05684904
0002e0 61 d3 df 3d 9b a3 e8 bd ea 8d 30 3e 17 70 69 3e
       0.10928989 -0.1135933 0.17241636 0.22796665
0002f0 a2 25 6f be 38 81 a5 3e 9e 6c 15 bd 2e ef 56 bd
       -0.233542 0.3232515 -0.03648054 -0.052474193
000300 43 82 8f 3e b1 4f 82 be bb c2 8a 3e 5e 8c 4d be
       0.2802907 -0.25451425 0.27101693 -0.20073077
000310 4b 8a 17 3c fb 6d 69 b9 39 8a 5c 3e a3 2d 73 be
       0.00924928 -0.00022261582 0.21537103 -0.23747878
000320 98 c7 47 be 86 90 55 3e 41 3a 75 be 67 c1 fa 3d
       -0.19509733 0.20855913 -0.23948003 0.1224392
000330 99 5f a6 be c8 00 88 be 64 4f 70 3e 91 dd 8c be
       -0.3249481 -0.26563096 0.23467785 -0.27512792
000340 15 08 ae be f1 a0 20 3e 93 06 83 3d 4e 76 b1 bd
       -0.3399054 0.15686394 0.06397738 -0.08665143
000350 c9 b1 9d 3e a3 4c 9f 3e ae 51 a6 3e 19 9f 2c be
       0.30799702 0.31113157 0.32484192 -0.16857566
000360 8f b4 5a 3d dc 1d 61 3e 04 66 b6 be 47 22 a0 bd
       0.05339485 0.21984047 -0.35624707 -0.07819038
000370 d2 a2 7d be 6d 96 06 3d b3 b4 30 3e d3 4e 81 be
       -0.24769142 0.0328583 0.17256431 -0.2525545
000380 64 fa 8f 3c 3d 79 cc bd 97 2c a3 be 97 3c 92 3e
       0.01757545 -0.09984062 -0.31869957 0.2856185
000390 47 32 b0 3e ab 27 4b 3e 69 1b 8b be 04 7d 8f 3e
       0.3441336 0.19839351 -0.2716935 0.28025067
0003a0 8d eb af 3e 4a 21 81 be 51 fe ab be 04 8c 04 be
       0.34359398 -0.2522071 -0.33592466 -0.12944037
0003b0 a9 3d 81 bd 87 0e 7c be ab 33 42 3d 4d 45 d7 3b
       -0.06310589 -0.24614917 0.047412556 0.0065695406
0003c0 55 a3 73 3e d0 2a 58 3e b0 38 14 be bf 29 83 bc
       0.23792775 0.21110082 -0.1447475 -0.016011117
0003d0 95 0c 1c be ce 3a 8e 3e be bd 35 3e 35 ca 89 3c
       -0.15239175 0.2777924 0.17748162 0.016820053
0003e0 a4 4b 80 3d 3c af 74 be 4f 27 8b be fc b8 fe bd
       0.06264427 -0.23894972 -0.27178428 -0.12437627
0003f0 f9 da 6a bd d7 01 6c be fc e6 80 be 49 d1 37 be
       -0.057337735 -0.23047577 -0.25176227 -0.1795093

lstm.bias_ih_l2 f4 [32]
000000 70 5e 93 3d b5 fe 3a be 61 51 a0 3e bb a8 ae 3e
       0.07195747 -0.18261226 0.31312087 0.34113106
000010 ca ec 62 3e 6e 4d a2 3e 90 ca 6a be 8d 1d 0c 3d
       0.2216064 0.316997 -0.22928834 0.03420787
000020 d2 04 e8 3d f6 ba 32 3b 4d 34 9f 3d 7b 37 3c be
       0.113290444 0.0027272082 0.077736475 -0.18380539
000030 89 f7 ac be 4d d0 6c be 45 f7 65 3e 21 fe a3 be
       -0.33782604 -0.23126335 0.22457607 -0.32029822
000040 d9 f2 a9 3e 22 4e 8c be 19 dc 15 3e 49 f9 24 bd
       0.3319309 -0.2740336 0.14634742 -0.0402768
000050 85 92 af be 62 03 aa bd 15 47 9d 3e 46 28 64 3c
       -0.34291473 -0.083014265 0.30718294 0.013925618
000060 c4 8f 96 3d c7 4b 0e bd 9e 98 95 3d d5 86 9d be
       0.0735164 -0.034740236 0.073045 -0.3076693
000070 e3 0f 52 be 50 99 c7 3d a7 73 a8 3e 06 48 ef bd
       -0.20513873 0.09746039 0.32900736 -0.11683659

lstm.bias_hh_l2 f4 [32]
000000 84 dd 91 3e 1b ba 3c 3d 8e d8 32 bd 92 18 80 3e
       0.28489316 0.04607592 -0.043663554 0.25018746
000010 ee b9 ac 3e 7c cf f7 bd 0d 97 81 3e c1 99 4d 3e
       0.33735603 -0.121001214 0.25310555 0.20078184
000020 cf 37 fc bd 82 1c 45 3d ec 56 02 3e b0 51 4d be
       -0.12315332 0.04812289 0.1272847 -0.20050693
000030 61 fa 42 bd 4f 83 ce bd 56 51 d4 3d 81 4e 40 be
       -0.04760206 -0.10083639 0.10367076 -0.18779947
000040 e9 13 ea bd 0c e2 20 be 7d ab 51 be b7 0d b2 be
       -0.11429579 -0.1571123 -0.20475574 -0.3477609
000050 d0 6c aa 3e fe 3c d3 3d 6b 29 a5 be 31 8c 0b 3e
       0.33286142 0.10314368 -0.32258162 0.13627698
000060 ab 87 4a bc b0 19 18 be 16 02 fc 3c 27 16 5d bd
       -0.012361447 -0.14853549 0.030762713 -0.053976204
000070 0c 30 a9 bc 04 bf e0 3d 59 6e 5b 3e d5 87 a3 be
       -0.020652793 0.10973933 0.21428813 -0.3193957

fc.weight f4 [1, 8]
000000 ac 79 3d 3d 2b 07 98 be 65 5e 89 3e 3b dd 91 bc
       0.046258613 -0.2969297 0.2682983 -0.017805686
000010 47 6b 00 3e 43 fb 9e be a1 09 ac be ce c6 5e bc
       0.12540923 -0.31051072 -0.33601096 -0.013597203
