time_series_intro_class/final_project/submission/model_params/3_layer_16_size_model_epoch_1400.pth (torch, 24483 bytes, 13 tensors)

lstm.weight_ih_l0 f4 [64, 1]
0	0xbfcb7a6a	-1.5896733
1	0xbe894518	-0.26810527
2	0x3e9c0139	0.30469683
3	0x3f457f66	0.7714752
4	0x4022e24f	2.5450628
5	0xc0234f1d	-2.5517037
6	0x3fcf2d16	1.6185634
7	0xbfd916af	-1.6960047
8	0x3e8fff5b	0.28124508
9	0x3f6f54fd	0.93489057
10	0xbedd76d9	-0.43254736
11	0xc01c8b15	-2.445989
12	0xbfa6c476	-1.3028705
13	0xc00423da	-2.0646882
14	0xbfe3fc93	-1.7811455
15	0x4003db5d	2.0602639
16	0xbf86d9d1	-1.0535222
17	0xbd8a5659	-0.06754751
18	0xbfc38cde	-1.5277364
19	0x3f922d45	1.1420065
20	0x3fc164ac	1.5108848
21	0xc033089f	-2.7974012
22	0x4007b182	2.1202092
23	0xbf9b21ce	-1.2119691
24	0x3ef1343c	0.47110164
25	0x3f13a64d	0.5767563
26	0x3f0d6041	0.55224997
27	0xbfcaa7b2	-1.5832427
28	0xbf8f3061	-1.1186639
29	0xc052bf36	-3.2929206
30	0xbef68f8b	-0.4815639
31	0x3f698eb1	0.91233355
32	0xbfa60989	-1.297166
33	0x3eba3e21	0.36375526
34	0xbdf75251	-0.120762475
35	0x3f793850	0.9735155
36	0xbee628a5	-0.44952884
37	0xc02ba048	-2.6816578
38	0xbfb1c3d6	-1.3887889
39	0xbfa10a52	-1.2581275
40	0xbf48bc01	-0.7841187
41	0x3f9f5fae	1.2451074
42	0x3d7066b4	0.058691695
43	0x401fa372	2.494351
44	0x3fd4b1d4	1.6616769
45	0xc0469885	-3.103059
46	0x3fcb7d5c	1.5897632
47	0xbf60cbbf	-0.8781089
48	0xbf20adfa	-0.6276547
49	0x3e3756c5	0.17904194
50	0xbf29dcbd	-0.66352445
51	0x3f314b6e	0.6925572
52	0x4029940e	2.6496615
53	0xc01c1c0e	-2.4392123
54	0x3ff26173	1.8935989
55	0xbfa9c81e	-1.3264196
56	0x3f9bcb7e	1.2171476
57	0x3f87bfcc	1.0605407
58	0x3ee468f5	0.44611326
59	0xc024d0ff	-2.575256
60	0xbf8ae1cb	-1.0850157
61	0xc042cbb6	-3.0436835
62	0xbf2c28e8	-0.6724992
63	0x400c5f99	2.1933348

lstm.weight_hh_l0 f4 [64, 16]
0	0x3e93b830	0.2885146
1	0x3dd84ace	0.10561143
2	0x3ce76365	0.028245637
3	0xbeb5de3b	-0.3552111
4	0xbe217e57	-0.15770851
5	0xbe88c4ac	-0.2671255
6	0xbcdcfbb9	-0.0269755
7	0x3e39a4dc	0.18129295
8	0x3efe31a8	0.4964726
9	0xbd9404ac	-0.072274536
10	0xbd7ae8cc	-0.06125717
11	0xbda88ddc	-0.082301825
12	0xbd8570c5	-0.0651565
13	0xbe273785	-0.16329773
14	0xbe41c29c	-0.18921894
15	0x3ebf2a0d	0.3733677
16	0xbe9c5235	-0.3053147
17	0x3e6393c8	0.22224343
18	0xbe856769	-0.26055458
19	0x3e5a55d4	0.21321803
20	0x3c2ab078	0.01041805
21	0xbe3f0c71	-0.1865709
22	0xbe230f8c	-0.159239
23	0x3d9cfb25	0.076650895
24	0x3ca16c91	0.019705089
25	0x3e25f780	0.16207695
26	0x3e2dc7a8	0.16970694
27	0x3e8bf9d3	0.27339038
28	0xbd80f2cc	-0.0629631
29	0x3cf32fff	0.029685972
30	0x3f297a39	0.6620212
31	0xbd95bb90	-0.07311165
32	0x3e566620	0.20937395
33	0x3e2d5576	0.16927132
34	0xbe835380	-0.25649643
35	0x3f30a6e2	0.6900464
36	0x3eda5156	0.4264018
37	0x3d517837	0.051140036
38	0xbb87a0f0	-0.0041390583
39	0xbd0db1be	-0.034593336
40	0xbf316e45	-0.6930888
41	0x3e59e45b	0.21278517
42	0xbcfe7ad7	-0.031064434
43	0x3e070024	0.13183647
44	0x3edb03f1	0.42776445
45	0xbe524b09	-0.20536436
46	0x3ee8c29c	0.45460975
47	0xbf4a008b	-0.7890708
48	0x3e2ac24c	0.16675681
49	0x3e9c8454	0.30569708
50	0xbe9b5f00	-0.30345917
51	0x3e57c92c	0.21072835
52	0x3dcbb4a6	0.09946565
53	0x3e2b26ff	0.16714095
54	0x3c70d5c3	0.014699402
55	0x3eacb7bd	0.3373393
56	0xbeb1f338	-0.34755874
57	0xbef8ddf4	-0.48606837
58	0x3e821232	0.25404507
59	0xbe593d75	-0.2121485
60	0xbd12f14c	-0.03587465
61	0x3f0bb7b0	0.5457716
62	0xbeb1f7ba	-0.34759313
63	0x3e180794	0.14846641
64	0x3e47fa80	0.19529152
65	0x3e59a19c	0.21253055
66	0x3ce239c1	0.02761543
67	0xbe96f42c	-0.29483163
68	0xbe231c71	-0.15928818
69	0x3e80da5b	0.25166592
70	0xbe17f8fb	-0.14841072
71	0x3bdd385a	0.0067511024
72	0xbd1a0052	-0.03759796
73	0xbf5e512e	-0.8684262
74	0xbd4cd66e	-0.050009184
75	0xbe3cb268	-0.18427432
76	0x3ca6b15d	0.020348245
77	0x3f02008a	0.5078207
78	0x3d8aaa78	0.067707956
79	0xbca83308	-0.020532146
80	0x3f1f1852	0.62146485
81	0x3dadd10a	0.08487137
82	0xbe9d492c	-0.30719888
83	0x3e20ac13	0.15690641
84	0xbe8a0cf8	-0.2696302
85	0x3f5bbd1f	0.8583545
86	0xbe72645f	-0.23671101
87	0x3ef791fb	0.48353562
88	0xbda8114e	-0.082064256
89	0x3e521cb1	0.20518757
90	0xbe10ccd6	-0.14140639
91	0xbf232ebe	-0.637432
92	0xbe8e5fff	-0.27807614
93	0x3f11fe2c	0.5702846
94	0xbd037651	-0.032095257
95	0xbd82bae9	-0.063833065
96	0x3eba04af	0.36331698
97	0x3daf678f	0.08564674
98	0xbede974e	-0.4347481
99	0xbedac5f9	-0.42729166
100	0xbecf4ab3	-0.40486678
101	0x3e0af3d7	0.1356958
102	0xbea8263c	-0.3284167
103	0x3ea1dde2	0.31614596
104	0x3efced97	0.49400017
105	0xbeacc225	-0.3374187
106	0x3e3493b6	0.17634472
107	0xbe8e2342	-0.27761275
108	0xbe44844b	-0.19191091
109	0x3e6dea83	0.2323399
110	0xbb8db515	-0.004324565
111	0x3e0d4275	0.13794883
112	0xbd0645ca	-0.0327814
113	0xbe0397d0	-0.1285088
114	0xbddbec1f	-0.10738396
115	0xbd851e5b	-0.064999305
116	0x3cc538f0	0.024075001
117	0x3e7ee0f0	0.24890494
118	0x3da7e8ee	0.08198725
119	0xbe42c84e	-0.19021723
120	0xbdb5ff90	-0.08886635
121	0xbe61554d	-0.22005196
122	0xbe44d3e8	-0.19221461
123	0xbe9346ea	-0.2876504
124	0xbda6fbb0	-0.08153474
125	0x3d592aef	0.05301946
126	0xbda65314	-0.08121315
127	0x3e736200	0.23767853
128	0x3ee12880	0.43976212
129	0x3ee60ccd	0.4493164
130	0xbe48f5e6	-0.19625053
131	0xbe6a5265	-0.22882994
132	0x3cf73843	0.030178195
133	0x3ed02abc	0.40657604
134	0x3dfe0ca8	0.12404758
135	0x3e4340f1	0.19067742
136	0xbd13a54c	-0.03604631
137	0xbece0ea8	-0.40245557
138	0x3d8954b4	0.06705609
139	0xbdc792bd	-0.09744785
140	0xbea2493c	-0.31696498
141	0x3e74b0d2	0.23895577
142	0xbe43fe51	-0.19139983
143	0x3dc66cbd	0.09688709
144	0x3efc5385	0.4928247
145	0x3df332c9	0.11874921
146	0x3f5e00cd	0.8671997
147	0xbd0d06df	-0.03443038
148	0xbf2ab91a	-0.6668869
149	0xbdadd1c9	-0.08487279
150	0xbf70a2c3	-0.93998355
151	0x3e707e01	0.23485567
152	0xbea09b89	-0.31368664
153	0x3f096091	0.53662974
154	0x3e0c0f00	0.13677597
155	0xbf0f618b	-0.56008214
156	0xbf065f35	-0.52489024
157	0x3d785991	0.060632292
158	0xbef176f8	-0.47161078
159	0x3ed3b2ce	0.41347355
160	0xbe79e639	-0.24404229
161	0x3d86e499	0.0658657
162	0xbecc2f24	-0.39879715
163	0xbe62c528	-0.22145522
164	0x3d988410	0.07447064
165	0x3cc80b7b	0.024419537
166	0x3ec16447	0.37771818
167	0xbd3d8f5d	-0.0462793
168	0x3e135091	0.14386202
169	0xbea07380	-0.3133812
170	0x3e1a264c	0.15053672
171	0xbdd63926	-0.10460119
172	0x3df51199	0.11966247
173	0x3e43ee0f	0.19133781
174	0x3d027958	0.031854004
175	0x3ba5c5bf	0.0050589736
176	0x3e96bb76	0.29439896
177	0x3e86b338	0.26308608
178	0xbe6dbf81	-0.23217584
179	0xbe2c080a	-0.16799942
180	0xbef1cbae	-0.47225708
181	0x3ec76e79	0.3895147
182	0xbec6a302	-0.3879624
183	0x3e9ac65e	0.30229467
184	0x3e72bfd4	0.23705989
185	0x3e868c19	0.2627876
186	0x3e45584c	0.19271964
187	0xbeee084b	-0.46490702
188	0xbc9c93a1	-0.019113364
189	0x3f175fce	0.5913056
190	0x3e998deb	0.29991087
191	0x3edba22d	0.42897168
192	0x3e4823f0	0.19544959
193	0xbc58d983	-0.013235453
194	0xbdbc4ce7	-0.091943555
195	0xbeb3ea25	-0.35139576
196	0xbe9a9b86	-0.3019678
197	0xbdc0a7a6	-0.094069764
198	0xbe18b1c0	-0.14911556
199	0xbe6fcb77	-0.2341746
200	0x3e894bac	0.26815546
201	0xbe4aa011	-0.19787623
202	0x3e864e79	0.26231745
203	0xbd068e39	-0.032850478
204	0xbd76497c	-0.060128674
205	0x3e69eb2a	0.22843614
206	0x3d953d7f	0.0728712
207	0x3e154722	0.14577916
208	0x3f1dcb27	0.6163811
209	0x3ef10b03	0.47078714
210	0xbf705b74	-0.93889546
211	0xbe90c14d	-0.28272477
212	0xbf350bf2	-0.7072135
213	0x3f4c109a	0.7971283
214	0xbee805bd	-0.45316878
215	0x3f0ec195	0.5576413
216	0x3f325d86	0.69673955
217	0x3efd41ae	0.49464172
218	0x3f0f932a	0.5608393
219	0xbf34a9f7	-0.70571846
220	0xbea8b2de	-0.32948965
221	0x3f9dcb91	1.2327749
222	0x3f0433f9	0.51641804
223	0x3f00e58b	0.50350255
224	0x3ebc223f	0.36744878
225	0x3ec85155	0.3912455
226	0x3d0ecc22	0.034862645
227	0x3e75bf03	0.23998646
228	0xbe5ab70a	-0.21358886
229	0x3e661159	0.22467555
230	0xbd873542	-0.06601955
231	0x3efb10c7	0.49036238
232	0xbec60ff7	-0.38684055
233	0xbd1e7dfe	-0.038694374
234	0x3da95323	0.0826781
235	0xbea0703e	-0.31335634
236	0xbe2dd6ed	-0.16976519
237	0x3ddda223	0.10821941
238	0x3e531f13	0.20617323
239	0x3ec22d22	0.3792506
240	0xbdef97aa	-0.116988495
241	0x3e018fad	0.12652464
242	0xbb6a0e0a	-0.0035713934
243	0x3d5baa57	0.053629246
244	0xbdff2758	-0.12458676
245	0xbda1e4ba	-0.07904954
246	0xbe9419c6	-0.28925914
247	0x3e677674	0.2260378
248	0xbe61d4b4	-0.22053796
249	0x3dceb15e	0.10092424
250	0x3e86924e	0.26283497
251	0x3de25652	0.110516205
252	0x3eb03ce5	0.3442146
253	0x3e21eddf	0.15813397
254	0x3eb28cb2	0.34872967
255	0xbd840cbf	-0.064477436

lstm.bias_ih_l0 f4 [64]
0	0x3cbebf55	0.023284594
1	0x3d8d3b40	0.06896067
2	0x3dfb54d2	0.122720376
3	0x3e957c8e	0.2919659
4	0x3ea720dc	0.32642257
5	0x3e753202	0.23944858
6	0x3bd6b8da	0.0065527977
7	0x3d9b5773	0.07585039
8	0x3e8146ad	0.25249234
9	0x3ce8a893	0.028400695
10	0xbe9378a9	-0.28802994
11	0x3dd61c1f	0.104545824
12	0xbe73174d	-0.23739357
13	0x3f2be989	0.6715322
14	0x3e90341a	0.2816475
15	0x3e42321f	0.18964432
16	0x3e5f97fe	0.21835324
17	0x3d8c76d5	0.06858603
18	0x3e190e53	0.1494687
19	0xbad2d634	-0.0016085566
20	0xbe7bd577	-0.24593149
21	0x3e4efe6e	0.20214245
22	0xbe1c07c7	-0.15237342
23	0x3d3124b2	0.043247886
24	0x3db57705	0.08860592
25	0x3cf2619a	0.029587556
26	0xbe17d4a1	-0.14827205
27	0x3d5a8a0f	0.05335432
28	0x3d71606a	0.05892984
29	0x3e457cb4	0.19285852
30	0x3e9f2a40	0.31086922
31	0x3d795078	0.060867757
32	0x3d18f77b	0.03734539
33	0x3df75b23	0.1207793
34	0x3e32b4bb	0.17451756
35	0xbdbf6185	-0.09344772
36	0x3dae143d	0.08499954
37	0x3da44809	0.08021552
38	0xbbb6522c	-0.005563995
39	0x3e139cc2	0.14415267
40	0x3dd342ac	0.10315451
41	0x3e16b95a	0.14719144
42	0xbc98f57f	-0.01867175
43	0xbe6a6dc2	-0.22893432
44	0x3d0c17cb	0.03420238
45	0xbbc95c7f	-0.0061450596
46	0x3bcebd9c	0.0063092243
47	0xbc669198	-0.014072798
48	0x3e5ef63d	0.2177362
49	0xbd2d8288	-0.042360812
50	0xbc97867f	-0.01849675
51	0x3e836ec2	0.2567044
52	0x3eee6379	0.46560267
53	0x3f3051b8	0.6887469
54	0x3d8d7398	0.069068134
55	0x3e313d3d	0.17308517
56	0x3e8712e5	0.26381603
57	0x3dbf8300	0.09351158
58	0x3e313cd5	0.17308362
59	0x3edfff79	0.43749598
60	0x3e788bdd	0.24272104
61	0x3ef89010	0.4854741
62	0x3e95488c	0.2915691
63	0x3e9bd862	0.30438524

lstm.bias_hh_l0 f4 [64]
0	0x3e5c1371	0.21491791
1	0xbd33d3c1	-0.043903116
2	0x3d64d8cd	0.05587082
3	0x3eb3e752	0.3513742
4	0x3ec1ee80	0.37877274
5	0x3f2385c8	0.6387601
6	0x3e9ecec0	0.31017113
7	0xbe1b6fb3	-0.15179329
8	0x3ead623f	0.33864018
9	0x3e8c05e1	0.27348235
10	0x3d88e207	0.06683736
11	0x3e4e97bd	0.20175071
12	0xbdf0f471	-0.117653735
13	0x3f0ef659	0.55844647
14	0x3ec4f859	0.38470724
15	0x3e901d19	0.281472
16	0x3e92987b	0.28631958
17	0x3cec5f54	0.02885405
18	0xbcf823f6	-0.030290585
19	0x3e269ea2	0.16271451
20	0xbd203946	-0.03911712
21	0xbdfdcaeb	-0.12392219
22	0xbe436bf8	-0.19084156
23	0xbe341a4a	-0.17588153
24	0x3e67200d	0.2257082
25	0xbc099c54	-0.008399088
26	0xbe4b19a7	-0.19834004
27	0x3d8a85c3	0.06763794
28	0x3e8de9da	0.27717477
29	0x3d36818b	0.044557136
30	0x3dbb017c	0.091311425
31	0xbdf15225	-0.11783246
32	0x3e618224	0.22022301
33	0x3e257fd2	0.16162041
34	0xbcf4921d	-0.029854828
35	0x3d747948	0.059685975
36	0xbe52b275	-0.20575888
37	0x3e1d04f0	0.15333915
38	0xbe5e4b7b	-0.21708481
39	0x3e22f942	0.15915397
40	0xbd77d736	-0.060507976
41	0xbdc7ca82	-0.09755422
42	0x3d9fc7f6	0.078018114
43	0x3e5ea472	0.21742418
44	0xbdccef53	-0.10006585
45	0x3dae7a5d	0.08519433
46	0x3cf15cc4	0.02946318
47	0xbde7464b	-0.11292704
48	0xbe4113ca	-0.18855205
49	0x3e554c94	0.20829993
50	0xbc883375	-0.0166261
51	0x3ef26469	0.47342232
52	0x3ec3b686	0.38225192
53	0x3ef62252	0.4807306
54	0x3e6d33ed	0.2316434
55	0x3b4f6303	0.003164471
56	0x3ea010ee	0.31262916
57	0x3d38760e	0.04503446
58	0x3e097a8b	0.13425653
59	0x3d9cde4d	0.07659588
60	0xbd1e44e1	-0.038639907
61	0x3f2fc0aa	0.6865336
62	0x3ea56e7e	0.3231086
63	0x3d8410b5	0.06448499

lstm.weight_ih_l1 f4 [64, 16]
0	0x3f2e3888	0.6805501
1	0x3eded407	0.4352114
2	0xbd453a9b	-0.048151594
3	0xbf407a91	-0.7518702
4	0xbeeaf128	-0.45887113
5	0x3effa203	0.49928293
6	0xbecfb872	-0.40570408
7	0x3f289a92	0.65860856
8	0x3f57d6b8	0.8431201
9	0xbca9c452	-0.020723496
10	0x3d954658	0.07288808
11	0xbfc1f616	-1.5153224
12	0xbf64af56	-0.8933004
13	0x3fd1ac77	1.6380757
14	0xbe07d927	-0.13266431
15	0x3f185dbf	0.59518045
16	0x3e9611c7	0.29310438
17	0x3f5b3380	0.8562546
18	0x3df02f37	0.117277555
19	0xbefb48fb	-0.49079117
20	0xbfa346b5	-1.2755953
21	0x3ed954f7	0.42447636
22	0xbf4941db	-0.7861611
23	0x3f0076d1	0.501813
24	0x3e6d28aa	0.23160043
25	0xbeb0fed1	-0.3456941
26	0x3f7bf3b3	0.9841873
27	0xbe507d80	-0.20360374
28	0xbe90663f	-0.28203008
29	0x3f8b2d4f	1.0873202
30	0xbdc0b4fe	-0.094095215
31	0x3f77e65a	0.96835864
32	0xbdf59ee3	-0.11993196
33	0xbe0f7050	-0.14007688
34	0xbd0b808f	-0.03405815
35	0x3e10105f	0.14068745
36	0x3e3f3fe7	0.1867672
37	0x3f210cc0	0.6291008
38	0xbcaebeac	-0.021331154
39	0x3d911d35	0.07085649
40	0x3de93b2a	0.11388238
41	0x3e6c43f3	0.23072796
42	0xbdad99e8	-0.08476621
43	0xbeb6c8f5	-0.35700193
44	0xbddc7a65	-0.107655324
45	0x3f290e56	0.660375
46	0x3e290741	0.16506673
47	0xbe25df90	-0.16198564
48	0x3f1a6ab6	0.6031908
49	0xbe3f2e52	-0.18670014
50	0x3ea0a923	0.3137904
51	0x3df31fa0	0.11871266
52	0xbd887d78	-0.06664556
53	0x3ee98c25	0.45614734
54	0x3ea92fc6	0.3304426
55	0x3ef984f6	0.48734254
56	0x3de1c55c	0.110239714
57	0xbf676ac9	-0.90397316
58	0xbe31160f	-0.17293571
59	0xbf0fb9f4	-0.56143117
60	0xbf00ec5d	-0.5036066
61	0x3f258415	0.64654666
62	0xbe915155	-0.28382364
63	0x3da6d927	0.08146887
64	0xbdd161c2	-0.10223724
65	0x3ea5b345	0.32363334
66	0xbe9d4aad	-0.30721036
67	0xbe8e4e3a	-0.27794057
68	0xbdd62ef3	-0.104581736
69	0x3dced30e	0.10098849
70	0xbe56a34e	-0.20960733
71	0x3e9bb649	0.3041251
72	0x3f10462b	0.5635707
73	0xbe2adcf9	-0.16685857
74	0x3e75b6fe	0.23995587
75	0xbe6c525b	-0.23078291
76	0xbdc7cedc	-0.09756252
77	0x3f4a02c3	0.78910464
78	0x3f0fcb0b	0.56169194
79	0x3f0ec302	0.5576631
80	0x3e1e7c91	0.15477206
81	0xbe1d27d2	-0.15347221
82	0x3f47f4d9	0.7810798
83	0x3ec7b72d	0.3900694
84	0xbefba347	-0.49148008
85	0xbec06759	-0.37578848
86	0xbe8a38ba	-0.26996404
87	0x3dc9e8da	0.09858866
88	0xbf87ddeb	-1.0614599
89	0x3e3b9c2e	0.18321297
90	0xbcc38a9d	-0.023869807
91	0xbe3abdb0	-0.18236423
92	0xbd82ddad	-0.063899375
93	0xbe05b3f0	-0.13056922
94	0xbe87b784	-0.265072
95	0x3e543070	0.20721602
96	0x3f2bddc9	0.6713529
97	0x3e4a6e93	0.19768743
98	0x3e09c04b	0.1345226
99	0x3ec8fede	0.39256948
100	0xbd372a3c	-0.044718012
101	0x3f7a21f9	0.9770809
102	0x3d02e1ba	0.03195355
103	0x3f674806	0.90344274
104	0xbe972393	-0.29519328
105	0xbf7a3bde	-0.977476
106	0xbda44a6e	-0.08022009
107	0xbf2b4f9e	-0.6691836
108	0xbe03e13a	-0.12878886
109	0x3f4e64a8	0.8062234
110	0xbed63cbd	-0.41843215
111	0xbd026115	-0.031830866
112	0x3eeef605	0.46672073
113	0xbd932cbd	-0.071862675
114	0x3d712a4a	0.05887822
115	0x3eee84d7	0.46585724
116	0xbe157fd0	-0.14599538
117	0x3f7e95ac	0.9944713
118	0x3eafff2c	0.34374368
119	0x3ec41388	0.3829615
120	0xbd412c06	-0.047161125
121	0xbf00cbe2	-0.503111
122	0x3d973768	0.07383615
123	0xbee1fe08	-0.44139123
124	0xbdf2d148	-0.118563235
125	0x3f395b70	0.7240515
126	0x3da82735	0.08210603
127	0x3dfd6845	0.123734035
128	0xbc381d03	-0.011237386
129	0xbdcb1590	-0.09916222
130	0xbeb53801	-0.3539429
131	0x3e894543	0.26810655
132	0x3ee811aa	0.45325977
133	0x3d3f02b1	0.046633426
134	0x3dd62ff3	0.10458364
135	0xbc583c45	-0.013197963
136	0x3d2265e4	0.03964795
137	0x3e995ff6	0.29956025
138	0xbe44ddcb	-0.19225232
139	0x3eca6d5f	0.3953657
140	0x3ed1e7cc	0.4099716
141	0xbf065d6d	-0.52486306
142	0x3ee55c85	0.4479715
143	0xbf294f0c	-0.6613624
144	0x3e160055	0.14648564
145	0x3ea8427a	0.32863218
146	0x3ededdf9	0.43528727
147	0x3f694649	0.9112287
148	0xbd98c0ae	-0.07458626
149	0xbe84f561	-0.2596846
150	0xbf3f4b8f	-0.7472467
151	0xbe13363a	-0.14376155
152	0xbf84d777	-1.0378255
153	0x3f8db3cc	1.1070495
154	0xbe8ffd3a	-0.28122884
155	0x3f1b93be	0.6077231
156	0x3ea55ec1	0.32298854
157	0xbf6b9217	-0.9201979
158	0x3f2b46d7	0.6690497
159	0xbef433fb	-0.47695908
160	0x3f15ee0c	0.58566356
161	0x3c2c0239	0.010498577
162	0x3e8ff81b	0.28118977
163	0x3f096a83	0.5367815
164	0xbdbdb804	-0.09263614
165	0x3f03d374	0.51494527
166	0xbec6bd0c	-0.38816106
167	0x3e228463	0.15870814
168	0xbf69c262	-0.9131223
169	0x3cbb4d55	0.022864023
170	0x3e838ca3	0.25693235
171	0xbe948e9b	-0.2901505
172	0xbe2ae01e	-0.16687056
173	0x3ec23e2f	0.37938067
174	0x3eb95e22	0.3620463
175	0xbd516f13	-0.05113132
176	0xbdca1bc9	-0.09868581
177	0xbebc3167	-0.3675644
178	0xbea67596	-0.32511586
179	0x3f733a11	0.9501048
180	0x3ef4890c	0.47760808
181	0xbe8238c6	-0.2543394
182	0xbe226c7e	-0.15861699
183	0xbda4267d	-0.080151536
184	0xbf9c93f1	-1.2232648
185	0x3e959187	0.2921259
186	0xbe4ae9c3	-0.19815736
187	0x3f0a46f4	0.54014516
188	0x3f3afc38	0.73041105
189	0xbf4f6e82	-0.81027997
190	0x3eca810f	0.3955159
191	0xbebdcdab	-0.37070975
192	0x3ebf35b8	0.37345672
193	0x3e9d5fcc	0.3073715
194	0xbd293a28	-0.041315228
195	0xbf5a13fd	-0.8518675
196	0xbf82049e	-1.0157659
197	0x3f07cb6c	0.5304477
198	0xbee2c68c	-0.44292104
199	0x3f4dfe05	0.8046573
200	0x3f120f2a	0.5705439
201	0xbf0fb5d3	-0.56136817
202	0x3f23d54a	0.6399733
203	0xbf298581	-0.66219336
204	0xbf13b064	-0.57691026
205	0x3f5cdc30	0.8627348
206	0x3e943db7	0.28953335
207	0x3f41b4ee	0.756667
208	0x3f248980	0.6427231
209	0x3ddfe2bf	0.1093192
210	0xbe7f049f	-0.24904107
211	0xbde5e906	-0.11226086
212	0xbe1fed62	-0.15617898
213	0x3ecefa40	0.404253
214	0xbdb45236	-0.08804743
215	0x3f0e452c	0.555743
216	0xbd9ff163	-0.07809713
217	0xbe184735	-0.14870913
218	0xbbd265ad	-0.006420812
219	0xbe9a70f4	-0.301643
220	0x3cf9820c	0.030457519
221	0x3efc02b1	0.49220803
222	0x3e87f533	0.2655426
223	0x3dbc5a16	0.0919687
224	0x3f4f4dc9	0.80978066
225	0x3f39aa76	0.7252573
226	0xbe68d87b	-0.22738831
227	0xbf061512	-0.523759
228	0xbf676f1a	-0.904039
229	0x3f62ef39	0.88646275
230	0xbf2af0a7	-0.66773456
231	0x3f19b844	0.6004679
232	0x3ec49881	0.383976
233	0x3f22022b	0.6328456
234	0x3f159cce	0.5844239
235	0xbf38916b	-0.7209689
236	0xbf233b13	-0.63762015
237	0x3fc962e5	1.5733305
238	0xbe779b92	-0.24180439
239	0x3f5027d5	0.8131078
240	0x3ed3d60c	0.41374242
241	0x3ec6ca67	0.38826296
242	0xbeb8b66b	-0.36076674
243	0x3e0e50ff	0.13898085
244	0xbe82a149	-0.25513676
245	0x3e4c4190	0.19946885
246	0xbe067bb9	-0.13133134
247	0x3da027a5	0.078200616
248	0xbd246fbc	-0.04014562
249	0x3e0cc586	0.13747224
250	0xbd6b5950	-0.057458222
251	0xbe8da0bf	-0.27661702
252	0x3e1daf6a	0.15398946
253	0x3ed19515	0.40934053
254	0x3e8a02a6	0.26955146
255	0xbeab8003	-0.33496103

lstm.weight_hh_l1 f4 [64, 16]
0	0x3f266ae5	0.6500686
1	0xbebd12b8	-0.36928344
2	0x3f37f440	0.7185707
3	0x3d73717e	0.059434406
4	0x3f6ce738	0.9254031
5	0x3f0f0487	0.55866283
6	0xbf001b8f	-0.5004205
7	0x3e7dc345	0.2478152
8	0x3ed6156c	0.4181322
9	0x3e93a2fe	0.2883529
10	0xbefcd2e0	-0.49379635
11	0xbedde072	-0.433353
12	0x3e7564dc	0.23964256
13	0x3d1721cd	0.03689747
14	0xbf308dda	-0.6896645
15	0xbdee607a	-0.11639495
16	0x3f0e3193	0.55544394
17	0x3fbc5d79	1.4716026
18	0x3f98b282	1.1929476
19	0xbf251b53	-0.6449482
20	0xbde71155	-0.11282603
21	0x3e8fdda0	0.28098774
22	0xbb3f99c2	-0.0029235934
23	0xbe81fee1	-0.2538977
24	0xbf43401e	-0.7626971
25	0x3f45ab83	0.7721483
26	0xbe8e6f99	-0.27819517
27	0xbf3debf0	-0.7418814
28	0x400b2232	2.173962
29	0xbf0069e2	-0.50161564
30	0x3f9ab869	1.2087528
31	0xbe447c7a	-0.19188109
32	0x3eed4169	0.46338966
33	0xbf16fa48	-0.5897565
34	0x3ec8c1ea	0.39210445
35	0x3f6b4b92	0.91912186
36	0xbea7b9bb	-0.3275889
37	0xbdd8d072	-0.10586633
38	0xbf3fe1b5	-0.74953777
39	0x3eb85fae	0.36010498
40	0xbe0b26d3	-0.13589029
41	0xbeaaf4ac	-0.33389795
42	0x3d6313cc	0.0554388
43	0xbe10fd45	-0.14159115
44	0xbf165f7e	-0.5873946
45	0x3df173e4	0.117896825
46	0xbef4a55f	-0.47782418
47	0xbef9be27	-0.48777887
48	0x3f0e0683	0.55478686
49	0x3f72bbdb	0.94817895
50	0x3e52a7ad	0.20571776
51	0xbe984d22	-0.29746348
52	0x3ec44ff0	0.38342237
53	0x3f13786c	0.57605624
54	0xbf2d1218	-0.67605734
55	0x3f51e62c	0.8199184
56	0x3c8380ad	0.016052568
57	0x3eda3fbb	0.42626747
58	0x3d56467f	0.052313324
59	0x3e036ca8	0.12834418
60	0x3edfc029	0.43701294
61	0xbec52b51	-0.3850961
62	0x3ec40aff	0.3828964
63	0x3e4ed7dd	0.20199533
64	0x3f492af7	0.78581184
65	0x3ed4f5f9	0.41593912
66	0x3eb5d92e	0.35517257
67	0xbe8fd940	-0.28095436
68	0x3f09356d	0.53597146
69	0xbf775d26	-0.9662651
70	0x3d9cd368	0.0765751
71	0x3e8eab8f	0.27865264
72	0xbea02a23	-0.31282148
73	0xbf049048	-0.51782656
74	0xbe788a75	-0.24271567
75	0x3e84cf30	0.25939322
76	0xbd9575d5	-0.07297865
77	0x3f18b02b	0.5964381
78	0x3ee292a8	0.44252515
79	0x3e33c4c6	0.17555532
80	0x3d20fe35	0.03930493
81	0x3f76277a	0.96153986
82	0x3f01a7f8	0.50646925
83	0xbe07ef84	-0.13274962
84	0xbe4ec3b3	-0.20191841
85	0x3f27f25d	0.6560419
86	0x3da16c73	0.07882013
87	0x3f1af6a2	0.6053258
88	0x3f671919	0.9027267
89	0x3f41f11b	0.7575852
90	0xbef6d2fa	-0.48207837
91	0x3ea09052	0.31360108
92	0x3f451014	0.7697766
93	0xbe67644f	-0.22596858
94	0x3f2d7e5e	0.67770946
95	0x3ea622c4	0.324484
96	0x3f1634e4	0.58674455
97	0x3f70c89d	0.9405611
98	0x3ef6473d	0.48101225
99	0x3b40e98a	0.0029436075
100	0x3d254dd8	0.04035744
101	0x3cc56c6f	0.024099557
102	0xbdb0378c	-0.08604345
103	0x3f214f85	0.6301196
104	0x3d482ec5	0.048872728
105	0x3ecee1f8	0.40406775
106	0x3e30a4bc	0.17250341
107	0xbd18deb5	-0.037321765
108	0x3e3ca982	0.18424037
109	0x3ee419b6	0.44550866
110	0x3f175318	0.59111166
111	0x3ec20ff7	0.37902805
112	0x3f01a640	0.506443
113	0x3e947e74	0.29002726
114	0x3e9f7ebe	0.31151384
115	0xbe14938a	-0.14509407
116	0xbe5336a7	-0.20626317
117	0xbe062f7c	-0.13104051
118	0x3e88a0ee	0.2668528
119	0x3eff469b	0.49858555
120	0x3ea407be	0.32037157
121	0xbe3de015	-0.18542512
122	0x3e8e4e88	0.2779429
123	0x3e609c8c	0.21934718
124	0x3ec254ea	0.3795541
125	0x3e87798e	0.26459926
126	0x3de7937c	0.11307427
127	0x3e0f8051	0.14013793
128	0xbefbe574	-0.49198496
129	0x3ea15f81	0.31518176
130	0xbed34073	-0.41260108
131	0xbe0587bf	-0.13040064
132	0x3f154d73	0.58321303
133	0xbea1da1d	-0.3161172
134	0x3ec71187	0.3888056
135	0x3c3615aa	0.011113564
136	0x3dcea3c1	0.10089827
137	0xbe8d5490	-0.2760358
138	0x3e80cd50	0.2515664
139	0xbee42143	-0.44556627
140	0xbe2c079e	-0.1679978
141	0xbc83ad76	-0.016073924
142	0x3d4a9302	0.049456604
143	0xbef45a12	-0.47724968
144	0x3e9c0081	0.30469134
145	0xbe25f7e9	-0.16207851
146	0x3deb0a08	0.11476523
147	0xbe3fd3cd	-0.1873314
148	0x3e96af6f	0.2943072
149	0x3e9fe7ac	0.3123144
150	0x3eb3f4a1	0.35147575
151	0x3e8a87a1	0.27056602
152	0x3ed3c1b8	0.41358733
153	0x3f0b22af	0.543498
154	0x3e15821b	0.14600413
155	0x3f04bda7	0.51851887
156	0x3eaec161	0.3413191
157	0xbf0805b2	-0.5313369
158	0xbcd3ba40	-0.025845647
159	0x3eb1153a	0.34586507
160	0x3ed2526a	0.41078502
161	0x3fab3346	1.3375022
162	0x3ee2fadb	0.44332013
163	0xbef3c4c0	-0.47611046
164	0x3e853afb	0.2602156
165	0x3efd6cea	0.49497157
166	0xbe648874	-0.22317678
167	0x3f3c641e	0.73590267
168	0x3e9b3d1c	0.3032006
169	0x3eeb80d7	0.45996734
170	0x3e901d30	0.28147268
171	0x3e4728cd	0.19449158
172	0x3f7da723	0.99083155
173	0xbef288ed	-0.4737009
174	0x3f67056e	0.9024266
175	0x3e1cc516	0.15309557
176	0xbef1753c	-0.47159755
177	0x3eb9326a	0.36171275
178	0x3da2dc67	0.07952195
179	0xbf08754a	-0.5330397
180	0x3eb146a4	0.34624207
181	0x3ed76630	0.4207015
182	0x3d492609	0.04910854
183	0x3dbc3c0c	0.091911405
184	0x3f4106a8	0.7540078
185	0x3d705d67	0.058682825
186	0x3e0db38f	0.13838027
187	0xbe9aa501	-0.30204013
188	0xbdbc3f3b	-0.09191748
189	0x3e079837	0.13241659
190	0x3ef1a806	0.47198504
191	0x3cc21f6b	0.023696622
192	0x3f0fe102	0.5620271
193	0x3fa2567b	1.2682642
194	0x3f1633db	0.58672875
195	0xbe092628	-0.13393462
196	0xbeb1f8ee	-0.3476023
197	0x3e3ea62e	0.1861808
198	0xbe900835	-0.2813126
199	0x3e648f00	0.22320175
200	0xbe4f2170	-0.20227599
201	0x3ef04081	0.46924213
202	0x3f175753	0.5911762
203	0xbf9e0eb4	-1.2348237
204	0x3fb42320	1.4073219
205	0xbeea7ad3	-0.45796832
206	0x3f92ee58	1.1478987
207	0xbecf8baa	-0.40536243
208	0x3f3e4b02	0.743332
209	0x3fa8775a	1.3161423
210	0x3ebcd496	0.3688094
211	0xbcde7032	-0.027153108
212	0xbe671a9d	-0.22568746
213	0xbc6c2a24	-0.014414344
214	0xbe6ffd56	-0.23436484
215	0x3f20ab16	0.62761056
216	0xbf03e85d	-0.51526433
217	0xbd999de9	-0.07500822
218	0x3eb3d214	0.35121214
219	0xbf223fb3	-0.6337845
220	0x3ee5f4a1	0.449132
221	0x3e48eb76	0.19621071
222	0x3ee2e07a	0.44311887
223	0x3ee57d79	0.4482229
224	0x3f465409	0.7747198
225	0x3ea5383c	0.32269466
226	0x3f7bdf32	0.98387444
227	0x3e4ccfa4	0.20001084
228	0xbf0c4d4c	-0.54805446
229	0x3e62b766	0.22140273
230	0xbd7f6ed0	-0.06236154
231	0x3e4a3552	0.19746903
232	0xbf2a1695	-0.6644071
233	0x3f0789fe	0.52944934
234	0xbdf2c7ad	-0.118544914
235	0xbf30e81c	-0.6910417
236	0x3fe87365	1.8160216
237	0xbf014950	-0.5050249
238	0x3f3b2412	0.73101914
239	0x3e3a004c	0.18164176
240	0x3e428828	0.18997252
241	0x3e190376	0.14942726
242	0x3ed123ab	0.40847525
243	0xbcae65d0	-0.021288782
244	0x3e8b821b	0.272477
245	0xbe4fe542	-0.20302299
246	0x3e9eeeb8	0.31041503
247	0x3ef1b8ef	0.47211406
248	0xbdd69c62	-0.104790464
249	0xbee3ca27	-0.44490167
250	0xbd72ee58	-0.059309334
251	0xbefaf87a	-0.49017698
252	0x3f27fb27	0.65617603
253	0x3e8b94fd	0.27262107
254	0xbd811bf3	-0.06304159
255	0xbe33b442	-0.17549232

lstm.bias_ih_l1 f4 [64]
0	0x3e737e26	0.2377859
1	0x3e564eab	0.20928447
2	0x3e493c11	0.1965182
3	0x3e6bdec9	0.23034205
4	0x3de4d7a5	0.111739434
5	0xbe180cdc	-0.14848655
6	0x3eadd593	0.33952007
7	0x3ecd8e8a	0.4014781
8	0x3d004138	0.031312197
9	0x3e933f0c	0.28759038
10	0x3eaa9c11	0.33322194
11	0x3e9156d0	0.28386545
12	0x3efcbc4e	0.49362415
13	0x3e88de20	0.26731968
14	0x3f3fec34	0.7496979
15	0x3f071bb2	0.52776635
16	0xbda6d330	-0.081457496
17	0xbedcf47c	-0.43155277
18	0xbd6ed777	-0.058310952
19	0x3da017a2	0.078170076
20	0x3ef07f23	0.46971998
21	0xbe1295e8	-0.14314997
22	0xbea0e757	-0.31426498
23	0x3dbb0184	0.091311485
24	0xbded2a69	-0.11580355
25	0xbe2459fd	-0.16049953
26	0xbda09e35	-0.078426756
27	0x3d1f2cda	0.038861133
28	0x3d9761f0	0.07391727
29	0x3e1c62c4	0.15272051
30	0xbcd068c0	-0.025440574
31	0x3e382fbc	0.17986959
32	0x3ee421ce	0.4455704
33	0xbd5441be	-0.05182051
34	0x3db50b0d	0.088399984
35	0x3dff2239	0.12457699
36	0xbe0d46f7	-0.13796602
37	0xbe1df39b	-0.1542496
38	0xbdef44cf	-0.11683046
39	0x3c980b67	0.018560125
40	0xbe0aacab	-0.1354243
41	0x3df8534f	0.12125265
42	0xbd2791a2	-0.04091037
43	0xbe2519c6	-0.16123113
44	0x3e84af02	0.2591477
45	0x3c2f13b4	0.01068585
46	0x3e1a7956	0.15085348
47	0x3d393cc3	0.045223963
48	0x3ea126a0	0.3147478
49	0x3f059bba	0.52190745
50	0xbbb3f793	-0.0054921596
51	0x3e002f2c	0.12517995
52	0x3f0289e6	0.50991666
53	0x3ee5d923	0.44892225
54	0x3f127a42	0.572178
55	0x3e57e471	0.21083237
56	0x3e6ab078	0.2291888
57	0x3e02ee23	0.12786154
58	0x3f05696b	0.5211398
59	0x3ee729cd	0.4514908
60	0x3f24a5bf	0.6431541
61	0x3e89b149	0.2689307
62	0x3f4538d9	0.7703987
63	0x3ce5705a	0.028007675

lstm.bias_hh_l1 f4 [64]
0	0x3ef0c6b9	0.47026613
1	0x3ec04d89	0.37559155
2	0x3eb126e3	0.3459998
3	0x3df1e4fd	0.11811254
4	0x3c86eec3	0.016471272
5	0x3df88248	0.12134224
6	0x3edd20dc	0.43189132
7	0x3ef0bb61	0.4701796
8	0xbe198649	-0.14992632
9	0x3d49ab35	0.04923554
10	0x3ec9dafb	0.3942488
11	0x3e147be0	0.1450038
12	0x3ebe5946	0.37177485
13	0x3ed0693c	0.40705287
14	0x3f20208c	0.6254966
15	0x3dfd2c08	0.12361914
16	0x3d6b4c5d	0.057445873
17	0xbeb75b55	-0.35811868
18	0x3e53f677	0.20699488
19	0x3d549718	0.051901907
20	0x3ed794a2	0.42105585
21	0xbe03dde6	-0.12877616
22	0xbed0e955	-0.40803018
23	0xbd8fcdb1	-0.070216544
24	0x3e466a5a	0.19376507
25	0xbe35c543	-0.1775103
26	0x3e930a8a	0.28718978
27	0x3e84dc9b	0.2594956
28	0xbe07b3c3	-0.13252167
29	0xbe3d5a08	-0.18491375
30	0xbd7b08dd	-0.06128775
31	0x3e8f749d	0.28018656
32	0x3d9efc67	0.07762986
33	0x3d23cd2e	0.039990596
34	0x3e496ea8	0.19671118
35	0xbd861adb	-0.06548091
36	0x3e00e229	0.12586273
37	0x3d6498a7	0.055809643
38	0x3dd78fd6	0.105254814
39	0x3bc641d1	0.0060503264
40	0xbd4eefad	-0.05052154
41	0xbdba2968	-0.09089929
42	0x3e50bb06	0.20383844
43	0x3d2727f6	0.040809594
44	0x3de3a1b2	0.11114825
45	0xbe8e3f45	-0.27782646
46	0xbe4a61fc	-0.1976394
47	0x3d829bc6	0.06377368
48	0x3d34385b	0.043999057
49	0x3ec5d965	0.3864242
50	0xbd0bad06	-0.034100555
51	0x3ead9d8c	0.3390926
52	0x3ea00cf6	0.31259888
53	0x3e5e7d11	0.21727397
54	0x3f339eae	0.70164
55	0x3e5b21c9	0.21399607
56	0xbdbb2662	-0.0913818
57	0x3e2a13de	0.16609141
58	0x3ed58718	0.4170463
59	0x3f0bb8b3	0.54578704
60	0x3f097dca	0.53707564
61	0x3e87dd9d	0.26536265
62	0x3f1e552c	0.6184871
63	0x3e6b1986	0.22958955

lstm.weight_ih_l2 f4 [64, 16]
0	0xbd1395c6	-0.036031507
1	0xbe30fb99	-0.17283477
2	0xbdf067a9	-0.117385216
3	0xbd86d4e1	-0.06583572
4	0xbdaf30c7	-0.085542254
5	0xbd8c6f45	-0.068571605
6	0xbe0cd54c	-0.13753241
7	0x3dc7f261	0.09763027
8	0x3e83e325	0.25759235
9	0xbe1750d4	-0.14776927
10	0x3dc7d21f	0.09756874
11	0x3eb1b076	0.34704942
12	0xbe74967b	-0.23885529
13	0xbe478122	-0.19482854
14	0xbe8e8bc7	-0.27841017
15	0xbe3f487a	-0.18679991
16	0xbf12311b	-0.5710618
17	0xbf4daca4	-0.80341554
18	0x3da38ba5	0.079856195
19	0xbdb7cdff	-0.089748375
20	0x3e560200	0.208992
21	0x3f0a79f8	0.5409236
22	0xbf1b2636	-0.6060518
23	0x3f37d689	0.7181173
24	0x3f00436d	0.50102884
25	0x3ec18860	0.37799358
26	0xbf74230d	-0.95365983
27	0xbf30e9cd	-0.6910675
28	0xbf88c247	-1.0684289
29	0x3e84b775	0.25921217
30	0xbf18b8a5	-0.59656745
31	0xbeee4377	-0.46535847
32	0xbe3abbdf	-0.1823573
33	0xbd881a20	-0.06645608
34	0x3e97f986	0.2968256
35	0xbe2057ec	-0.1565854
36	0xbbd79139	-0.006578591
37	0x3e4244ce	0.1897156
38	0xbcef2698	-0.029193208
39	0xbe3dfd2f	-0.18553613
40	0xbe5fc347	-0.21851836
41	0xbe08c9ca	-0.13358226
42	0xbe642125	-0.22278269
43	0x3e462d41	0.193532
44	0x3ed119f2	0.40840107
45	0xbea964c7	-0.330847
46	0xbf0e5c5e	-0.5560969
47	0x3daeedd0	0.08541453
48	0x3eb23439	0.34805468
49	0x3cc9bdff	0.02462673
50	0xbe3d8edc	-0.18511528
51	0xbeb00edf	-0.34386346
52	0xbeadfc07	-0.33981344
53	0x3f4b266d	0.7935551
54	0xbe79f842	-0.24411109
55	0x3f132017	0.5747084
56	0xbeed09b6	-0.4629647
57	0xbdaa6ccd	-0.08321533
58	0xbe144465	-0.14479215
59	0xbdda15c8	-0.10648686
60	0xbec7f07d	-0.39050665
61	0x3e465c57	0.19371162
62	0xbe91afd1	-0.2845445
63	0x3f23b260	0.63944054
64	0xbe56d9da	-0.20981541
65	0x3df4f1c8	0.119601786
66	0xbe467e30	-0.19384074
67	0x3df6dc65	0.12053756
68	0x3e1b650c	0.15175265
69	0x3db9a527	0.090647034
70	0x3e68f915	0.22751267
71	0xbdaf2ecb	-0.08553847
72	0xbef3d1b7	-0.47620937
73	0xbe900f88	-0.2813685
74	0xbe35ed0e	-0.1776621
75	0xbf181743	-0.59410495
76	0xbf24e4b7	-0.6441149
77	0x3ea4862f	0.32133624
78	0x3f08c519	0.5342575
79	0xbde721b6	-0.11285727
80	0xbd29684e	-0.04135924
81	0x3d69473e	0.056952707
82	0x3d98cf59	0.074614234
83	0x3cd4c454	0.025972523
84	0x3e497973	0.19675235
85	0x3ee872b9	0.45400026
86	0xbe35625f	-0.17713307
87	0xbd81d867	-0.063401036
88	0x3e69401e	0.22778365
89	0x3d8546a6	0.06507616
90	0xbe2f7863	-0.17135768
91	0xbd974ef2	-0.073881045
92	0x3e64cac7	0.22342978
93	0xbed69357	-0.41909286
94	0x3e8c3a2c	0.27388132
95	0x3d917f38	0.07104343
96	0x3d235115	0.039872248
97	0x3f195cde	0.5990733
98	0xbc842142	-0.01612914
99	0xbecc1100	-0.3985672
100	0xbf165e26	-0.5873741
101	0xbea33ece	-0.31883854
102	0x3ef409cc	0.47663724
103	0x3eb6c008	0.35693383
104	0xbd3f64c7	-0.04672697
105	0xbcee7e00	-0.029112816
106	0xbe9a3a02	-0.3012238
107	0xbe8938be	-0.26801103
108	0x3dc0bb8c	0.09410772
109	0xbda3904e	-0.07986508
110	0x3f8c8e0c	1.0980849
111	0x3bb403ac	0.005493602
112	0xbe0d255d	-0.13783784
113	0xbf10c50d	-0.56550676
114	0x3e278193	0.16358022
115	0xbde32c0d	-0.110923864
116	0x3e686352	0.22694138
117	0x3e854c1c	0.2603463
118	0xbef88c54	-0.48544562
119	0x3effbff6	0.49951142
120	0xbee07b10	-0.4384389
121	0x3e35a282	0.17737773
122	0xbf61f198	-0.8825927
123	0xbf1554a2	-0.58332264
124	0xbf060cae	-0.523631
125	0x3f05b54e	0.52229774
126	0xbc3d4554	-0.011552174
127	0x3e721053	0.2363904
128	0xbec36d95	-0.38169542
129	0xbeb5a4ae	-0.35477203
130	0x3f449755	0.76793414
131	0x3d6295e6	0.055318736
132	0x3ec2814a	0.37989265
133	0x3df0f050	0.11764586
134	0xbe45f644	-0.19332224
135	0x3e26c1c6	0.16284856
136	0xbe9c2752	-0.3049875
137	0x3e4b10c0	0.19830608
138	0xbf18e51f	-0.5972461
139	0xbe7ebe55	-0.24877293
140	0xbe0628b9	-0.13101472
141	0x3c7f27bf	0.015573441
142	0xbeb4f182	-0.35340506
143	0x3e41f9c3	0.18942933
144	0xbee38bed	-0.44442692
145	0xbebb8a76	-0.36629075
146	0xbeccb3ab	-0.39980826
147	0xbdaa91d6	-0.08328597
148	0x3e344894	0.17605811
149	0x3c6c2d42	0.014415087
150	0xbe36ae33	-0.17839889
151	0x3e730f28	0.2373625
152	0xbebcbc10	-0.3686223
153	0xbf01a958	-0.50649023
154	0x3e35eb51	0.17765547
155	0x3ba1005f	0.0049133743
156	0xbf33b4ef	-0.7019796
157	0x3e4cdc8e	0.2000601
158	0xbea2d274	-0.31801188
159	0xbdc2c636	-0.09510462
160	0xbed60011	-0.41796926
161	0x3ce3af1d	0.027793461
162	0xbd6777f4	-0.05651088
163	0xbd8e8ce3	-0.06960466
164	0xbe5f6305	-0.21815117
165	0x3e5291d0	0.20563436
166	0x3d8d1fca	0.06890829
167	0xbe93ba36	-0.28853005
168	0xbca798c1	-0.02045858
169	0xbe99a142	-0.30005842
170	0xbeac46bd	-0.3364772
171	0xbecce1f8	-0.4001615
172	0xbee2ec6e	-0.44321007
173	0x3e163309	0.14667906
174	0x3e9d7c13	0.30758724
175	0xbed5634b	-0.41677317
176	0x3f046b1a	0.51725924
177	0xbf18ceb4	-0.59690404
178	0x3eaae01a	0.333741
179	0x3e41d25e	0.18927905
180	0x3e9955db	0.29948315
181	0x3f3cef4a	0.73802626
182	0xbf11a1a6	-0.5688728
183	0x3f2aa3d2	0.6665622
184	0x3dfbce16	0.12295167
185	0x3f3aead6	0.7301458
186	0xbf67226f	-0.90286916
187	0xbeb9b467	-0.3627045
188	0xbf7ad9ea	-0.9798876
189	0x3ee267e8	0.442199
190	0xbed2b5be	-0.41154283
191	0xbbd7d2a5	-0.00658639
192	0x3e0c574b	0.13705175
193	0xbec2235b	-0.379176
194	0x3d4a5640	0.04939866
195	0x3e94665b	0.2898434
196	0xbe47e05a	-0.19519177
197	0x3e3d001d	0.18457074
198	0xbf04c6d3	-0.5186588
199	0xbd2b3086	-0.041794322
200	0x3ea4d349	0.32192448
201	0x3cae9bd3	0.021314537
202	0x3dc91cd0	0.09819949
203	0xbeae0794	-0.33990157
204	0x3e272a1c	0.16324657
205	0xbeb7ffa0	-0.35937214
206	0xbeb1391f	-0.34613892
207	0xbea03f4e	-0.31298298
208	0xbdff030b	-0.12451752
209	0x3f569fdf	0.83837694
210	0xbe26c474	-0.16285878
211	0x3dcff237	0.10153621
212	0xbec846f8	-0.39116645
213	0x3f3e7c66	0.74408567
214	0xbef96cf8	-0.4871595
215	0xbda66b82	-0.08125974
216	0xbec7dc36	-0.39035195
217	0xbd2af6cd	-0.041739274
218	0x3ca253c5	0.019815335
219	0x3de466fa	0.11152454
220	0x3d8f717e	0.07004069
221	0x3d380d1a	0.04493437
222	0x3e1f10fe	0.15533826
223	0x3e9e9293	0.30971202
224	0xbdae4bba	-0.085105374
225	0x3d82a593	0.06379237
226	0xbdf03bba	-0.11730142
227	0xbd93c130	-0.07214582
228	0xbe05fba5	-0.13084276
229	0x3e496a3d	0.19669433
230	0xbecc291c	-0.39875114
231	0xbe7ce90c	-0.24698275
232	0x3e70be06	0.23509988
233	0x3eaeba19	0.34126356
234	0x3da3d5c7	0.07999759
235	0xbd67f56a	-0.05663053
236	0xbd14769b	-0.036245923
237	0x3db860ae	0.09002815
238	0x3e71ebd9	0.23625125
239	0xbebbc8d9	-0.36676672
240	0x3de02403	0.10944369
241	0xbfc980b5	-1.5742403
242	0xbe7910c5	-0.24322803
243	0x3f4ef1ec	0.80837893
244	0xbe8ed2f7	-0.27895328
245	0x3edb78d4	0.42865622
246	0xbf1af3f9	-0.6052852
247	0x3e156f8d	0.14593334
248	0x3d63dcdb	0.055630546
249	0x3ef9a0b1	0.4875541
250	0xbf2dba80	-0.678627
251	0xbdd443ec	-0.103645176
252	0xbfaa3e3e	-1.3300245
253	0x3f096ade	0.5367869
254	0xbf893c33	-1.0721496
255	0xbe569fd4	-0.20959407

lstm.weight_hh_l2 f4 [64, 16]
0	0xbdf4de1a	-0.11956425
1	0xbc1227c7	-0.0089206165
2	0xbe79476b	-0.2434365
3	0xbee5d214	-0.4488684
4	0x3e524f50	0.20538068
5	0xbe44eae1	-0.19230224
6	0xbeef2595	-0.4670836
7	0x3d8325cc	0.064036936
8	0x38d4a448	0.000101395475
9	0x3ebb5bf1	0.36593583
10	0x3e200410	0.1562655
11	0x3db49bf0	0.08818805
12	0xbe391513	-0.18074445
13	0x3ebddbe0	0.37081814
14	0x3e842e7a	0.2581671
15	0x3f086c7b	0.5329053
16	0xbe87501a	-0.264283
17	0xbe29d0f0	-0.1658361
18	0xbf36dbe4	-0.71429276
19	0xbe97a360	-0.29616833
20	0xbd0d56a0	-0.03450644
21	0x3e78949a	0.24275437
22	0xbe898842	-0.2686177
23	0x3d964907	0.073381476
24	0x3dd03fa2	0.10168387
25	0xbd22caa3	-0.03974403
26	0xbdd1b77d	-0.10240076
27	0xbd91afc4	-0.07113603
28	0x3ca53364	0.020166107
29	0x3ea58963	0.3233138
30	0x3e85d035	0.26135412
31	0x3e22659c	0.15859073
32	0xbc8bf5a0	-0.017084897
33	0x3f2a469e	0.66514003
34	0x3e5568b9	0.2084073
35	0xbf07d664	-0.5306151
36	0x3e038d11	0.12846781
37	0xbe9141d4	-0.28370535
38	0x3eaef4a7	0.3417103
39	0xbe25512a	-0.16144243
40	0x3f09fdd2	0.53902924
41	0x3dfa331d	0.1221678
42	0x3eb809c6	0.35944957
43	0x3efff327	0.49990198
44	0x3cd8e024	0.026474066
45	0xbe090e80	-0.13384438
46	0x3ed8d5ce	0.4235062
47	0x3f09f96f	0.5389623
48	0xbe43ad33	-0.19109039
49	0x3d8227cb	0.06355246
50	0xbd92ca8b	-0.07167538
51	0xbda0c3cc	-0.07849845
52	0xbe4ded9c	-0.20110172
53	0xbe2737fb	-0.16329949
54	0xbd93b128	-0.07211524
55	0xbdd0bad3	-0.10191884
56	0x3edfe160	0.43726635
57	0xbe91f5e3	-0.2850791
58	0xbd4f36cd	-0.05058937
59	0xbd0034e2	-0.031300433
60	0x3ecec79b	0.40386662
61	0xbd44abed	-0.048015524
62	0xbef23dc3	-0.47312745
63	0x3c923597	0.01784782
64	0x3e58bb32	0.2116516
65	0xbddb5f33	-0.10711517
66	0xbe5a8176	-0.21338448
67	0x3e5d3371	0.21601655
68	0xbe4b16c1	-0.19832899
69	0xbdc46aa8	-0.095906556
70	0xbeaed34f	-0.3414559
71	0x3e919c40	0.28439522
72	0xbeb36034	-0.35034335
73	0x3ddc24bc	0.10749194
74	0xbeaefb73	-0.34176216
75	0xbef24e78	-0.47325492
76	0x3e123d3a	0.14281169
77	0xbe17841b	-0.14796488
78	0x3e8075c8	0.2508986
79	0x3d4f898c	0.050668284
80	0xbe2cbaa5	-0.16868074
81	0xbd1b0de2	-0.037855037
82	0x3e3a94a4	0.18220764
83	0xbe334052	-0.17505005
84	0x3dc45c91	0.09587968
85	0xbe9a64ec	-0.30155122
86	0xbefbf449	-0.49209812
87	0xbe102789	-0.14077581
88	0x3d647533	0.055775832
89	0x3e92d45c	0.28677642
90	0xbccace17	-0.024756474
91	0xbdbc3526	-0.09189825
92	0xbe808c4b	-0.25107035
93	0xbe6e2eb3	-0.23260002
94	0x3dc7167e	0.09721087
95	0xbec4c309	-0.3843005
96	0x3f3510e0	0.70728874
97	0xbebbf2e5	-0.3670875
98	0x3e65eb0a	0.22452942
99	0x3dfc3f3d	0.12316749
100	0x3d665fbf	0.056243654
101	0xbe756075	-0.23962577
102	0x3d683aba	0.05669663
103	0x3e9a3789	0.30120495
104	0x3d0f2cb6	0.03495475
105	0xbe38643b	-0.18006985
106	0xbebfa9dc	-0.3743428
107	0xbef63e13	-0.48094234
108	0xbe829604	-0.25505078
109	0x3e48007d	0.19531436
110	0xbe464ce8	-0.19365275
111	0x3e6d3355	0.23164113
112	0xbddad35c	-0.10684845
113	0x3c9c53e2	0.019082967
114	0xbf4d5d0d	-0.8022011
115	0x3e979c2d	0.2961134
116	0xbd3d6883	-0.04624225
117	0xbccba40d	-0.024858499
118	0xbe66f20c	-0.22553271
119	0xbd9280dd	-0.07153485
120	0x3e098aba	0.13431826
121	0xbefe11a0	-0.49622822
122	0x3e0390e3	0.12848239
123	0x3e93cabb	0.2886561
124	0x3f1b233f	0.60600656
125	0x3e589d24	0.21153694
126	0xbd293b1d	-0.04131614
127	0x3ea87be2	0.32907015
128	0xbef7fc8f	-0.48434874
129	0x3f22ee58	0.63644934
130	0xbf2a5683	-0.66538256
131	0xbe964fc6	-0.29357737
132	0xbf073bac	-0.5282543
133	0xbe9cb053	-0.30603275
134	0x3e1a68e9	0.15079083
135	0xbd7e6eb7	-0.062117305
136	0x3d84075c	0.06446716
137	0xbb8d0f5c	-0.0043048095
138	0x3ea81767	0.32830355
139	0x3f2e316f	0.6804418
140	0x3ee3cffe	0.44494623
141	0x3e9231d0	0.2855363
142	0xbe22d680	-0.15902138
143	0x3dfbee84	0.123013526
144	0x3efdc896	0.49567097
145	0x3e0df97b	0.138647
146	0x3efa7db6	0.48924035
147	0x3db9f233	0.09079399
148	0x3d497a09	0.049188647
149	0x3e2359fb	0.15952294
150	0xbe6ea5b8	-0.23305404
151	0x3d99385a	0.07481451
152	0xbe3d1c45	-0.18467815
153	0x3e5fa450	0.21840024
154	0xbd8fcee6	-0.070218846
155	0xbc0c89b8	-0.008577757
156	0x3e176dad	0.14787932
157	0x3d88d2b9	0.06680817
158	0xbd839c8a	-0.06426342
159	0x3dd43c83	0.10363104
160	0xbddaae2e	-0.106777534
161	0xbd98831a	-0.07446881
162	0xbed7ea14	-0.42170775
163	0xbe7a5ee8	-0.24450266
164	0x3e7f05c3	0.24904542
165	0x3e2602ea	0.16212049
166	0xbe9fd929	-0.31220368
167	0x3d46c950	0.04853183
168	0x3d36e024	0.04464735
169	0x3c8e0251	0.017335089
170	0xbe9e96a7	-0.30974314
171	0xbdaeb0c9	-0.08529813
172	0xbc722759	-0.014779889
173	0x3eae3a68	0.34028935
174	0xbe028929	-0.12747635
175	0x3dce89d9	0.10084886
176	0xbf18f9c1	-0.59756094
177	0xbdd116ae	-0.10209404
178	0xbf6363bf	-0.88824075
179	0x3e92abe1	0.28646758
180	0x3ecdbb8d	0.40182152
181	0x3e15b7c6	0.14620885
182	0xbe2a460c	-0.16628283
183	0xbd852bcb	-0.065024935
184	0x3efca9ed	0.49348393
185	0xbf32b7f6	-0.6981195
186	0xbeb1e12a	-0.347421
187	0x3e2ab0f9	0.16669072
188	0x3dbb089a	0.091325
189	0xbd915a21	-0.07097269
190	0x3def69d2	0.116901055
191	0x3e3661a3	0.17810683
192	0x3d34ce76	0.04414221
193	0xbccfd50b	-0.025370141
194	0x3e9e94ee	0.30973
195	0xbf1292d2	-0.5725528
196	0xbd831d52	-0.06402077
197	0x3d314a55	0.04328378
198	0xbbbdcead	-0.00579246
199	0xbdec75fe	-0.11545943
200	0x3d55e187	0.052217033
201	0xbca1a22b	-0.019730648
202	0x3dcf9799	0.10136337
203	0xbede4814	-0.43414366
204	0xbdd8e248	-0.10590035
205	0x3e1c75a9	0.15279259
206	0xbd503a69	-0.050836954
207	0x3ef38b4a	0.47567207
208	0xbee3e78e	-0.445126
209	0xbf354bff	-0.70819086
210	0x3e24de1b	0.16100352
211	0x3d89afe5	0.06723002
212	0x3e1c16af	0.15243028
213	0x3e99441c	0.29934776
214	0x3e026e08	0.12737286
215	0xbe3e89ae	-0.18607208
216	0x3deb104f	0.1147772
217	0x3ec08eba	0.37608892
218	0x3e7866ea	0.24258009
219	0xbf1ae353	-0.6050312
220	0xbeeda5e7	-0.46415636
221	0xbf257eb5	-0.64646465
222	0xbea9d36e	-0.3316912
223	0xbe828fa3	-0.2550021
224	0xbe25a3bb	-0.1617574
225	0x3e4b1ca7	0.19835149
226	0xbd3faac2	-0.046793707
227	0xbf16202e	-0.5864285
228	0xbe8230f9	-0.25427988
229	0x3e3a6933	0.18204193
230	0x3de9c3d2	0.11414303
231	0x3d2ec4c7	0.04266813
232	0x3b71b2a7	0.0036880167
233	0x3ec328b6	0.38116997
234	0xbd35ad0b	-0.04435448
235	0x3da34279	0.07971663
236	0x3d087bf8	0.03332135
237	0xbeaa8d46	-0.33310908
238	0x3e23334e	0.1593754
239	0x3e9ac297	0.30226585
240	0xbf1df820	-0.61706734
241	0x3e2e185d	0.17001481
242	0xbeff2ae1	-0.49837402
243	0xbd114e3a	-0.035474993
244	0x3eb79f70	0.3586383
245	0x3d8b05f7	0.06788247
246	0x3eee6a16	0.46565312
247	0x3eb8d8cf	0.36102912
248	0xbdda0b1a	-0.10646649
249	0xbdcbf31e	-0.0995848
250	0xbe951acb	-0.29122004
251	0xbe978698	-0.29594874
252	0x3f0fd91a	0.56190646
253	0x3e6d90c0	0.23199749
254	0xbda274bb	-0.07932421
255	0x3ab5f9ac	0.0013883612

lstm.bias_ih_l2 f4 [64]
0	0xbe12b85f	-0.14328144
1	0x3e87a409	0.26492336
2	0x3d9c08f7	0.076188974
3	0x3e7ac5a7	0.24489461
4	0xbe1a7caf	-0.15086626
5	0xbe7e99b1	-0.24863316
6	0xbd926ab5	-0.07149259
7	0x3eaeef56	0.34166974
8	0x3e8a3fc2	0.27001768
9	0x3e58cf61	0.21172859
10	0xbe625342	-0.22102073
11	0x3dd989b1	0.10621966
12	0xbb4ad182	-0.003094763
13	0xbc7d9817	-0.015478156
14	0x3d058f69	0.03260747
15	0x3e1b0866	0.15139922
16	0xbe6601e7	-0.22461663
17	0x3e101f41	0.14074422
18	0x3e5a4dfb	0.2131881
19	0xbcbb3572	-0.022852633
20	0x3dd3d31d	0.10343001
21	0x3e2c204a	0.16809192
22	0x3e29381d	0.16525312
23	0xbe89d774	-0.2692219
24	0x3d01611e	0.03158676
25	0xbea04c7c	-0.31308353
26	0xbd0768e4	-0.033059016
27	0xbe0d5d79	-0.13805188
28	0xbd55ec0b	-0.05222706
29	0x3e3eba2b	0.18625705
30	0xbe3a443a	-0.18190089
31	0xbe02e55d	-0.12782808
32	0xba72aaaf	-0.0009257001
33	0x3e899a04	0.26875317
34	0xbda5b327	-0.08090811
35	0x3dffd34f	0.12491476
36	0x3e430895	0.19046243
37	0x3e21a5f8	0.15785968
38	0xbe118853	-0.1421216
39	0xbdc32f7d	-0.09530542
40	0xbe2ea150	-0.17053723
41	0xbe0e1236	-0.13874134
42	0xbd04a94a	-0.03238801
43	0x3dbd98dd	0.09257672
44	0x3debe0f0	0.11517513
45	0x3e64025c	0.22266525
46	0xbd9c5eac	-0.07635245
47	0xbe38bb69	-0.18040241
48	0x3e5e50fa	0.21710578
49	0xbc133b90	-0.008986369
50	0x3e8c162e	0.27360672
51	0x3e332ff0	0.17498755
52	0xbc2b8b28	-0.010470189
53	0xbe95f9e9	-0.2929223
54	0xbe3fb19c	-0.18720096
55	0x3e3a6c1d	0.18205304
56	0x3e7becae	0.24602005
57	0xbe00f935	-0.12595065
58	0xbc0490d4	-0.00809117
59	0x3da8404e	0.0821539
60	0x3e743095	0.23846658
61	0x3e60a741	0.21938802
62	0x3d910fbf	0.070830815
63	0x3ed840b3	0.42236862

lstm.bias_hh_l2 f4 [64]
0	0x3e0bcdfa	0.13652793
1	0xbdcd1613	-0.10013976
2	0xbe2ec182	-0.17066005
3	0x3d14e647	0.036352422
4	0xbe10f7ea	-0.14157072
5	0xbe25eefd	-0.16204448
6	0x3d48b99b	0.049005132
7	0x3ea72606	0.32646197
8	0x3e851474	0.25992167
9	0x3c0302e0	0.007996291
10	0xbd928cc2	-0.07155754
11	0x3ec83ede	0.39110464
12	0x3e665f43	0.22497277
13	0x3d84dff4	0.06488028
14	0x3d57d83b	0.052696448
15	0x3e596857	0.21231209
16	0xbe4deeeb	-0.20110671
17	0xbc81c06d	-0.015838826
18	0xbde61ac6	-0.112355754
19	0x3ebd74ca	0.37003165
20	0x3e067c60	0.13133383
21	0x3e1b976c	0.15194482
22	0xbde1653e	-0.110056385
23	0xbe839895	-0.25702348
24	0xbe0d1dd1	-0.13780905
25	0xbe06793b	-0.13132183
26	0xbc89b51b	-0.01680999
27	0x3e329cbf	0.17442606
28	0x3e1511f2	0.14557627
29	0x3ddf4414	0.10901657
30	0x3e2cbb05	0.16868217
31	0xbe14a705	-0.14516838
32	0xbe4ecd63	-0.20195536
33	0xbdb7208a	-0.08941753
34	0xbdf8234d	-0.12116108
35	0xbe0c3d14	-0.13695174
36	0x3d8835b4	0.06650868
37	0x3d4cb44b	0.04997663
38	0x3e088698	0.13332593
39	0xbd3552a2	-0.044268258
40	0x3e33ed1e	0.17570922
41	0x3e642d80	0.22282982
42	0x3e1f7466	0.15571746
43	0x3dc46ca6	0.095910355
44	0x3d45ad47	0.048260953
45	0xbda499f0	-0.08037174
46	0xbe1f1f90	-0.15539384
47	0x3e22d51f	0.15901612
48	0xbd98fbee	-0.07469927
49	0xbe30cbab	-0.17265193
50	0x3d65bb84	0.056087032
51	0xbdf6828b	-0.12036618
52	0xbe6c837a	-0.2309703
53	0xbe81d62a	-0.25358707
54	0x3de8ffe7	0.113769345
55	0xbcd217a3	-0.025646036
56	0xbe26375d	-0.16232057
57	0xbde1aaec	-0.11018929
58	0xbe41128f	-0.18854736
59	0x3e5b2f15	0.21404679
60	0xbd8bff9e	-0.068358645
61	0x3e2238e5	0.15842016
62	0x3dba41f3	0.0909461
63	0x3ecf04e4	0.4043342

fc.weight f4 [1, 16]
0	0xbe4cc986	-0.1999875
1	0xbdba9537	-0.09110492
2	0xbd4bc8bc	-0.049751982
3	0x3dae9ec8	0.08526379
4	0xbe606253	-0.21912508
5	0xbe369953	-0.17831926
6	0xbe6b4ecc	-0.22979277
7	0x3d1b588b	0.037926238
8	0xbe002ac9	-0.12516321
9	0x3e71989a	0.23593369
10	0x3e3ff970	0.18747497
11	0xbdd5dab6	-0.104421064
12	0x3e27a894	0.16372901
13	0xbe235fae	-0.15954468
14	0x3db3fbc9	0.087882586
15	0xbe15a4e8	-0.14613688
