time_series_intro_class/final_project/submission/model_params/3_layer_8_size_model_epoch_300.pth (torch, 8227 bytes, 13 tensors)

lstm.weight_ih_l0 f4 [32, 1]
0.20914754 -0.118960574 0.27954352 0.14382142 -0.10250368 -0.08125457 -0.16187358 0.17924868
0.0135276625 -0.024297746 0.07355966 -0.14438613 0.015453496 0.04664084 -0.17968515 -0.43420437
-0.05496454 0.16177437 -0.2050233 -0.18170625 0.03923622 0.025824154 -0.15940794 -0.17169489
-0.01118177 -0.14120476 0.12742934 -0.054395873 -0.18661019 -0.19803587 -0.20038047 -0.47649452
00000000: c62a 563e 9aa1 f3bd 5420 8f3e ec45 133e
00000010: 73ed d1bd cc68 a6bd 30c2 25be f78c 373e
00000020: 21a3 5d3c 110c c7bc 72a6 963d f5d9 13be
00000030: a930 7d3c 770a 3f3d 62ff 37be 0950 debe
00000040: 7f22 61bd 2ea8 253e a1f1 51be 3411 3abe
00000050: 29b6 203d 2d8d d33c d63b 23be c9d0 2fbe
00000060: be33 37bc fb97 10be d67c 023e 35ce 5ebd
00000070: be16 3fbe eac9 4abe 8a30 4dbe 17f7 f3be

lstm.weight_hh_l0 f4 [32, 8]
0.27127346 -0.33679202 -0.20610152 -0.19523686 0.15154964 0.21977198 -0.038215395 -0.10967292
-0.19619858 0.32711053 -0.049490817 0.34056717 -0.16772246 -0.010105774 0.30769145 0.31951463
0.31755477 -0.24722354 -0.31440032 -0.19376282 -0.25104907 -0.034425158 -0.102431506 0.11675808
-0.30435956 0.15712632 -0.24976116 0.2350943 -0.15657227 -0.27082387 -0.028481528 -0.036027208
-0.31837162 -0.018545302 -0.28875917 0.19910927 -0.06612477 0.31726673 -0.04860595 0.094023146
-0.18392885 -0.18618302 0.33739418 -0.29621503 -0.17694363 -0.33053428 -0.19205089 -0.001829884
-0.2029521 0.03032412 0.22712322 -0.23241572 0.3425781 -0.10160146 0.29150718 0.003550392
-0.13924402 0.22337407 0.2883447 0.16141964 -0.21763657 -0.17093241 0.15866847 -0.24630183
0.17882071 -0.20580475 0.21790312 -0.21470922 0.21800183 -0.34076905 -0.30359143 0.20886739
-0.063149415 0.051059324 0.13642633 -0.26305977 0.33806998 -0.30826506 0.2548519 -0.020477684
-0.030374715 -0.007329739 0.14022055 -0.14676654 -0.08704491 0.33652613 0.2066221 0.25670448
0.33476314 -0.027618874 0.32677102 -0.35256457 0.057191808 0.13855432 0.12221538 0.21073316
0.30010608 -0.24455634 -0.0696104 -0.087868534 0.18032248 0.12524351 -0.12022616 -0.14253497
0.0282944 0.25736132 0.33785287 0.14552511 -0.018779019 0.019822486 0.16726752 0.0885292
-0.17359199 -0.29174548 0.18901968 -0.13264117 -0.2853505 0.12720983 0.11998805 -0.23350976
-0.35072926 -0.19464372 0.031942703 0.3482341 -0.0038484184 -0.02910499 -0.34225038 0.11026766
0.16277766 -0.05222281 -0.33511683 -0.32359833 -0.10430593 0.2825059 0.10255817 0.120309494
-0.015180441 0.25752074 0.19974262 -0.19295585 -0.04073406 -0.26631033 -0.19803916 -0.045136422
0.18055466 0.23563246 -0.28927842 -0.20706604 -0.050297696 -0.13090041 -0.10593375 0.08911489
-0.2608695 -0.17468722 0.15383951 -0.09331903 -0.054485068 -0.25312585 -0.23076753 -0.120295994
0.2830793 0.23251817 -0.20714581 -0.19622803 0.086235985 -0.25087813 0.034916207 0.060090426
0.14234674 0.143964 0.072321914 -0.30683616 0.020720089 -0.22185081 0.15312248 -0.108996555
-0.09691734 0.15143856 0.08786072 -0.07294622 0.14233579 -0.3454522 0.18634404 0.17763647
0.23617749 0.17789699 -0.081341945 -0.06301464 0.13252561 -0.17466958 -0.30058423 -0.33435497
-0.0058949436 0.009072638 -0.3495002 -0.31320778 -0.03079112 0.29797682 0.045228537 -0.033839352
0.3237239 -0.16755272 -0.34789988 0.11509882 -0.31646726 -0.13236344 0.12949437 -0.08398115
0.21704163 0.30529362 0.05000745 0.080796376 0.18544582 0.24003531 0.12156185 -0.2028492
-0.16346839 -0.31559974 -0.080220066 0.10432257 0.09625903 0.33312187 -0.25635237 0.17451523
-0.22821173 -0.115305215 -0.25259078 -0.12080307 -0.29250768 0.05964494 -0.24070556 0.30543005
-0.065408446 0.049310286 0.316381 0.2655235 -0.20442727 -0.013908298 -0.13783282 0.34717447
0.1997458 0.28144053 0.3183333 0.20985788 -0.03705384 0.05674266 0.2592995 -0.30216187
-0.07368855 -0.27089268 0.114694856 0.23306291 -0.22455895 -0.04647728 0.34869194 0.1102531
00000000: 5be4 8a3e 0170 acbe 470c 53be 2cec 47be
00000010: d42f 1b3e e80b 613e bf87 1cbd 329c e0bd
00000020: 48e8 48be 087b a73e e2b6 4abd d25e ae3e
00000030: 70bf 2bbe b092 25bc bc89 9d3e 6c97 a33e
00000040: 8a96 a23e 2b28 7dbe 14f9 a0be c369 46be
00000050: 8189 80be 6501 0dbd 9cc7 d1bd dc1e ef3d
00000060: 04d5 9bbe b9e5 203e 64c1 7fbe 8fbc 703e
00000070: 7b54 20be 6da9 8abe 1852 e9bc 4491 13bd
00000080: 9b01 a3be 51ec 97bc 3ed8 93be 4de3 4b3e
00000090: 6c6c 87bd c970 a23e 0817 47bd 358f c03d
000000a0: d857 3cbe c3a6 3ebe eebe ac3e 7fa9 97be
000000b0: b630 35be ca3b a9be fda8 44be b8d8 efba
000000c0: add2 4fbe 4a6a f83c fd92 683e 63fe 6dbe
000000d0: 6666 af3e 6d14 d0bd 6e40 953e b2ad 683b
000000e0: fc95 0ebe 2cbc 643e eba1 933e 314b 253e
000000f0: 1fdc 5ebe e808 2fbe fd79 223e 8c36 7cbe
00000100: c71c 373e 7bbe 52be ff21 5f3e bcdc 5bbe
00000110: df3b 5f3e 4879 aebe 5670 9bbe 55e1 553e
00000120: 7b54 81bd 9523 513d 58b3 0b3e c5af 86be
00000130: 8217 ad3e ebd4 9dbe f37b 823e d1c0 a7bc
00000140: 65d4 f8bc 4f2e f0bb fa95 0f3e f849 16be
00000150: 9a44 b2bd 274d ac3e be94 533e c56e 833e
00000160: 1366 ab3e fa40 e2bc 884e a73e 5883 b4be
00000170: f541 6a3d 2fe1 0d3e 0f4c fa3d 6fca 573e
00000180: 81a7 993e fa6c 7abe e68f 8ebd 6bf4 b3bd
00000190: 75a6 383e d63f 003e 2239 f6bd b0f4 11be
000001a0: a8c9 e73c ddc4 833e 0dfb ac3e 8904 153e
000001b0: 75d6 99bc c462 a23c 2d48 2b3e cc4e b53d
000001c0: 19c2 31be aa5f 95be 608e 413e 16d3 07be
000001d0: 7619 92be 4b43 023e 4bbc f53d 2f1d 6fbe
000001e0: c992 b3be af50 47be 5ad6 023d bd4b b23e
000001f0: bf35 7cbb 976d eebc 713b afbe 03d4 e13d
00000200: 30af 263e 96e7 55bd 6f94 abbe aeae a5be
00000210: 599e d5bd 9da4 903e 050a d23d d364 f63d
00000220: 62b7 78bc c2d9 833e 5489 4c3e 3896 45be
00000230: c2d8 26bd d459 88be c7ca 4abe f8e0 38bd
00000240: 52e3 383e a349 713e 4d1c 94be 1f09 54be
00000250: f504 4ebd c20a 06be cbf3 d8bd de81 b63d
00000260: b090 85be 35e1 32be 1b88 1d3e 0c1e bfbd
00000270: bc2b 5fbd b699 81be 534e 6cbe bf5d f6bd
00000280: c5ef 903e 3e19 6e3e 081e 54be 00f0 48be
00000290: 7e9c b03d 1973 80be 4c04 0f3d 6121 763d
000002a0: 58c3 113e 4c6b 133e 831d 943d a119 9dbe
000002b0: 2dbd a93c dc2c 63be 24cc 1c3e 9639 dfbd
000002c0: 997c c6bd b612 1b3e 52f0 b33d d464 95bd
000002d0: 79c0 113e 1cdf b0be f9d0 3e3e 56e6 353e
000002e0: 83d8 713e a12a 363e 9b96 a6bd d20d 81bd
000002f0: cbb4 073e 95dc 32be 2de6 99be 9330 abbe
00000300: 5f2a c1bb 67a5 143c b1f1 b2be c55c a0be
00000310: a93d fcbc 6b90 983e 8f41 393d 229b 0abd
00000320: 24bf a53e f192 2bbe ef1f b2be eeb8 eb3d
00000330: ff07 a2be 488a 07be 2c9a 043e 4ffe abbd
00000340: 2940 5e3e 724f 9c3e 9dd4 4c3d 9278 a53d
00000350: 82e5 3d3e d1cb 753e 6bf5 f83d b3b7 4fbe
00000360: 4264 27be 4a96 a1be 6b4a a4bd 12a7 d53d
00000370: 7423 c53d f38e aa3e 9e40 83be 1fb4 323e
00000380: 56b0 69be 2425 ecbd 9453 81be 9a67 f7bd
00000390: 91c3 95be 414e 743d 857b 76be 5461 9c3e
000003a0: ddf4 85bd 95f9 493d b1fc a13e b2f2 873e
000003b0: 6255 51be a1df 63bc 0c24 0dbe dac0 b13e
000003c0: 2a8a 4c3e f918 903e 95fc a23e fce4 563e
000003d0: c4c5 17bd fe6a 683d e7c2 843e f6b4 9abe
000003e0: 06ea 96bd 72b2 8abe 23e5 ea3d 0ba8 6e3e
000003f0: c8f2 65be f65e 3ebd c087 b23e 61cc e13d

lstm.bias_ih_l0 f4 [32]
0.1667241 0.19370173 0.23058216 -0.21302909 0.11522832 -0.19066739 -0.28713378 -0.332317
0.20153138 -0.1768018 -0.17930609 -0.3417329 -0.106540285 0.28568667 -0.14336424 0.25338492
-0.12921502 -0.13881932 -0.016029054 0.3192022 0.038453545 -0.33623835 0.27962562 -0.010717891
-0.34408 -0.13401498 -0.33525988 0.3139017 -0.34140486 -0.22950485 -0.09733639 -0.27705792
00000000: b9b9 2a3e bf59 463e bb1d 6c3e 4c24 5abe
00000010: d3fc eb3d 503e 43be 3303 93be 7425 aabe
00000020: 3e5e 4e3e 880b 35be 049c 37be 9df7 aebe
00000030: cb31 dabd 8645 923e 13ce 12be abbb 813e
00000040: f150 04be a726 0ebe 5d4f 83bc 796e a33e
00000050: 7781 1d3d 6f27 acbe 172b 8f3e 189a 2fbc
00000060: 412b b0be 393b 09be 2fa7 abbe b9b7 a03e
00000070: 9ecc aebe 5203 6bbe 4d58 c7bd 89da 8dbe

lstm.bias_hh_l0 f4 [32]
-0.11148116 0.28821886 -0.05335124 0.06594248 -0.2751001 0.30623335 -0.17924538 0.14089802
-0.34572694 0.011961187 -0.19439577 0.25409013 0.30911493 0.07846883 -0.31930318 0.08660309
0.17759752 0.021913828 0.30508387 0.102627166 -0.25108033 -0.061221313 -0.23443128 0.31657845
-0.08087295 -0.2187355 -0.32950294 -0.094115786 0.15907632 0.06751929 -0.33406556 -0.01879662
00000000: 3c50 e4bd 6c91 933e d486 5abd da0c 873d
00000010: ecd9 8cbe 9eca 9c3e 1a8c 37be 9247 103e
00000020: 1f03 b1be dbf8 433c af0f 47be 1a18 823e
00000030: 5044 9e3e 44b4 a03d b57b a3be f65c b13d
00000040: 20dc 353e a184 b33c f433 9c3e 312e d23d
00000050: 9a8d 80be 33c3 7abd c10e 70be 9216 a23e
00000060: b8a0 a5bd 33fc 5fbe 9cb4 a8be c7bf c0bd
00000070: e7e4 223e 8e47 8a3d a40a abbe 5ffb 99bc

lstm.weight_ih_l1 f4 [32, 8]
-0.06346623 0.16881774 0.27541074 -0.19814074 0.18843824 -0.23098445 -0.09726627 0.034208793
-0.04230199 0.20642243 0.073152475 -0.07672327 -0.22185142 -0.0732798 -0.07840131 -0.19585963
-0.20397252 0.019477764 -0.17312643 -0.14820392 0.06822702 -0.22587116 -0.120339625 0.23838669
-0.26866567 -0.2273335 0.302877 -0.1503552 0.11421836 -0.34931102 -0.1490837 -0.07922009
0.1780809 0.115921326 0.052709617 0.0068451334 0.20956522 0.251768 -0.07233611 -0.2622963
-0.106323466 -0.15518737 -0.24971566 0.31286138 0.24019063 -0.18714716 0.10647913 -0.32739592
-0.06495253 0.26823846 -0.33568045 0.047667533 -0.24260707 0.26568475 -0.03476959 0.250058
-0.32794893 -0.28193972 0.04303749 -0.05622482 -0.32336953 0.068107314 -0.21695377 0.08113425
0.01018155 -0.3320047 -0.21949935 -0.13988143 0.3588083 0.006293757 -0.18213466 0.2877379
-0.13308017 -0.048688415 -0.2191045 -0.18868853 0.082067594 0.13485074 0.0005249543 -0.10238994
0.03148839 0.0622818 0.34215662 -0.2665176 0.13092749 -0.2572516 -0.016376792 0.07505924
-0.24306105 -0.33788398 -0.17991324 0.14803606 -0.124349795 0.2882179 -0.18038456 0.03348676
-0.15968573 -0.17632768 -0.058107894 0.1596418 0.299124 0.004464116 -0.25157622 -0.2153967
-0.27884144 0.01834332 -0.0026243331 0.12165442 -0.3190915 0.002622683 0.25454897 0.30806464
-0.084089644 0.35184166 -0.27891853 -0.1432046 0.12206349 0.027621388 -0.11485318 -0.15962054
-0.23739438 -0.00505626 0.011635993 0.23779309 -0.017856427 0.119675 0.23606864 0.089342356
0.10443596 0.30488485 0.18907899 0.1622783 -0.20709756 -0.13659385 -0.18236089 0.34224898
0.08055184 0.18424495 -0.12443962 -0.1341779 -0.008230691 -0.08209798 0.18563 -0.20381705
-0.265278 0.109255455 -0.3106655 0.34269297 0.25939116 0.06380336 -0.057677492 0.036638096
-0.23634699 0.10720561 -0.28499955 -0.12226879 0.17271829 0.22539547 -0.038778722 0.25425252
0.11058384 0.11841325 0.13041024 0.14593256 0.054627437 -0.02596582 0.032490343 -0.04577482
0.31071737 -0.30617887 0.11353098 0.12069308 -0.26685676 0.016437892 -0.14442682 0.22505428
-0.018570498 0.2360441 -0.06766276 0.25195852 -0.19120306 -0.0065575545 -0.21187022 -0.14222413
-0.31445944 -0.2052382 0.23658675 -0.014877143 0.26112178 0.208127 -0.07681689 -0.09335361
0.23364548 0.20209578 0.011014305 -0.23745854 -0.08801305 -0.109854795 0.05126155 0.21841383
0.064156584 -0.15741603 0.032453004 -0.20672007 0.03380128 -0.27792516 -0.13581242 -0.25800624
-0.08191626 -0.14476877 -0.042018875 -0.13502273 -0.33759335 -0.20318711 0.24983867 0.014945384
0.15867934 0.32387388 -0.163552 -0.12191339 -0.24944389 -0.118462674 -0.23328313 0.33277646
0.26309615 -0.0860004 0.13905938 0.19383565 -0.2005978 -0.00035620804 -0.25674015 0.10478218
-0.102405466 0.30637807 -0.12792766 0.13295093 -0.29963034 -0.2633911 -0.1328155 -0.28081313
-0.06465398 -0.20276928 -0.10997389 -0.3119395 0.16290002 0.07607986 -0.26228577 -0.31595573
-0.14308667 0.23057716 -0.31313956 0.22972015 0.2224485 -0.10530241 0.014544628 -0.29216918
00000000: 95fa 81bd 8fde 2c3e a302 8d3e 68e5 4abe
00000010: f4f5 403e 3087 6cbe 8a33 c7bd 851e 0c3d
00000020: da44 2dbd 6760 533e f7d0 953d 1721 9dbd
00000030: 052d 63be b813 96bd de90 a0bd 6d8f 48be
00000040: 2cde 50be d58f 9f3c 0e48 31be c5c2 17be
00000050: 9cba 8b3d c54a 67be 9f74 f6bd a41b 743e
00000060: 8c8e 89be 1dca 68be b212 9b3e b7f6 19be
00000070: 51eb e93d e5d8 b2be 66a9 18be 243e a2bd
00000080: d75a 363e 2968 ed3d 0ae6 573d 244d e03b
00000090: 4498 563e bce7 803e f424 94bd b34b 86be
000000a0: 1ec0 d9bd 70e9 1ebe 76b5 7fbe 5e2f a03e
000000b0: 88f4 753e 81a3 3fbe bb11 da3d 70a0 a7be
000000c0: d505 85bd 8d56 893e 4fde abbe 083f 433d
000000d0: fd6d 78be d507 883e 8f6a 0ebd 9a07 803e
000000e0: ece8 a7be 675a 90be 1448 303d ff4b 66bd
000000f0: b190 a5be d97b 8b3d 2129 5ebe b729 a63d
00000100: 84d0 263c 85fc a9be 70c4 60be 143d 0fbe
00000110: b9b5 b73e dc3b ce3b 8281 3abe 6252 933e
00000120: 2b46 08be 816d 47bd ee5c 60be 9137 41be
00000130: 0e13 a83d 5016 0a3e 169d 093a d1b1 d1bd
00000140: f8f9 003d 331b 7f3d 272f af3e ff74 88be
00000150: db11 063e 7bb6 83be 9f28 86bc a9b8 993d
00000160: ffe4 78be 21ff acbe 2d3b 38be c496 173e
00000170: 1bab febd 4c91 933e bbb6 38be 6a29 093d
00000180: a884 23be 3e8f 34be 8b02 6ebd 2479 233e
00000190: c826 993e b847 923b 99ce 80be f490 5cbe
000001a0: 4ec4 8ebe bb44 963c 01fd 2bbb f425 f93d
000001b0: f65f a3be 52e1 2b3b 3e54 823e a6ba 9d3e
000001c0: 3137 acbd 9724 b43e 69ce 8ebe 3aa4 12be
000001d0: 6cfc f93d 4046 e23c 2538 ebbd 9173 23be
000001e0: 8317 73be fcae a5bb e4a4 3e3c 0880 733e
000001f0: a447 92bc 2b18 f53d fabb 713e 20f9 b63d
00000200: 85e2 d53d de19 9c3e ec9d 413e 482c 263e
00000210: 6211 54be 42df 0bbe d0bc 3abe 423b af3e
00000220: 5df8 a43d b5aa 3c3e 33da febd ee65 09be
00000230: 05da 06bc fc22 a8bd ca15 3e3e 6bb5 50be
00000240: 85d2 87be 53c1 df3d 8c0f 9fbe 7475 af3e
00000250: ebce 843e 56ab 823d 3c3f 6cbd d411 163d
00000260: f204 72be 9d8e db3d 76eb 91be 0f68 fabd
00000270: 10dd 303e 12ce 663e 70d6 1ebd 632d 823e
00000280: c879 e23d a582 f23d 438a 053e 586f 153e
00000290: 05c1 5f3d 45b6 d4bc 9814 053d 617e 3bbd
000002a0: 5916 9f3e 7ac3 9cbe ee82 e83d ef2d f73d
000002b0: 73a1 88be c2a8 863c a0e4 13be a174 663e
000002c0: 2821 98bc 8bb5 713e c692 8abd b500 813e
000002d0: bcca 43be c1e0 d6bb 82f4 58be 34a3 11be
000002e0: d400 a1be f629 52be cc43 723e 43bf 73bc
000002f0: c1b1 853e 3f1f 553e 2c52 9dbd 2d30 bfbd
00000300: c340 6f3e 32f2 4e3e 5875 343c 5528 73be
00000310: 3040 b4bd 8dfb e0bd a2f7 513d e0a7 5f3e
00000320: 8764 833d ab31 21be 71ed 043d 6dae 53be
00000330: 3673 0a3d 354c 8ebe 6912 0bbe 6519 84be
00000340: b6c3 a7bd 443e 14be fc1b 2cbd 6643 0abe
00000350: 09d9 acbe 4810 50be b5d5 7f3e 7cdd 743c
00000360: d67c 223e ccd2 a53e 2d7a 27be baad f9bd
00000370: 386e 7fbe 8f9c f2bd c6e1 6ebe ad61 aa3e
00000380: 8ab4 863e fa20 b0bd 9565 0e3e da7c 463e
00000390: 8269 4dbe 6fc1 bab9 7273 83be 0a98 d63d
000003a0: f5b9 d1bd 96dd 9c3e 78ff 02be 4a24 083e
000003b0: 2669 99be 33db 86be c900 08be bdc6 8fbe
000003c0: 4e69 84bd c0a2 4fbe fe39 e1bd 89b6 9fbe
000003d0: 43cf 263e c2cf 9b3d 524a 86be f3c4 a1be
000003e0: 5085 12be 6b1c 6c3e d453 a0be c23b 6b3e
000003f0: 8ac9 633e caa8 d7bd 974c 6e3c 3397 95be

lstm.weight_hh_l1 f4 [32, 8]
-0.12552594 -0.21344642 -0.21077251 0.31825933 -0.07456828 0.32866836 -0.103534095 0.2440515
0.079061314 0.33460647 -0.050014388 0.2664015 0.24809043 -0.24353711 0.11500726 -0.27384278
0.20603353 0.23541766 0.022569388 0.2819183 0.25520104 0.13839887 0.2820138 0.24552813
-0.062350504 -0.2679133 -0.076042116 0.12680508 -0.23554188 0.012064866 -0.06915087 -0.10065285
0.17114013 0.09653337 -0.0055743866 -0.08627188 -0.075925164 0.10888848 0.21330072 -0.21668628
0.19853707 -0.15675563 0.032586377 0.118823454 -0.11388921 0.052130047 0.18770094 0.2456759
-0.03973809 -0.20973223 0.061677 -0.27329892 -0.16362302 -0.08558527 0.28236365 0.146589
-0.31544507 0.015610574 -0.08530146 -0.020845853 0.018652156 -0.28781605 0.09768292 -0.22050355
0.15289243 -0.016741293 -0.16575554 0.04164131 -0.33086193 -0.13265936 -0.130611 0.27079996
-0.032035843 -0.137912 -0.09841121 0.19792534 0.18289015 -0.26193544 0.06675267 -0.025390312
-0.079494216 -0.1119562 0.14218245 0.12624432 -0.34656048 0.031074427 0.07886048 -0.33100978
0.31250125 0.08067362 -0.1746407 0.22656617 -0.16500422 0.069675535 -0.114712104 -0.033106092
0.3368315 0.12462504 0.21010685 0.2941266 0.15794079 0.1101493 0.0711405 0.29349533
0.14706002 0.10795299 0.11652756 0.350331 -0.10254257 0.17494728 0.3278328 -0.20936121
0.264627 0.21957338 -0.26051027 0.12715417 0.013804066 -0.2651781 0.10167096 0.33815566
-0.22446613 0.095833085 -0.30952492 0.043999285 0.25835666 0.017867409 -0.2955916 -0.2551231
0.10154143 -0.08533048 -0.13888635 0.27273664 0.24514125 -0.22358274 0.205 0.23800546
0.18780327 -0.25895175 -0.32856175 0.21878192 0.20067056 0.1446604 -0.18532178 -0.17680827
0.08376802 -0.3386779 -0.17479515 -0.31344032 -0.27436134 -0.06520697 0.25840697 0.13453683
0.15350328 -0.1490961 -0.22241881 -0.15322326 0.30469078 0.054251064 0.19329211 -0.23666897
0.1631337 -0.24401216 -0.21155235 0.10370594 0.2865625 0.2304448 -0.24755327 -0.054309364
0.03809652 0.28147358 -0.1423418 0.28191072 -0.3336479 0.01969872 0.31787652 -0.31491965
-0.0950898 -0.18469164 -0.31239882 -0.24965852 -0.23532455 -0.23090822 0.065088496 0.035082255
0.13440911 0.15164782 -0.34787408 0.35538837 -0.18746549 0.14921045 0.34480864 -0.34875333
0.12507357 0.18661702 -0.09427624 -0.23248164 0.09674901 -0.1844521 -0.003581171 -0.07196016
-0.016875248 -0.34138948 0.1346008 0.31100208 -0.21312617 0.06780088 0.30324396 -0.06902048
-0.18008704 0.14454426 -0.28137863 0.19012651 0.04877111 0.019223839 0.15663472 0.15283807
0.07179725 -0.31208423 -0.30555734 -0.28288123 -0.18534377 -0.19353724 -0.03431384 0.015530521
-0.24408373 0.15462235 -0.22100626 -0.02572227 -0.07304903 -0.336441 -0.17562056 0.20206593
0.21800715 -0.074095264 0.075178824 -0.18903545 -0.17813446 0.07567707 0.12871167 0.19551317
0.2829777 -0.20122391 0.0801266 0.27418488 0.33706734 -0.21600321 0.32038775 -0.1863981
0.18544988 -0.10346383 -0.24566276 0.11849759 -0.0010556135 -0.09081571 0.315305 0.097454056
00000000: df89 00be b391 5abe c0d4 57be e3f2 a23e
00000010: 41b7 98bd 3847 a83e af09 d4bd a3e8 793e
00000020: e6ea a13d 8a51 ab3e e3db 4cbd c765 883e
00000030: 6b0b 7e3e cb61 79be ed88 eb3d 1f35 8cbe
00000040: 74fa 523e 5411 713e 70e3 b83c 9857 903e
00000050: b6a9 823e 6fb8 0d3e 1d64 903e ba6b 7b3e
00000060: 3e63 7fbd ef2b 89be f8bb 9bbd 31d9 013e
00000070: e431 71be b7ab 453c f99e 8dbd 1523 cebd
00000080: 5c3f 2f3e 4ab3 c53d 58a9 b6bb 50af b0bd
00000090: a77e 9bbd ec00 df3d 816b 5a3e 02e3 5dbe
000000a0: 4d4d 4b3e 8c84 20be 4b79 053d b659 f33d
000000b0: bf3e e9bd 5186 553d ad34 403e 7792 7b3e
000000c0: 68c4 22bd 0cc4 56be 06a1 7c3d d6ed 8bbe
000000d0: cb8c 27be 5447 afbd f891 903e 6d1b 163e
000000e0: 0482 a1be 7ec3 7f3c 88b2 aebd ecc4 aabc
000000f0: 68cc 983c a05c 93be fc0d c83d afcb 61be
00000100: d58f 1c3e 0925 89bc d2bb 29be 1490 2a3d
00000110: bc66 a9be dbd7 07be e4be 05be 4ba6 8a3e
00000120: 0438 03bd ce38 0dbe d18b c9bd f1ac 4a3e
00000130: 8e47 3b3e 671c 86be a0b5 883d 58ff cfbc
00000140: ddcd a2bd 4b49 e5bd 4798 113e 3146 013e
00000150: 6070 b1be cc8f fe3c 9a81 a13d 1d7a a9be
00000160: 2a00 a03e 3638 a53d 03d5 32be f600 683e
00000170: def6 28be 0cb2 8e3d 2eee eabd 419a 07bd
00000180: 2e75 ac3e 6a3b ff3d 4026 573e c397 963e
00000190: 3bbb 213e f595 e13d 1cb2 913d 0545 963e
000001a0: e796 163e 7516 dd3d 00a6 ee3d 965e b33e
000001b0: d701 d2bd 6125 333e b3d9 a73e c962 56be
000001c0: 317d 873e d8d7 603e 9a61 85be b434 023e
000001d0: 732a 623c 6dc5 87be dd38 d03d bd22 ad3e
000001e0: 73da 65be 2344 c43d 0d7a 9ebe 9838 343d
000001f0: 5347 843e ac5e 923c c857 97be 7f9f 82be
00000200: f4f4 cf3d bfc1 aebd 3938 0ebe 23a4 8b3e
00000210: 4f06 7b3e e0f2 64be 85eb 513e b4b7 733e
00000220: 804f 403e 5395 84be 3f39 a8be 5e08 603e
00000230: 957c 4d3e db21 143e fec4 3dbe 3a0d 35be
00000240: 918e ab3d 3167 adbe 80fd 32be 407b a0be
00000250: 1779 8cbe 3b8b 85bd eb4d 843e 06c4 093e
00000260: f72f 1d3e a6ac 18be c2c1 63be 8fe6 1cbe
00000270: 6e00 9c3e 5d36 5e3d 5eee 453e 5a59 72be
00000280: 850c 273e 53de 79be 2ea1 58be c863 d43d
00000290: 52b8 923e b9f9 6b3e 9b7e 7dbe 7f73 5ebd
000002a0: 190b 1c3d 4e1d 903e 0cc2 11be 9a56 903e
000002b0: e6d3 aabe 365f a13c b6c0 a23e 263d a1be
000002c0: 71be c2bd ce1f 3dbe bdf2 9fbe 7ca6 7fbe
000002d0: ebf8 70be 3473 6cbe 1e4d 853d 69b2 0f3d
000002e0: 8ba2 093e 9149 1b3e 8d1c b2be 77f5 b53e
000002f0: f4f6 3fbe a0ca 183e c28a b03e cc8f b2be
00000300: 4913 003e 8818 3f3e e713 c1bd ab0f 6ebe
00000310: 5824 c63d 03e1 3cbe 14b2 6abb d95f 93bd
00000320: f63d 8abc 9aca aebe cbd4 093e aa3b 9f3e
00000330: bf3d 5abe 30db 8a3d cb42 9b3e 9c5a 8dbd
00000340: bd68 38be 6903 143e dc10 90be 86b0 423e
00000350: 37c4 473d 507b 9d3c da64 203e 9581 1c3e
00000360: 700a 933d 81c9 9fbe 0372 9cbe cfd5 90be
00000370: c2ca 3dbe a02e 46be ab8c 0cbd ba73 7e3c
00000380: 16f1 79be 5255 1e3e 774f 62be 83b7 d2bc
00000390: bb9a 95bd ff41 acbe e0d5 33be 5fea 4e3e
000003a0: 443d 5f3e 42bf 97bd 5bf7 993d 8292 41be
000003b0: e168 36be 94fc 9a3d fecc 033e 9b34 483e
000003c0: 74e2 903e a40d 4ebe 6a19 a43d f661 8c3e
000003d0: 1794 ac3e f22f 5dbe dd09 a43e 25df 3ebe
000003e0: 93e6 3d3e d8e4 d3bd 058f 7bbe ddae f23d
000003f0: 835c 8aba 96fd b9bd a86f a13e fe95 c73d

lstm.bias_ih_l1 f4 [32]
0.15769778 0.2183902 0.2741286 0.3055737 0.044569895 -0.105664395 0.26439148 -0.17156532
0.00049946987 -0.05442387 -0.21803717 0.2981025 -0.15556791 0.100275934 0.08414278 -0.19978607
-0.051733002 -0.05335278 -0.018249514 0.15323578 0.32881257 -0.2779243 0.068644874 -0.24198039
0.059654538 -0.1516446 -0.06538246 0.1423416 -0.323513 -0.033063598 -0.30894828 0.16324472
00000000: 877b 213e aea1 5f3e 955a 8c3e 2874 9c3e
00000010: ec8e 363d 9366 d8bd 525e 873e d2ae 2fbe
00000020: dbee 023a 90eb 5ebd 2345 5fbe e4a0 983e
00000030: 324d 1fbe 785d cd3d 0d53 ac3d b894 4cbe
00000040: fce5 53bd 7288 5abd 0180 95bc d7e9 1c3e
00000050: 1f5a a83e 184c 8ebe af95 8c3d b5c9 77be
00000060: 5158 743d b948 1bbe 3de7 85bd ffc1 113e
00000070: 7fa3 a5be b26d 07bd 782e 9ebe a029 273e

lstm.bias_hh_l1 f4 [32]
0.21702658 0.1796703 0.33355972 0.08182065 0.17145783 0.27206883 0.25275874 0.1252564
-0.017396765 -0.30786338 -0.22924107 0.32502532 -0.01994372 -0.13425723 0.017166829 0.23604025
0.22184524 0.21836452 0.20777962 -0.034528825 -0.1438957 -0.09909611 0.07865297 0.18602408
-0.3222169 -0.10488085 0.31973982 0.297365 0.18064137 -0.28843567 0.28587028 0.11401431
00000000: 373c 5e3e 7efb 373e 57c8 aa3e 9691 a73d
00000010: a492 2f3e 9b4c 8b3e 9869 813e 3743 003e
00000020: a983 8ebc 45a0 9dbe 2cbe 6abe b869 a63e
00000030: 0361 a3bc ba7a 09be 73a1 8c3c 89b4 713e
00000040: 662b 633e f39a 5f3e 2ec4 543e 196e 0dbd
00000050: 6559 13be e7f2 cabd cf14 a13d 197d 3e3e
00000060: 9df9 a4be c5cb d6bd f0b4 a33e 3a40 983e
00000070: 0dfa 383e d7ad 93be 975d 923e 5680 e93d

lstm.weight_ih_l2 f4 [32, 8]
-0.046865124 -0.043822456 0.29668108 0.024270156 0.34450942 0.35373455 -0.17981574 -0.1382242
-0.036087506 0.25008744 0.039133877 -0.11604307 -0.26039863 0.15129751 0.012759775 0.32899073
0.03130234 -0.12163345 0.24614011 0.020202704 0.2658375 -0.23232123 -0.2540226 -0.16785428
0.30174324 -0.32957652 0.32594573 -0.22065492 0.14098497 -0.11011438 -0.044222564 -0.2845431
0.041972876 -0.15591481 0.2875562 0.00738917 -0.19454747 0.22897719 -0.11507554 0.043825768
0.20192134 -0.013476609 0.030356742 -0.040568203 -0.02974684 0.07009187 0.26491725 0.3565321
0.32076088 -0.21765019 0.07889177 -0.03918603 0.1270949 0.17734113 0.20650558 -0.274169
0.007369801 -0.31854212 -0.01421106 0.1396685 -0.24802908 -0.3059095 -0.34608498 0.036510147
-0.28676897 0.19954848 -0.094049856 0.059087817 -0.01990258 -0.27408227 0.31606942 0.10157025
0.093489185 0.046587635 0.337308 -0.25223142 0.12185631 0.18589553 -0.023759259 -0.093403175
-0.3096168 0.15564507 0.111751534 0.1259564 -0.31064442 0.24589622 0.06416498 -0.2293359
-0.32425955 0.12707804 -0.109309174 -0.265527 -0.07556903 0.26818258 -0.25335437 -0.2915229
-0.2662074 -0.12789074 0.2330429 0.088487454 -0.32236034 0.19477876 -0.3166313 0.17552836
-0.04474164 -0.067607686 -0.33934653 -0.3171678 0.24448735 -0.03876484 -0.17459056 0.19276427
0.077075854 -0.13710764 0.30573246 -0.28922203 0.3183707 -0.10790314 0.10302819 0.059531465
0.17610408 0.2979919 -0.33816978 -0.3398753 -0.013795974 0.21403578 -0.3456113 0.21003489
-0.11581158 0.2709598 -0.116625585 0.07845921 -0.057031088 0.0021922127 0.3437948 -0.022697546
0.063853726 0.21343239 0.13660929 -0.009250263 0.10261313 -0.21219204 0.15643458 0.15433551
0.24965578 0.33313283 0.34630233 -0.21805058 0.3454149 0.11602904 -0.27927196 -0.21554855
-0.3434308 -0.07431093 -0.2449359 -0.076117255 -0.05914026 0.07984835 0.26043302 0.24682577
-0.31544963 -0.31698474 0.0023317628 0.13873999 0.31088987 -0.21334168 -0.09031526 0.15002614
0.14166744 -0.11538105 -0.12400761 -0.33165905 0.14367944 -0.19696885 0.3161238 0.020884098
0.2103211 0.15571201 0.23439385 0.022093333 -0.2733062 -0.05957161 0.21144816 -0.33639342
0.051336203 -0.22787802 -0.27927428 -0.14567864 -0.2937152 0.015077715 -0.1569323 0.2222162
-0.29241312 -0.33492807 0.06904534 0.2863589 -0.077504255 -0.26652214 -0.17773594 -0.21360013
0.064274736 -0.22662923 -0.08935181 -0.14555456 0.21944904 -0.08967317 -0.26939756 -0.054093245
0.31516838 -0.00032315266 0.1593541 -0.2753775 -0.1250039 0.31156346 0.2543717 0.1321584
0.28188202 0.005330918 -0.120421536 0.037150282 -0.27165726 -0.32332742 -0.028061328 0.26061508
-0.0832077 0.028022116 0.30889457 -0.053127024 0.19721949 0.15204617 0.22957768 -0.017530799
0.13010502 0.10132644 -0.010237454 -0.064099155 0.08309182 -0.19761868 -0.3103971 -0.092031695
0.2995139 0.084925845 -0.30231544 0.08703885 -0.3666775 0.10811115 -0.36199427 -0.29606315
-0.14269793 -0.29834467 -0.19517598 -0.011826259 0.0810104 0.3324014 -0.023669587 0.08125893
00000000: a5f5 3fbd 2d7f 33bd 95e6 973e 35d2 c63c
00000010: 8a63 b03e b21c b53e 9e21 38be a58a 0dbe
00000020: 7ed0 13bd 760b 803e d84a 203d fda7 edbd
00000030: f852 85be bced 1a3e 600e 513c 7971 a83e
00000040: e236 003d f51a f9bd 270c 7c3e 2480 a53c
00000050: da1b 883e 9ee5 6dbe 400f 82be fee1 2bbe
00000060: 177e 9a3e 41be a8be 5ce2 a63e 5df3 61be
00000070: 5d5e 103e a683 e1bd b822 35bd a2af 91be
00000080: c0eb 2b3d 22a8 1fbe 913a 933e da20 f23b
00000090: 7437 47be ff78 6a3e baac ebbd a682 333d
000000a0: 78c4 4e3e ffcc 5cbc b4ae f83c d82a 26bd
000000b0: a5af f3bc 548c 8f3d 3ca3 873e 608b b63e
000000c0: c53a a43e b1df 5ebe 0292 a13d 8881 20bd
000000d0: 2a25 023e ea98 353e 3376 533e e15f 8cbe
000000e0: 5f7e f13b f417 a3be 81d5 68bc 4205 0f3e
000000f0: 56fb 7dbe 2ca0 9cbe 0d32 b1be aa8b 153d
00000100: 62d3 92be 7056 4c3e 369d c0bd 1106 723d
00000110: bc0a a3bc 8354 8cbe dad3 a13e 1004 d03d
00000120: 4277 bf3d add2 3e3d a2b3 ac3e 7a24 81be
00000130: cd8f f93d 665b 3e3e c7a2 c2bc 2a4a bfbd
00000140: 1886 9ebe 6c61 1f3e fddd e43d b7fa 003e
00000150: c90c 9fbe 38cc 7b3e ee68 833d 08d7 6abe
00000160: 5905 a6be bf20 023e 7ddd dfbd 28f3 87be
00000170: f0c3 9abd 3a4f 893e aab7 81be 7d42 95be
00000180: 564c 88be caf5 02be cca2 6e3e e938 b53d
00000190: 6a0c a5be 1574 473e 7f1d a2be b5bd 333e
000001a0: 0343 37bd e675 8abd d4be adbe d163 a2be
000001b0: e45a 7a3e e2c7 1ebd dec7 32be ff63 453e
000001c0: f2d9 9d3d f265 0cbe f788 9c3e e914 94be
000001d0: 7c01 a33e 52fc dcbd 7200 d33d 44d7 733d
000001e0: a154 343e 6592 983e 9724 adbe 2304 aebe
000001f0: 8208 62bc 322c 5b3e f7f3 b0be 6313 573e
00000200: 9f2e edbd 3ebb 8a3e 65d9 eebd 39af a03d
00000210: 6e99 69bd 3aab 0f3b df05 b03e 34f0 b9bc
00000220: bec5 823d 058e 5a3e 4ee3 0b3e 6a8e 17bc
00000230: d526 d23d df48 59be 6330 203e 210a 1e3e
00000240: c4a5 7f3e 6390 aa3e 8a4e b13e a748 5fbe
00000250: 39da b03e a2a0 ed3d bcfc 8ebe c2b8 5cbe
00000260: 29d6 afbe 5430 98bd 7ad0 7abe 5de3 9bbd
00000270: 0f3d 72bd 8887 a33d 7a57 853e e5bf 7c3e
00000280: 9d82 a1be d34b a2be 7dd0 183b db11 0e3e
00000290: f52c 9f3e 3e76 5abe 35f7 b8bd 74a0 193e
000002a0: 4511 113e e64c ecbd b4f7 fdbd 37cf a9be
000002b0: b420 133e 34b2 49be fbda a13e 2115 ab3c
000002c0: 6a5e 573e f872 1f3e f104 703e 14fd b43c
000002d0: caee 8bbe 5c01 74bd de85 583e c23b acbe
000002e0: e945 523d db58 69be 0afd 8ebe c82c 15be
000002f0: d761 96be 8508 773c dcb2 20be a58c 633e
00000300: 2cb7 95be b17b abbe a567 8d3d a29d 923e
00000310: 8dba 9ebd 9775 88be 6900 36be feb9 5abe
00000320: 79a2 833d 7e11 68be 15fe b6bd 410c 15be
00000330: 40b7 603e 91a6 b7bd 7aee 89be e190 5dbd
00000340: c05d a13e d16c a9b9 b92d 233e 48fe 8cbe
00000350: 0601 00be 3f85 9f3e 023d 823e 8854 073e
00000360: d752 903e fbae ae3b 919f f6bd e52a 183d
00000370: a916 8bbe 2c8b a5be dfe0 e5bc 576f 853e
00000380: cc68 aabd a38e e53c 6e27 9e3e b99b 59bd
00000390: e8f3 493e feb1 1b3e 6916 6b3e c09c 8fbc
000003a0: 403a 053e 3d84 cf3d ffba 27bc 6b46 83bd
000003b0: 0b2c aa3d 8d5c 4abe 5eec 9ebe 1d7b bcbd
000003c0: e359 993e 9aed ad3d 17c9 9abe 6d41 b23d
000003d0: 27bd bbbe 6169 dd3d 5057 b9be 9795 97be
000003e0: 681f 12be a2c0 98be 36dc 47be edc2 41bc
000003f0: c8e8 a53d 8430 aa3e b9e6 c1bc 156b a63d

lstm.weight_hh_l2 f4 [32, 8]
0.048514407 0.26988205 -0.30294082 -0.2687082 -0.36717176 0.3511087 0.17848231 -0.033764917
0.09888096 -0.04709 -0.040894136 0.23609048 -0.19089115 0.06720181 0.08467115 0.13314791
-0.24757719 0.30830467 0.21910001 0.33619013 0.2082517 0.15875478 0.14136353 0.09194038
0.19780146 0.33079302 0.033126142 0.34263432 -0.29982516 -0.17775032 0.22588034 0.22617139
-0.32105967 -0.25812098 0.093408845 0.12841532 -0.26739928 -0.1461959 0.2770399 0.014063132
-0.25851864 0.11198463 -0.22161384 0.35908625 -0.0067342375 -0.33265927 0.057447776 -0.30105153
-0.27069083 0.17822787 -0.293611 -0.15390769 0.15923057 -0.30355614 0.13506635 -0.19586748
-0.34367308 0.05032791 -0.13233377 -0.037299573 -0.07693198 -0.28169376 -0.20362009 0.24999368
-0.25772268 -0.22846024 -0.07810753 -0.31808278 0.2236282 0.17822051 0.1420309 0.20945065
0.15292914 0.35593775 0.12349187 0.22063905 -0.015614397 -0.20430022 0.19631198 -0.16955227
-0.36089772 0.24158965 -0.15200695 0.13831846 -0.32963723 -0.050748352 0.024326248 -0.25413337
0.20116748 -0.24364693 -0.2710118 -0.2395204 -0.16210268 0.06379561 0.33564892 -0.15536426
0.0009273873 0.22895648 0.025221925 0.16370581 0.089909285 0.3319311 -0.32604498 0.1921568
-0.06358831 0.0134663675 -0.006789258 -0.22747847 -0.23053198 0.13335922 -0.1349038 0.22588068
0.23037586 -0.045896508 -0.31111118 0.26227558 -0.33359975 0.22785959 0.2132278 -0.10695869
0.2710785 -0.10633604 0.070247486 0.06454204 0.3059563 0.16258816 0.118330956 -0.12836179
-0.31876552 0.12600417 -0.24968855 0.011445056 0.16334364 -0.10188676 0.23382515 0.015017494
0.1636354 -0.3413408 0.21329263 -0.116883226 -0.100444295 0.26018822 0.13045241 -0.31686497
-0.24023244 -0.21506728 -0.0345987 -0.19681469 -0.08126569 -0.0368453 0.10370949 -0.057997636
-0.06805192 -0.14692588 -0.07949398 -0.2795961 -0.29165742 0.006700606 0.25436634 -0.2032326
-0.22584178 -0.17623378 0.29862165 -0.27788332 0.008645823 0.17287566 0.1751248 -0.2380925
0.017277373 0.015683891 0.21617451 -0.06779692 -0.00424696 -0.2803605 0.2208213 -0.17477396
-0.3013327 0.24536392 -0.26783717 -0.05624287 0.06911308 0.19703934 -0.35570812 0.057877555
0.10218628 -0.10560016 0.1609485 0.23459052 -0.24853422 0.3239424 -0.024995081 -0.059319407
0.27676716 -0.2500353 0.2626238 -0.1974103 -0.0022407987 0.004203412 0.23020509 -0.241573
-0.19834302 0.21267287 -0.2478198 0.1254181 -0.33711803 -0.260387 0.25080836 -0.27883336
-0.34736276 0.16518481 0.053553883 -0.07968059 0.29487085 0.3105905 0.33402038 -0.17583555
0.04278925 0.23137847 -0.36891997 -0.06826525 -0.26293504 0.029375 0.17952807 -0.2625955
0.0064846203 -0.087824434 -0.3315645 0.2960431 0.32918075 0.19370063 -0.26666012 0.2698408
0.33732107 -0.24643058 -0.33584902 -0.12344039 -0.059199724 -0.25954965 0.02660213 0.0017629465
0.22143868 0.2276241 -0.15441939 -0.00042677313 -0.15893285 0.25702757 0.15454124 0.002851691
0.055560306 -0.23121548 -0.28210714 -0.11785496 -0.071000144 -0.23046605 -0.2423464 -0.18586245
00000000: 0bb7 463d fb2d 8a3e 0f1b 9bbe 1f94 89be
00000010: f0fd bbbe 85c4 b33e 11c4 363e 154d 0abd
00000020: 1a82 ca3d 72e1 40bd 9c80 27bd b4c1 713e
00000030: f878 43be 1aa1 893d 1168 ad3d ed57 083e
00000040: e084 7dbe 1cda 9d3e c15b 603e 1d21 ac3e
00000050: ef3f 553e 9d90 223e 9ac1 103e 3d4b bc3d
00000060: 778c 4a3e b45d a93e 47af 073d c46d af3e
00000070: af82 99be 2e04 36be 2d4d 673e 7999 673e
00000080: ef61 a4be 6f28 84be 234d bf3d 4e7f 033e
00000090: 8fe8 88be 61b4 15be 2cd8 8d3e 0d69 663c
000000a0: 8e5c 84be 3358 e53d bdee 62be 27da b73e
000000b0: e1aa dcbb 5152 aabe 5c4e 6b3d 6d23 9abe
000000c0: fd97 8abe 5e81 363e 2e54 96be fa99 1dbe
000000d0: 570d 233e b66b 9bbe d54e 0a3e 7c91 48be
000000e0: ebf5 afbe a324 4e3d 8182 07be 70c7 18bd
000000f0: 848e 9dbd 2a3a 90be c981 50be 58fe 7f3e
00000100: 3af4 83be 7bf1 69be d7f6 9fbd bfdb a2be
00000110: cafe 643e 707f 363e 8c70 113e 3b7a 563e
00000120: 7599 1c3e 793d b63e 4ee9 fc3d 34ef 613e
00000130: 87d3 7fbc 1434 51be 0206 493e 1c9f 2dbe
00000140: 96c7 b8be 4763 773e b6a7 1bbe 5ba3 0d3e
00000150: 36c6 a8be 81dd 4fbd d747 c73c c51d 82be
00000160: d9fe 4d3e 957e 79be 0fc2 8abe d644 75be
00000170: 3ffe 25be 46a7 823d 2dda ab3e cf17 1fbe
00000180: e81b 733a 9173 6a3e 369e ce3c 7fa2 273e
00000190: 5c22 b83d e0f2 a93e 5eef a6be c1c4 443e
000001a0: 963a 82bd 0aa2 5c3c 6d78 debb 1ef0 68be
000001b0: 9310 6cbe 528f 083e 3924 0abe 444d 673e
000001c0: a6e7 6b3e fafd 3bbd f749 9fbe fc48 863e
000001d0: 96cd aabe 0654 693e 6358 5a3e 280d dbbd
000001e0: cdca 8a3e b6c6 d9bd eadd 8f3d 9e2e 843d
000001f0: 4ea6 9c3e 837d 263e 8057 f23d 4671 03be
00000200: 3c35 a3be 3d07 013e 5bae 7fbe 0b84 3b3c
00000210: 8e43 273e 01aa d0bd dc6f 6f3e ef0b 763c
00000220: 0a90 273e 39c4 aebe 6269 5a3e 7960 efbd
00000230: bdb5 cdbd 6437 853e 5195 053e 203c a2be
00000240: 7eff 75be 993a 5cbe 5eb7 0dbd ca89 49be
00000250: a06e a6bd 19eb 16bd a465 d43d ee8e 6dbd
00000260: ce5e 8bbd bd73 16be bdcd a2bd 3827 8fbe
00000270: 1f54 95be c290 db3b 4e3c 823e 351c 50be
00000280: 1143 67be a176 34be f0e4 983e b946 8ebe
00000290: 36a7 0d3c 5106 313e ea53 333e 85ce 73be
000002a0: 4789 8d3c 817b 803c da5c 5d3e 1dd9 8abd
000002b0: 152a 8bbb 698b 8fbe fb1e 623e f2f7 32be
000002c0: 4848 9abe ae40 7b3e f421 89be ec5e 66bd
000002d0: 298b 8d3d aec4 493e 601f b6be 0411 6d3d
000002e0: 0a47 d13d e644 d8bd afcf 243e 7f38 703e
000002f0: c17f 7ebe c7db a53e 7cc2 ccbc e8f8 72bd
00000300: 6db4 8d3e a004 80be a076 863e ed25 4abe
00000310: 5dda 12bb c7bc 893b e2ba 6b3e ea5e 77be
00000320: 6f1a 4bbe ebc6 593e 79c4 7dbe 9a6d 003e
00000330: bc9a acbe 7251 85be f469 803e 3fc3 8ebe
00000340: 88d9 b1be 3526 293e 515b 5b3d 942f a3bd
00000350: 50f9 963e b805 9f3e b804 ab3e 3c0e 34be
00000360: c843 2f3d 7aee 6c3e 14e3 bcbe a7ce 8bbd
00000370: 6c9f 86be d7a3 f03c 35d6 373e eb72 86be
00000380: f07c d43b 4cdd b3bd d2c2 a9be f692 973e
00000390: 618a a83e 7559 463e ad87 88be 9328 8a3e
000003a0: 59b5 ac3e 4c58 7cbe 67f4 abbe 51ce fcbd
000003b0: 697b 72bd b1e3 84be b6ec d93c ab12 e73a
000003c0: d2c0 623e 4b16 693e 1e20 1ebe 85c0 dfb9
000003d0: 4bbf 22be 1e99 833e 0f40 1e3e 70e3 3a3b
000003e0: 3493 633d c0c3 6cbe 5970 90be f15d f1bd
000003f0: 8668 91bd 4bff 6bbe a829 78be ba52 3ebe

lstm.bias_ih_l2 f4 [32]
0.0690433 -0.18490896 0.30642 0.33092946 0.2108234 0.3101041 -0.24660888 0.027711356
0.11024167 0.00026169128 0.07091888 -0.19377805 -0.34840265 -0.23848695 0.20771758 -0.32694265
0.3294373 -0.27327332 0.14560077 -0.030595938 -0.34461772 -0.08309981 0.30680183 0.007458505
0.0706871 -0.037172124 0.0661164 -0.31778777 -0.21585822 0.090279855 0.31164515 -0.123311274
00000000: 9366 8d3d c658 3dbe 15e3 9c3e 966f a93e
00000010: 17e2 573e f7c5 9e3e 0a87 7cbe ed02 e33c
00000020: 62c6 e13d 9c33 8939 eb3d 913d c16d 46be
00000030: d561 b2be ec35 74be ebb3 543e 0765 a7be
00000040: 01ac a83e 7bea 8bbe 5e18 153e 55a4 fabc
00000050: bc71 b0be 3c30 aabd 2115 9d3e 7a66 f43b
00000060: 66c4 903d cc41 18bd 0968 873d 14b5 a2be
00000070: f009 5dbe a5e4 b83d f48f 9f3e 9f8a fcbd

lstm.bias_hh_l2 f4 [32]
0.28197876 0.043779176 -0.050363623 0.23998536 0.32657394 -0.12789351 0.23578542 0.19428532
-0.12620229 0.045657337 0.12046726 -0.21047959 -0.058178563 -0.10806013 0.086812146 -0.19444469
-0.11678917 -0.15635245 -0.20550239 -0.33807957 0.33115843 0.10305813 -0.32296273 0.12980977
-0.015190709 -0.15096746 0.023833795 -0.06409476 -0.031372245 0.1025588 0.19692592 -0.32587036
00000000: 855f 903e cb51 333d 164a 4ebd b9be 753e
00000010: b334 a73e 84f6 02be bc71 713e bbf2 463e
00000020: 2c3b 01be 3003 3b3d 8ab7 f63d f687 57be
00000030: a54c 6ebd a14e ddbd 91ca b13d 821c 47be
00000040: 292f efbd db1a 20be 386f 52be c418 adbe
00000050: 998d a93e 2410 d33d 5f5b a5be daec 043e
00000060: 74e2 78bc 3797 1abe 173f c33c 1d44 83bd
00000070: 2f80 00bd 590a d23d f3a6 493e 7bd8 a6be

fc.weight f4 [1, 8]
0.044627246 -0.2945538 0.2612744 -0.016415356 0.11414399 -0.30356732 -0.31844696 -0.015738564
00000000: 0fcb 363d c1cf 96be c2c5 853e 7f79 86bc
00000010: 53c4 e93d 2d6d 9bbe 7b0b a3be 29ee 80bc
