time_series_intro_class/final_project/submission/model_params/3_layer_32_size_model_epoch_2600.pth (torch, 87779 bytes, 13 tensors)

lstm.weight_ih_l0 f4 [128, 1]
0	0x3e16e943	0.1473742
1	0x3fbbfbaa	1.4686177
2	0x3fda7e5e	1.7069814
3	0xbf084fb5	-0.53246623
4	0xbef42c40	-0.4769001
5	0x3dce898e	0.1008483
6	0x3e6410fb	0.22272103
7	0xbe9d36de	-0.30705923
8	0x3f924b75	1.1429278
9	0x3d49755e	0.049184196
10	0x3e30d801	0.17269899
11	0x3ed5906c	0.41711748
12	0x3eb0ddbb	0.34544167
13	0xc011e7dc	-2.2797766
14	0x3f0a9ac8	0.5414243
15	0xbfe54a24	-1.7913251
16	0xbf02bc56	-0.5106863
17	0xbec407a0	-0.38287067
18	0x3ed02a98	0.40657496
19	0xbf030d8d	-0.5119255
20	0x3c70a068	0.014686681
21	0x3eb3b7cb	0.3510116
22	0x3f834545	1.0255514
23	0xbf7221fb	-0.945831
24	0x3f79278c	0.9732597
25	0xbea04427	-0.31301996
26	0x3f7f6198	0.9975829
27	0xbfeb975b	-1.8405565
28	0x3ce8c36e	0.0284135
29	0xc00a2f59	-2.1591399
30	0x3f03154b	0.51204365
31	0xbf46930d	-0.7756813
32	0xbf167830	-0.5877714
33	0x3fab4726	1.3381088
34	0x3fed5af3	1.854338
35	0x3f8a51d1	1.0806218
36	0x3d9e4146	0.07727294
37	0x3f1d03d7	0.61333984
38	0xbec1b7e3	-0.37835607
39	0xbf6a3076	-0.91480196
40	0x3fbfe17b	1.4990686
41	0x3f2b6b30	0.6696043
42	0x3f70bf6d	0.9404209
43	0x3d1be581	0.03806067
44	0x3e8f2ee4	0.27965462
45	0xbefdf8b8	-0.4960382
46	0x3e765f29	0.24059738
47	0xbfc74e20	-1.5570717
48	0xbf5caa1b	-0.8619706
49	0x3f9abadc	1.2088275
50	0x3eadd214	0.3394934
51	0x3f223336	0.6335939
52	0x3fb313e1	1.3990442
53	0x3f32ec1f	0.6989154
54	0x3f9cfb6e	1.226423
55	0x3e9f3ed7	0.3110263
56	0x4001b585	2.026704
57	0x3f03191d	0.51210195
58	0x3fbbd7cb	1.467523
59	0xbfe73f62	-1.8066218
60	0x3fd51bdf	1.664913
61	0xc003f750	-2.0619698
62	0xbdfd414b	-0.12365969
63	0xbd862535	-0.065500654
64	0x3f1f6638	0.6226535
65	0x400b6c5b	2.1784885
66	0xc0043695	-2.0658314
67	0x400694dd	2.102836
68	0x3f6d542d	0.9270657
69	0xbf9ec8ce	-1.2405031
70	0x3f292485	0.6607135
71	0x3f7a4d2b	0.97774
72	0xc00be285	-2.1857007
73	0x3f8204fb	1.015777
74	0x3fb52a01	1.4153444
75	0xbf9bd5c3	-1.217461
76	0xbf4b26d9	-0.7935615
77	0x402e4b87	2.7233598
78	0xbdcec016	-0.10095231
79	0x3f5185e0	0.818449
80	0x3f4ca42b	0.79938
81	0xc01d7294	-2.4601183
82	0x3f7aacc9	0.979199
83	0xbfd87aa1	-1.6912423
84	0xc00b6319	-2.1779234
85	0xbf57a34c	-0.84233546
86	0xbf9b982b	-1.2155813
87	0x3f86bbed	1.05261
88	0xc0244336	-2.5666022
89	0x3f496a70	0.78678036
90	0xbffb2728	-1.9621325
91	0x40027c5b	2.03884
92	0xc0073ab5	-2.1129582
93	0xc00cdb64	-2.2008905
94	0xbf83298b	-1.0247053
95	0xbe82e71b	-0.25566944
96	0xbf97bffa	-1.1855462
97	0x3fcdade4	1.6068692
98	0x3fd00c7d	1.6253811
99	0xbe1dd36e	-0.15412685
100	0x3e43b778	0.19112957
101	0x3efeb6ff	0.4974899
102	0xbe36d435	-0.17854388
103	0xbf77abcd	-0.9674652
104	0x3fc46b77	1.5345296
105	0x3ef0ee82	0.47056967
106	0x3f15f34b	0.5857436
107	0x3ebb6513	0.3660055
108	0x3ea9c223	0.33155927
109	0xbfda4613	-1.7052635
110	0x3ec073f3	0.37588462
111	0xbfdf42ec	-1.7442298
112	0xbf6f2f42	-0.93431485
113	0xbbfac574	-0.007652933
114	0x3e33b38a	0.17548957
115	0xbe9b2f36	-0.30309457
116	0x3e73af0d	0.23797245
117	0x3eaae11b	0.33374867
118	0x3fa3eb68	1.2806215
119	0x3e4d835a	0.20069638
120	0x3fa28594	1.2697015
121	0x3ed4f9fd	0.41596976
122	0x3fd07b48	1.6287622
123	0xc010f174	-2.2647371
124	0x3f27d73d	0.655628
125	0xc0118560	-2.2737656
126	0x3f28c0f1	0.65919405
127	0xbf8b2eb0	-1.0873623

lstm.weight_hh_l0 f4 [128, 32]
0	0x3e60bbdb	0.21946661
1	0x3ed9f3b8	0.42568755
2	0xbea621dc	-0.32447708
3	0x3eaeb284	0.34120572
4	0xbe461c39	-0.19346704
5	0xbeb01dd1	-0.34397748
6	0xbe7302c4	-0.23731524
7	0xbeb29fa9	-0.34887436
8	0xbe83a822	-0.25714213
9	0x3f3f4673	0.7471687
10	0x3f150611	0.5821238
11	0x3e10223a	0.14075556
12	0xbeb22234	-0.3479172
13	0xbe1baa2b	-0.15201633
14	0xbd96ba3d	-0.07359741
15	0xbf2d6aae	-0.67740905
16	0xbeee5a8a	-0.4655345
17	0xbf25942c	-0.6467922
18	0x3ebd40f1	0.3696361
19	0xbdef5f21	-0.11688066
20	0xbf8b5872	-1.0886366
21	0xbf20ffc1	-0.6289025
22	0xbe20665d	-0.15664048
23	0x3e42c21f	0.19019364
24	0xbec0bb81	-0.37643054
25	0x3f4732c2	0.77811825
26	0xbf2caf0d	-0.67454606
27	0xbeac5f49	-0.33666447
28	0xbf5c6621	-0.86093336
29	0x3e01619c	0.12634891
30	0xbe893db8	-0.268049
31	0xbe1c9b4c	-0.15293616
32	0x3e675429	0.22590698
33	0x3e0d19c8	0.13779366
34	0xbe77e136	-0.24207005
35	0x3b2c31ad	0.0026274726
36	0xbb7a7189	-0.0038214645
37	0xbda27c19	-0.07933826
38	0xbe16b5db	-0.1471781
39	0xbe49313f	-0.19647692
40	0xbe655848	-0.22396958
41	0xbdd9668c	-0.106152624
42	0x3db972ba	0.090550855
43	0x3ddc11b0	0.10745561
44	0x3da93ab4	0.0826315
45	0xbdeeeb1f	-0.116659395
46	0xbe8b24fb	-0.2717665
47	0xbd69cdac	-0.05708091
48	0xbd99d503	-0.07511332
49	0xbb952886	-0.00455195
50	0x3c13d0ac	0.009021919
51	0xbdd256c4	-0.102704555
52	0xbdd06e8d	-0.10177336
53	0xbdb853cf	-0.0900036
54	0xbe04960f	-0.12947868
55	0xbdde34df	-0.10849928
56	0xbe4982ef	-0.19678853
57	0xbc217182	-0.0098537225
58	0x3dcd22ac	0.10016379
59	0xbe30a539	-0.17250527
60	0x3db3f14a	0.087862566
61	0x3ddd8bad	0.10817657
62	0x3d80f07d	0.062958695
63	0xbe0f8d86	-0.1401883
64	0x3e7018a2	0.23446897
65	0x3e2147f2	0.15750101
66	0xbeb8d9c2	-0.36103636
67	0xbd88ce3b	-0.0667996
68	0xbdd2a83a	-0.10285993
69	0xbe5b15ea	-0.21395078
70	0x3b7ac91f	0.003826685
71	0xbe9a0f2c	-0.300897
72	0xbe7c901c	-0.24664348
73	0xbe8877c3	-0.2665387
74	0x3e3f6036	0.18689045
75	0x3ecb1304	0.39662945
76	0x3e467465	0.19380338
77	0xbdb70d45	-0.08938078
78	0xbe333b4b	-0.17503087
79	0xbd80e397	-0.06293409
80	0xbdf99e5c	-0.12188408
81	0x3eab5278	0.33461356
82	0xbc9f8213	-0.019471204
83	0xbd471cf6	-0.048611604
84	0xbef75e77	-0.48314258
85	0xbea842f7	-0.3286359
86	0xbe7638ad	-0.24045058
87	0x3e244ecf	0.16045688
88	0xbe4700ef	-0.1943395
89	0x3efa4cf3	0.48886833
90	0xbea94bfe	-0.3306579
91	0xbe386006	-0.1800538
92	0xbe87e67b	-0.2654303
93	0x3e714d2d	0.23564596
94	0x3e18e78a	0.14932075
95	0xbe92edb6	-0.28696984
96	0x3e7b08ff	0.2451515
97	0x3eb4b9a1	0.35297874
98	0xbea47302	-0.32118994
99	0x3eaee62f	0.3415999
100	0xbebfc066	-0.37451476
101	0xbc33287e	-0.010934947
102	0x3c2216f2	0.009893166
103	0xbe6acf9c	-0.22930759
104	0xbeddb6f0	-0.43303633
105	0xbda049dd	-0.07826588
106	0x3e977929	0.29584625
107	0x3e0444ab	0.1291682
108	0x3e5a8bae	0.21342346
109	0xbdbe9adf	-0.09306883
110	0x3e24612d	0.16052695
111	0xbe9ab277	-0.30214283
112	0xbe45d3a9	-0.19319023
113	0xbf22fd14	-0.63667417
114	0x3e8a8388	0.27053475
115	0xbe012ca3	-0.12614684
116	0xbe563aad	-0.2092082
117	0xbe28a1b8	-0.16467941
118	0xbeb4433d	-0.3520755
119	0xbec838ff	-0.39105985
120	0xbd866fd6	-0.065643
121	0x3da6cfdc	0.08145115
122	0xbd726754	-0.059180573
123	0xbde99f31	-0.114073165
124	0xbda43635	-0.08018152
125	0x3d6055fa	0.054769494
126	0xbe994e50	-0.2994256
127	0xbf3143a1	-0.6924382
128	0xbde9246d	-0.11383901
129	0x3d71ee32	0.05906505
130	0xbd4c02a6	-0.049807213
131	0xbdfe0aca	-0.124044016
132	0x3d1c1173	0.03810258
133	0x3e89972e	0.26873153
134	0xbe3c3a52	-0.18381622
135	0xbd2b6a4f	-0.04184943
136	0xbd683c02	-0.056697853
137	0x3cac953a	0.02106725
138	0xbdebe451	-0.11518157
139	0xbca015cc	-0.019541644
140	0xbe97cd6b	-0.2964891
141	0xbdc3fb96	-0.095694706
142	0xbede7ddb	-0.43455395
143	0x3e3124d0	0.17299199
144	0xbc9991e4	-0.018746324
145	0x3dab6346	0.08368544
146	0x3c8a7e2d	0.016905868
147	0x3e8a4515	0.2700583
148	0x3ace2572	0.0015727712
149	0x3e1d3844	0.15353495
150	0xbe15b33f	-0.14619158
151	0x3f04269e	0.51621425
152	0xbe003e73	-0.12523822
153	0x3df4c116	0.11950891
154	0xbeba7db9	-0.36424044
155	0x3c48412b	0.0122225685
156	0xbe0a74e9	-0.1352116
157	0xbcde2072	-0.02711508
158	0x3d2193f0	0.039447725
159	0x3d776f8f	0.060409125
160	0xbed56a24	-0.4168254
161	0xbe9de533	-0.30838928
162	0x3d9ebaab	0.07750448
163	0x3d06b6fa	0.032889344
164	0xbc4a0add	-0.012331692
165	0xbe22b453	-0.158891
166	0x3e2fedaa	0.17180505
167	0x3dedd131	0.11612166
168	0x3e43ba02	0.19113925
169	0xbe058b0c	-0.13041323
170	0xbe335849	-0.17514147
171	0x3d21b01c	0.03947459
172	0x3d8dcb75	0.06923572
173	0xbdfb06b8	-0.12257141
174	0xbe15bb24	-0.1462217
175	0x3e6c6fa2	0.2308946
176	0x3dcbe24c	0.09955272
177	0x3e6e2f59	0.23260249
178	0x3c31c178	0.010849349
179	0xbd941fb3	-0.07232609
180	0x3e5bef7c	0.21478075
181	0x3e176ba2	0.14787152
182	0x3ed2cb6f	0.41170833
183	0xbb9b00f6	-0.004730339
184	0x3e999f5e	0.300044
185	0xbca1892f	-0.019718735
186	0x3e885ff1	0.26635697
187	0x3cd21b4c	0.025647782
188	0x3ee4d7b1	0.4469581
189	0x3dd19412	0.1023332
190	0x3e6acd3e	0.22929856
191	0x3e567d9a	0.2094635
192	0xbd46fadd	-0.048579086
193	0xbe8abf83	-0.27099237
194	0x3e826244	0.25465596
195	0xbe258b6e	-0.1616647
196	0xbe149fb3	-0.14514045
197	0xbc39155e	-0.011296598
198	0x3db5c881	0.08876134
199	0xbe373931	-0.1789291
200	0x3e06e338	0.13172615
201	0xbdaa0f17	-0.083036594
202	0xbe3ba20e	-0.18323538
203	0x3e6c2f50	0.23064923
204	0xbd2d1fe0	-0.042266726
205	0xbe0c84f2	-0.1372259
206	0x3e947d6d	0.29001942
207	0x3e8e141e	0.27749723
208	0xbe811639	-0.25212267
209	0x3e809db9	0.25120333
210	0xbe32c07c	-0.1745624
211	0x3e9a9283	0.30189905
212	0x3ee34ab3	0.44392928
213	0x3d544d4f	0.05183154
214	0x3ecd64af	0.40115878
215	0xbe89b4b9	-0.26895693
216	0x3edce4c0	0.43143272
217	0x3ddd3e3a	0.108028844
218	0x3f1e3e5f	0.6181392
219	0x3df0a4e8	0.11750203
220	0x3e4a461b	0.19753306
221	0x3d1c304e	0.038132004
222	0x3ea1ec49	0.31625584
223	0x3e623c5e	0.22093341
224	0xbf0e3c35	-0.5556062
225	0xbd58782a	-0.052848972
226	0x3e4bea03	0.19913487
227	0x3d3f7344	0.046740785
228	0xbc997305	-0.018731603
229	0x3cbbfc5d	0.022947485
230	0x3d74e631	0.05978984
231	0xbd35cefb	-0.044386845
232	0xbdbd3455	-0.09238497
233	0xbd2eba20	-0.04265797
234	0x3c900d4f	0.017584471
235	0xbe84e27c	-0.25954044
236	0x3ced54cf	0.028971104
237	0xbe70a1a2	-0.23499158
238	0xbdb30442	-0.087410465
239	0xbe0701a3	-0.13184218
240	0xbd1e4d95	-0.038648207
241	0x3e33b8b2	0.17550924
242	0x3e6cb819	0.23117103
243	0xbe647d31	-0.22313382
244	0x3e826bb7	0.25472805
245	0x3ddf8ba3	0.109153055
246	0x3e8243fd	0.25442496
247	0x3cac3ce3	0.021025127
248	0x3ea212d2	0.31654984
249	0xbe464c26	-0.19364986
250	0x3e5585c0	0.20851803
251	0xbeb023b8	-0.3440225
252	0x3eda630f	0.426537
253	0x3eae2d80	0.3401909
254	0xbde124d2	-0.10993351
255	0x3ee92850	0.45538568

lstm.bias_ih_l0 f4 [128]
0	0x3f14b298	0.5808501
1	0x3d9c06fd	0.076185204
2	0xbd47d50c	-0.04878716
3	0x3eea6439	0.4577959
4	0xbe29cd41	-0.16582204
5	0x3d03aafc	0.032145485
6	0xbef706ef	-0.48247477
7	0x3e3f82e3	0.18702273
8	0x3d9c6010	0.0763551
9	0x3db9bf93	0.09069743
10	0x3eafe33f	0.34353063
11	0xbe5a310c	-0.21307772
12	0x3e19a565	0.150045
13	0x3eeb9b5a	0.4601696
14	0x3db3b0be	0.08773945
15	0xbd084289	-0.033266578
16	0xbebd7e00	-0.37010193
17	0x3f125bf1	0.5717154
18	0xbd9508a3	-0.07277038
19	0x3ef18387	0.4717066
20	0x3eb297f9	0.3488157
21	0xbe1b557a	-0.15169325
22	0xbe643376	-0.22285256
23	0x3e340dfe	0.17583463
24	0x3e30eda8	0.17278159
25	0x3e188fe6	0.14898643
26	0x3ea2380c	0.31683385
27	0xbc8b03af	-0.01696953
28	0x3deabe91	0.11462129
29	0x3e4e156d	0.20125361
30	0xbe8e2125	-0.27759662
31	0x3e90cdcd	0.28282014
32	0x3eeb15e5	0.45915142
33	0xbdec9e89	-0.11553676
34	0x3d428d1a	0.047497846
35	0x3d662a6a	0.056192793
36	0xbe1d97fc	-0.15390009
37	0x3da52efe	0.08065604
38	0xbe9fd8ea	-0.3122018
39	0xbdecaee9	-0.11556799
40	0xbd0711b5	-0.03297587
41	0xbce354b2	-0.027750347
42	0xbe8fb1cc	-0.28065336
43	0x3c45d32f	0.012074276
44	0x3ed1326c	0.4085878
45	0x3ce5dcfd	0.028059477
46	0x3cd4ab99	0.02596073
47	0xbd71855c	-0.058965072
48	0xbde1b34c	-0.11020526
49	0x3cb3c555	0.021944681
50	0xbd28e6a2	-0.041235574
51	0xbd960789	-0.07325656
52	0x3df58af5	0.119893946
53	0x3e2deb43	0.16984276
54	0xbdad9043	-0.08474781
55	0x3e30bb46	0.17258939
56	0xbdf47fa1	-0.11938406
57	0x3e8eff5e	0.27929205
58	0x3d0b06bf	0.03394198
59	0xbdd5ed2e	-0.10445629
60	0xbccd1edb	-0.025039127
61	0xbcf6065b	-0.030032327
62	0xbe84617d	-0.25855628
63	0x3f1e6cb4	0.6188462
64	0xbd7a6491	-0.061131064
65	0x3df72363	0.12067296
66	0x3d3735f1	0.044729177
67	0x3de9de48	0.1141935
68	0xbe0bebf2	-0.13664225
69	0xbd8b97d3	-0.068160675
70	0x3d48316e	0.048875265
71	0xbd15410f	-0.036438998
72	0xbd65174e	-0.05593043
73	0x3d46bff8	0.04852292
74	0x3d1a486f	0.037666734
75	0x3d982144	0.0742822
76	0xbdb04922	-0.08607699
77	0x3cc474bd	0.023981446
78	0x3c841644	0.016123898
79	0x3c8a022a	0.016846735
80	0xbe1cee94	-0.15325385
81	0x3d025abc	0.031824812
82	0x3cb8a38b	0.02253892
83	0xbd25e1a9	-0.04049841
84	0xbe10d7d0	-0.14144826
85	0xbe19b80d	-0.15011616
86	0xbb2e55c9	-0.0026601425
87	0x3e07f061	0.13275291
88	0xbd2d3890	-0.04229027
89	0xbe125069	-0.14288487
90	0x3dd25e99	0.10271949
91	0xbd0a5aa2	-0.03377784
92	0xbddb6d4f	-0.10714208
93	0x3e3ec444	0.18629557
94	0x3d211807	0.039329555
95	0xbe0dd317	-0.13850056
96	0x3e027563	0.12740092
97	0x3e86928c	0.2628368
98	0x3e7e49ae	0.24832794
99	0x3e85846f	0.260776
100	0x3d056e2a	0.032575764
101	0xbe2fac42	-0.17155555
102	0xbf02c6ae	-0.5108441
103	0xbddf2f37	-0.108976774
104	0x3e1dc9ff	0.15409087
105	0x3d93edb3	0.07223072
106	0x3e1e0b43	0.15433984
107	0xbc33d0bb	-0.010975058
108	0x3db0f95b	0.08641311
109	0x3f13750e	0.57600486
110	0x3e44e08e	0.19226286
111	0xbd84c2b2	-0.06482448
112	0xbe947fdb	-0.29003796
113	0x3ed00858	0.40631366
114	0xbe288aeb	-0.16459243
115	0x3ea539e2	0.32270724
116	0x3e3345ab	0.17507045
117	0xbe054e91	-0.13018252
118	0xbdb7a96f	-0.08967864
119	0x3e434ae7	0.19071542
120	0x3e90fb7c	0.28316867
121	0x3de0c39c	0.109748095
122	0x3e453802	0.19259647
123	0xbe1b5702	-0.1516991
124	0x3e03b90d	0.1286356
125	0xbdb6e81b	-0.08930989
126	0xbe0bff6c	-0.13671654
127	0xbda425f3	-0.08015051

lstm.bias_hh_l0 f4 [128]
0	0x3ef9d4cb	0.4879516
1	0x3e7fb019	0.2496952
2	0xbc01bc4d	-0.00791843
3	0x3e9bb5a6	0.30412024
4	0x3d97ac5b	0.07405921
5	0x3cacbf23	0.021087235
6	0xbeee175e	-0.46502203
7	0xbdae06eb	-0.08497413
8	0x3e1ca8e0	0.15298796
9	0x3e921e31	0.2853866
10	0x3e6a07bc	0.22854513
11	0xbe60209a	-0.21887437
12	0x3d9ec3d8	0.07752198
13	0x3edbaab7	0.42903683
14	0x3e50041a	0.20314065
15	0xbe19444a	-0.14967456
16	0xbe8c7919	-0.2743614
17	0x3f0158b5	0.5052598
18	0xbe77a187	-0.24182712
19	0x3ebeb7d0	0.37249613
20	0x3ecde934	0.40216982
21	0x3da16660	0.078808546
22	0xbe82d2c4	-0.25551426
23	0xbdbbbded	-0.09167085
24	0x3eab8b9c	0.3350495
25	0x3e4b5542	0.19856742
26	0x3e58eeca	0.21184841
27	0xbdec4e1a	-0.11538334
28	0xbc421681	-0.011846186
29	0xbdd21060	-0.102570295
30	0xbeb2321f	-0.34803864
31	0x3eaa98ee	0.333198
32	0x3ee68346	0.4502203
33	0xbdfffb98	-0.124991596
34	0xbde973ae	-0.11399017
35	0x3df9ed16	0.12203424
36	0xbe172550	-0.14760327
37	0x3d210317	0.039309587
38	0xbd1f517a	-0.03889606
39	0x3debf53e	0.115213856
40	0xbe5a3247	-0.21308242
41	0x3e1565b3	0.14589576
42	0xbe99d3bc	-0.30044353
43	0x3cb50e83	0.022101646
44	0x3eedd2ab	0.4644979
45	0xbddc2a9e	-0.10750316
46	0x3dd44fee	0.10366808
47	0xbc0096f5	-0.007848491
48	0xbeae554e	-0.34049457
49	0xbe621d3d	-0.22081466
50	0x3e101d45	0.14073665
51	0xbc86fd9f	-0.016478358
52	0x3dea615f	0.11444353
53	0x3e17f6e6	0.14840278
54	0xbdcda367	-0.10040932
55	0x3b53e113	0.00323302
56	0x3d89fda2	0.0673783
57	0x3e3766c1	0.17910291
58	0x3e87fcd7	0.2656009
59	0xbe80d67a	-0.25163633
60	0x3e51194a	0.20419803
61	0x3e2e944a	0.17048755
62	0xbed85508	-0.42252374
63	0x3f1988c3	0.59974307
64	0x3e5474bf	0.2074766
65	0xbe2c42e8	-0.16822398
66	0xbd388e8f	-0.04505783
67	0xbc2bc1e3	-0.010483238
68	0x3e0cb12a	0.13739458
69	0x3dbf0089	0.09326274
70	0xbdc54443	-0.096321605
71	0xbd4c4ae9	-0.049876127
72	0xbd5f9bcb	-0.054591935
73	0x3e672479	0.22572507
74	0x3deaf67c	0.114727944
75	0xbdae3a0e	-0.08507167
76	0xbd80371a	-0.0626051
77	0xbd96c385	-0.07361511
78	0x3b9abe45	0.004722389
79	0xbe769b30	-0.24082637
80	0x3cb21cd3	0.02174226
81	0xbde21ce0	-0.11040664
82	0x3e1c8d14	0.15288192
83	0xbbfaa85c	-0.0076494645
84	0x3da5736a	0.08078654
85	0x3d3b9066	0.045792006
86	0xbce72d89	-0.028219955
87	0xbe189cc3	-0.1490355
88	0x3ca57566	0.020197581
89	0x3de67edd	0.11254666
90	0xbe05d40e	-0.13069174
91	0xbd395971	-0.045251314
92	0x3d626204	0.055269256
93	0xbcd6ed03	-0.026236063
94	0xbda067c8	-0.07832295
95	0x3dfc8ef0	0.12331951
96	0xbd44a032	-0.048004337
97	0x3dfbc58c	0.122935385
98	0x3e588788	0.21145451
99	0x3e9fd225	0.31215015
100	0xbe2c6d55	-0.16838582
101	0xbe2eed49	-0.17082705
102	0xbec0c7bb	-0.37652382
103	0x3c3ef1cf	0.011654331
104	0x3db13993	0.086535595
105	0x3ddc5f8c	0.107604116
106	0x3e4216bc	0.18953985
107	0xbe98bdc2	-0.29832274
108	0x3e6ff094	0.23431617
109	0x3f4e1108	0.8049474
110	0xbd976263	-0.07391813
111	0x3c1ca122	0.009559901
112	0xbe9a704a	-0.30163795
113	0x3ecb5d47	0.39719602
114	0xbe63b2bb	-0.22236149
115	0x3ec52517	0.3850486
116	0x3e5bdd9d	0.21471258
117	0x3dbc5b59	0.09197111
118	0xbe7ffa35	-0.2499779
119	0xbd9d2918	-0.07673854
120	0x3ee38c19	0.44442824
121	0x3e1d80ac	0.15381116
122	0x3eba51bf	0.36390492
123	0x3cf0f5a0	0.029413998
124	0x3d7f29cb	0.062295716
125	0xbdf339e2	-0.11876275
126	0xbd3c2f33	-0.04594345
127	0x3e23e8c4	0.16006762

lstm.weight_ih_l1 f4 [128, 32]
0	0xbe865286	-0.26234835
1	0xbeece087	-0.4626505
2	0x3ed01c81	0.40646747
3	0x3e2b8249	0.16748919
4	0x3f370712	0.71495163
5	0x3f3658ad	0.7122906
6	0x3e132962	0.14371255
7	0x3f19e017	0.6010756
8	0x3e92c7c8	0.28668046
9	0x3e98114e	0.29700702
10	0xbe624b55	-0.2209905
11	0xbf061118	-0.52369833
12	0xbdcaf5a7	-0.09910136
13	0x3eaea517	0.3411033
14	0x3c767aba	0.015043909
15	0x3ec45c21	0.3835154
16	0x3ecc9118	0.39954448
17	0xbd2cf72a	-0.0422279
18	0xbe180ff6	-0.14849839
19	0xbe447e60	-0.19188833
20	0x3f15f7b2	0.5858108
21	0x3f36e51a	0.7144333
22	0x3ea40bf2	0.32040364
23	0x3ea35d33	0.31907043
24	0x3e567c9c	0.20945972
25	0xbf1a8946	-0.6036571
26	0x3ba6d8e5	0.005091774
27	0x3f0568db	0.5211312
28	0x3dd6115e	0.10452531
29	0xbea74e6c	-0.3267702
30	0x3e2719eb	0.1631848
31	0x3e1525de	0.14565226
32	0x3b3163c9	0.0027067533
33	0x3dc3064f	0.09522688
34	0x3d9c9046	0.076447055
35	0x3e912bfe	0.28353876
36	0x3d092536	0.033482753
37	0x3d0abd82	0.033872135
38	0x3dc16559	0.09443159
39	0xbe8ebdf6	-0.27879304
40	0xbd3bcdcf	-0.04585057
41	0x3e860e40	0.26182747
42	0x3e802148	0.25025392
43	0xbe5a408b	-0.21313684
44	0x3e63a81b	0.22232096
45	0x3ee58ec9	0.448355
46	0xbd9836cb	-0.07432326
47	0x3d83b809	0.06431586
48	0xbdd8b2dd	-0.105809905
49	0xbe1aebf0	-0.15129066
50	0x3e3b1e2d	0.1827323
51	0xbeac7f10	-0.3369069
52	0xbe91961e	-0.28434843
53	0x3d860369	0.06543619
54	0xbd4a613b	-0.049409132
55	0x3de7ce03	0.113185905
56	0xbe891cf1	-0.26779893
57	0x3e8908c5	0.26764503
58	0xbeccb4e1	-0.3998175
59	0x3dc49109	0.09597976
60	0xbe0677c0	-0.13131618
61	0xbd90ec2e	-0.07076298
62	0xbe3f03d1	-0.186538
63	0xbdb0b5d7	-0.08628433
64	0xbe915395	-0.2838408
65	0xbdd15efc	-0.10223195
66	0x3e7d903d	0.24762054
67	0x3ddb46cf	0.10706865
68	0x3eed24f8	0.46317267
69	0xbdc9ca98	-0.09853095
70	0xbdcf84ca	-0.101327494
71	0x3cf2c36f	0.029634206
72	0xbc9bd19f	-0.019020854
73	0x3e7a54d0	0.24446416
74	0x3d1bedd7	0.03806862
75	0xbe95907b	-0.29211792
76	0x3e50b5e4	0.20381886
77	0x3e6b33c5	0.22968967
78	0xbca78783	-0.02045036
79	0xbdc492a2	-0.095982805
80	0x3e879275	0.26478925
81	0x3e40c133	0.188237
82	0xbe0727b2	-0.13198736
83	0xbe85ed1b	-0.2615746
84	0xbda8644e	-0.082222566
85	0xbdaac2af	-0.08337914
86	0x3e7c9112	0.24664715
87	0xbe99c8ca	-0.30036002
88	0x3eab62d2	0.3347383
89	0xbe230862	-0.15921167
90	0xbdbbdfa9	-0.09173519
91	0xbe5a4139	-0.21313943
92	0x3e948bb7	0.29012844
93	0x3e46a2ac	0.19397992
94	0xbda59e78	-0.08086866
95	0x3dad5d92	0.08465113
96	0xbd98081b	-0.07423421
97	0x3e0bed9a	0.13664857
98	0x3e993233	0.2992111
99	0x3cf1723d	0.029473418
100	0x3d9b7e97	0.075925045
101	0x3db74fd3	0.08950772
102	0xbc88175b	-0.0166127
103	0xbde3433d	-0.11096809
104	0xbd8428d7	-0.06453102
105	0xbd2aae26	-0.041669987
106	0x3ec2fcdb	0.38083538
107	0xbe067516	-0.13130602
108	0x3d0b4e7e	0.034010403
109	0x3ea805b3	0.32816848
110	0xbe334b91	-0.17509295
111	0xbdfd186d	-0.123581745
112	0x3d75c477	0.060001817
113	0xbe348aff	-0.17631148
114	0xbd0714bd	-0.032978762
115	0x3dd99853	0.10624757
116	0x3e7b852e	0.24562523
117	0x3d8dee4d	0.06930218
118	0xbe0b33ff	-0.13594054
119	0x3f136c29	0.57586914
120	0x3eac20bf	0.33618733
121	0x3c9713ae	0.018442001
122	0xbd8eea75	-0.06978313
123	0x3dedc43d	0.11609695
124	0xbcc186a0	-0.023623765
125	0x3d3dac60	0.046306968
126	0xbdf9763e	-0.12180756
127	0x3dda2f59	0.10653562
128	0xbdc143aa	-0.09436734
129	0x3d7433f3	0.059619855
130	0xbe6f84ef	-0.23390554
131	0x3e90291b	0.2815636
132	0x3e4da698	0.20083082
133	0xbc85eec0	-0.016349196
134	0x3e973855	0.29535165
135	0x3dea0f9b	0.11428758
136	0xbe0bda35	-0.13657458
137	0xbd2e1e54	-0.042509392
138	0xbcd715bb	-0.02625548
139	0xbef10626	-0.47075003
140	0x3e239b43	0.15977196
141	0x3c5c94e6	0.0134632345
142	0x3dd73eca	0.10510023
143	0xbd1ec6eb	-0.03876392
144	0x3eba0766	0.3633377
145	0x3d044cc6	0.03229978
146	0x3e89b781	0.26897815
147	0xbe716dd1	-0.23577048
148	0xbd9449ea	-0.072406605
149	0xbd21c657	-0.039495792
150	0x3dcb94b7	0.099404745
151	0xbd3f6669	-0.046728525
152	0xbe9b880a	-0.30377227
153	0xbee3a7a2	-0.4446383
154	0xbdf99090	-0.12185776
155	0xbe6eaca3	-0.23308043
156	0x3e92c0c7	0.28662702
157	0x3e92a933	0.28644714
158	0xbe6c329e	-0.23066184
159	0xbdd5fc8b	-0.104485594
160	0xbebb34b3	-0.36563644
161	0x3d90da8a	0.07072933
162	0xbe8a1345	-0.26967826
163	0xbea55860	-0.32293987
164	0x3a14ecb1	0.0005681022
165	0xbe427fb6	-0.1899403
166	0x3dc4306c	0.09579548
167	0xbd8c8ac4	-0.06862405
168	0x3cda2c2a	0.026632387
169	0x3f028d5d	0.50996953
170	0x3f239850	0.63904285
171	0x3e60cc46	0.21952924
172	0xbf29895b	-0.6622521
173	0x3f462d15	0.7741254
174	0xbf387247	-0.72049373
175	0x3eb70e9f	0.35753343
176	0xbde88562	-0.11353566
177	0xbea0a23e	-0.3137378
178	0x3d6aa12d	0.057282615
179	0x3e8785a3	0.26469144
180	0xbf1d4d1a	-0.6144577
181	0xbebe979f	-0.37225053
182	0xbed533ef	-0.41641185
183	0x3f0b6ba6	0.54461133
184	0xbf02a370	-0.51030636
185	0x3e80160e	0.25016826
186	0xbdbfa877	-0.09358304
187	0x3f23c0e6	0.63966215
188	0xbf170587	-0.5899281
189	0xbf130380	-0.57427216
190	0x3c8a7071	0.01689932
191	0x3dbd281f	0.09236168
192	0xbd8a9287	-0.06766229
193	0x3e2d002e	0.168946
194	0xbe7893e5	-0.24275167
195	0x3e056116	0.13025317
196	0x3e708ff7	0.23492418
197	0xbc55f9c8	-0.013060041
198	0x3d8af9ac	0.067859024
199	0x3d2f6a98	0.042826265
200	0x3cc34a48	0.023839131
201	0x3e87b675	0.2650639
202	0x3c17436d	0.009232384
203	0x3d7ad337	0.061236586
204	0x3d50d0a3	0.05098022
205	0x3e9f6f5b	0.31139645
206	0xbe610529	-0.21974625
207	0xbc924ed0	-0.017859846
208	0x3ded62ed	0.11591134
209	0xbbbaa07f	-0.005695402
210	0xbc939c35	-0.018018821
211	0xbd9ba583	-0.07599928
212	0xbe882c31	-0.26596215
213	0x3e1ec16a	0.15503469
214	0x3e445e59	0.19176616
215	0x3db63d01	0.08898354
216	0x3d4de16c	0.050263807
217	0x3e50c0a9	0.20385994
218	0x3ca14849	0.019687789
219	0x3e85a80b	0.2610477
220	0xbe7fedba	-0.24993029
221	0x3d676c25	0.05649962
222	0x3e9dcf79	0.30822352
223	0xbda2e975	-0.07954685
224	0x3f462e25	0.7741416
225	0x3f016ad2	0.5055362
226	0xbf13d298	-0.57743216
227	0x3ead5362	0.3385268
228	0xbe96c917	-0.29450294
229	0xbeab32b8	-0.33437133
230	0xbeea3be8	-0.4574883
231	0xbee1d8a8	-0.44110608
232	0xbf05ee19	-0.52316433
233	0x3dd30076	0.10302822
234	0x3e7d2a3b	0.24723141
235	0xbed84de5	-0.4224693
236	0x3f1af4a9	0.6052957
237	0x3cfc041d	0.03076368
238	0xbc2831a8	-0.010265745
239	0xbf4856e5	-0.7825759
240	0xbe00991b	-0.12558405
241	0xbee1cd33	-0.44101867
242	0x3d6356aa	0.05550257
243	0xbedff5ca	-0.4374221
244	0xbea86a45	-0.32893577
245	0xbef4a545	-0.4778234
246	0xbf266dca	-0.65011275
247	0x3dd2e7ac	0.10298094
248	0xbf0df285	-0.5544818
249	0x3eaf5e4c	0.3425163
250	0xbf667c1d	-0.9003313
251	0xbe9eeab0	-0.31038427
252	0xbefabd78	-0.48972678
253	0x3ed3cadf	0.41365716
254	0xbf10aa2e	-0.56509674
255	0xbf432440	-0.7622719

lstm.weight_hh_l1 f4 [128, 32]
0	0xbe9bb1fe	-0.30409235
1	0xbe3f98d3	-0.18710642
2	0x3e3a7982	0.18210414
3	0x3cfc5d8c	0.030806325
4	0x3e826b4c	0.25472486
5	0xbe34306d	-0.17596598
6	0xbe8013f6	-0.2501523
7	0xbd09b095	-0.033615667
8	0x3d584c21	0.052806977
9	0x3e7ebcba	0.24876681
10	0x3e987f7f	0.29784772
11	0x3e5f68e8	0.21817362
12	0xbefbd2f3	-0.4918438
13	0xbf30ae0a	-0.6901556
14	0xbe1e4296	-0.15455088
15	0x3ebdd45d	0.37076083
16	0xbef27377	-0.47353718
17	0xbe7459e7	-0.2386242
18	0x3c89037a	0.01672529
19	0xbea89a59	-0.32930258
20	0x3aa98e40	0.001293607
21	0xbee250fd	-0.44202414
22	0x3e0ee764	0.13955456
23	0xbe63063c	-0.22170347
24	0x3e83a805	0.25714126
25	0x3d139051	0.036026303
26	0x3d9d04fd	0.07666967
27	0xbe9b365a	-0.30314904
28	0xbe2b26b5	-0.16713984
29	0x3e39ed8f	0.18157028
30	0xbeac02c5	-0.33595863
31	0xbe521462	-0.20515588
32	0x3e84b4fb	0.25919327
33	0x3dbddd2e	0.09270702
34	0x3d839056	0.06424014
35	0x3e2f87f7	0.1714171
36	0x3f082c18	0.5319228
37	0x3eb44fa2	0.35217005
38	0xbe164d92	-0.14678028
39	0x3efbe345	0.4919683
40	0x3ed85baa	0.42257434
41	0x3e2c8b39	0.16849984
42	0xbd2310cb	-0.039810937
43	0xbef3070a	-0.47466308
44	0xbdc46df8	-0.095912874
45	0xbe800790	-0.2500577
46	0x3d4fba2e	0.050714664
47	0x3f26bb56	0.651296
48	0xbe09208e	-0.13391325
49	0xbd9eacf1	-0.0774783
50	0xbd567e4c	-0.05236654
51	0xbe70b065	-0.23504789
52	0xbe10d7f6	-0.14144883
53	0xbe5d7fa7	-0.21630727
54	0xbecac41a	-0.3960274
55	0x3eadb9fa	0.3393095
56	0x3c09b511	0.008404986
57	0x3ce2671e	0.02763706
58	0x3db60c88	0.08889109
59	0x3e08f29b	0.13373797
60	0x3bf5277d	0.007481514
61	0xbee32a4f	-0.44368216
62	0x3dd730e9	0.10507376
63	0xbcb67356	-0.022271793
64	0xbd8faf67	-0.07015877
65	0x3e2a83d4	0.16651851
66	0x3e325d75	0.17418464
67	0x3aee3490	0.0018173624
68	0x3e500ae4	0.20316654
69	0xbd623b66	-0.055232428
70	0xbdbe5979	-0.09294409
71	0x3e8426d3	0.2581087
72	0x3e17e9ff	0.14835356
73	0xbdbf84d2	-0.09351505
74	0xbcaa6f81	-0.020805122
75	0x3e2e1e07	0.17003642
76	0xbef93b86	-0.48678225
77	0xbd220765	-0.039557833
78	0xbe82b724	-0.2553035
79	0xbebb0786	-0.36529177
80	0xbef70677	-0.4824712
81	0xbe25bb9e	-0.16184852
82	0xbecd518d	-0.4010128
83	0x3e0a0fce	0.13482592
84	0x3d412cac	0.047161743
85	0x3de6ab1c	0.11263105
86	0x3e142eef	0.14471029
87	0xbe7f48ce	-0.24930117
88	0x3d093892	0.033501215
89	0xbf0ab00c	-0.54174876
90	0xbde57be9	-0.112052746
91	0x3ed032fc	0.40663898
92	0xbeed1760	-0.46306896
93	0xbc232a29	-0.009958782
94	0x3ef86a3c	0.4851855
95	0xbdf3d7c3	-0.11906388
96	0x3e3b1e0f	0.18273185
97	0x3e717075	0.23578055
98	0x3f122b8a	0.57097685
99	0x3eaa9154	0.33314002
100	0x3e64869e	0.22316977
101	0xbeb4b2fb	-0.352928
102	0xbf09f1d9	-0.53884655
103	0x3f78a94a	0.97133315
104	0x3d403e39	0.04693434
105	0xbde9aaa5	-0.11409501
106	0xbee1d32b	-0.4410642
107	0xbe1ee2c9	-0.15516199
108	0x3da32fe0	0.07968116
109	0xbdd26030	-0.102722526
110	0x3dc28362	0.094977155
111	0x3d804fff	0.06265258
112	0x3e208dda	0.15679112
113	0xbf043468	-0.51642466
114	0xbd158b10	-0.036509573
115	0x3ec327a2	0.38116175
116	0x3e3d80af	0.1850612
117	0xbe1987c2	-0.14993194
118	0x3f44727b	0.76737183
119	0x3dbbc7b1	0.091689475
120	0xbd315be4	-0.043300524
121	0xbe852446	-0.26004237
122	0x3dd98eef	0.106229655
123	0x3d9b2e6c	0.07577214
124	0xbe80a543	-0.25126085
125	0xbef97e47	-0.48729154
126	0xbf1f1a9d	-0.62149984
127	0xbe9a380e	-0.3012089
128	0xbe181b9f	-0.14854287
129	0x3bc64433	0.0060506104
130	0x3d9b84b3	0.0759367
131	0x3d6c0253	0.057619404
132	0x3e9b2423	0.30301008
133	0xbe847363	-0.25869283
134	0xbe312cae	-0.173022
135	0xbd61ce07	-0.055128124
136	0x3e89bf62	0.26903826
137	0xbd632136	-0.055451594
138	0x3e48437a	0.1955699
139	0x3eb753e0	0.3580618
140	0xbeb76931	-0.35822442
141	0xbf33a9b3	-0.70180815
142	0xbda40147	-0.08008056
143	0xbe1f157c	-0.1553554
144	0xbef3e380	-0.47634506
145	0xbcc313ce	-0.023813155
146	0xbe63f090	-0.22259736
147	0x3e8dee5d	0.2772092
148	0x3b98f8ad	0.0046683163
149	0x3e3a08e8	0.1816746
150	0xbe8f5db5	-0.2800118
151	0x3da7943a	0.08182569
152	0xbdc5fc1c	-0.09667227
153	0x3c09a63e	0.008401452
154	0x3e85c3c6	0.26125926
155	0x3e92cbae	0.2867102
156	0x3eb45076	0.35217637
157	0x3e927644	0.28605855
158	0x3c98e370	0.018663138
159	0x3d85e059	0.065369315
160	0x3dfcf550	0.12351477
161	0x3e68b6b5	0.22725947
162	0xbf01fcda	-0.50776446
163	0xbe8a3ff1	-0.27001908
164	0xbe1941c6	-0.14966497
165	0x3dd4ce10	0.10390866
166	0x3ecf3d20	0.40476322
167	0xbe1c508d	-0.15265103
168	0x3caaf7e7	0.020870162
169	0x3e1b7792	0.15182331
170	0xbe629eef	-0.22130941
171	0x3e7ed5ed	0.24886294
172	0x3dca7088	0.09884745
173	0x3c9b04dd	0.018923217
174	0x3f11d686	0.5696796
175	0x3d128211	0.035768572
176	0xbda045c1	-0.078258045
177	0x3ddb1e1d	0.10699103
178	0x3d265f79	0.040618394
179	0x3e880ef5	0.2657391
180	0x3da4f5ad	0.080546714
181	0xbeb0a129	-0.34497955
182	0xbf998bea	-1.1995823
183	0xbf208390	-0.6270075
184	0xbe0f3448	-0.13984787
185	0x3f19e9e1	0.60122496
186	0x3e3ef2a3	0.18647246
187	0xbf4e3b7c	-0.80559516
188	0xbe2ba4c9	-0.1676208
189	0x3ec92b31	0.39290765
190	0x3e5cc4d5	0.2155946
191	0x3d782240	0.06057954
192	0xbd0d2eaf	-0.03446835
193	0xbe280fff	-0.16412352
194	0xbe8eddb6	-0.27903527
195	0x3edab7d4	0.42718375
196	0x3e593ff6	0.21215805
197	0xbc1aa632	-0.009439038
198	0x3e21faf7	0.15818392
199	0x3e572bd7	0.21012817
200	0x3d6d5254	0.057939842
201	0x3d6e3efd	0.05816554
202	0x3ca4a07b	0.020096054
203	0x3e771898	0.24130476
204	0xbddc7775	-0.10764972
205	0x3cdb910c	0.026802562
206	0xbe949e93	-0.29027233
207	0x3e7d257e	0.24721333
208	0xbe22fd87	-0.15917026
209	0xbe361ab7	-0.17783628
210	0xbe11a71d	-0.14223905
211	0xbe024337	-0.12720953
212	0xbd13a530	-0.036046207
213	0xbef2d1e6	-0.47425765
214	0xbeb1f2cb	-0.3475555
215	0xbe03318b	-0.12811868
216	0x3db0aec2	0.086270824
217	0x3d887348	0.06662613
218	0x3e8d962d	0.27653638
219	0xbe296745	-0.165433
220	0xbdea29a9	-0.11433727
221	0xbdedfc23	-0.11620357
222	0xbce7d3aa	-0.028299171
223	0xbdcb6157	-0.099306755
224	0x3f425b52	0.75920594
225	0xbdd705ef	-0.104991786
226	0x3da3fb47	0.08006912
227	0xbea94f36	-0.33068246
228	0x3f120dda	0.57052386
229	0xbf2c95d4	-0.6741612
230	0x3d81ddc1	0.06341124
231	0x3f0969a2	0.5367681
232	0xbd988966	-0.07448082
233	0xbea3559a	-0.31901246
234	0xbf04bf00	-0.5185394
235	0xbca5ed3f	-0.02025473
236	0xbefc40d6	-0.49268216
237	0x3b04207e	0.0020160968
238	0xbe029f44	-0.12756068
239	0x3f11e9b8	0.5699725
240	0xbe90c554	-0.2827555
241	0xbde7f3c1	-0.11325789
242	0x3f1c448f	0.6104211
243	0x3e5bd96e	0.21469662
244	0x3ea40233	0.32032928
245	0xbe9012cb	-0.28139338
246	0x3edf36c5	0.43596473
247	0xbe898ddd	-0.26866046
248	0xbe00d301	-0.12580492
249	0xbe905944	-0.28193104
250	0x3ec9ff2e	0.394525
251	0xbf19aebd	-0.60032254
252	0xbca21aa3	-0.019788092
253	0xbec099ed	-0.37617436
254	0x3eeb3d7c	0.45945346
255	0x3e44156c	0.19148797

lstm.bias_ih_l1 f4 [128]
0	0xbdc2165d	-0.09476922
1	0x3da01367	0.07816201
2	0xbddbee9b	-0.1073887
3	0xbd8574c7	-0.06516414
4	0x3e80a3b7	0.25124905
5	0xbe9e8504	-0.30960858
6	0xbe4a5547	-0.19759093
7	0x3f0d5fe0	0.5522442
8	0x3e8dd3d1	0.27700666
9	0x3d8245f2	0.06360997
10	0x3ec99ffb	0.39379868
11	0xbdec48ec	-0.11537346
12	0xbea05b48	-0.31319642
13	0xbe5ae565	-0.2137657
14	0xbd59b946	-0.053155206
15	0x3f211104	0.6291659
16	0x3e91bfcd	0.28466645
17	0xbdb1d88e	-0.08683883
18	0xbd83b45d	-0.06430886
19	0x3ea6851e	0.32523435
20	0xbd975015	-0.07388321
21	0x3da8bc02	0.08238985
22	0x3eb3466f	0.35014674
23	0xbe5d1b0f	-0.21592353
24	0xbddea656	-0.1087157
25	0x3e5db93b	0.21652691
26	0x3d44810b	0.047974627
27	0x3dd2db81	0.10295773
28	0xbc76d993	-0.015066522
29	0xbe3dfce3	-0.185535
30	0xbc026abb	-0.007960017
31	0xbe2d5a1c	-0.16928905
32	0x3c89faff	0.016843317
33	0x3e2c1922	0.16806462
34	0xbd32701a	-0.04356394
35	0x3e5d4d8d	0.21611615
36	0x3c69ae49	0.014262744
37	0x3c621e06	0.013801103
38	0x3e745947	0.23862182
39	0xbd8d130e	-0.068884
40	0x3cef9a2d	0.029248321
41	0x3cf2d751	0.029643686
42	0xbe41a33e	-0.18909928
43	0xbd9ab07c	-0.07553193
44	0x3e212ba7	0.15739308
45	0xbcf67d2d	-0.030088985
46	0x3df5a2aa	0.11993916
47	0x3e06983c	0.1314401
48	0x3c11d4d3	0.008900839
49	0x3e2f7acf	0.17136692
50	0xbdb34841	-0.08754016
51	0xbcf808e2	-0.030277673
52	0x3e5c33a4	0.21504074
53	0xbc41e8fc	-0.011835333
54	0x3dfecc41	0.12441302
55	0x3df78a52	0.120869294
56	0x3d53dc43	0.05172373
57	0x3e51c56b	0.20485465
58	0x3aea4347	0.0017872833
59	0x3e6f820b	0.23389451
60	0xbce0b90a	-0.027431984
61	0x3e39eecd	0.18157502
62	0xbdb4f5d0	-0.088359475
63	0xbdfbe6ec	-0.12299904
64	0x3e072e11	0.13201167
65	0x3da7941c	0.081825465
66	0xbe2e427d	-0.17017551
67	0x3c58f469	0.013241866
68	0xbe0863f2	-0.13319376
69	0xbdff4915	-0.12465111
70	0x3dbd9ea0	0.09258771
71	0xbe058ae8	-0.1304127
72	0x3cdc3414	0.026880302
73	0x3e0a67f4	0.13516217
74	0x3e433501	0.19063188
75	0x3e48c096	0.19604716
76	0x3d36c9d7	0.044626083
77	0xbdeb17fd	-0.11479185
78	0xba14546b	-0.0005658331
79	0xbddddea9	-0.10833485
80	0x3cf7379b	0.030177882
81	0xbe4c1c2d	-0.19932623
82	0xbe1627a3	-0.14663558
83	0x3e7baa7a	0.2457675
84	0xbc87e24e	-0.016587403
85	0x3e27d74e	0.16390726
86	0x3e2873da	0.16450444
87	0x3d14fd1c	0.036374196
88	0xbd89fbc3	-0.06737473
89	0x3cbdf99a	0.023190308
90	0xbe273fab	-0.16332881
91	0x3d00d1f4	0.031450227
92	0xbc0580c6	-0.008148378
93	0xbd6b02f6	-0.05737587
94	0x3da19091	0.07888902
95	0xbd6246f8	-0.055243462
96	0xbdfe05d1	-0.12403453
97	0x3e69cb5b	0.2283148
98	0xbe2cb446	-0.16865644
99	0xbdf8c7d2	-0.12147488
100	0xbb801533	-0.003908777
101	0xbe30c166	-0.17261276
102	0x3c60db0c	0.0137241
103	0x3ee8ec41	0.45492747
104	0x3e20bee0	0.15697813
105	0xbdbb829c	-0.09155771
106	0x3ec3e59c	0.38261116
107	0xbda209b1	-0.07912005
108	0xbd5db40c	-0.054126784
109	0x3e1bb3e6	0.15205345
110	0x3d9f0426	0.07764463
111	0x3ec1c1fe	0.37843317
112	0x3ea367c4	0.31915104
113	0x3dd0d59a	0.10196991
114	0xbdb86fa2	-0.09005667
115	0x3eea549d	0.4576768
116	0x3dbfaead	0.09359489
117	0x3dee462a	0.116344765
118	0x3f165870	0.58728695
119	0xbe0254bb	-0.12727635
120	0xbe0cc663	-0.13747554
121	0x3e84092b	0.25788245
122	0x3df7bf26	0.120970055
123	0x3e6300e2	0.22168306
124	0xbd5a0e40	-0.053236246
125	0x3d1b8bca	0.03797511
126	0x3e118098	0.14209211
127	0xbe7c363e	-0.24630067

lstm.bias_hh_l1 f4 [128]
0	0xbea2aff8	-0.31774879
1	0x3dc8a456	0.097969696
2	0xbcf0eb1b	-0.029408982
3	0x3d38eef5	0.045149762
4	0x3da376af	0.079816215
5	0xbeb8727a	-0.3602484
6	0x3d106acc	0.0352581
7	0x3f3fd5ba	0.74935496
8	0x3e6a351d	0.22871824
9	0x3e4b917e	0.1987972
10	0x3ee498bc	0.44647777
11	0x3db2ccbb	0.087304555
12	0xbd9afd0f	-0.07567798
13	0xbe4e8224	-0.20166832
14	0xbe582c16	-0.21110567
15	0x3ed356b7	0.41277096
16	0x3ea52b07	0.3225939
17	0xbc152d2e	-0.00910501
18	0xbdd2ce49	-0.10293252
19	0x3eaa47e6	0.3325798
20	0x3ca3788f	0.019954948
21	0x3e11c0b3	0.14233665
22	0x3e8b3ef1	0.27196458
23	0xbc12f97d	-0.008970615
24	0xbe3640c8	-0.1779815
25	0x3e76bbf2	0.24095133
26	0xbda4eef2	-0.08053388
27	0xbcd3c3c7	-0.02585019
28	0xbce2cbdb	-0.027685096
29	0x3d571447	0.052509572
30	0x3e27d63b	0.16390316
31	0xbe51a41c	-0.20472759
32	0xbe6cbff4	-0.231201
33	0x3e0936ed	0.13399859
34	0x3dfcfc23	0.12352779
35	0x3e26c1d8	0.16284883
36	0xbccf7705	-0.025325308
37	0xbe3b5027	-0.18292294
38	0xbd7194bb	-0.05897973
39	0xbe7aae8d	-0.24480648
40	0x3e3f860b	0.18703477
41	0xbc25f1f4	-0.010128487
42	0xbe914b4d	-0.28377762
43	0xbe0ef85e	-0.13961932
44	0x3ddcb958	0.10777539
45	0x3e65afe1	0.22430374
46	0xbdee1c58	-0.116265
47	0x3cf54d3f	0.02994406
48	0x3d6de945	0.05808379
49	0x3e0d8383	0.13819699
50	0x3d8808b7	0.06642287
51	0xbdef9e78	-0.117001474
52	0x3ea9661b	0.33085713
53	0xbd2f2404	-0.042758957
54	0x3e5f14d2	0.21785286
55	0x3c577612	0.013150709
56	0xbe17027c	-0.14747041
57	0x3e400673	0.1875246
58	0xbd827868	-0.06370622
59	0x3e5265e2	0.20546678
60	0xbe0304a8	-0.12794745
61	0x3e45363d	0.19258972
62	0x3d36fe88	0.044676334
63	0xbe423dfa	-0.18968955
64	0x3d922654	0.07136217
65	0x3cef099d	0.029179389
66	0xbb9d78cb	-0.0048056594
67	0xbdfff881	-0.1249857
68	0x3de60e41	0.112331875
69	0xbdf47001	-0.119354255
70	0xbd73d7bd	-0.059531916
71	0xbe1976b2	-0.14986685
72	0x3cbdb70f	0.023158578
73	0x3dc1b20f	0.0945779
74	0xbd44dc63	-0.04806174
75	0xbcf57a64	-0.029965587
76	0x3bd06479	0.0063596335
77	0x3e617efd	0.22021098
78	0x3d27b48e	0.040943675
79	0xbdb5bc20	-0.088737726
80	0xbdf88d64	-0.12136343
81	0x3de12256	0.10992877
82	0x3d2f2dfd	0.042768467
83	0xbce76d26	-0.028250288
84	0xbd862a4f	-0.065510385
85	0x3df0ad0d	0.11751757
86	0x3cb755ae	0.022379722
87	0x3e31c4cb	0.17360227
88	0xbd8be07d	-0.06829927
89	0x3df09bda	0.11748476
90	0xbd5036a4	-0.05083336
91	0xbe373c51	-0.17894103
92	0x3d465a58	0.048426002
93	0x3e204b5c	0.15653747
94	0x3e153212	0.14569882
95	0x3e1fb522	0.1559644
96	0xbe2ef2ab	-0.17084758
97	0x3d56011b	0.052247148
98	0x3d71ed71	0.059064332
99	0x3e06a23c	0.13147825
100	0x3c602ed9	0.013683044
101	0x3b9d5d2d	0.004802367
102	0x3d695faa	0.056975998
103	0x3ee26677	0.442188
104	0x3ea697f3	0.32537803
105	0x3e6f334f	0.23359416
106	0x3e35762f	0.17720865
107	0x3dedf4c7	0.11618953
108	0xbe848d8a	-0.25889236
109	0x3e11f2ce	0.14252779
110	0x3d7316c1	0.05934787
111	0x3ea0a890	0.31378603
112	0x3d407a6d	0.046991754
113	0x3de84f4b	0.11343249
114	0xbe633c1d	-0.221909
115	0x3e37e277	0.17957483
116	0x3e1e8d70	0.15483642
117	0x3da16ccc	0.078820795
118	0x3ee84079	0.4536169
119	0xbe5cd8bb	-0.21567051
120	0xbdb0ca96	-0.0863239
121	0x3dbb1597	0.09134977
122	0x3c294034	0.010330249
123	0x3e4d3183	0.20038418
124	0xbcb2e135	-0.021835903
125	0xbe76137d	-0.24030872
126	0x3d2acbb5	0.041698176
127	0xbe0979e2	-0.13425401

lstm.weight_ih_l2 f4 [128, 32]
0	0xbc507e48	-0.01272542
1	0xbe18c900	-0.14920425
2	0x3eaad7f9	0.333679
3	0x3d4f1483	0.05055667
4	0x3c544f5a	0.012958372
5	0xbd9cccd7	-0.076562576
6	0xbe84ac6b	-0.25912794
7	0x3e8432da	0.25820047
8	0xbdf4533f	-0.119299404
9	0xbe8252bd	-0.2545375
10	0x3e9196f3	0.28435478
11	0x3e3f172d	0.18661185
12	0x3dd9b008	0.106292784
13	0x3ec7dcd0	0.39035654
14	0xbe9fcd91	-0.31211522
15	0xbed47f47	-0.41503355
16	0xbdc80cdf	-0.0976808
17	0x3e819c78	0.2531469
18	0x3de086de	0.10963224
19	0xbdf0d644	-0.11759618
20	0xbe37ca63	-0.17948298
21	0x3dae6725	0.08515767
22	0x3e6e805c	0.23291153
23	0x3e3d97f0	0.18514991
24	0x3eaa556c	0.33268297
25	0xbe1819d1	-0.14853598
26	0xbe2c7033	-0.16839676
27	0x3e0349c4	0.12821108
28	0x3e19c199	0.15015258
29	0x3cadf251	0.02123371
30	0xbe538c72	-0.20659044
31	0xbe37e957	-0.17960106
32	0x3d34d219	0.044145677
33	0x3e2a285b	0.16616957
34	0xbc4e4662	-0.012590023
35	0x3e7ebb52	0.24876145
36	0x3ecb901a	0.39758378
37	0xbeb56fec	-0.35436952
38	0xbdb78bf9	-0.089622445
39	0xbcef785a	-0.029232193
40	0x3d4091c2	0.047014005
41	0x3b86d317	0.0041145193
42	0x3f06271e	0.5240344
43	0x3ef08045	0.46972862
44	0xbea2ad61	-0.31772903
45	0xbdc4c5f6	-0.096080706
46	0xbe8842af	-0.26613376
47	0xbe7e4546	-0.24831113
48	0xbe557bbd	-0.20847984
49	0x3eaf18b2	0.3419853
50	0x3eec9d71	0.46213868
51	0xbc23ae59	-0.009990298
52	0x3eb393b5	0.3507363
53	0xbe260ed9	-0.16216601
54	0x3ea0cbd3	0.31405506
55	0xbefcd8ae	-0.49384063
56	0xbd06292f	-0.03275412
57	0xbf2298ec	-0.6351459
58	0x3f36b391	0.71367747
59	0x3dab1d05	0.083551444
60	0xbe8f41ff	-0.2798004
61	0xbd875d69	-0.066096134
62	0xbe99a592	-0.30009133
63	0x3dde8dbb	0.10866877
64	0xba3d4683	-0.0007220285
65	0x3d1aadf5	0.037763555
66	0x3e319846	0.17343244
67	0xbec88063	-0.3916045
68	0xbf388382	-0.72075665
69	0x3d24f1aa	0.04026953
70	0xbe9f7a63	-0.3114806
71	0xbe8ad5f0	-0.27116346
72	0xbd55e617	-0.052221384
73	0xbdf0f7de	-0.11766027
74	0xbe710255	-0.23536046
75	0xbf08bbad	-0.5341137
76	0xbe4fc458	-0.20289743
77	0xbecc640f	-0.3992009
78	0x3d2313da	0.039813854
79	0x3f0d91f9	0.5530086
80	0x3f3fa6c1	0.7486382
81	0xbeb841fb	-0.3598784
82	0x3edef5da	0.43546945
83	0x3fa35530	1.2760372
84	0x3cb01e78	0.021498904
85	0xbdbe598c	-0.092944235
86	0x3e76a314	0.24085647
87	0x3df2ae4b	0.1184965
88	0xbe31c126	-0.17358837
89	0xbed951e0	-0.42445278
90	0x3e379598	0.17928159
91	0x3da73985	0.08165268
92	0x3f2811c6	0.6565212
93	0xbe8d7838	-0.27630782
94	0x3e0943c3	0.13404755
95	0x3ddf7079	0.10910124
96	0x3e0e2018	0.1387943
97	0xbd34b87c	-0.04412125
98	0xbebb9a75	-0.3664128
99	0xbc560881	-0.013063551
100	0x3efd5f5d	0.4948682
101	0xbeaf3e74	-0.34227335
102	0xbf072f11	-0.5280619
103	0xbd5b4f3e	-0.053542368
104	0xbe81e5ce	-0.2537064
105	0xbe585616	-0.21126589
106	0xbe86f041	-0.26355174
107	0x3dd30885	0.10304359
108	0xbe1a92c9	-0.15095057
109	0xbe2c9aa6	-0.16855869
110	0xbea60624	-0.3242656
111	0x3e939cbb	0.28830513
112	0xbea234f3	-0.31681022
113	0xbe5e74ab	-0.21724193
114	0xbe16bfdb	-0.14721625
115	0x3d9ddec1	0.077085026
116	0xbd6e30d3	-0.05815203
117	0x3e5cd83f	0.21566866
118	0xbed3f9fa	-0.41401654
119	0xbe93741a	-0.28799516
120	0xbcacfc51	-0.021116408
121	0xbd985b5f	-0.07439303
122	0xbe3c1a71	-0.18369462
123	0x3d49da24	0.0492803
124	0xbb2f1502	-0.0026715402
125	0xbeeb3bdd	-0.4594411
126	0x3ec36f11	0.38170674
127	0x3e8d11f7	0.2755277
128	0xbc9f62c1	-0.01945627
129	0xbdd91c4b	-0.106010996
130	0xbe7549a5	-0.23953874
131	0x3e0f3d4f	0.13988231
132	0xbeedc813	-0.46441707
133	0xbd159701	-0.03652096
134	0x3ec43b4a	0.38326484
135	0xbf07ad30	-0.5299864
136	0x3e7566ce	0.23964998
137	0x3e2c4e2f	0.168267
138	0x3f0597ac	0.5218456
139	0xbeaff9ba	-0.34370214
140	0xbd5db0ae	-0.054123573
141	0xbd344a3d	-0.04401611
142	0x3e4b2ca3	0.19841246
143	0xbc88c6ad	-0.016696298
144	0x3dfb808d	0.122803785
145	0x3f07fae0	0.5311718
146	0x3e3511a3	0.17682509
147	0x3c10cfd7	0.008838615
148	0x3e83caa5	0.25740543
149	0xbf388e72	-0.72092354
150	0xbeab698b	-0.3347896
151	0x3d0efba3	0.03490795
152	0x3c4ba9d1	0.012430624
153	0x3f02c8e3	0.5108778
154	0x3ec74be3	0.38925084
155	0xbd8f32e3	-0.06992128
156	0x3f1d1e80	0.61374664
157	0x3eb9d87a	0.3629797
158	0x3e27a550	0.16371655
159	0xbe46f5cf	-0.19429706
160	0xbc2ed387	-0.010670549
161	0xbda58b0e	-0.08083163
162	0xbe022e55	-0.12712987
163	0xbcb4306b	-0.021995744
164	0x3cb22f2a	0.021751005
165	0xbe2570d5	-0.16156323
166	0x3d87dc3e	0.06633805
167	0xbe03aa46	-0.12857923
168	0xbe727fe9	-0.23681606
169	0xbe03d1d4	-0.12873012
170	0x3e99cfd5	0.30041376
171	0xbca2c03d	-0.019867057
172	0xbe4f1c7b	-0.20225708
173	0xbec527ff	-0.38507077
174	0x3a1b9d4d	0.00059362204
175	0x3e7f4d61	0.24931861
176	0xbd0fc534	-0.035100177
177	0xbe098f0a	-0.13433471
178	0xbc5be210	-0.013420597
179	0x3e820bf4	0.25399745
180	0x3e2d9bbd	0.1695394
181	0xbdb6e7da	-0.08930941
182	0x3d44f0b3	0.04808111
183	0xbcd7481b	-0.0262795
184	0x3e169989	0.14707007
185	0x3d024ddb	0.03181253
186	0xbe427426	-0.1898962
187	0x3d785eeb	0.060637396
188	0x3e8c07fb	0.2734984
189	0xbe2ae9d4	-0.16690761
190	0x3bd5765b	0.006514353
191	0x3d6b663d	0.05747055
192	0xbe923ec6	-0.28563517
193	0xbe2bbfb6	-0.1677235
194	0xbe0cfc63	-0.13768153
195	0xbe905c96	-0.28195637
196	0xbeab3cbf	-0.33444783
197	0x3e8da31c	0.27663505
198	0xbdd34b16	-0.10317056
199	0x3dbde76e	0.09272657
200	0x3ea424f7	0.32059452
201	0xbe8bf63a	-0.27336293
202	0xbe0884d4	-0.1333192
203	0xbf8c136b	-1.0943426
204	0xbe7450cf	-0.23858951
205	0xbdbb44b7	-0.09143966
206	0xbf9d0206	-1.2266243
207	0x3f521155	0.82057697
208	0x3f3aa465	0.72907096
209	0xbeb6ed0a	-0.3572772
210	0x3e8fec72	0.2811008
211	0x3f3f6273	0.74759597
212	0xbe12e483	-0.14344983
213	0xbd1884e0	-0.037236094
214	0x3e84634c	0.25857008
215	0xbdba3c2b	-0.090935074
216	0xbe46c5e4	-0.19411427
217	0xbe9bf612	-0.30461174
218	0xbd236843	-0.039894354
219	0x3f5a480b	0.8526618
220	0x3f57b351	0.8425799
221	0xbedf6b88	-0.43636727
222	0xbd5aee8b	-0.05345015
223	0xbde7ee22	-0.11324717
224	0xbe32262d	-0.17397375
225	0xbf26b6a7	-0.65122455
226	0x3e33c1ec	0.17554444
227	0xbe3ab457	-0.18232857
228	0xbe6a5925	-0.22885568
229	0x3e9a8516	0.30179662
230	0xbd6b0bf4	-0.057384446
231	0xbe4a9181	-0.19782068
232	0xbec1c943	-0.37848863
233	0xbe4a8021	-0.1977544
234	0xbcd058bb	-0.025432935
235	0xbef0c007	-0.47021505
236	0xbe883bcb	-0.26608118
237	0xbe8e735f	-0.27822396
238	0xbe0973aa	-0.13423029
239	0xba43ccb5	-0.00074691634
240	0x3e054c4e	0.13017389
241	0xbed02207	-0.4065096
242	0xbd69dbf9	-0.057094548
243	0x3e98f0e7	0.29871294
244	0x3e1145e2	0.14186814
245	0x3dfd0260	0.123539686
246	0xbe629bbb	-0.22129719
247	0xbde0fcb5	-0.109857
248	0x3e11f399	0.14253081
249	0xbd84ae8c	-0.06478605
250	0xbeb529bb	-0.353834
251	0x3ee13780	0.43987656
252	0x3f18c4f3	0.5967552
253	0xbf0060a8	-0.50147486
254	0x3d49f7a3	0.04930843
255	0xbe6c9162	-0.23102334

lstm.weight_hh_l2 f4 [128, 32]
0	0xbd9527e2	-0.07282998
1	0x3d48ea54	0.049051598
2	0xbe2a0889	-0.16604818
3	0xbe66994b	-0.22519414
4	0xbcffb2b5	-0.031213144
5	0xbe8a12ef	-0.2696757
6	0xbd8d4af8	-0.06899065
7	0xbde89d00	-0.113580704
8	0x3d85ada1	0.06527258
9	0xbe8626ec	-0.2620157
10	0x3dfcd12a	0.123445824
11	0xbe08506f	-0.13311933
12	0xbe8d77f9	-0.27630594
13	0xbe94dccd	-0.29074708
14	0xbe5afe73	-0.21386127
15	0x3e832484	0.25613797
16	0xbd1a1f61	-0.03762758
17	0xbec8b99e	-0.39204115
18	0xbe210bca	-0.15727153
19	0xbe8b559e	-0.27213758
20	0xbe9f74cf	-0.31143805
21	0x3eb3ee3b	0.35142693
22	0x3e614b7a	0.22001448
23	0x3e854319	0.26027754
24	0xbdaa4267	-0.083134465
25	0xbe7f1cae	-0.24913284
26	0xbc606330	-0.013695523
27	0xbe8b29c4	-0.27180302
28	0x3c812a7c	0.015767328
29	0xbc7ada30	-0.015310809
30	0x3d9e8dc4	0.077418834
31	0xbd72ccae	-0.05927723
32	0xbed86c0f	-0.42269942
33	0x3eef30a6	0.46716803
34	0x3e74f9e6	0.23923454
35	0x3e8b4d4e	0.27207416
36	0x3f1b766f	0.6072759
37	0xbea1cad0	-0.31600046
38	0x3de969a0	0.113970995
39	0xbf051ea4	-0.5199988
40	0xbdc8a128	-0.09796363
41	0x3e3ffc88	0.18748677
42	0xbe76738b	-0.24067514
43	0xbe6ae688	-0.22939503
44	0x3d500bd4	0.05079253
45	0xbf038988	-0.5138173
46	0xbe66193e	-0.22470567
47	0x3ec300cf	0.38086554
48	0x3ea7d7f6	0.32781953
49	0xbe4ac066	-0.19799957
50	0xbd3453fa	-0.0440254
51	0xbe604d67	-0.21904527
52	0x3e92f7df	0.28704736
53	0x3e773d98	0.2414459
54	0xbcec25f9	-0.0288267
55	0x3eb3e67a	0.35136777
56	0xbdb709da	-0.08937426
57	0xbe7f3dbd	-0.24925895
58	0x3eecd2b2	0.46254498
59	0xbda798fd	-0.08183477
60	0xbe687897	-0.22702251
61	0xbebaf84b	-0.36517558
62	0xbd6585c4	-0.056035772
63	0xbf5e9ef8	-0.8696132
64	0x3e622070	0.22082686
65	0xbf48db7d	-0.7845991
66	0xbe84ed0c	-0.25962102
67	0x3e93c9fd	0.28865042
68	0xbe2dc01b	-0.16967814
69	0x3dda1c17	0.10649889
70	0xbe2d3a0b	-0.16916673
71	0xbd01801b	-0.03161631
72	0x3e66a011	0.22521998
73	0xbdd88101	-0.105714805
74	0xbec00583	-0.37504205
75	0xbf09f383	-0.53887194
76	0x3f0a16cd	0.5394104
77	0xbd1c14db	-0.038105827
78	0x3e828290	0.25490236
79	0x3d8560be	0.06512593
80	0x3ebfd45b	0.37466702
81	0xbef00e93	-0.4688612
82	0xbf0fec92	-0.5622035
83	0x3f30cf34	0.69066167
84	0xbe503e3f	-0.20336245
85	0xbee7edf9	-0.45298746
86	0x3e33e54f	0.17567943
87	0x3f49e951	0.7887164
88	0x3efbea7e	0.4920234
89	0x3f2f1b41	0.6840096
90	0xbe61e29f	-0.22059105
91	0xbea3fa23	-0.32026777
92	0xbd97570b	-0.07389649
93	0x3ea0ec29	0.31430176
94	0x3f49404d	0.7861374
95	0xbd442f06	-0.047896408
96	0x3e020469	0.12696995
97	0xbd247bdf	-0.040157195
98	0xbed4338f	-0.41445586
99	0x3e93704c	0.28796613
100	0xbebb8911	-0.3662801
101	0x3e7dfc1e	0.24803206
102	0x3e89e1b0	0.26929998
103	0x3c25a599	0.010110282
104	0x3cda507d	0.026649708
105	0x3cddb7c6	0.027065169
106	0xbe71fd44	-0.2363177
107	0xbdbcb56b	-0.0921429
108	0xbe1061ec	-0.14099854
109	0xbc96fdc9	-0.018431561
110	0xbd8cb0f7	-0.06869691
111	0xbc303f03	-0.010757211
112	0x3dbe4558	0.0929057
113	0x3d6f837f	0.058475014
114	0xbe48a7f4	-0.19595319
115	0x3efd7d8f	0.49509856
116	0xbf2b2bb9	-0.6686359
117	0x3ea89f47	0.3293402
118	0x3e411625	0.18856104
119	0x3f3d7207	0.74002117
120	0xbd4b2676	-0.049597226
121	0x3d74fe3e	0.059812777
122	0xbf2fd4e8	-0.68684244
123	0x3e74c03a	0.23901454
124	0xbe9bda53	-0.30440006
125	0xbd8d3188	-0.06894213
126	0xbe00aa29	-0.12564911
127	0x3caaa348	0.020829812
128	0x3dd69cae	0.10479103
129	0x3ccf9571	0.025339814
130	0x3d3fbf73	0.04681344
131	0xbee71aba	-0.45137578
132	0xbd364a43	-0.044504415
133	0xbeb6c294	-0.35695326
134	0x3ea4a5ba	0.3215769
135	0xbd551e17	-0.05203065
136	0x3c3529ec	0.011057358
137	0x3e2abfd1	0.16674735
138	0xbeef0be5	-0.46688762
139	0x3e475af7	0.19468294
140	0xbe4a0da7	-0.1973177
141	0x3e71ef31	0.236264
142	0xbebb8e01	-0.36631778
143	0xbecf654a	-0.40506965
144	0xbec6dabb	-0.38838753
145	0xbf18eee7	-0.59739536
146	0x3f1719da	0.5902382
147	0x3e9f6209	0.31129482
148	0xbf18068f	-0.5938501
149	0x3cbe033c	0.023194902
150	0xbe8622da	-0.26198465
151	0x3f2e3291	0.6804591
152	0xbe29fa59	-0.16599406
153	0x3e36865d	0.17824693
154	0xbea9666b	-0.3308595
155	0xbf084299	-0.5322662
156	0xbebd3368	-0.36953282
157	0x3f0f33e7	0.5593857
158	0xbd486b47	-0.048930433
159	0xbccd33d1	-0.025049122
160	0x3e85ac44	0.2610799
161	0xbeccd506	-0.40006274
162	0xbeb3d9a7	-0.35126993
163	0x3e18434c	0.14869422
164	0x3e92af6f	0.2864947
165	0x3e208071	0.15673997
166	0xbe565517	-0.20930897
167	0xbdef16bd	-0.11674259
168	0xbe3c943c	-0.18415922
169	0x3e6ade3c	0.22936338
170	0xbe9b76fd	-0.30364218
171	0xbecb6657	-0.39726517
172	0xbc079009	-0.008274087
173	0xbe594c0b	-0.21220414
174	0xbdec6de1	-0.11544395
175	0x3db2c134	0.08728257
176	0xbd08bc90	-0.033382952
177	0xbed85364	-0.42251122
178	0xbddc6296	-0.10760991
179	0x3eb8776e	0.36028618
180	0xbed678e3	-0.41889104
181	0x3da1457b	0.078745805
182	0x3ebed513	0.37271938
183	0x3f66721b	0.9001786
184	0xbe8585d3	-0.26078662
185	0xbe19f49e	-0.1503472
186	0x3c4cc607	0.012498385
187	0xbe2836a0	-0.16427088
188	0xbdabdff9	-0.08392329
189	0x3d509f6d	0.05093329
190	0x3e01d511	0.12678935
191	0xbd07194b	-0.032983106
192	0xbe1b45d7	-0.1516336
193	0xbf25c0aa	-0.6474711
194	0x3f2b9982	0.6703111
195	0x3ea3546c	0.31900346
196	0x3ee5dc85	0.44894806
197	0x3e7fe54f	0.24989818
198	0xbeb374e3	-0.35050115
199	0xbebd3686	-0.3695566
200	0x3dfa8ef7	0.122343
201	0xbf6866d4	-0.90781903
202	0xbe700eda	-0.23443165
203	0xbde00c76	-0.10939877
204	0x3e0bac8e	0.13640043
205	0xbe6f03a4	-0.23341233
206	0x3f8d9e20	1.1063881
207	0xbc7739aa	-0.015089432
208	0x3e91f096	0.28503865
209	0xbeb4b839	-0.352968
210	0xbe81a3e1	-0.25320342
211	0x3ef04422	0.4692698
212	0xbf4a52fd	-0.7903288
213	0xbe8d24c1	-0.27567104
214	0xbe8970c2	-0.2684384
215	0x3f885b49	1.0652858
216	0x3e78c751	0.24294783
217	0x3f40e4c9	0.753491
218	0x3ccc25c5	0.024920354
219	0xbf851887	-1.039811
220	0xbf34adfd	-0.70577985
221	0xbe12762c	-0.14302891
222	0x3e504a9a	0.20340958
223	0xbe66c33a	-0.2253541
224	0x3eaf30fa	0.34217054
225	0xbe95f276	-0.29286546
226	0xbeae9de3	-0.34104833
227	0x3f041c36	0.51605546
228	0x3ee0ea7c	0.43928897
229	0xbe56e622	-0.20986226
230	0x3ed349e0	0.412673
231	0xbe35e1a6	-0.1776186
232	0xbf0998ac	-0.53748584
233	0x3e2aeacb	0.16691129
234	0xbbe70fe9	-0.007051457
235	0xbe31016d	-0.172857
236	0x3e6acca0	0.2292962
237	0x3e73f880	0.23825264
238	0x3d014b83	0.031566154
239	0xbd399736	-0.04531022
240	0x3ded0d3e	0.11574791
241	0xbdd605cd	-0.10450325
242	0x3d7afa55	0.06127389
243	0x3e070d98	0.1318878
244	0xbee23db7	-0.4418771
245	0x3e24eb86	0.1610547
246	0xbe16162e	-0.14656898
247	0x3f475bce	0.7787446
248	0xbea32b24	-0.3186885
249	0xbdba9d33	-0.091120146
250	0xbe63c128	-0.22241652
251	0x3e49fad7	0.19724594
252	0xbf3682f9	-0.712936
253	0xbf153066	-0.58276975
254	0xbd1b8353	-0.037967037
255	0x3da48ada	0.08034296
