time_series_intro_class/final_project/temp/1_layer_32_size_model_epoch_2900.pth (torch, 19555 bytes, 5 tensors)

lstm.weight_ih_l0 f4 [128, 1]
3.1512032 2.8341477 2.5150106 -2.0036423 0.45554385 -0.2443001 -2.7269526 -0.4328216
2.5925136 -2.5334566 2.814648 -3.635432 -2.4356825 0.94285405 -1.9738686 0.67536694
-3.2508485 -2.642335 0.54439527 -1.6273961 0.53906846 1.1053613 0.22983159 1.560773
1.3211474 0.042879842 0.39403808 1.4710921 0.782039 1.3930241 1.0304447 -1.0052894
-0.22727802 0.6548025 2.9803722 4.5038123 1.7097353 0.7290454 0.23492768 1.7796091
-0.075534634 0.31345367 2.060549 1.8996968 -2.1485467 1.3815678 -2.4804516 0.18787009
1.4875811 1.8708366 0.26402858 1.5095614 -0.32943153 0.3803158 0.8309727 4.7341785
1.1157258 -1.0687187 -0.27045104 -0.6965329 -1.5609292 -0.4194026 0.21653542 1.0195079
0.64347523 -0.7438047 -0.38777062 2.370656 0.7203071 0.49477372 -1.2368274 0.6977758
0.1495666 0.12964372 -0.24232097 -1.5374388 0.9878816 0.1329655 0.31089437 0.9456724
-0.6078677 2.6593378 0.42987004 1.1866257 0.037894864 0.31960076 0.7294864 0.7938992
-0.82104677 0.045637812 1.4451141 -0.20724492 0.13043645 3.7860262 2.0035744 -0.42489126
1.4250853 1.2178537 1.7107468 -1.2763612 1.289996 -0.09565346 -1.1109533 -0.81275576
1.8055553 -1.3898051 2.7780287 -1.5918888 -1.4089956 -1.3086201 -3.2643893 0.42734477
-0.2870295 -1.2932106 0.3037127 -0.7531318 -0.07436585 0.7962386 1.229882 1.9357365
0.46816674 -0.57940066 -0.25736895 1.274286 -0.004018591 0.425784 1.2563788 0.001470267
00000000: 50ad 4940 ad62 3540 eff5 2040 ad3b 00c0
00000010: 0b3d e93e ce29 7abe 6486 2ec0 cb9a ddbe
00000020: beeb 2540 2724 22c0 3123 3440 ebaa 68c0
00000030: 39e2 1bc0 e25e 713f baa7 fcbf d9e4 2c3f
00000040: e70d 50c0 041c 29c0 7d5d 0b3f 844e d0bf
00000050: 6400 0a3f 7b7c 8d3f f958 6b3e 69c7 c73f
00000060: 5c1b a93f c6a2 2f3d 5cbf c93e bf4c bc3f
00000070: b533 483f 9d4e b23f 9de5 833f 53ad 80bf
00000080: 92bb 68be 23a1 273f 6bbe 3e40 3b1f 9040
00000090: 9bd8 da3f b8a2 3a3f e290 703e 3bca e33f
000000a0: e7b1 9abd 007d a03e 09e0 0340 4429 f33f
000000b0: ca81 09c0 37d7 b03f b8bf 1ec0 0461 403e
000000c0: 0f69 be3f 9377 ef3f c12e 873e 4f39 c13f
000000d0: 40ab a8be c1b8 c23e a0ba 543f 647e 9740
000000e0: 1ad0 8e3f c6cb 88bf 8f78 8abe fb4f 32bf
000000f0: 87cc c7bf f0bb d6be 76bb 5d3e 3c7f 823f
00000100: cbba 243f fc69 3ebf df89 c6be d4b8 1740
00000110: 0c66 383f fb52 fd3e 5c50 9ebf 6fa1 323f
00000120: fd27 193e 53c1 043e fd22 78be cbca c4bf
00000130: cfe5 7c3f 1c28 083e 8c2d 9f3e 9617 723f
00000140: 389d 1bbf 9732 2a40 ed17 dc3e 5ae3 973f
00000150: a537 1b3d b6a2 a33e 9fbf 3a3f fa3c 4b3f
00000160: 1f30 52bf b7ee 3a3d 80f9 b83f 0338 54be
00000170: 2291 053e 414e 7240 903a 0040 598b d9be
00000180: 3269 b63f a1e2 9b3f c0f9 da3f ce5f a3bf
00000190: 971e a53f f6e5 c3bd b833 8ebf c310 50bf
000001a0: 701c e73f 22e5 b1bf 39cb 3140 03c3 cbbf
000001b0: f859 b4bf dd80 a7bf c1eb 50c0 efcc da3e
000001c0: 88f5 92be ed87 a5bf 3b80 9b3e 3fcd 40bf
000001d0: 1f4d 98bd 4bd6 4b3f c66c 9d3f 37c6 f73f
000001e0: 8db3 ef3e 9a53 14bf ddc5 83be ce1b a33f
000001f0: 62ae 83bb 5c00 da3e 05d1 a03f f9b5 c03a

lstm.weight_hh_l0 f4 [128, 32]
0.19888218 -0.10181828 0.044791173 0.06227145 -0.40185672 0.18639079 0.22510324 -0.47861093
-0.43328762 0.25068146 0.17494373 0.44829625 0.28180456 0.12911473 -0.06896061 0.0018670214
-0.056590136 -0.17327408 0.052958447 -0.16848436 -0.096646145 -0.124275506 -0.17161705 0.32746953
0.32078382 0.09313444 0.19617356 0.32638812 -0.017952524 1.6258359 0.23830368 -0.7291815
0.571708 -0.41669285 0.0995014 0.29336575 0.02052093 0.60751843 -0.5153646 1.2939131
0.41713414 -0.32149327 0.7508191 -0.58405596 -0.2095606 0.79711497 0.32848048 -0.08628163
-0.7533138 0.1695358 -0.01230227 0.30137277 0.22775444 -0.1998739 0.11402251 0.14420749
-0.49103382 -0.27054867 0.11778858 -0.2859209 0.2239861 0.32728434 -0.3106212 -0.22228855
0.00755307 -0.09416864 -0.14673917 0.6795823 -0.11896389 -0.10933895 0.7041205 0.42880645
0.042816043 0.16204938 -0.23482554 0.64091897 -0.04180329 0.15338595 0.3797129 -0.22038643
0.38250738 -1.0363529 -0.19311303 -0.061339594 -0.15773582 0.33017892 0.23801562 0.16407779
-0.3958331 -0.0128078135 -0.0885752 -0.082545355 -0.91643894 -0.3515157 0.03566691 -0.3770455
-0.44264588 0.83550817 -0.9677201 2.1093593 0.12928122 -0.033563696 -0.027964307 -0.080197185
-1.0467869 1.5302973 -0.74016917 0.08191948 0.46462417 -0.69610786 0.5437544 -0.40523952
-0.21472242 1.3802801 0.2630513 0.49362233 -0.81913555 0.054687787 -0.17654198 0.47854054
0.7603844 0.6949477 0.19341448 0.860168 1.0779651 1.6785402 1.312943 -1.2534438
-0.4312082 0.68614215 0.16914551 0.8306989 -0.53854835 0.123649016 0.42191836 0.06029635
-0.80040306 0.5119291 0.074351765 0.44060534 -0.094838955 -0.18618956 0.45419306 -0.57069343
0.17551659 -0.48434806 0.1620577 -0.108995035 -0.08882159 -0.27796134 -0.5534883 0.4023604
0.013363619 -0.15950634 -0.7288728 0.7860058 -0.29339498 0.56093156 0.07621591 -0.15292276
0.054027714 -0.23795415 0.07836039 0.1589735 -0.12842569 0.22926992 0.048242602 -0.42846832
-0.0022710315 0.5703399 -0.1509856 0.11232149 -0.32840773 -0.11790515 0.1027068 0.029234301
0.34484544 -0.5295082 -0.36559805 0.38656718 0.11849068 -0.13516597 -0.48602816 0.07781969
-0.01918588 -0.48089272 -0.091687895 0.6436997 -0.32653672 0.15474096 -0.35234487 0.3148225
0.1518122 -0.2829941 -0.74349576 0.5344501 0.097859226 -0.17258793 0.44902223 0.22386229
-0.41453913 0.6299421 -0.21322525 0.022007756 -0.07538842 0.28176185 0.33461747 -0.55430585
-0.19536789 0.06191972 0.010478404 -0.13612637 -0.2900813 0.015297034 0.5486888 0.7645027
-0.31442794 -0.10675076 0.34213665 0.32347235 -0.3741816 0.19817987 -0.418285 -0.45193407
-0.0146375345 0.45324388 0.019049013 -0.19763418 -1.3020079 1.1094557 -0.03380178 -0.44939584
-0.3031202 0.8181479 -1.2216225 0.5520121 0.39262563 -0.64785755 0.6161038 0.14955471
0.17774446 -0.079578884 1.650923 0.62621075 0.32005677 -1.2185214 -0.5792177 0.006950479
-0.41784 0.95251995 -0.19440971 1.4336593 0.19309822 0.106537886 1.1871488 -0.16558883
00000000: c5a7 4b3e 1a86 d0bd f376 373d 5910 7f3d
00000010: 2ac0 cdbe 3add 3e3e 7781 663e 7e0c f5be
00000020: e0d7 ddbe 5259 803e 7324 333e 1687 e53e
00000030: b048 903e a736 043e 383b 8dbd d8b6 f43a
00000040: 0fcb 67bd c36e 31be f5ea 583d 2a87 2cbe
00000050: 6aee c5bd 2884 febd 61bc 2fbe 16aa a73e
00000060: c73d a43e 45bd be3d b9e1 483e 581c a73e
00000070: 2c11 93bc 641b d03f e105 743e a4ab 3abf
00000080: 755b 123f c458 d5be 64c7 cb3d 0934 963e
00000090: 821b a83c 5486 1b3f efee 03bf f29e a53f
000000a0: 9b92 d53e c49a a4be ae35 403f b184 15bf
000000b0: 0e97 56be ba0f 4c3f 982e a83e 6cb4 b0bd
000000c0: 2cd9 40bf cb9a 2d3e 768f 49bc 884d 9a3e
000000d0: 7638 693e beab 4cbe a284 e93d 21ab 133e
000000e0: c968 fbbe 5b85 8abe 243b f13d 3964 92be
000000f0: 9d5c 653e d091 a73e be09 9fbe 9c9f 63be
00000100: be7f f73b 7ddb c0bd cb42 16be 1bf9 2d3f
00000110: 57a3 f3bd 19ed dfbd 3e41 343f 858c db3e
00000120: e05f 2f3d 46f0 253e 1b76 70be 4413 243f
00000130: ed39 2bbd 3511 1d3e bb69 c23e fbac 61be
00000140: 02d8 c33e 36a7 84bf 6cbf 45be 3a3f 7bbd
00000150: 8085 21be 360d a93e 5eba 733e 0204 283e
00000160: a3aa cabe ddd7 51bc ea66 b5bd 8a0d a9bd
00000170: be9b 6abf def9 b3be 7717 123d 1c0c c1be
00000180: 7ba2 e2be dde3 553f 81bc 77bf beff 0640
00000190: 4c62 043e 167a 09bd 6715 e5bc 6c3e a4bd
000001a0: 1dfd 85bf c8e0 c33f ba7b 3dbf 66c5 a73d
000001b0: 38e3 ed3e 2034 32bf 7d33 0b3f 8e7b cfbe
000001c0: 32e0 5bbe 05ad b03f a9ae 863e 11bc fc3e
000001d0: deb2 51bf 4d00 603d 6cc7 34be 4403 f53e
000001e0: 8da8 423f 18e8 313f 720e 463e f833 5c3f
000001f0: c3fa 893f 68da d63f 840e a83f d970 a0bf
00000200: 52c7 dcbe 03a7 2f3f 7b34 2d3e afa8 543f
00000210: 4ede 09bf b23b fd3d af05 d83e 4ef9 763d
00000220: 37e7 4cbf c90d 033f bd45 983d 0697 e13e
00000230: ed3a c2bd 7aa8 3ebe fe8b e83e f718 12bf
00000240: 9fba 333e 78fc f7be 74f2 253e ca38 dfbd
00000250: 18e8 b5bd f350 8ebe 69b1 0dbf 2f02 ce3e
00000260: 15f3 5a3c a155 23be 6897 3abf ad37 493f
00000270: de37 96be 3699 0f3f 1617 9c3d c997 1cbe
00000280: 2a4c 5d3d 41aa 73be 6a7b a03d f3c9 223e
00000290: 0682 03be bcc5 6a3e 099a 453d 3360 dbbe
000002a0: 96d5 14bb cc01 123f f89b 1abe cf08 e63d
000002b0: 0f25 a8be 4178 f1bd f157 d23d c67c ef3c
000002c0: 958f b03e d98d 07bf ab2f bbbe 22ec c53e
000002d0: 3eab f23d f368 0abe afd8 f8be ee5f 9f3d
000002e0: b52b 9dbc 9237 f6be ddc6 bbbd 81c9 243f
000002f0: d22f a7be 6a74 1e3e 8c66 b4be 6a30 a13e
00000300: a874 1b3e 9ae4 90be bd55 3ebf b9d1 083f
00000310: 6b6a c83d e4ba 30be 3ee6 e53e 283c 653e
00000320: 793e d4be e343 213f b857 5abe 9c49 b43c
00000330: 3e65 9abd 1743 903e fb52 ab3e fde6 0dbf
00000340: 850e 48be 889f 7d3d 9dad 2b3c b664 0bbe
00000350: 8985 94be 69a0 7a3c df76 0c3f 73b6 433f
00000360: b3fc a0be 24a0 dabd 892c af3e 2b9e a53e
00000370: bb94 bfbe aaef 4a3e 7429 d6be e763 e7be
00000380: 45d2 6fbc 950f e83e ad0c 9c3c 9d60 4abe
00000390: 32a8 a6bf a502 8e3f bc73 0abd 3617 e6be
000003a0: 9232 9bbe 2472 513f 205e 9cbf aa50 0d3f
000003b0: 3a06 c93e fed9 25bf fbb8 1d3f df24 193e
000003c0: a502 363e 41fa a2bd 7251 d33f 594f 203f
000003d0: 7bde a33e 82f8 9bbf 9c47 14bf d8c0 e33b
000003e0: 20ef d5be 59d8 733f 5713 47be 2682 b73f
000003f0: 8abb 453e 8930 da3d 7ef4 973f 1e90 29be

lstm.bias_ih_l0 f4 [128]
0.13953188 0.250481 -0.3583914 0.47366646 -0.17642464 0.053309184 0.071636826 0.59074545
0.108127765 -0.19273241 0.2220168 0.06166774 0.5070768 -0.05512667 0.32092732 0.17502429
-0.01384177 0.3373811 -0.2970813 0.18274893 0.3751897 0.10227339 -0.25997102 0.1165102
-0.21864663 0.061965104 -0.0040899315 -0.011798504 -0.10690194 0.58061934 0.28183714 0.09147618
0.059128195 0.35272548 -0.09894959 -0.22154145 -0.121508524 0.10530701 0.12965515 0.06807811
0.15479809 -0.16442764 -0.20975532 0.25402972 0.22110057 0.1856633 -0.09539929 0.20792715
-0.21752381 0.3018635 0.08956846 -0.0009832195 0.17665637 0.11623188 -0.013983584 0.23795503
-0.059737515 0.12788497 0.10262812 0.17337798 -0.2553731 -0.2966309 -0.17522362 0.13086142
-0.13464978 0.08877417 -0.0031172612 0.011504093 0.07056236 0.0829708 -0.1875573 -0.10819225
0.077141106 0.028395513 0.011296389 0.040591642 0.106280595 -0.019446036 0.072176084 -0.006061829
-0.022563634 0.1443543 0.018960468 -0.0029079972 -0.11843895 -0.05278015 -0.060880095 0.024247566
0.09843792 0.13141745 0.02941656 0.006048831 0.10683394 -0.12916355 0.057556767 -0.15142539
0.091933504 0.2287872 -0.08185009 0.30237374 0.014686875 0.031561792 -0.025855716 0.81873584
0.025405979 -0.117921196 0.18760872 0.15847759 0.5323894 0.017982278 0.20010932 0.05422988
-0.10555692 0.5078845 -0.07338153 0.18875867 0.3833654 -0.12102503 -0.237824 0.20288287
-0.11521488 -0.019456403 -0.03815518 0.16097894 0.028669856 0.8308792 0.07991181 0.4565119
00000000: 72e1 0e3e 0c3f 803e 147f b7be 6984 f23e
00000010: a9a8 34be bb5a 5a3d 54b6 923d 183b 173f
00000020: 1772 dd3d a55b 45be 5f58 633e 5097 7c3d
00000030: c9cf 013f 81cc 61bd 9650 a43e 9139 333e
00000040: 97c8 62bc 37bd ac3e 0a1b 98be 8922 3b3e
00000050: dd18 c03e b674 d13d ec1a 85be e69c ee3d
00000060: e7e4 5fbe 1fcf 7d3d d504 86bb 834e 41bc
00000070: 68ef dabd 78a3 143f f54c 903e dd57 bb3d
00000080: 6830 723d 6f98 b43e 15a6 cabd c3db 62be
00000090: 76d9 f8bd 34ab d73d 52c4 043e 896c 8b3d
000000a0: 6483 1e3e b85f 28be 19ca 56be 2f10 823e
000000b0: 3068 623e 851e 3e3e b460 c3bd dbea 543e
000000c0: 90be 5ebe da8d 9a3e ab6f b73d 5fdf 80ba
000000d0: 68e5 343e fb0a ee3d 671b 65bc 7caa 733e
000000e0: 53af 74bd 47f4 023e b12e d23d ff89 313e
000000f0: 43c0 82be 01e0 97be d26d 33be 8900 063e
00000100: a2e1 09be 3bcf b53d f74a 4cbb aa7b 3c3c
00000110: 0083 903d 98ec a93d 050f 40be e693 ddbd
00000120: 28fc 9d3d b59d e83c 7d14 393c 6c43 263d
00000130: a4a9 d93d 4b4d 9fbc 0ed1 933d 4fa2 c6bb
00000140: 5fd7 b8bc 9dd1 133e fc52 9b3c 1994 3ebb
00000150: 1f90 f2bd 0030 58bd 685d 79bd d5a2 c63c
00000160: d299 c93d 4c92 063e fffa f03c 4635 c63b
00000170: c1cb da3d 7343 04be a5c0 6b3d 420f 1bbe
00000180: a247 bc3d 3147 6a3e 05a1 a7bd bbd0 9a3e
00000190: 38a1 703c f046 013d 5ecf d3bc ac98 513f
000001a0: 3320 d03c ab80 f1bd 801c 403e f347 223e
000001b0: ac4a 083f 924f 933c 75e9 4c3e 2720 5e3d
000001c0: 3a2e d8bd b804 023f 0e49 96bd f449 413e
000001d0: 7848 c43e f9db f7bd 2288 73be 87c0 4f3e
000001e0: c7f5 ebbd 0963 9fbc 9b48 1cbd aad7 243e
000001f0: 0cdd ea3c 80b4 543f cea8 a33d eebb e93e

lstm.bias_hh_l0 f4 [128]
0.11007543 0.15725262 -0.2070185 0.42099017 -0.34994075 0.1511841 0.11102397 0.64810663
-0.01811921 -0.1764061 0.16940731 -0.1828995 0.39869708 0.26089215 0.5282201 0.031367116
-0.015941726 0.23655854 -0.3300455 0.2208657 0.30197847 0.12845922 -0.14291957 0.20968701
-0.22106624 -0.014613193 0.017787004 -0.020628951 0.032480385 0.5601427 0.16315937 0.3734332
0.056796446 0.31545094 -0.16170618 -0.27298692 -0.2883992 -0.19347441 0.1473528 0.18843359
0.26122048 -0.15937488 -0.05513307 0.25928232 0.1047828 0.02311148 0.09511227 0.14844263
-0.0005247058 0.056583114 0.04138052 -0.03290044 0.21780588 0.17593156 -0.20527701 0.2072134
0.08718489 -0.017223686 0.03487887 0.17282948 -0.44402924 -0.28125295 0.04336102 -0.12419732
0.031230306 -0.012539234 -0.09147448 0.13050953 0.009843932 0.081017986 0.11791898 -0.012921978
-0.0809398 0.16090624 -0.068379305 -0.06777326 -0.18183498 0.10702116 -0.007976612 0.046941165
-0.020958351 -0.094190426 -0.004534455 -0.0045746444 0.026179833 -0.07385318 0.0047361874 0.06177321
-0.101576425 0.08947696 -0.009827525 -0.015881086 -0.0029457577 0.071695894 -0.020232638 0.089257844
0.10259182 0.13161807 -0.345899 0.31430963 -0.29084945 -0.17307068 -0.042463645 0.55705374
0.20761594 0.032252286 0.20339887 0.06701225 0.34657675 0.020338897 0.13532922 0.071555465
0.17063816 0.67267036 -0.2642554 -0.00073900755 0.303272 0.02319855 -0.07269567 0.24534395
-0.022113638 -0.123135 -0.07881443 -0.029167272 -0.16661616 0.7583218 0.16117044 0.18758895
00000000: 3a6f e13d d506 213e a8fc 53be 068c d73e
00000010: 6f2b b3be 01d0 1a3e 8960 e33d 51ea 253f
00000020: bd6e 94bc cda3 34be 1c79 2d3e 024a 3bbe
00000030: 0622 cc3e a893 853e 6f39 073f ce7a 003d
00000040: 3998 82bc 673c 723e b9fb a8be 9e2a 623e
00000050: ec9c 9a3e d08a 033e 8259 12be 31b8 563e
00000060: 305f 62be 2d6c 6fbc 0db6 913c 0cfe a8bc
00000070: 270a 053d 8365 0f3f 4013 273e a332 bf3e
00000080: 64a3 683d c982 a13e 4e96 25be f1c4 8bbe
00000090: 0fa9 93be 281e 46be a7e3 163e bcf4 403e
000000a0: b1be 853e 2b33 23be 37d3 61bd a7c0 843e
000000b0: 5d98 d63d 4954 bd3c 39ca c23d 5801 183e
000000c0: 698c 09ba b2c3 673d 9f7e 293d 9dc2 06bd
000000d0: 8108 5f3e 6727 343e 2334 52be c02f 543e
000000e0: fe8d b23d b018 8dbc 25dd 0e3d 36fa 303e
000000f0: cd57 e3be 6300 90be 539b 313d 2a5b febd
00000100: b3d6 ff3c 5c71 4dbc f956 bbbd 4aa4 053e
00000110: 7248 213c c2ec a53d 827f f13d b4b6 53bc
00000120: c4c3 a5bd 9bc4 243e 730a 8cbd b5cc 8abd
00000130: f332 3abe e92d db3d 56b0 02bc 6145 403d
00000140: d9b0 abbc e9e6 c0bd c495 94bb e6e6 95bb
00000150: 1777 d63c 5640 97bd 0532 9b3b e805 7d3d
00000160: 4d07 d0bd b23f b73d a103 21bc 0d19 82bc
00000170: 9d0d 41bb 4cd5 923d ebbe a5bc d1cc b63d
00000180: a91b d23d e3c6 063e ac19 b1be 31ed a03e
00000190: 38ea 94be 7139 31be 5cee 2dbd 139b 0e3f
000001a0: 4699 543e f91a 043d cb47 503e b83d 893d
000001b0: 8272 b13e c29d a63c be93 0a3e ac8b 923d
000001c0: c5bb 2e3e 2034 2c3f 7c4c 87be f5b9 41ba
000001d0: 7846 9b3e e30a be3c 78e1 94bd 723b 7b3e
000001e0: a927 b5bc 342e fcbd 7669 a1bd 34f0 eebc
000001f0: 6d9d 2abe 6121 423f dd09 253e 5117 403e

fc.weight f4 [1, 32]
0.12728427 -0.15632617 0.017676145 0.1572803 0.0884069 -0.10448524 0.037736557 0.045201257
0.028290624 0.07603289 0.21164398 0.08190812 -0.05958779 0.11500869 -0.02134877 0.07910175
0.17747465 -0.07765676 -0.06373334 -0.05558297 0.087705 0.1684132 -0.0371088 -0.059811875
0.098567344 -0.15348536 0.02923106 -0.015530477 -0.034418497 -0.10091977 -0.19368269 0.11518812
00000000: cf56 023e f813 20be 90cd 903c 160e 213e
00000010: ad0e b53d 5cfc d5bd a691 1a3d f424 393d
00000020: bdc1 e73c 22b7 9b3d 33b9 583e 72bf a73d
00000030: 5412 74bd ad89 eb3d 9ee3 aebc 1900 a23d
00000040: eabb 353e 820a 9fbd a086 82bd f8aa 63bd
00000050: ae9e b33d 8374 2c3e 66ff 17bd 4cfd 74bd
00000060: addd c93d 442b 1dbe fa75 ef3c 8b73 7ebc
00000070: 69fa 0cbd 06af cebd c154 46be c0e7 eb3d
