time_series_intro_class/final_project/temp/1_layer_8_size_model_epoch_1600.pth (torch, 2979 bytes, 5 tensors)

lstm.weight_ih_l0 f4 [32, 1]
000000 3a 3b c1 3f 78 33 d1 3e 2b b4 9b bf 8a b0 18 be
       1.50962 0.4085958 -1.2164358 -0.14911094
000010 2b 84 ea bd 72 71 1f bf 8b 43 df bf 27 6b b3 be
       -0.1145099 -0.6228248 -1.7442487 -0.35042688
000020 b3 a3 79 be ea 3d 7f bd 0d 2e 66 be 65 70 c1 be
       -0.24378853 -0.062314905 -0.22478504 -0.37781063
000030 90 45 ba bd f9 f4 2c bc 85 11 21 be b4 89 60 3e
       -0.09095299 -0.010556453 -0.1572934 0.2192753
000040 56 38 09 3f 61 44 42 be e8 bf 4b 3e e8 60 19 3d
       0.53601587 -0.18971397 0.19897425 0.037445933
000050 c9 01 54 3e e0 1c 4b be b5 8b a1 be f3 1d db bc
       0.20703806 -0.19835234 -0.315519 -0.02674768
000060 0e e3 c7 3f 60 c7 c1 be 00 8c 80 bf f5 ff c7 3d
       1.5616167 -0.37847424 -1.0042725 0.09765617
000070 50 42 87 3b a7 b6 cd be 00 0b 82 bf 10 05 e8 be
       0.004127778 -0.40178415 -1.0159607 -0.45316362

lstm.weight_hh_l0 f4 [32, 8]
000000 a6 31 b6 3e 6e a6 a5 3e a2 8f 95 bd dc d3 35 be
       0.35584754 0.32353538 -0.073027864 -0.17756599
000010 66 7c 8d 3e e1 38 19 3e c5 55 f7 3d dd e5 e4 be
       0.2763397 0.14963104 0.12076906 -0.44706622
000020 1c bb 8d be 0e 37 0b 3c b4 78 93 3c f6 7d a7 be
       -0.27681816 0.008497013 0.018001892 -0.32713288
000030 ea 95 36 be 89 11 37 be 53 93 f6 3d be f0 dc bb
       -0.17830625 -0.17877783 0.120398186 -0.006742566
000040 58 2e d1 bd af 91 df 3e a1 ef 90 3e 94 64 7c be
       -0.102139175 0.43665835 0.28307822 -0.24647743
000050 01 da a4 3e 0f 50 95 be c8 6b 29 be d8 41 54 be
       0.32197574 -0.29162642 -0.16545022 -0.20728242
000060 0f 55 2e bf 04 bd a2 3e 7c 78 70 3d 50 5b f7 3d
       -0.6809854 0.31784832 0.058708653 0.12077963
000070 37 7d 55 3e 20 84 56 3e d3 b7 17 3e 61 c1 04 3d
       0.20848547 0.20948839 0.14816217 0.032410983
000080 61 0f e6 be 2b 88 ae 3e 60 bc 0e be 28 c2 04 3e
       -0.44933608 0.34088263 -0.13939047 0.1296469
000090 2e 7a a8 3e 1e f6 87 be 30 3b 64 be a6 67 4c 3c
       0.32905716 -0.2655496 -0.22288203 0.012475884
0000a0 0d 3d 47 bc 79 b1 4f 3d dd 5a c9 3e 3a 8b 91 be
       -0.012160552 0.05070636 0.39327136 -0.28426534
0000b0 d3 53 85 be 98 97 a9 be 1d 9d 16 3e 1e 9a d8 be
       -0.26040515 -0.3312347 0.14708371 -0.42305082
0000c0 95 06 11 bd ba 47 b9 3e 84 1b 52 be a8 86 0a be
       -0.035406668 0.36187536 -0.20518309 -0.1352793
0000d0 a3 03 67 3e bf f1 ec 3d 55 40 c7 3e 1f af 6d be
       0.22559981 0.11569547 0.3891627 -0.23211335
0000e0 a2 8b 7a be 5b 1e a5 3a a4 4b dd 3c e0 62 a7 3e
       -0.24467328 0.0012597548 0.027013607 0.32692623
0000f0 4d 07 36 3e 04 57 b1 bd bd f8 b6 bd 0a 36 04 3e
       0.17776223 -0.08659175 -0.08934162 0.1291124
000100 a3 dc a9 3d be 28 35 be 2a fc 25 bd 99 b6 95 3d
       0.08294036 -0.17691323 -0.040523686 0.07310218
000110 56 ff df 3e f3 37 31 3e ca 49 06 3b f9 d2 14 be
       0.43749493 0.17306499 0.002049076 -0.14533605
000120 fc 72 e7 be 46 43 53 be 15 0d ba 3d fe eb 1e be
       -0.45204914 -0.20631132 0.090845264 -0.15519711
000130 d3 47 00 be cb bb 4d be ae 9e c8 be 4f ce ef bd
       -0.12527399 -0.20091169 -0.39183563 -0.11709272
000140 c6 78 13 3e 66 84 b8 3d f0 9c 94 3e b8 46 f0 bc
       0.1440154 0.09009628 0.29025984 -0.029330596
000150 37 ab 81 be e3 91 22 3e b0 b1 8e be eb f7 01 bd
       -0.2532594 0.15875964 -0.2786994 -0.031730574
000160 7e 7c 00 bf 11 74 f1 bd 78 ff 30 bd ac 36 3d 3e
       -0.5018996 -0.11789716 -0.043212384 0.18477887
000170 48 f3 4a 3e 9a c8 15 be 2c 4a 27 bd 59 1a 76 3e
       0.19819367 -0.14627305 -0.04084222 0.24033488
000180 b7 dd 13 bd fc 6a c6 3c 66 6e 51 bd c5 14 b2 3e
       -0.036100116 0.024220936 -0.051130675 0.3478147
000190 99 25 96 be 9b 7d 1f 3e e2 21 cb bc 49 69 1d be
       -0.2932556 0.15575258 -0.02479643 -0.15372194
0001a0 cc 54 c6 be 42 74 0e bd 9e 6d 9f 3e db ba a2 be
       -0.3873657 -0.03477884 0.3113832 -0.31783184
0001b0 1e e3 8d 3e 0a 4c f1 bd 77 95 7c bd f4 54 70 3b
       0.2771234 -0.117820814 -0.06166598 0.003667173
0001c0 57 c2 22 3e a0 16 20 3e 3f 95 71 be 90 66 11 bd
       0.15894447 0.15633631 -0.23592089 -0.0354982
0001d0 e1 f9 87 3e 63 a5 c6 bc cb 22 5e 3e 56 d9 ea 3d
       0.2655783 -0.024248784 0.2169296 0.11467235
0001e0 ec 0d f1 bd 2d 3f 06 be b6 a3 27 3e 38 a8 a2 bd
       -0.117702335 -0.13110037 0.16371045 -0.079422414
0001f0 37 e1 7b 3d d1 23 b0 3d c9 9a c0 be b3 a8 26 bd
       0.06149408 0.086005814 -0.37618092 -0.040688228
000200 8e 46 5c 3e 63 44 75 3e 8f 74 8d be 0b 4b 72 bb
       0.2151129 0.23951869 -0.2762799 -0.0036970999
000210 21 9f 0f bd 1c 3c 25 be bc d8 ca 3c ae 83 b6 3e
       -0.035063867 -0.16136211 0.02476155 0.3564734
000220 e2 2f 0c 3d 31 24 84 3d d7 c9 55 3e 80 90 42 be
       0.034225352 0.064522155 0.20877777 -0.19000435
000230 6c 5f a7 3e 7e 2a 37 be a5 15 4c be 94 3c fa bb
       0.3268999 -0.17887303 -0.19930132 -0.007636616
000240 98 cf cd 3e 7d 8f 3d bd fd 7d 25 be 7d 3c b1 be
       0.40197444 -0.04627942 -0.16161342 -0.3461646
000250 79 8b 82 be dd 68 55 be 1d 1c bb 3d 76 b2 c3 3c
       -0.25497034 -0.20840783 0.091362216 0.023888808
000260 c9 48 92 be 29 9e 54 3e 8a c9 21 be 8c 29 8d 3d
       -0.28571156 0.20763458 -0.15799537 0.0689269
000270 74 94 88 bd a3 6b bc bb a7 39 c5 3d 78 1a 26 bd
       -0.0666894 -0.005750136 0.09630137 -0.040552586
000280 a8 af 65 3e dd 02 68 3e 5d aa c3 be df 26 3f 3e
       0.22430289 0.22657342 -0.38215914 0.18667172
000290 5f e2 48 3e 40 d8 69 be be b5 7c 3e 54 f1 2b be
       0.19617604 -0.22836399 0.24678704 -0.16791278
0002a0 0d 5c 31 3e 11 3b 82 3e 1c 79 c1 3d 2c 08 60 3d
       0.17320271 0.2543569 0.09446928 0.054695293
0002b0 d4 0c 15 be c1 2b 5f 3e 93 eb a7 be b2 97 12 3e
       -0.14555675 0.21794035 -0.32796916 0.1431568
0002c0 1e 9e be 3e 59 ea 56 3d 14 1e 89 3e d5 78 86 3d
       0.3723001 0.052469585 0.2678076 0.06566016
0002d0 57 e4 1c be 10 c2 56 be bc 48 91 be d8 20 8b bd
       -0.1532148 -0.20972466 -0.28375804 -0.06793374
0002e0 88 e1 84 3d 0b 9a 80 bc 5a 49 5c be d4 17 7b 3e
       0.06488329 -0.015698453 -0.21512356 0.24520808
0002f0 ae 38 76 be ba fa 89 be 45 1c 0f be dc 36 ed 3d
       -0.24045059 -0.26949102 -0.13975628 0.11582729
000300 0e 74 02 3e 2e f0 0c be 52 56 40 3e f3 a8 2b 3e
       0.12739584 -0.13763496 0.18782929 0.16763668
000310 d0 ab fe 3d b6 1c 9a be 7c 26 97 be 70 b1 81 be
       0.124351144 -0.3010003 -0.2952155 -0.25330687
000320 ce a6 ad 3d ae f8 9c 3e 92 d1 51 3e f7 0f 0e 3e
       0.08479081 0.30658478 0.20490101 0.13873278
000330 78 ec 3f 3e 46 de ab be 6a 6f 00 be 37 68 47 be
       0.1874255 -0.3356802 -0.12542501 -0.19473349
000340 63 33 a9 3c d4 bd b0 3e 31 35 6e 3e 5b e1 f7 bd
       0.020654386 0.34519827 0.23262478 -0.1210353
000350 e3 4c aa 3e 7d 53 7e be 5d 48 8a be 2d 10 62 3e
       0.33261785 -0.24836536 -0.27008334 0.22076483
000360 58 6c 94 be 2d 1b 09 be 20 51 08 be 95 f0 48 be
       -0.2898891 -0.13389273 -0.13312197 -0.19623025
000370 9c b4 c7 bd 86 42 61 3e cc a5 0b be e8 fa 8a 3e
       -0.097512454 0.21998033 -0.13637465 0.2714455
000380 29 d6 58 be 3c 2b 05 be 69 32 03 3e c3 0e 49 3c
       -0.21175446 -0.13004774 0.12812199 0.012271586
000390 41 ee 03 3d 0d d2 da bb aa 24 b2 be 79 2f b1 be
       0.03220964 -0.006677872 -0.34793597 -0.3460653
0003a0 ab 60 a3 be e4 15 06 3e f1 7d fb bd e0 f6 78 3d
       -0.3190969 0.13094288 -0.12279881 0.060782313
0003b0 3b db cf bd 3b b6 70 3e 2f 5d aa 3d 63 75 92 be
       -0.10149237 0.23507015 0.083185546 -0.28605184
0003c0 17 eb 9d 3d 4d 76 d4 3d de f4 7b 3e e7 97 71 3e
       0.077108555 0.103741266 0.24605128 0.23593102
0003d0 ac d0 f2 bd 2a 21 66 be d0 d0 67 be 87 4d 9d 3e
       -0.11856207 -0.22473589 -0.2263825 0.3072321
0003e0 41 1c 12 3e 02 96 b0 3e c7 1a 3b 3e 2e 7b b2 bd
       0.1426859 0.34489447 0.18271933 -0.08714901
0003f0 c8 b7 6b 3e 1b 6d c4 be 26 f1 8f be bd b2 8b 3e
       0.23019326 -0.3836449 -0.2811367 0.27284804

lstm.bias_ih_l0 f4 [32]
000000 19 75 6f be 32 92 5b 3e 91 19 cf be 30 01 6e be
       -0.23384513 0.21442488 -0.40449193 -0.2324264
000010 a3 0e ff 3d bc db 2c 3e f4 94 69 be 67 cc 98 3e
       0.124539636 0.16880697 -0.22810727 0.29843447
000020 ed 80 61 3d 48 67 7a 3e 8a 80 ce be 0b 1a 92 be
       0.055054594 0.24453461 -0.40332443 -0.28535494
000030 74 f0 ab 3e 10 e7 3b be 4a 74 80 be 89 83 68 3e
       0.3358189 -0.18349862 -0.25088722 0.22706427
000040 54 81 64 3d b8 5d 85 be 2a 6b 9c be 2c 42 82 3e
       0.0557874 -0.26048064 -0.3055051 0.2544111
000050 59 2a 80 be 9b 11 82 be 38 4a 31 be 75 77 90 be
       -0.2503231 -0.25404057 -0.17313468 -0.28216138
000060 08 0b ac bd 82 b0 34 3e 20 53 2e be 66 95 4e bd
       -0.084005415 0.17645457 -0.17023897 -0.050435446
000070 eb eb ba 3e cc 59 86 3e ce 9f 87 be 46 95 4e bd
       0.36508116 0.26240385 -0.2648911 -0.050435327

lstm.bias_hh_l0 f4 [32]
000000 63 87 9e 3d 1b 9c 94 3e 90 15 26 3e be 76 96 be
       0.07740667 0.2902535 0.16219163 -0.29387468
000010 e2 bc 69 bd 2c c4 b1 be ab de a3 be b3 e9 a4 be
       -0.0570649 -0.3471998 -0.3200582 -0.32209548
000020 57 a8 90 be 7c bd 63 be aa d4 3d 3e bc fd a1 be
       -0.28253433 -0.22240251 0.18538156 -0.31638896
000030 b5 c2 72 3e 06 ca 4b 3e ed 4c c7 be 35 d7 8d 3e
       0.23707087 0.19901285 -0.38925877 0.27703252
000040 16 5c f8 bc 40 9b a9 bc f2 3d 77 3e fd 81 92 3e
       -0.030317347 -0.020703912 0.24144724 0.28614798
000050 a4 3e 3e be b0 ba a6 3e e7 5a 24 3e 97 65 99 3e
       -0.18578583 0.32564306 0.16050301 0.2996032
000060 e2 8f db be 3a 18 d6 3b c9 40 27 be d8 c7 94 bd
       -0.4288321 0.0065336498 -0.16333307 -0.0726468
000070 90 d4 28 3d c0 b1 56 be d0 2d 1e 3e 79 a2 1a 3e
       0.04121834 -0.20966244 0.15447164 0.15101041

fc.weight f4 [1, 8]
000000 0e 4a 2a 3e 25 9b b6 be d8 52 07 bd 5d dc 52 bc
       0.16629812 -0.3566524 -0.03303799 -0.0128699215
000010 86 e7 9f bd 61 7c 6b 3e 9f b6 e1 3d 97 45 ad 3e
       -0.078078315 0.22996666 0.1102116 0.33842155
