time_series_intro_class/final_project/temp/1_layer_8_size_model_epoch_1200.pth (torch, 2979 bytes, 5 tensors)

lstm.weight_ih_l0 f4 [32, 1]
0.33016962 0.317383 -0.44186383 -0.14060682 -0.04056618 -0.21681127 -0.71770173 -0.32652035
-0.35891703 -0.09517774 -0.12529942 -0.36427084 -0.036772538 -0.023491183 0.17305505 0.25210097
0.28127113 -0.16518745 0.0782372 0.043907043 0.17529078 -0.20870453 -0.14867528 0.014308946
0.22072671 -0.25372097 -0.37222242 -0.050079543 -0.06563132 -0.08433372 -0.44381654 -0.33584487
00000000: fe0b a93e 0680 a23e fa3b e2be 3cfb 0fbe
00000010: b928 26bd c603 5ebe 4dbb 37bf ad2d a7be
00000020: f9c3 b7be 8cec c2bd 7e4e 00be b581 babe
00000030: cd9e 16bd 9570 c0bc 5835 313e 6113 813e
00000040: c502 903e e626 29be d33a a03d dfd7 333d
00000050: 6d7f 333e a4b6 55be 553e 18be 1270 6a3c
00000060: 2f06 623e b7e7 81be f093 bebe 3520 4dbd
00000070: b769 86bd 28b7 acbd ec3b e3be dcf3 abbe

lstm.weight_hh_l0 f4 [32, 8]
0.31452483 0.26683936 -0.13260067 -0.1273345 0.22132294 0.20891643 0.14205728 -0.39170104
-0.12044472 -0.010310502 -0.08193537 -0.31618813 -0.19110167 -0.11908354 0.22579762 0.044894774
-0.062311072 0.35206854 0.21811709 -0.17442782 0.24242513 -0.20766845 -0.15710197 -0.1155001
-0.40367183 0.2698733 -0.019090312 0.15783334 0.16763055 0.27352047 0.17687982 0.10069474
-0.17257948 0.32024306 -0.24776015 0.14259356 0.31427923 -0.21147816 -0.16010383 0.060817644
0.08045205 -0.017134245 0.2897923 -0.22675632 -0.32237342 -0.23569432 0.22333473 -0.33002895
-0.15663637 0.38103992 -0.25384974 -0.14396808 0.23830369 0.12113297 0.3704313 -0.24506524
-0.041662976 -0.050264493 -0.076546736 0.3686658 0.13256095 -0.006602025 -0.019668352 0.20646605
0.053188995 -0.2901703 -0.117179535 0.16705786 0.32889026 0.27302077 0.020640781 -0.039101608
-0.30254593 -0.22932348 -0.017493626 -0.14018661 -0.14235285 -0.13620012 -0.28123757 -0.06124872
0.1925884 0.025320796 0.25100553 0.025566122 -0.3132656 0.22076939 -0.28901476 0.040132392
-0.24461053 -0.1672327 -0.11969574 0.22318688 0.15587048 -0.08162538 -0.013429063 0.30934003
0.236499 0.0009857167 -0.16039023 0.3632828 -0.31065002 0.21205144 0.03721042 -0.10302607
-0.2765778 -0.10231517 0.2279218 -0.26091275 0.21586093 -0.027724257 0.003984917 0.09498504
0.230672 0.004772991 -0.20321855 0.08517498 0.12412242 0.06292537 0.19545999 0.24483839
0.07438042 -0.1861183 0.06162033 -0.034366146 0.012759458 0.16813321 -0.3099826 0.039305504
0.29704285 0.24262345 -0.31291148 -0.012509516 -0.026913572 -0.1384796 0.072704546 0.3765797
-0.10857789 0.06211844 0.29325593 -0.18105046 0.31891656 -0.21822312 -0.29347304 -0.037987474
0.29098833 -0.03611368 -0.115989126 -0.3503584 -0.24948323 -0.23890266 0.0677762 -0.005964047
0.01548686 0.1659475 -0.23419791 0.09993076 -0.101135716 0.05342386 0.12666403 0.022551395
-0.033202786 0.22914922 -0.28777754 0.19055739 0.19326985 -0.26513353 0.19163175 -0.19821532
0.26866478 0.23915341 0.014714815 0.06281134 -0.15536696 0.26872605 -0.2480148 0.187405
0.14346148 0.08053331 0.19516484 0.040822178 -0.1268277 -0.17674184 -0.16957565 -0.06307421
0.24738538 -0.026738064 -0.29053393 0.24902415 -0.24578546 -0.22723068 -0.083021715 0.15376739
0.0084107565 -0.18987647 0.083502986 0.21312551 0.073507026 -0.22619472 -0.23627561 -0.19547528
-0.04740768 0.28099728 0.05341715 0.16310363 0.16280866 -0.2489376 0.001540793 -0.13325451
0.077060044 0.2648622 0.18637498 -0.051837493 0.25690556 -0.17266202 -0.28117543 0.3074224
-0.021964261 -0.18097502 -0.2106033 -0.16178559 -0.13633567 0.28404036 -0.08225202 0.34036997
-0.0057267025 -0.15933278 0.03541882 0.03264357 0.009396758 0.05575871 -0.26707044 -0.28753948
-0.36826143 0.06744892 -0.23711586 0.11989364 -0.16313411 0.33628857 0.14121062 -0.19645324
0.019282624 0.13171317 0.25162402 0.22219346 -0.097843446 -0.24778892 -0.2925747 0.27987412
0.13188225 0.2911787 0.055907357 -0.039518245 0.17993328 -0.28827858 -0.18750231 0.35536134
00000000: 6609 a13e 2b9f 883e 78c8 07be fa63 02be
00000010: 7ba2 623e 30ee 553e 7777 113e 0a8d c8be
00000020: b9ab f6bd 61ed 28bc bbcd a7bd 69e3 a1be
00000030: 28b0 43be 12e2 f3bd 7e37 673e 95e3 373d
00000040: e539 7fbd 5442 b43e 165a 5f3e 359d 32be
00000050: 4b3e 783e 0aa7 54be 57df 20be 518b ecbd
00000060: 13ae cebe d52c 8a3e 4963 9cbc 109f 213e
00000070: 58a7 2b3e e00a 8c3e fc1f 353e 0b39 ce3d
00000080: adb8 30be e6f6 a33e d6b4 7dbe 0c04 123e
00000090: 35e9 a03e bb8d 58be 42f2 23be ec1b 793d
000000a0: 0bc4 a43d 1e5d 8cbc a85f 943e cf32 68be
000000b0: 210e a5be da59 71be dcb1 643e 8ef9 a8be
000000c0: 4965 20be aa17 c33e 98f8 81be 5e6c 13be
000000d0: e205 743e 9014 f83d 2ca9 bd3e 62f2 7abe
000000e0: cca6 2abd 24e2 4dbd 89c4 9cbd c4c1 bc3e
000000f0: 0fbe 073e cd55 d8bb 861f a1bc d66b 533e
00000100: b4dc 593d 3491 94be d3fb efbd 3711 2b3e
00000110: 4e64 a83e 61c9 8b3e db16 a93c 0229 20bd
00000120: 4de7 9abe c6d3 6abe cb4e 8fbc 148d 0fbe
00000130: f2c4 11be 0b78 0bbe 5ffe 8fbe f0df 7abd
00000140: e535 453e 8f6d cf3c cc83 803e 0b70 d13c
00000150: 5964 a0be 5f11 623e bef9 93be dd61 243d
00000160: 2f7b 7abe 0d3f 2bbe 0a23 f5bd 1a8b 643e
00000170: 839c 1f3e 352b a7bd 9305 5cbc d161 9e3e
00000180: cb2c 723e 2a33 813a 563d 24be 3400 ba3e
00000190: 850d 9fbe 0324 593e f469 183d 55ff d2bd
000001a0: 9b9b 8dbe 9e8a d1bd 5564 693e 5b96 85be
000001b0: a60a 5d3e fb1d e3bc e893 823b 8487 c23d
000001c0: 4835 6c3e c066 9c3b 8618 50be 3870 ae3d
000001d0: e533 fe3d 04df 803d aa26 483e eab6 7a3e
000001e0: c354 983d cc95 3ebe 9965 7c3d 84c3 0cbd
000001f0: 0c0d 513c 1d2b 2c3e 0ab6 9ebe cffe 203d
00000200: 0016 983e 4872 783e ef35 a0be b7f4 4cbc
00000210: da79 dcbc 99cd 0dbe 1fe6 943d 0ecf c03e
00000220: 165e debd e86f 7e3d a425 963e 4b65 39be
00000230: 0849 a33e e275 5fbe 1942 96be c198 1bbd
00000240: 6cfc 943e f0eb 13bd b58b edbd 2d62 b3be
00000250: 8878 7fbe e6a2 74be 40ce 8a3d 0d6e c3bb
00000260: 99bc 7d3c 24ee 293e 94d1 6fbe 80a8 cc3d
00000270: 3e20 cfbd fad2 5a3d 37b4 013e b4bd b83c
00000280: a5ff 07bd 18a6 6a3e 9457 93be 7a21 433e
00000290: 88e8 453e 95bf 87be 1d3b 443e f5f8 4abe
000002a0: 6e8e 893e a2e4 743e 6816 713c 3ba3 803d
000002b0: 8418 1fbe 7696 893e 97f7 7dbe 19e7 3f3e
000002c0: 91e7 123e a6ee a43d 4bd9 473e 2835 273d
000002d0: 1fdf 01be d0fb 34be 3da5 2dbe 0d2d 81bd
000002e0: 9852 7d3e c909 dbbc ddc0 94be 3000 7f3e
000002f0: 2faf 7bbe 29af 68be 4a07 aabd 3375 1d3e
00000300: 45cd 093c fa6e 42be 9d03 ab3d 933d 5a3e
00000310: da8a 963d 979f 67be 3cf2 71be ac2a 48be
00000320: 8e2e 42bd e0de 8f3e f1cb 5a3d a304 273e
00000330: 50b7 263e 80e9 7ebe 6ff4 c93a df73 08be
00000340: a8d1 9d3d 059c 873e 15d9 3e3e 8d53 54bd
00000350: 2089 833e 50ce 30be 3af6 8fbe 7866 9d3e
00000360: 65ee b3bc 8451 39be 64a8 57be 1fab 25be
00000370: 949b 0bbe bd6d 913e bf73 a8bd f944 ae3e
00000380: 10a7 bbbb 2228 23be 5313 113d 44b5 053d
00000390: dcf4 193c 3f63 643d 75bd 88be 6038 93be
000003a0: c38c bcbe a922 8a3d 80ce 72be cc8a f53d
000003b0: a10c 27be 042e ac3e 8499 103e 0a2b 49be
000003c0: 98f6 9d3c d1df 063e ddd4 803e af86 633e
000003d0: 2562 c8bd 61bc 7dbe 5acc 95be a94b 8f3e
000003e0: 240c 073e 6015 953e 1dff 643d e2dd 21bd
000003f0: 6e40 383e 4099 93be 9b00 40be ecf1 b53e

lstm.bias_ih_l0 f4 [32]
-0.1786863 0.21395177 -0.3312582 -0.20229493 0.12653415 0.21916729 -0.24518007 0.3316612
0.16107272 0.24819966 -0.34869236 -0.2535183 0.34046608 -0.13292079 -0.108405985 0.26407662
0.038890503 -0.23956706 -0.30220598 0.2778571 -0.23497057 -0.25593194 -0.20943302 -0.28839436
-0.034375045 0.18664119 -0.100392446 -0.022179924 0.37538078 0.31194818 -0.2882482 -0.012658024
00000000: 8bf9 36be 2c16 5b3e ad9a a9be 6726 4fbe
00000010: 2b92 013e 646d 603e 7c10 7bbe 7fcf a93e
00000020: 3ff0 243e 0d28 7e3e ce87 b2be 27cd 81be
00000030: 9251 ae3e 631c 08be f503 debd 0d35 873e
00000040: a64b 1f3d 1151 75be beba 9abe 4943 8e3e
00000050: 209c 70be 8309 83be 9c75 56be 6da8 93be
00000060: d9cc 0cbd de1e 3f3e 8e9a cdbd acb2 b5bc
00000070: e931 c03e acb7 9f3e 4595 93be 9a63 4fbc

lstm.bias_hh_l0 f4 [32]
0.13256556 0.28978017 0.23542537 -0.26374358 -0.05507037 -0.29683858 -0.33713064 -0.28886876
-0.1765159 -0.21873742 0.24001274 -0.28455234 0.24172004 0.2495907 -0.24677926 0.31404468
-0.04721423 0.00020957182 0.24474569 0.30959398 -0.17043325 0.3237517 0.12420468 0.29337022
-0.37920168 0.016720025 -0.0934865 -0.044391174 0.051516883 -0.16011757 0.13111287 0.18878745
00000000: 44bf 073e 115e 943e 5913 713e 6609 87be
00000010: 7891 61bd 3afb 97be 639c acbe 9be6 93be
00000020: 96c0 34be b4fc 5fbe e6c5 753e d8b0 91be
00000030: 7585 773e b494 7f3e b4b3 7cbe 77ca a03e
00000040: b563 41bd 82c0 5b39 9d9e 7a3e 1a83 9e3e
00000050: 0e86 2ebe c8c2 a53e 065f fe3d 9f34 963e
00000060: b926 c2be 6ff8 883c da75 bfbd 85d3 35bd
00000070: 5e03 533d dcf5 23be 7442 063e 7f51 413e

fc.weight f4 [1, 8]
0.22610652 -0.35821488 -0.13936146 -0.014461915 -0.076194584 0.27352303 0.14100835 0.370144
00000000: 7888 673e f167 b7be c5b4 0ebe abf1 6cbc
00000010: e80b 9cbd 360b 8c3e 7e64 103e 8483 bd3e
