time_series_intro_class/final_project/temp/1_layer_64_size_model_epoch_2700.pth (torch, 70371 bytes, 5 tensors)

lstm.weight_ih_l0 f4 [256, 1]
000000 63 2e f9 3f d7 e5 bf bf bd 88 69 3f e7 13 12 c0
       1.9467281 -1.4992017 0.9122427 -2.2824647
000010 64 38 5b bf c2 4b 18 40 86 66 9f bf 34 0d d8 3f
       -0.8563292 2.379624 -1.2453163 1.6879029
000020 87 42 91 bf e3 6a 21 3f 16 e4 d8 bd eb 26 d1 3e
       -1.1348428 0.6305372 -0.10590379 0.40850005
000030 46 b2 b1 bd 0f 34 8b bf 38 c6 61 3f ab bd 1c 3f
       -0.08676581 -1.0875262 0.8819308 0.6122691
000040 0b 79 b0 3d 1e 6e 02 3f bf 4f 3b 40 70 0d 31 bf
       0.08616837 0.50949275 2.9267423 -0.6916113
000050 9b 0f 2d 3f 92 b4 30 be 93 0e 68 bf bd 27 e1 3d
       0.6760194 -0.17256382 -0.9064724 0.109939076
000060 48 d0 3c be 8e fe 13 c0 ad 82 4b 3e 55 7e 14 3d
       -0.18438828 -2.3124118 0.19874068 0.036253292
000070 74 20 e8 3f 80 2c 46 40 1c fa 02 3e 09 51 04 3f
       1.8134904 3.096466 0.12790722 0.5168615
000080 45 cc c1 3f bb 07 5e 3f 06 ae 85 bf c9 16 95 be
       1.5140463 0.86730546 -1.0443733 -0.29118946
000090 bb 15 13 bf 6f 5a cd 3f 30 f6 e1 3e 20 b5 16 bf
       -0.57455033 1.6043223 0.4413314 -0.58870125
0000a0 1f 33 b9 bf 29 60 3f bf ac 42 86 40 7a d2 82 40
       -1.4468726 -0.74756104 4.1956387 4.088193
0000b0 1d 04 d8 3e f7 c2 1c 3f 28 53 dc be a1 b0 a9 3f
       0.42190638 0.6123499 -0.43032193 1.3257028
0000c0 c5 68 54 be ee db a8 bf 38 0d 23 40 8e fd dd bd
       -0.20743091 -1.3192117 2.5476818 -0.10839377
0000d0 fc 18 43 be 8f ca cd 3e 81 87 ef 3e 0e a9 25 3f
       -0.190525 0.40193602 0.4678307 0.6471108
0000e0 ef 8e c7 3f b1 38 c7 bd 22 c3 0c 40 7b 56 1b c0
       1.5590495 -0.0972761 2.19941 -2.4271533
0000f0 ef 24 dd bf a2 d6 fd 3d 3f 0e 20 bf d5 f1 33 3e
       -1.7276896 0.123944536 -0.6252174 0.1757272
000100 3c 60 8d be 60 4e 65 3f bf a7 c7 3f 99 fd ad 3e
       -0.27612484 0.89572716 1.5598067 0.33982542
000110 a8 b2 4b bf b2 4d 82 bf 24 29 67 bf 92 0f c7 3e
       -0.7956948 -1.0179961 -0.9029715 0.38879067
000120 81 96 b8 be 58 e3 26 bf 68 fc fd 3e 1c 3c 64 bf
       -0.36052325 -0.6519065 0.49606633 -0.8915422
000130 6e 4d ce bd d1 1f f4 bf e8 1a ed 3e c1 ba 80 3e
       -0.10073362 -1.907221 0.4630959 0.25142482
000140 4b 64 45 40 1c 94 0f bf b8 88 9e 3f a0 21 6e be
       3.0842464 -0.5608537 1.2385473 -0.23255014
000150 eb 65 9b 3f 92 22 c8 be c1 e2 25 c0 75 cd 0b bf
       1.2140478 -0.39088875 -2.591965 -0.5461038
000160 4e bd 93 bd c8 08 0e 40 9e 65 c4 be 77 d8 b2 be
       -0.072138414 2.219286 -0.38358778 -0.34930775
000170 bd c4 71 3f 0d 90 9f 3f 85 bd 98 3e 02 8e 24 be
       0.94440824 1.2465836 0.29832092 -0.16069797
000180 63 f3 6a bf 4d 49 80 3e af d8 e7 be 73 f6 3c bf
       -0.9177763 0.25055924 -0.45282504 -0.7381355
000190 41 17 7c be 1d 72 ea 3f a3 52 6e 3f c0 59 d6 3e
       -0.24618246 1.8316075 0.93094844 0.4186535
0001a0 6d 43 b4 be 20 03 24 bf fc 2a 23 40 8b 5e 19 40
       -0.35207692 -0.6406727 2.5494986 2.3963954
0001b0 1e a5 9c 3e 28 27 34 40 99 33 0f 3e 29 92 f3 be
       0.30594724 2.81489 0.13984527 -0.4757245
0001c0 85 c1 45 be 02 ac c0 3f 1f 13 59 40 db 7f 4f 3f
       -0.19312103 1.5052493 3.391792 0.81054467
0001d0 d5 58 71 3e 85 fa 95 3f 43 34 eb 3f e7 db 47 3f
       0.23569043 1.1717077 1.8375324 0.7806992
0001e0 9d 8e ca 3f 8e 5c 41 3e bf 11 fa bf aa f8 a1 bf
       1.5824772 0.18882963 -1.9536666 -1.2654011
0001f0 37 c1 5f bf 61 0e b4 be 55 c7 d9 3d 69 2f 8c 3e
       -0.874042 -0.3516722 0.10633723 0.2737992
000200 ed 91 1c c0 c4 d0 fd 3f e0 6a d8 3e 26 84 81 3f
       -2.4464066 1.9829335 0.4226904 1.0118454
000210 74 b4 82 be 3b 5f 07 3f c6 50 07 40 4d ea 87 3f
       -0.255283 0.52879685 2.114305 1.0618378
000220 ec 22 7c 3e 54 d1 5b bf b4 40 ae 3e 6b 7d 0d 40
       0.24622697 -0.85866284 0.3403374 2.21078
000230 2d 71 63 bf 4b 4e 18 3e 29 76 f4 3d 3b b6 3f 3f
       -0.8884457 0.14873616 0.119366 0.74887437
000240 eb bf e8 3f 7b 78 e2 bf 79 e5 4c 3f 96 94 70 be
       1.8183569 -1.7693018 0.8003765 -0.23494181
000250 cc 57 13 c0 41 31 bb 3e 54 d9 b0 3d 8d e0 c1 3e
       -2.3022337 0.36561015 0.08635202 0.3786663
000260 7e 37 c3 3f d8 d6 08 40 4d 60 4a 3e 4b 4d bd be
       1.525131 2.138113 0.19763298 -0.36973032
000270 7e 18 7f bd 5c ed ca 3e 1f de ca be bd 9c 8d bf
       -0.062279217 0.39634216 -0.3962259 -1.1063458
000280 32 35 41 bf 74 e4 20 bf 10 dc de 3e 9b d5 61 bf
       -0.75471795 -0.6284859 0.4352727 -0.8821656
000290 25 c4 60 bf e7 2b b2 3d d3 88 67 3f b1 57 4d be
       -0.8779929 0.0869978 0.9044315 -0.20052983
0002a0 34 78 cc be fe 9d 59 3d 76 a3 b1 3e a0 48 27 3e
       -0.39935458 0.05312919 0.34695023 0.16336298
0002b0 9a 35 8c 3d c8 f1 3d 40 cd f8 7e bf ca 1b 03 40
       0.06846161 2.9678822 -0.9959839 2.048571
0002c0 08 25 3a 40 88 fa e8 bf 22 ea 4f 3f 3f de d1 3f
       2.9085102 -1.8201456 0.81216633 1.6395949
0002d0 95 9e dd 3e 9a 06 3d 3e bc a0 b5 be 49 8e 99 3f
       0.4328505 0.1845955 -0.35474193 1.1996547
0002e0 ea a8 54 3f 3f 01 36 bf aa 47 70 be 39 50 e2 be
       0.8307024 -0.7109565 -0.23464838 -0.4420183
0002f0 1f 60 fa bf ae e5 16 3e 83 72 6e bf 6d 25 de 3f
       -1.9560584 0.14736053 -0.9314348 1.7355171
000300 7c d4 04 40 ce 10 5e bf a3 cf 57 3f 91 a2 c9 bf
       2.075469 -0.8674439 0.84301203 -1.5752736
000310 e2 6a b4 bf c2 bc 84 3f 48 fa 03 c0 96 09 d8 be
       -1.4095118 1.0370104 -2.062151 -0.42194813
000320 e3 02 82 be 8c a9 d8 3e 69 cc 8a 3f f4 7d d5 bf
       -0.25392827 0.42316854 1.0843631 -1.6679063
000330 98 98 e8 bd e2 ef 73 bf 63 43 10 3f 82 4f 3c bd
       -0.1135723 -0.9528791 0.56352824 -0.045974262
000340 f7 43 03 40 c2 67 a4 be 02 26 cd 3f 83 a7 6e bf
       2.0510232 -0.3211041 1.6027224 -0.9322435
000350 9d a9 a1 3f cb 40 25 be f9 38 e2 bf bf 89 01 bf
       1.2629887 -0.16137998 -1.7673637 -0.5060081
000360 63 ea 40 bf db 76 8b bf d0 26 cf bc 70 3a 21 bf
       -0.75357646 -1.0895647 -0.025287062 -0.62979794
000370 17 89 3f 3e 18 04 cb 3e 2f cd 7c bd 34 0d ad 3e
       0.1870464 0.3965156 -0.061719116 0.33799136
000380 1a 5b 0b 3f cc 11 93 3f 9f 81 9c bf 46 e8 85 bf
       0.54435885 1.1489806 -1.2227057 -1.0461509
000390 ff 7f 11 bf a2 6f ec 3f 9a 19 dd 3f 38 95 e9 3d
       -0.5683593 1.8471568 1.7273438 0.11405414
0003a0 08 ab a2 bf 53 20 99 bf 3d b3 48 40 1b 97 0f 40
       -1.2708445 -1.196299 3.1359398 2.2435977
0003b0 5f 3b 26 3f 9a 1a 01 40 84 c2 b2 3c b9 59 0a 40
       0.64934343 2.0172486 0.021821268 2.1617262
0003c0 01 2b 88 be 9c 23 64 be a7 47 f5 3f d5 db af 3f
       -0.2659531 -0.22279209 1.9162492 1.3738962
0003d0 aa e3 10 3e 6e 45 ed 3e 5f 8f 87 3f b3 b5 8c 3e
       0.14149347 0.46342033 1.0590628 0.27482376
0003e0 51 e7 dd 3f 31 84 13 bf a4 56 f7 be 85 35 23 c0
       1.7336217 -0.57623583 -0.4830829 -2.5501416
0003f0 1d 27 10 c0 f5 4f 80 be 1e eb 03 bf 71 8f 92 bd
       -2.2523873 -0.25061002 -0.51530635 -0.071562655

lstm.weight_hh_l0 f4 [256, 64]
000000 9c a8 20 3f 60 be af bf 14 91 3f 3e 39 8b 87 bf
       0.6275728 -1.3729973 0.18707687 -1.0589362
000010 fe 2a 6f be 5a 4c ee be d4 c4 6f 3c 7e 88 04 3f
       -0.23356244 -0.46542627 0.01463433 0.5177077
000020 90 71 19 3e 22 fc d5 be 15 37 c4 be 4b 92 7a be
       0.14984727 -0.41793925 -0.38323274 -0.24469869
000030 a9 8d 5b 3e e0 72 02 bf cb 66 72 3d db a9 af 3d
       0.21440758 -0.50956535 0.059180062 0.08577319
000040 12 1f df 3e 3b a4 02 3e 29 8c 20 be 8e ec 56 3d
       0.43578392 0.12757961 -0.15678467 0.05247169
000050 59 5d e8 3c 3a 17 ef bc d9 78 7f 3e ac 8c 7e 3e
       0.028364824 -0.02918588 0.24948443 0.2485835
000060 99 b0 ae be ab fb 11 bf 0a 3e 2a bd aa 9b 82 be
       -0.34119108 -0.5702464 -0.04156307 -0.25509387
000070 bf 7c 92 be 13 5a 00 3e 71 73 b9 bd 5f 8e 49 3f
       -0.286108 0.1253436 -0.09055222 0.78732866
000080 db ef 37 3f 7c eb 29 be f1 15 74 be 70 98 77 bf
       0.71850365 -0.16593736 -0.23836495 -0.96716976
000090 c7 1a 90 3e 33 25 44 be c3 47 3d bf bb a0 a5 be
       0.2814543 -0.19154815 -0.73937625 -0.3234919
0000a0 b5 c7 81 3f 55 d9 e9 3d dd ab 7f bf e7 fd bd bf
       1.0139071 0.11418406 -0.9987162 -1.484311
0000b0 ef 82 2c bf 20 55 00 3f b3 81 20 3f a7 d7 de 3e
       -0.6738729 0.5012989 0.62697905 0.43523905
0000c0 ee b1 3a 3d 76 f3 6e 3f 2f ac 48 3f 84 69 2c 3f
       0.045579843 0.9334024 0.7838773 0.67348504
0000d0 c2 6d 06 3f 92 0c 14 bf 62 53 ff 3e e3 4b e7 3e
       0.5251123 -0.5783168 0.49868304 0.45175084
0000e0 4c 90 2b bf 3c 8d 98 3e df 41 5e 3e 0a 2c c8 3d
       -0.67017055 0.29795253 0.21704815 0.09774025
0000f0 bf 5b 3c 3f 7c 71 e5 3d cd 44 4f bd 4b dc 52 3c
       0.73577493 0.11203286 -0.050602723 0.012869905
000100 14 0e 81 be 62 2b dd 3d 55 74 13 bf ed b3 b6 bf
       -0.25206053 0.1079929 -0.57599384 -1.4273659
000110 c0 4a 49 3e 2c 67 b4 bf d4 db 12 bf f8 82 c7 3e
       0.19657421 -1.4093986 -0.5736668 0.3896711
000120 21 c1 a8 3d c1 de 90 bc 03 64 5e 3e ff 75 8a 3d
       0.082399614 -0.017684342 0.21717839 0.06760787
000130 f3 48 b9 bc ca 03 c1 be 7c 4b 0a bf 98 a4 42 be
       -0.022617793 -0.37698203 -0.5402143 -0.190081
000140 4a 0d 7a 3e 20 8b c7 bd 66 d8 02 bf 80 7e 25 bf
       0.24419132 -0.09743333 -0.5111145 -0.6464615
000150 01 15 37 3e 47 05 d1 3e bc 41 59 bc ba 18 4d bd
       0.17879106 0.4082434 -0.013260301 -0.05007241
000160 80 aa 36 3e 69 9b 2d bf 0f 70 f4 3d 7a 68 5b 3e
       0.17838478 -0.6781526 0.11935436 0.21426573
000170 25 7f 6d bf fb 7a 71 bf 7d e3 89 be 92 d4 36 3e
       -0.9277213 -0.9432828 -0.26931372 0.17854527
000180 5e 52 b6 3f eb 93 bd be 0b bf 77 bd d1 1d 66 bb
       1.4243886 -0.37026915 -0.060484927 -0.0035112987
000190 5f b6 f0 3e c0 80 f8 bd ab ff ea bf 19 94 98 bd
       0.47014138 -0.12133932 -1.8359274 -0.074501224
0001a0 c6 4a 3d 3f ea d1 6e 3f de 68 8f bf f5 6d ec bf
       0.7394222 0.93289053 -1.1203878 -1.8471056
0001b0 34 c3 30 bf 89 be b6 3e 9f 7a 20 3e 77 35 37 be
       -0.69047856 0.35692242 0.15671776 -0.17891489
0001c0 46 34 72 bd d4 8c 3f 3f 5a b1 a4 3f 67 2b 29 3e
       -0.059131883 0.7482426 1.2866623 0.16520463
0001d0 90 b3 2e 3d c9 b6 5e bf 11 60 25 3f 68 90 30 bd
       0.042651713 -0.8699766 0.6459971 -0.043106467
0001e0 85 cc 65 bf ab 54 f4 3e 93 7c 33 bf 0c f4 f5 3d
       -0.897652 0.47720847 -0.7011196 0.12009439
0001f0 78 52 2d 3f 23 b5 3f 3e 62 f1 db 3e 77 98 d4 3e
       0.6770396 0.18721442 0.42957598 0.4152257
000200 7b f2 28 3d 24 5f b0 be 5d 85 11 bf fd be eb bd
       0.041246872 -0.34447587 -0.5684412 -0.115110375
000210 a0 2c 2c bf 89 d2 00 3e 4c fd 84 be ee f0 b6 be
       -0.6725559 0.12580313 -0.259745 -0.3573069
000220 35 bc 97 be 63 31 ff 3d f7 0f ae bd 75 d4 95 bf
       -0.29635778 0.12460592 -0.08499139 -1.1705462
000230 54 51 cc 3e 3c d0 8a 3e 5c b9 60 be 05 85 ac 3d
       0.39905798 0.27111995 -0.21945709 0.08423809
000240 ac f0 e5 be 2b d2 bf 3d 89 68 11 3f b4 1f 1b be
       -0.4491018 0.09366258 0.56800133 -0.15148813
000250 ae b0 dd 3e b1 61 e9 be 23 6b 79 be d7 6b 3e 3e
       0.43298858 -0.45582345 -0.24357276 0.18595825
000260 ed af 30 3e 51 16 04 bf 83 3c 6b 3e 0f af d7 be
       0.1725461 -0.5159655 0.22972302 -0.42125747
000270 3d 0c 3f 3e 01 3f a8 bd 59 31 b7 3b 31 5a 31 3e
       0.18657012 -0.08215142 0.0055905995 0.17319562
000280 4b c6 0b bc 56 6a d9 bd 1e d4 6d 3e 19 f4 99 3d
       -0.008531163 -0.10615985 0.23225448 0.07517261
000290 c5 94 e8 3d f1 92 04 bf 8b f1 1b 3e b9 5f 61 bc
       0.113565005 -0.51786715 0.1522886 -0.013755732
0002a0 85 3f 39 be 59 40 c1 bd e0 d3 0a 3e b6 50 ad 3d
       -0.18090637 -0.094361015 0.13557386 0.0846266
0002b0 a1 d9 db 3b 70 67 b6 3d 30 c3 4c bd 70 41 df 3e
       0.006709293 0.08906448 -0.049990833 0.43604612
0002c0 e1 e8 ac 3d c1 18 e4 3e 70 a2 ea bb 6c 51 10 be
       0.084428556 0.44550136 -0.0071604773 -0.1409356
0002d0 8d d0 1f 3e e4 df fb be a5 cd 95 3e 2d e2 59 bc
       0.156069 -0.49194252 0.29258457 -0.013298553
0002e0 69 53 b8 3e 1d 03 ef 3e 96 23 c8 3d df b9 15 3e
       0.36001137 0.46682063 0.097724125 0.14621685
0002f0 29 10 06 3f 30 e7 81 be 8f 4f f0 3d 07 21 5a be
       0.5236841 -0.25371695 0.117339246 -0.21301661
000300 51 e9 88 3d c3 17 91 be c2 19 05 3e 2d 47 43 3d
       0.066851266 -0.2833844 0.12998107 0.0476753
000310 ca c5 fe be 6a d9 fe 3e f8 85 19 be 9d 12 f5 be
       -0.49760276 0.4977525 -0.14992511 -0.47865763
000320 7f 44 ec bc ca 40 c3 3e 61 06 e1 3e 72 eb 9a bd
       -0.028841255 0.38135368 0.4395018 -0.07564439
000330 02 89 d9 be b9 25 ae be 41 d2 3a be 30 8a 4e be
       -0.4248734 -0.34013155 -0.18244268 -0.20169902
000340 23 9d c9 3e 6d 48 c1 3e 3a 3f 21 bd cc a2 54 bd
       0.39377698 0.3775057 -0.03936694 -0.051913068
000350 54 bb 58 be 01 db 65 be 74 6c 52 3f 0d b4 28 bf
       -0.2116521 -0.22446825 0.82196736 -0.65899736
000360 15 1e 69 be 9a 32 35 3e 49 d2 b0 be a4 31 76 3f
       -0.22765382 0.17695084 -0.34535435 0.96169496
000370 c5 09 d7 be 05 7e 0a be 52 8b 56 3c 64 68 f5 3c
       -0.4199964 -0.13524635 0.01309474 0.029957004
000380 22 7f ed be c5 88 3d 3e 3e 71 fb 3e 89 2f 3c be
       -0.46386057 0.18509205 0.49109834 -0.18377508
000390 f1 65 e1 bc b5 11 54 be 67 2b a1 3e 5c 69 90 3e
       -0.02751443 -0.2070988 0.31478426 0.28205383
0003a0 c8 f2 1e 3e 28 b5 ba bd 73 85 3a bd ee b2 13 3e
       0.15522301 -0.09116584 -0.045537423 0.14423725
0003b0 2f e4 a8 be 6d d5 47 bf 9d 21 ea bd d5 ac 2e be
       -0.3298659 -0.78060037 -0.114321925 -0.17058118
0003c0 8b cd be be a0 82 f7 3e c0 a3 5c 3e 75 e1 4d bc
       -0.37266192 0.48341846 0.2154684 -0.01256596
0003d0 e8 9b 80 be 55 22 80 3d af eb a6 be ef 64 4e be
       -0.25118947 0.06256548 -0.32601687 -0.2015569
0003e0 d3 7d 05 3e 1f 7d 94 be f0 f4 3f 3e 00 5a 70 3e
       0.1303628 -0.2900171 0.1874578 0.23471832
0003f0 45 94 f7 3e 52 73 86 3e fe cf 54 be 98 d3 14 3f
       0.48355308 0.26259857 -0.20782468 0.58135366

lstm.bias_ih_l0 f4 [256]
000000 f9 84 c9 3d 12 95 c8 bd e7 42 af 3d 70 72 f0 bd
       0.09839816 -0.09794058 0.085576825 -0.11740577
000010 3e be cd bd 37 13 80 3d 7b 50 5d bd 08 6f 8d bd
       -0.100460514 0.06253665 -0.05403183 -0.06905943
000020 73 d0 9f be c4 f8 16 be 34 c1 cf bd c5 38 c2 3e
       -0.31213722 -0.14743334 -0.101442724 0.37933937
000030 0a ae a4 bd cc 5b 55 3e 66 5c a0 be 39 ca 78 be
       -0.08041008 0.20835799 -0.31320494 -0.24295892
000040 13 80 0c be af 45 b3 3e e8 3f 0a be 88 ef bb bd
       -0.13720731 0.35014102 -0.13500941 -0.09176546
000050 a1 20 81 3e 48 cd dd bd 67 3d 88 bc d1 72 46 be
       0.25220206 -0.1083017 -0.016630841 -0.19379736
000060 7b f0 a9 3c 23 69 82 3e f4 f1 a8 bd 0a 2a d1 bd
       0.020744553 0.25470838 -0.08249274 -0.102130964
000070 c6 f7 c6 bd 53 80 8d 3d d3 d3 8a be 96 72 86 be
       -0.09715228 0.069092415 -0.27114734 -0.26259297
000080 e1 f0 87 3d f6 ea 7b 3b 08 62 40 bc a5 52 2a be
       0.06637741 0.0038439608 -0.0117421225 -0.16633089
000090 09 cd 04 be c3 3a 2b be 6d bd a8 3e 62 1a 92 3d
       -0.1296884 -0.16721635 0.3295702 0.07133938
0000a0 a3 6f a4 bd f0 e6 56 be c8 0d b2 be ad 93 69 3c
       -0.080291055 -0.20986533 -0.3477614 0.0142564
0000b0 6a 96 f5 bd f7 d8 9f 3e c1 cc 4a 3c d8 ec 19 3e
       -0.1199158 0.3122022 0.012377919 0.15031755
0000c0 8e 05 d8 3e 9a 37 62 3e 5e 11 e7 bd 70 3a 7f 3e
       0.42191738 0.22091523 -0.112826094 0.24924636
0000d0 bd 72 19 be 46 c3 4d bc 25 65 8a bc a1 29 18 be
       -0.14985175 -0.012558764 -0.016893933 -0.1485963
0000e0 f0 d7 43 be 64 27 e0 bd c6 67 33 be 41 2d 3d be
       -0.19125342 -0.10945013 -0.17520055 -0.18474294
0000f0 b8 3c 3c 3d 6a 9c b9 bd 84 88 bd be c6 9b 50 bd
       0.045956343 -0.09063037 -0.37018216 -0.050929807
000100 50 03 90 bd 6d eb 0b 3e 65 32 35 3d b1 d1 cb 3d
       -0.07031882 0.13664027 0.044237513 0.09952105
000110 93 b1 c6 be 98 db 39 3e e1 c2 20 3e bf c7 c6 3d
       -0.38807353 0.18150175 0.1569934 0.09706067
000120 29 9e 12 3e ec 30 47 3d e0 54 ea bc 0c e5 b7 be
       0.14318146 0.04863064 -0.028604925 -0.35916936
000130 59 c2 37 bd 0f 2e 37 3c 01 d7 f1 3d 7d b6 e5 bd
       -0.04486308 0.011180415 0.11808587 -0.112164475
000140 f1 5c 41 3d b2 4d be 3e e3 0c d3 bd 5f 37 18 3c
       0.047207776 0.37168652 -0.10305192 0.009290545
000150 a2 f1 58 be e9 4a bc 3c b6 50 0b bb 2e 40 89 be
       -0.21185926 0.022984939 -0.0021257824 -0.26806778
000160 10 2e 87 bd 01 32 9e 3d f7 71 25 3e f0 09 2c 3e
       -0.066005826 0.07724381 0.16156755 0.16800666
000170 00 29 e0 3d 51 6e ae 3e 04 f9 80 3c 30 40 cb 3d
       0.1094532 0.3406854 0.01574374 0.09924352
000180 89 0f 19 3e 72 a4 c5 bd 2b 92 00 3e c1 03 f3 3d
       0.14947332 -0.09650506 0.12555759 0.118659504
000190 dd 6a 68 be 56 e7 76 3e 2e bb df 3d 2d e4 73 3d
       -0.22697015 0.24111685 0.109243736 0.059543777
0001a0 76 7e 4c 3c 03 3e 86 bc 5c 15 e2 bd 36 70 22 3d
       0.0124813225 -0.016386991 -0.1103923 0.039657794
0001b0 fa 28 80 3e ba 7e 83 3d e6 18 1d be 77 9d 8c 3d
       0.25031263 0.064206555 -0.15341529 0.068659715
0001c0 9d 85 12 3d 9b fc ad bd 16 9e b5 3d e2 37 af 3e
       0.035771955 -0.08495446 0.08868043 0.34222323
0001d0 1b 3b 02 be b3 99 0a be 18 e8 bb 3d 3f d4 84 be
       -0.1271786 -0.13535194 0.09175128 -0.2594318
0001e0 39 d0 0e bd 27 61 0b 3d f2 af b9 bd 21 13 68 be
       -0.034866545 0.0340282 -0.09066762 -0.22663547
0001f0 42 96 1a bc 97 a2 2d 3e 02 3a 07 be 95 56 28 be
       -0.009435238 0.16956554 -0.13205722 -0.16439278
000200 d0 cf 34 3d 34 e0 0e bd 22 10 b2 bd f9 e5 b9 bd
       0.044143498 -0.034881786 -0.08694483 -0.09077067
000210 83 96 bf bb cb 01 e5 bd 17 96 b1 bb 30 2f 86 3d
       -0.0058468 -0.111819826 -0.0054195034 0.06551969
000220 60 9c 82 3a 81 53 2c bc 1e 20 94 3a 35 78 12 3d
       0.0009964816 -0.010517956 0.0011301076 0.03575917
000230 69 c2 c4 3a 82 ae 13 be 15 90 22 bd 06 58 a9 bb
       0.0015011552 -0.14422038 -0.03968819 -0.005167964
000240 c9 58 99 3d e5 34 c8 bc 5a 83 48 bd 13 55 bc bd
       0.074876375 -0.024439285 -0.04895339 -0.09195914
000250 f4 90 fa 3b 7f da 35 3d 5f 6c 4b 3c 4d 8a 9c 3c
       0.0076466743 0.044397827 0.012415974 0.019108916
000260 dc 49 f1 3a 3e 8a 02 3e 82 fc 16 3e 32 ac 59 bc
       0.0018408853 0.12748048 0.14744762 -0.0132856835
000270 27 58 b5 3d 27 8d b3 bb dc ed 99 bc b8 e3 90 bd
       0.08854704 -0.005479473 -0.018790178 -0.07074684
000280 f6 c6 22 3d dc 75 77 bd 47 aa 61 bd 41 3b 02 bc
       0.039740525 -0.060415134 -0.05509403 -0.007948698
000290 97 2c 35 3d b6 3d f1 bd 29 ec a2 bb 77 4e 55 3d
       0.044231977 -0.117793486 -0.004972 0.052076783
0002a0 c8 ad 7c 3c 11 cc b2 bc f1 87 bf 3d 49 60 a9 3c
       0.015422292 -0.021825822 0.09352101 0.020675795
0002b0 c1 7b e4 3c b4 e6 af 3d 19 5d e4 3c 0a 0a bf b9
       0.027891042 0.08588925 0.027876424 -0.0003643784
0002c0 75 72 99 3d 10 82 b1 bc 32 d9 28 bd 63 95 a6 3d
       0.07492534 -0.021668464 -0.04122276 0.08133962
0002d0 d3 fd 9e 3d c7 f0 e0 bc b6 78 94 bd 8f 6f 5e 3d
       0.07763257 -0.027458562 -0.07249586 0.05430561
0002e0 4d 9b e8 bd 97 ff ab bd 7b 76 53 3d 96 95 fb 3b
       -0.11357746 -0.08398359 0.051626664 0.007677744
0002f0 10 51 96 3d d3 1b 70 bd 9d bb 38 bd ff 79 3e 3d
       0.0733968 -0.058620285 -0.045100797 0.046503063
000300 70 ad 93 3e 56 8b 31 3c 85 ab 1d be ee 10 1e 3d
       0.2884326 0.010836443 -0.15397461 0.038590364
000310 90 e1 34 bd c0 0a 14 3e 39 2a 4e 3c 9f 14 ac bb
       -0.044160426 0.14457226 0.012583309 -0.0052514817
000320 8f f4 3f be e9 47 22 be 78 34 31 be 58 f1 af 3e
       -0.18745635 -0.15847744 -0.17305171 0.34363818
000330 02 4d 7a bd 7a b8 db 3e f0 c5 85 be e5 62 41 be
       -0.061108597 0.42914182 -0.26127577 -0.18885382
000340 07 6a 11 be 8d be cc 3d cb 5d 68 be 5b 90 9a 3d
       -0.14200602 0.09997282 -0.22692029 0.07547065
000350 20 14 a3 3e 74 11 50 be c6 6a 23 3c db 53 d9 be
       0.31851292 -0.20319158 0.009974187 -0.4244679
000360 58 ab 9c bd 16 96 34 3e 82 38 0f bd 0f ec 19 be
       -0.07649869 0.17635378 -0.034966 -0.15031455
000370 d0 69 b3 bd 87 78 0c 3d ac 6e 87 be bd 52 df bd
       -0.087604165 0.03429463 -0.26451623 -0.10904453
000380 2e d0 48 bd ef 8e 99 bd 92 d6 ac 3a ac 60 2f be
       -0.04902666 -0.074979655 0.0013186506 -0.17126721
000390 c0 30 e4 bd bd f3 58 bd 34 ec 98 3e 09 61 4e 3d
       -0.11142111 -0.052966822 0.2986771 0.05038551
0003a0 71 c8 00 be a6 50 af be 3b ea 9e be e6 ed 48 3d
       -0.12576462 -0.34241217 -0.3103808 0.049055003
0003b0 ce 9a 78 bc a9 33 a7 3e 7d 8a b6 bb c8 5d 4d 3d
       -0.015173627 0.326566 -0.0055707083 0.050138265
0003c0 57 ee 0c 3f d5 42 df 3d 8e 56 dd bd d6 6f 8e 3e
       0.5505118 0.10901419 -0.108075246 0.278197
0003d0 bd 2b 2c be 5f 29 3f bd 14 96 64 bc 15 36 21 be
       -0.1681356 -0.046670314 -0.013951797 -0.15743287
0003e0 01 06 9d be a7 34 93 be fd a9 5f be f8 2c a4 bd
       -0.30668643 -0.28751108 -0.21842189 -0.080163896
0003f0 3d 13 cc 3d b3 49 84 3d c0 0f 01 bf 4b 31 8f bd
       0.09964607 0.064593695 -0.5041466 -0.06991824

lstm.bias_hh_l0 f4 [256]
000000 fb 89 59 3d af b5 4c 3d af 19 8a 3e ac 06 d5 bd
       0.053110104 0.049977954 0.2697272 -0.10401663
000010 ee 2c 12 be 33 7a ef bc 70 44 71 bd 88 f1 83 bd
       -0.14274952 -0.029233074 -0.058903158 -0.06442553
000020 ea e2 9e be f4 4a 5d be a9 b3 0a be b4 e4 f0 3e
       -0.31032497 -0.21610624 -0.13545097 0.47049487
000030 04 db 36 be b4 14 df 3e 35 3b 65 be b5 4f 8d be
       -0.17856985 0.43570483 -0.22385867 -0.27599874
000040 47 e7 ed bd e7 97 03 3e a6 94 86 be 21 f9 34 3d
       -0.11616378 0.12850915 -0.26285285 0.0441829
000050 eb b3 a3 3e fe 96 97 bd 68 fc 38 be b3 c1 c9 be
       0.31973204 -0.07401846 -0.18065035 -0.39405593
000060 c6 33 30 3d 8f 65 59 3e 2b e3 bb bd 59 ce 95 bd
       0.043018125 0.21230148 -0.09174188 -0.07314748
000070 88 79 82 be 08 c2 d3 bd 25 a6 56 be 1c 77 94 be
       -0.25483346 -0.10339743 -0.20961817 -0.28997123
000080 8b 38 06 3d 97 e9 ba bd 0e 26 09 3e 14 9d c5 ba
       0.032768767 -0.09126585 0.13393423 -0.001507672
000090 0d 6a 86 3c 1c 59 eb bd b4 dc 18 3e 85 c1 cd 3d
       0.01640799 -0.11491606 0.14927942 0.100466765
0000a0 78 52 be bd f9 93 92 be 89 80 59 be 18 32 ea 3c
       -0.092930734 -0.2862852 -0.21240439 0.02858834
0000b0 0a eb e4 bc 0a 6b c6 3e a6 61 83 3d 89 f0 81 3e
       -0.027944107 0.3875354 0.06415109 0.25378826
0000c0 22 51 c8 3e 59 21 aa bc f7 0f 22 bd c0 8c b1 3e
       0.391244 -0.020767855 -0.039566007 0.34677696
0000d0 70 cf 43 be f6 8c e5 3d b5 36 29 bc 1e c7 1c be
       -0.191221 0.11208527 -0.010327985 -0.15310332
0000e0 2c 72 dd bd db 3f 18 be ff 93 97 be 66 db d0 bc
       -0.10812792 -0.14868109 -0.296051 -0.025495242
0000f0 56 f7 ba 3d 07 a7 af 3d 0a b9 c3 be f3 36 2b be
       0.09129207 0.0857678 -0.3822711 -0.1672018
000100 95 65 af bd b9 e5 2c bc 0b f2 a8 3d 14 1a 50 3d
       -0.08564297 -0.010552817 0.08249291 0.05080612
000110 67 96 54 be d6 81 07 3e 1b 26 aa bb 0c 57 f7 3d
       -0.20760499 0.13233122 -0.005192531 0.1207715
000120 be 70 65 3e 66 e4 ec 3d 53 04 c8 3d 46 3c ab be
       0.22406289 0.11567001 0.0976645 -0.33444422
000130 d9 d0 d2 bd ec 12 6d 3e 9e 44 31 3d b2 4d de bb
       -0.10293741 0.2315175 0.04327833 -0.0067841643
000140 19 b9 1a 3d ac aa aa 3e 47 24 22 3d 50 bb 0f 3d
       0.03777418 0.33333337 0.039585378 0.035090744
000150 40 12 96 be f6 c4 b6 bd 88 71 9c 3c be d7 18 be
       -0.293108 -0.08924286 0.019097105 -0.14926049
000160 47 fe e8 3d 60 50 4c 3e a7 88 86 3d 4c d8 3b 3e
       0.113766246 0.19952536 0.06569033 0.1834423
000170 0b 18 eb 3d 81 3e d8 3e 85 e3 e2 bd 65 bf 17 3d
       0.11479195 0.42235187 -0.11078552 0.037047762
000180 8c 17 1a 3e 32 eb 17 be 0d 20 f6 ba 76 fc b8 3c
       0.15048045 -0.14835814 -0.0018777862 0.02258132
000190 db a2 6f be 06 09 fd 3d d7 17 90 3e 6b 18 ba 3c
       -0.23401968 0.12355237 0.28143188 0.022716722
0001a0 78 dd f7 bc 0f 19 a6 3d 43 69 e7 3b 58 f0 98 3d
       -0.030256972 0.08110248 0.0070621087 0.07467717
0001b0 4e 42 87 3e c1 4b 3c 3d 5a a4 ea bd e3 48 ad 3d
       0.26417774 0.045970682 -0.11457129 0.08461168
0001c0 f7 fd dc 3b 0c e9 8d be 19 6e f4 3c 42 82 81 3e
       0.006744142 -0.27716863 0.029837655 0.2529469
0001d0 89 d1 3e 3d 85 d9 7e 3c 2a 01 2e 3e d4 c3 78 bd
       0.046586547 0.01555479 0.16992632 -0.06073363
0001e0 d3 b0 63 bd c6 10 bf bd b7 81 85 bd 19 06 52 bc
       -0.055588555 -0.09329371 -0.06518882 -0.012818837
0001f0 a2 7d a3 bd f4 2d a0 3d 46 a5 b6 bd 1a 6c bd be
       -0.07982947 0.07821265 -0.08918242 -0.36996537
000200 44 8f 30 bd 3f 16 f0 bd 75 5d 10 3d 67 1a b4 3d
       -0.04310538 -0.11722993 0.035245378 0.08794098
000210 25 3b 28 3d 0b c8 5a 3d 61 9a 09 3e ba 01 2e bd
       0.04107203 0.053413432 0.13437797 -0.042482115
000220 d2 cb 9e ba 22 3f f1 3c 4d f5 52 bd 54 64 c6 bd
       -0.0012115187 0.02944905 -0.05150347 -0.09687105
000230 9b a7 d4 3d fc b6 28 3d f0 ef 13 bd bd 02 ae 3d
       0.10383531 0.041190132 -0.036117494 0.08496616
000240 40 5f 1f bc db b6 d7 bc fd dd c3 bd 1f cb 88 3c
       -0.009727299 -0.02633231 -0.09563825 0.016698418
000250 69 f7 b0 bc b6 20 1d 3d 39 1b 14 3d d5 b2 17 3d
       -0.02160235 0.038361274 0.036158774 0.037035782
000260 9c 8d c0 3d 6c 0b cc bc 16 fe 9d 3b 22 12 bf bd
       0.0940201 -0.02490779 0.004821549 -0.093296304
000270 e9 a9 02 be 33 57 ac bd 96 fe 66 bd 82 c7 9d bc
       -0.12760128 -0.084150694 -0.056395136 -0.019260172
000280 57 82 f2 ba 02 88 4e 3d ae 5b 06 3e 84 d3 83 bb
       -0.0018501979 0.050422676 0.1312091 -0.0040230174
000290 d4 6d a5 bc 06 4c 90 bc 4a 1d da bd 51 da 9c bd
       -0.020193972 -0.017614376 -0.10650118 -0.07658828
0002a0 98 ec 0f be 5d 96 c1 bd 2f 0a af bd e1 72 1b be
       -0.14055097 -0.09452508 -0.08546864 -0.15180542
0002b0 d8 68 49 bd ab 20 5a bd 4a 3f c5 3c 4b fc 16 be
       -0.049172252 -0.05325381 0.02407803 -0.1474468
0002c0 ff 9e 09 bd ac 7f a4 bc 33 3e 37 3b 04 bc bd bd
       -0.033598896 -0.02008041 0.0027960658 -0.09264377
0002d0 41 52 51 b9 a6 22 8a bc 50 e3 a3 3d f3 f9 ac 3c
       -0.00019962435 -0.016862225 0.08002341 0.021115279
0002e0 88 fa df bd c4 8d 9a 3d b8 f0 28 bd d3 ce 73 bc
       -0.10936457 0.07546571 -0.041245192 -0.014880854
0002f0 96 05 bd bd e1 0b 87 bd b1 19 3e bc 2a d7 9b bd
       -0.09229581 -0.065940626 -0.011602805 -0.07609399
000300 69 c2 5f 3e bb 05 04 3d 6a 84 24 bd 18 ed 52 bd
       0.21851505 0.032232028 -0.040165342 -0.05149564
000310 69 1f e5 bd 06 ee 3e 3e 11 00 3b be 51 8f 07 bd
       -0.11187632 0.18645486 -0.18261744 -0.03309566
000320 79 81 66 be 1b 03 6d be 60 d2 16 be 9e b6 eb 3e
       -0.22510327 -0.23145716 -0.14728689 0.46037763
000330 a7 13 81 be 9d be f4 3e fd a2 5d be d7 c4 36 be
       -0.25210306 0.47801676 -0.21644206 -0.17848526
000340 d3 a1 e6 3c b7 a0 a1 3d a9 6d 41 be 7e 78 47 3e
       0.028153336 0.07891982 -0.18889488 0.19479558
000350 08 c3 73 3e de 2c 23 be c8 0f 6b bd 9d 04 35 be
       0.23804867 -0.15935084 -0.057388097 -0.17677541
000360 06 89 bf bd 83 af 84 3e 0f d9 10 be b0 89 57 3d
       -0.09352307 0.25915155 -0.14145301 0.052621543
000370 01 8e 98 be 1e 53 29 be 1d 8c 8f be 79 e8 95 be
       -0.2979584 -0.16535613 -0.28036585 -0.29278925
000380 17 d1 a4 3d 50 ef 07 be aa c4 ce 3d 0f 6e 6a be
       0.08047693 -0.13274884 0.100961044 -0.22893547
000390 5b 01 aa bd d8 88 87 bd e4 83 8a 3e 08 84 90 bd
       -0.0830104 -0.06617898 0.2705375 -0.07056433
0003a0 39 41 0f be 05 86 34 be 74 19 70 be bf 54 37 3d
       -0.13989724 -0.1762925 -0.2344721 0.044758555
0003b0 4f 48 91 bc d8 91 63 3e de 54 a1 3b cd d4 64 3e
       -0.017734675 0.22223604 0.004923447 0.22346802
0003c0 73 40 fa 3e 7f 93 95 3d e9 87 e9 bd 81 eb 59 3e
       0.48877296 0.07303523 -0.11402876 0.21281244
0003d0 c6 f9 87 bd 0d 93 10 3e a8 0b 8d bd ad 1f 95 be
       -0.066394374 0.14118595 -0.06886989 -0.2912573
0003e0 49 b4 94 bd e9 0b 16 be 15 51 02 be b4 06 17 be
       -0.07260949 -0.14652981 -0.12726243 -0.14748651
0003f0 16 47 d7 3d 6a ac 10 be a2 32 cf be 03 a6 23 be
       0.105116054 -0.14128271 -0.40468317 -0.15981297

fc.weight f4 [1, 64]
000000 e2 23 f5 3d 7d 20 64 3d 10 d3 0e bd 87 01 72 bd
       0.11969735 0.055695046 -0.034869254 -0.059083488
000010 a2 08 37 3a 87 aa 4c 3d 49 e2 10 3d bb 9c af 3c
       0.00069821824 0.049967315 0.035372052 0.02143704
000020 0c 04 9a 3c e6 46 55 3c 54 20 54 3d 60 e1 dc 3d
       0.018800758 0.013017392 0.051788643 0.10785174
000030 41 30 fb bc c2 50 51 bd bd 81 49 3d a4 79 91 bd
       -0.030662658 -0.051102407 0.049195994 -0.07103279
000040 6e c7 e7 3b b7 3d 01 3e 41 e3 3a bb 22 55 d0 bb
       0.0070733344 0.12621199 -0.0028516802 -0.006357805
000050 95 a3 e2 3d 51 7d 3e 3c 90 0f 26 3d 8f 75 0e bd
       0.11066357 0.011626557 0.040542185 -0.03478008
000060 63 07 d3 bd b3 73 c1 bd da 15 f4 bc ea 88 12 bd
       -0.10304143 -0.09445896 -0.029795576 -0.035775103
000070 7d e8 a6 3c 92 07 c4 3c 95 6d 61 3d 6a ba c9 3d
       0.02037453 0.023929391 0.055036146 0.09850009
000080 1d 33 d0 bc 2c 6f 11 3d b2 91 a0 bd 26 68 27 bd
       -0.025414998 0.035506412 -0.07840289 -0.040870808
000090 95 5d 10 3d 2e d7 65 3d 5b 67 2c 3d c5 e1 51 3d
       0.035245497 0.056113414 0.042090755 0.0512407
0000a0 4e 0a 0f 3d a5 c8 ea bc 41 60 df 3c ff b8 b8 3d
       0.034921937 -0.028660128 0.027267577 0.0901966
0000b0 d2 6f 44 3d a3 7c c9 3d b2 47 af bd ba b7 97 bc
       0.047958203 0.09838226 -0.08558597 -0.018520225
0000c0 83 44 8e bb 3a f9 52 3c c9 42 94 3b c5 eb c8 bd
       -0.0043416633 0.012876803 0.004524563 -0.098105945
0000d0 4b 40 39 3d 45 16 39 3c 2a 8c b7 3c 69 1b 4e bd
       0.04522733 0.011296813 0.022405703 -0.05031911
0000e0 ba 8b 5c bd 69 5c 7c 3d b1 2d ba 3d 19 33 dc 3d
       -0.05384419 0.061611567 0.09090746 0.107519336
0000f0 62 5a a8 3c 2c 59 aa 3c c3 64 0a 3d 56 50 04 be
       0.02055091 0.020794474 0.0337875 -0.1292127
