time_series_intro_class/final_project/temp/1_layer_16_size_model_epoch_300.pth (torch, 6435 bytes, 5 tensors)

lstm.weight_ih_l0 f4 [64, 1]
000000 c0 3f fa 3d 52 ee 97 bb 74 b0 9a bd dd 84 21 3e
       0.122191906 -0.0046365643 -0.07553187 0.1577334
000010 1f 5a 66 3e fa 2f fc 3b 40 7f 78 3e f4 c9 aa 3d
       0.22495316 0.007696149 0.24267292 0.08339301
000020 59 fd 38 3e 50 d2 95 3d 48 64 b8 bd ea 16 1c be
       0.18065394 0.073155046 -0.09003502 -0.15243116
000030 10 b0 0a be f1 ef 34 be 09 1c 21 3e 5d c9 82 be
       -0.13543725 -0.17669655 0.15733351 -0.25544253
000040 1f ce de 3c 08 15 88 3d cb 55 7f 3e bc e7 ca 3d
       0.027197896 0.066446364 0.24935071 0.09907481
000050 f6 3c 77 be 56 ff 3f be a9 42 b7 3e c6 29 fc bd
       -0.24144349 -0.18749747 0.35793045 -0.12312655
000060 2e fb a5 bd 18 cd 08 be 3a 81 95 be 86 29 9d 3c
       -0.08104549 -0.13359487 -0.29200155 0.019184839
000070 98 24 b8 bd 8c 94 06 3e 2c 4d 4d 3e af 21 46 be
       -0.08991355 0.13142604 0.2004897 -0.19348787
000080 48 f4 0e 3e 50 65 74 bd 5d 5e 43 bd 38 76 14 3e
       0.13960373 -0.05966693 -0.047697414 0.14498222
000090 b3 11 69 3e 47 e7 ea bd ea ee 9f be d6 46 88 bc
       0.22760658 -0.11469894 -0.31236964 -0.01663534
0000a0 9c 9b 29 3e b8 3c 22 be 76 9a 9d 3d ff 26 d1 bd
       0.16563267 -0.15843475 0.07695477 -0.10212516
0000b0 c7 aa fa 3c a4 eb 68 3e 66 84 4d be 32 23 20 3e
       0.030599011 0.2274614 -0.20070037 0.15638426
0000c0 f5 6d d4 3d 5c 73 7a be 43 48 7f 3e ff d3 21 be
       0.10372535 -0.24458069 0.2492991 -0.15803526
0000d0 a0 59 80 3e 04 3d 2e bc 56 66 ec 3b 6d e3 33 3e
       0.25068378 -0.010634664 0.007214348 0.17567225
0000e0 0b 56 43 3d bd 98 62 be e0 ab a0 be 33 54 88 3b
       0.04768948 -0.22128578 -0.3138113 0.004160428
0000f0 17 d7 54 3c d2 98 7b 3e 1a 10 b5 3d 8c fb b0 bd
       0.012990735 0.24570015 0.08840962 -0.08641729

lstm.weight_hh_l0 f4 [64, 16]
000000 b9 d7 83 3e dd 67 27 3e b6 6a 12 be ce 6d a5 bb
       0.2575052 0.16348214 -0.1429852 -0.00504849
000010 6c 0e 24 be ac 22 6a 3d b8 7e 51 be 26 70 58 3d
       -0.16021127 0.057161972 -0.20458496 0.052841328
000020 cb 1c ba 3c 36 4a 83 3d 13 25 23 3d 38 dd 21 be
       0.022718808 0.06410639 0.03983028 -0.15807045
000030 64 35 21 3e e6 b9 ca bd 5c 63 9c 3c b4 66 35 be
       0.15743023 -0.098987386 0.019090347 -0.1771496
000040 52 9a 10 be 41 2a 4f 3c f8 3b f3 bd bf e7 04 be
       -0.14121369 0.012644351 -0.118766725 -0.12979029
000050 18 95 53 3e 97 db 80 3e 89 de c2 bd 16 3e 3d 3d
       0.20662344 0.25167534 -0.095151015 0.046201788
000060 0e 2a e1 bd 9e 9e 50 be 42 44 52 3e d7 76 df 3d
       -0.109943494 -0.20373008 0.20533851 0.10911339
000070 53 fc 22 3d 31 d8 5b 3d cf a4 0f be 45 01 78 3e
       0.039791416 0.053672973 -0.14027713 0.24219234
000080 d6 a2 d4 bd a3 7b 75 bd 40 bb 54 3e 49 40 21 be
       -0.10382621 -0.059932362 0.20774555 -0.15747179
000090 7d a7 40 be 88 77 49 3e 85 47 55 3c 58 05 1c 3d
       -0.18813892 0.19674504 0.01301754 0.038091034
0000a0 9b 7b 45 3e 17 dd da 3d 2b 8c ac 3d 83 db 69 be
       0.19285433 0.10686701 0.084251724 -0.22837643
0000b0 1c 08 05 bd fe 5a fa 39 08 63 ab bd d7 0c 50 3e
       -0.032478437 0.0004775151 -0.08368498 0.20317398
0000c0 4b ff 47 3e 54 61 8d 3d 19 0f c0 bc 70 45 03 be
       0.1953098 0.069033295 -0.0234447 -0.12819457
0000d0 f0 78 26 be 4e c4 9b 3d 6e 00 14 be 58 69 36 be
       -0.16257071 0.076058015 -0.14453289 -0.17813623
0000e0 56 c4 a8 bc 17 dd 8f 3d 39 89 45 3e cb 75 4e 3e
       -0.020601433 0.070245914 0.19290628 0.20162122
0000f0 27 32 b6 bd 8c 58 a1 3d d2 79 50 3e f0 7c 19 be
       -0.088962846 0.07878217 0.20358971 -0.14989066
000100 06 2f f2 bd a7 02 8a bd 8f c3 12 3e 87 1e e4 3d
       -0.11825375 -0.06738787 0.14332412 0.11138635
000110 1d 27 1b bd a4 f7 94 3d 79 8e 66 3e 96 c5 60 3d
       -0.0378791 0.07273796 0.22515287 0.054875933
000120 06 d5 8e bd 94 1b d2 bc 84 b9 6e be 19 48 0b 3e
       -0.06974225 -0.025647916 -0.23312956 0.13601722
000130 d3 21 40 bd e8 ac c2 bc 6e 8c 0c 3e 17 32 1b be
       -0.046907257 -0.023764089 0.13725445 -0.15155827
000140 fa ab c2 bc 2e c4 4b 3e f9 74 74 3e 42 94 30 3e
       -0.023763645 0.19899055 0.23872747 0.17244056
000150 9c e8 6f bd fc a4 cb bd df 2c 63 bd 37 41 06 3e
       -0.058571443 -0.09943578 -0.055462714 0.13110815
000160 fc 2f f4 3d 54 18 82 3e ed 22 00 3e ae b5 ae 3d
       0.11923215 0.25409186 0.12513323 0.085307464
000170 ec 9a 37 be 12 c4 ee bd 30 ba a4 bc 55 e8 0e be
       -0.17930192 -0.11658491 -0.020108312 -0.13955815
000180 93 4c 0e 3e 65 f4 00 be ad 29 c8 bd 24 3b f6 bd
       0.13896398 -0.12593229 -0.09773574 -0.12022999
000190 4f 57 52 3e 89 ca 6d 3e a7 f2 1c be 00 4b 1e 3d
       0.20541118 0.23221792 -0.1532694 0.038645744
0001a0 af 46 14 be 32 6d 09 3d 25 62 c7 3d ed 75 2f 3e
       -0.14480089 0.033551402 0.097355165 0.17134829
0001b0 83 a9 2f 3e aa 07 13 3b 7b a1 4b bc 97 5b ed bd
       0.17154507 0.0022434988 -0.012428637 -0.11589735
0001c0 c0 e9 97 bd 8b dc 1d bd 26 de 8e bd 2e 97 4d be
       -0.07417631 -0.038540404 -0.06975965 -0.20077202
0001d0 9f 29 6c be 46 c7 3d 3e a4 3c 59 be 9e 29 95 bc
       -0.23062752 0.18533048 -0.21214539 -0.018208321
0001e0 cb 1a 08 3d d0 f9 63 be 48 d2 7b be ee 2c 94 3c
       0.033228677 -0.22263265 -0.24591935 0.01808783
0001f0 cc eb 80 bd 92 bc 52 3e 84 a5 6a 3e 45 9c 5a 3e
       -0.06294975 0.20579746 0.22914702 0.21348675
000200 ed aa 53 be e6 08 51 3e cd 0c 71 be 04 91 82 3e
       -0.20670672 0.2041355 -0.2354004 0.25501263
000210 ad 9d 1e be f6 a3 22 be 58 60 32 3d 15 15 a1 bd
       -0.15489836 -0.15882859 0.04354891 -0.07865349
000220 0c a2 2d 3e c7 a4 dc 3d a4 18 53 be bf eb 2a bd
       0.16956347 0.10773616 -0.20614868 -0.04172873
000230 5f 8b 14 3e 45 b5 2b 3e 8f 41 6d be f6 9a 17 3c
       0.14506291 0.16768368 -0.2316954 0.009253254
000240 9a a1 57 3d 0e 3c 38 be 10 83 bf 3d b4 dd 8f 3d
       0.05264435 -0.17991659 0.0935117 0.070247084
000250 af 56 15 3e 3e 2d 46 3e c0 65 fa bd 0a dc d7 bd
       0.14583848 0.19353196 -0.122264385 -0.10540016
000260 46 64 58 3d e7 0e 2b be a2 60 d6 bd 3e fc 23 3d
       0.052830003 -0.16704904 -0.1046765 0.04003548
000270 b9 b2 ef bd 58 a3 6f 3e 26 24 86 bc 01 11 d8 bd
       -0.117040105 0.23402154 -0.016374659 -0.10550118
000280 46 43 05 3e 01 5b 53 3d 98 cd 2e 3e 75 48 28 3d
       0.13013944 0.05160046 0.17070615 0.041084725
000290 21 67 45 bd 07 70 4b be a3 b1 df bc 88 8d 4b 3e
       -0.048194055 -0.19866954 -0.027306383 0.19878209
0002a0 bc 9d 62 3e 5e 4c b7 3d b6 0b 8a 3b 97 e2 78 3d
       0.22130483 0.08950113 0.004212822 0.060762968
0002b0 f8 51 f2 bd 4d c2 81 bc 8b 1e f7 3d cd a6 77 3d
       -0.118320405 -0.01583972 0.120663725 0.060461808
0002c0 cb d2 3e be 8c 14 93 bd 32 1d 92 3b b7 38 ec 3b
       -0.18635099 -0.071816534 0.0044590468 0.0072089094
0002d0 e0 f9 74 be 52 64 ab bd 62 b0 1b 3e 87 1e 10 be
       -0.23923445 -0.08368744 0.15204003 -0.14074145
0002e0 0f 99 06 3e 92 be 86 3b 85 36 90 bd 02 d9 73 3e
       0.13144325 0.004112073 -0.07041649 0.2381325
0002f0 3b e5 c1 bd a5 5f ff bd 8e b6 9d bd 45 b8 71 3e
       -0.0946755 -0.124694146 -0.07700835 0.2360545
000300 b0 7d 9f bd 43 70 08 3e ed 71 93 bd 8a 4a 46 3e
       -0.07787645 0.13324074 -0.07199464 0.19364372
000310 c1 6f ad 3d 97 c7 05 3e f7 46 e4 bd cf 02 4d 3b
       0.08468581 0.13064419 -0.11146348 0.0031282192
000320 d2 40 3f be d5 98 f1 3d 66 a8 a1 bd c8 0f 03 bc
       -0.1867707 0.117967285 -0.078934476 -0.007999368
000330 03 50 58 bd 9a 40 7c be 49 79 53 bd 82 8f 04 3e
       -0.05281068 -0.24634019 -0.05162934 0.12945369
000340 97 bd 58 bc 96 1f 00 3e 3c 2c fe 3d 17 24 56 3e
       -0.0132287955 0.12512049 0.12410781 0.20912205
000350 1c 01 7e 3d df 9c 17 3d 1e 14 76 be 17 26 5e 3d
       0.062012777 0.03701484 -0.24031112 0.054235544
000360 75 2e 46 3c 36 f1 19 be bb 9c d3 bc 16 13 61 3e
       0.012096037 -0.15033421 -0.02583157 0.21979937
000370 bd ae fa bd d2 e7 77 be bc a1 7f be 2e fe 0d be
       -0.1224036 -0.24209526 -0.2496404 -0.13866493
000380 d1 04 bf bd 61 fc 21 be a4 44 a8 3d 43 c3 45 3e
       -0.093270905 -0.15818931 0.08216217 0.19312768
000390 f6 fd 66 bc d3 b7 3c 3e e8 8e c3 3b 46 f3 19 3e
       -0.014098635 0.18429498 0.0059679635 0.15034208
0003a0 4b ed de 3d 63 de 1c 3e 3e 34 19 3d 29 58 aa 3c
       0.10885104 0.15319209 0.037403338 0.020793991
0003b0 e3 55 24 3e 69 4a 4a 3d df 5c 4a be ed 14 58 3e
       0.16048388 0.04938737 -0.1976199 0.21101733
0003c0 b1 51 88 3e 4c 7d 73 be a4 b4 02 be 03 43 78 bd
       0.26624826 -0.23778266 -0.12764221 -0.060610782
0003d0 0b a5 d4 3d f7 1d 51 3e 27 5e 85 3d 27 4f 2e 3e
       0.10383042 0.20421587 0.06512099 0.17022382
0003e0 f2 d1 3f be a4 1c 6f be 9c 2f 88 3d 5a 08 ac 3b
       -0.18732432 -0.2335077 0.06649706 0.005250019
0003f0 93 78 d9 3d 7a de 8c bd 55 1f 7b be fc b0 8d 3d
       0.10618701 -0.068783715 -0.24523671 0.06918523

lstm.bias_ih_l0 f4 [64]
000000 b4 88 ca bd 0e 1b 1c 3e b7 4d 23 be d6 9c 6f 3d
       -0.09889355 0.15244696 -0.15947615 0.05849918
000010 32 41 2f 3d c4 a1 6a 3c 8f 48 5e be fd 1f 47 be
       0.042786784 0.0143207945 -0.21707366 -0.19445796
000020 3c 9c e0 bc 49 36 40 be 52 35 10 be 3d b0 5e 3d
       -0.027418248 -0.18770708 -0.1408284 0.054367293
000030 43 7d 7d be 33 e3 6d 3e 72 ae ff 3d 92 a7 87 3d
       -0.24754815 0.23231201 0.12484445 0.066237584
000040 f9 5c 18 be 64 7d 06 be 7f 92 e5 3d a1 5e 2b be
       -0.14879216 -0.1313377 0.112095825 -0.16735317
000050 64 81 97 3d a8 e0 24 be 2a 3c 55 be 70 f3 66 be
       0.07397726 -0.16101325 -0.20823732 -0.22553802
000060 86 e3 dc 3d cc 64 c8 bc 63 0c ed bd 78 22 fe bd
       0.10785584 -0.024462126 -0.11574628 -0.12408918
000070 24 dd e0 3d 67 56 75 3d 56 ea 5a 3d 62 bd 62 be
       0.10979679 0.059896853 0.053446136 -0.22142556
000080 a7 5f 33 bd 3e f1 e3 bd 6f 11 3c be 6b 61 7d be
       -0.043792393 -0.11129998 -0.18366025 -0.24744193
000090 66 72 52 be fe f3 61 be c0 3b ad 3c 4e 49 64 3e
       -0.20551452 -0.22065732 0.021146655 0.22293589
0000a0 fc 6a 76 3c 8b 96 75 3d b8 c3 da 3d bb dd 1c 3b
       0.0150401555 0.059958022 0.10681862 0.0023935873
0000b0 7a e6 b1 3d 58 32 6e 3e 91 31 48 3e c2 ed ae bd
       0.08686538 0.23261392 0.19550158 -0.085414425
0000c0 7a 4d 90 bd 8b b4 21 be 6f 77 01 39 5d 38 ab 3d
       -0.070460275 -0.15791528 0.00012346891 0.0836036
0000d0 76 c7 21 3e a5 ad b2 3b 59 1e 6c bb 41 ce a9 3b
       0.15798745 0.005452829 -0.003602883 0.005182058
0000e0 05 1a 49 3e 36 67 03 3e 23 1c 76 be a2 ea b1 3d
       0.19638832 0.1283234 -0.24034171 0.08687331
0000f0 a3 62 27 be 70 27 c0 bd cb e2 18 3e 8c 05 91 ba
       -0.1634622 -0.09382522 0.14930265 -0.0011064275

lstm.bias_hh_l0 f4 [64]
000000 fd d1 80 be 18 9f 61 be 74 26 c9 3d 42 c5 6f bd
       -0.25160208 -0.22033346 0.098217875 -0.05853773
000010 a0 fb 5f bc 77 46 88 3d 6c 76 96 bd f7 3d 22 3e
       -0.013670832 0.06654065 -0.07346806 0.1584395
000020 d0 8c 48 be 28 d0 66 3c ee dd 41 be 4e b5 87 3c
       -0.19584966 0.014087714 -0.18932316 0.016565945
000030 1e db 9c 3c 45 a9 76 be 13 cb 7c 3e 14 99 3e be
       0.019147452 -0.24088009 0.24686842 -0.18613082
000040 a3 2f 35 3e ee da 64 3e 92 80 43 be 85 ac 72 be
       0.17693953 0.2234914 -0.19092014 -0.23698623
000050 15 6e 29 3d ce e4 42 3e 44 d7 27 be 76 c1 39 3d
       0.041364748 0.19032595 -0.16390711 0.045350514
000060 2d 5e 0d be 79 06 88 3d ea 01 31 bd 1b cd 2f 3d
       -0.13805456 0.066418596 -0.043214716 0.042920213
000070 cb 16 82 be 4d b7 40 3d c5 bb 3d 3e 66 af 29 3e
       -0.25408015 0.04704981 0.1852866 0.16570815
000080 e9 2d dd bc 2e a5 60 3e 01 1f 4c be ae 42 28 bd
       -0.02699943 0.21938011 -0.19933702 -0.041079216
000090 7d 6d f4 bd e4 91 2a 3e 1c d9 29 3d 2e f5 92 3c
       -0.11934946 0.16657215 0.041466817 0.017939176
0000a0 99 09 d3 bd cc 13 1e be 96 e0 27 3e 73 54 42 3e
       -0.10304565 -0.1543724 0.16394266 0.18977527
0000b0 1d e3 4e be 71 9b 0e 3d f1 f1 65 3e 8d 4f 38 be
       -0.20203824 0.03481621 0.22455575 -0.17999096
0000c0 36 45 8f bd 88 c4 c3 3d 80 9e 6b bc 85 d2 f3 3d
       -0.06995623 0.0955897 -0.014381051 0.11905388
0000d0 bc a4 b6 bd 25 05 18 be 9b 06 ad 3d 5d ce 8f 3d
       -0.08918139 -0.14845712 0.084485255 0.070217825
0000e0 d7 d2 3d 3e e4 4d 4c be cb b4 07 be 16 97 b2 3d
       0.1853746 -0.19951588 -0.13252561 0.087202236
0000f0 ec 94 27 bd af 0a 0a 3e ef 66 03 3e 8b 43 18 be
       -0.040913507 0.13480638 0.12832235 -0.14869516

fc.weight f4 [1, 16]
000000 77 60 27 3e fc a7 34 3e 88 d5 54 3d a2 b3 63 be
       0.16345392 0.17642206 0.05196145 -0.22236493
000010 84 d1 8e 3c e3 66 32 be 39 b5 2c 3c 47 34 2a 3d
       0.01743389 -0.1742206 0.010541254 0.04155376
000020 12 70 41 3e d5 9e 2f be 9d e5 7d 3e de 64 02 3e
       0.18890408 -0.17150433 0.24794622 0.1273379
000030 d6 e0 16 3d ab 70 52 be ef 8b 18 3e e9 41 bf bc
       0.036835514 -0.20550792 0.1489713 -0.023346858
