time_series_intro_class/final_project/temp/1_layer_32_size_model_epoch_1700.pth (torch, 19555 bytes, 5 tensors)

lstm.weight_ih_l0 f4 [128, 1]
000000 5c 0d 38 40 49 fc 37 40 c3 21 09 40 22 8a cc bf
       2.8758154 2.8747733 2.1426857 -1.5979655
000010 b0 aa 36 3f ff 0b 88 3d e9 55 1e c0 4c b1 a1 bf
       0.713542 0.06642913 -2.4739935 -1.2632232
000020 d6 81 31 40 aa 81 ac bf 02 7c ff 3f 13 ec 33 c0
       2.7735496 -1.347707 1.9959719 -2.8112838
000030 3a 33 ff bf ea 19 47 3f c9 04 3b bf 74 7d 0d 3f
       -1.9937508 0.77773917 -0.73054177 0.5526955
000040 19 03 17 c0 95 d8 0f c0 23 0e 8d 3e 80 aa 8f bf
       -2.359564 -2.247594 0.27549848 -1.1223907
000050 bf 68 15 3f 98 de f9 3e d3 a0 d5 be 7e cb 9e 3f
       0.58362955 0.48802638 -0.41724262 1.2405851
000060 a4 7e b9 3e 78 d7 a7 3e a3 7e ee 3e 5e 72 c0 3f
       0.36229432 0.32781577 0.4658099 1.5034902
000070 2c 80 59 3e 83 e9 7e 3f dd 8d d5 3d 4c 82 8a bf
       0.212403 0.9957506 0.10427449 -1.0821013
000080 1e fd cc be 61 19 8c 3f 1a 3e 0f 40 a9 91 51 40
       -0.40036863 1.0945245 2.2381654 3.2745154
000090 a3 cc af 3f 5c b4 2c 3d 7e 3d f9 be 56 0c 35 3f
       1.3734325 0.04216419 -0.48679727 0.7072195
0000a0 68 8b ea be 84 c8 ec be e9 c5 c5 3f ec 4a ea 3f
       -0.45809484 -0.4624673 1.5451022 1.8304114
0000b0 22 98 d1 bf 58 28 4f 3f 93 d1 1c c0 d6 23 c9 be
       -1.6374552 0.80920935 -2.4502914 -0.39285153
0000c0 4d 51 95 3e c3 6d 21 3f 93 c8 64 3e 78 c2 05 3f
       0.2916359 0.6305811 0.22342138 0.5224986
0000d0 55 44 75 bf 08 07 ae 3e c0 57 02 3e 66 a8 66 40
       -0.9580739 0.3398974 0.12728786 3.6040282
0000e0 0c 2b 36 3f 49 2a a1 bd d1 c6 e6 bd 21 b0 9b bf
       0.71159434 -0.078693934 -0.1126839 -1.2163125
0000f0 2c f8 52 bf 8a e3 8f 3e 62 a6 4b 3f ed 40 62 3e
       -0.8240993 0.28103286 0.79550755 0.2209508
000100 4f ba 04 3f 57 b4 13 bf ef 4d cc bc ca 68 8b 3f
       0.51846784 -0.5769705 -0.024939505 1.0891354
000110 19 76 fa 3d 97 78 00 3d 26 59 3f bf 02 85 31 3f
       0.122295566 0.031365003 -0.74745405 0.6934358
000120 f8 1d 4a bc f5 6a 19 3e e5 70 b4 3d 4c f8 79 bf
       -0.012336247 0.14982207 0.088105954 -0.97644496
000130 15 60 48 3f e4 12 24 3f 4f fb c9 bd 08 06 ab 3e
       0.7827161 0.64091325 -0.098623864 0.3340304
000140 04 fe bb be 71 e4 cf 3f 93 a2 4d 3e 88 99 5d 3f
       -0.36717236 1.624159 0.20081548 0.86562395
000150 1e 97 a2 bd 75 8b 51 3e f8 d3 8e 3e e7 19 bf 3e
       -0.079389796 0.20463355 0.27896094 0.3732445
000160 be d0 71 be 66 0e d4 3d 86 af 52 3f 58 d8 09 3e
       -0.23614785 0.10354309 0.8229908 0.13461435
000170 56 fc bc 3d 84 b2 0c 40 a5 b2 c2 3e 80 8c b9 be
       0.09227817 2.1983957 0.3802692 -0.36240005
000180 06 55 9b 3f 8d b0 f5 3f 8f f8 c3 3f 6a 1b 29 bd
       1.2135322 1.9194504 1.5310229 -0.04128591
000190 ad b7 6b 3f 72 9c 17 3e 79 92 b9 bf 2c 5d d9 be
       0.9207714 0.14805773 -1.4497825 -0.42453897
0001a0 a2 5c 04 40 a7 ca cd bf 6d ec ff 3f 44 d9 b7 be
       2.0681539 -1.607747 1.9994026 -0.35907948
0001b0 f9 75 49 bf f3 ae 66 b9 44 77 49 c0 f2 13 e7 be
       -0.78695637 -0.00021999683 -3.1479044 -0.45132405
0001c0 47 1d 60 bf d6 ea 05 bf ff 4b 47 3e a3 02 53 bf
       -0.87544674 -0.52311456 0.19462584 -0.824259
0001d0 ba 94 11 bf 53 6b c3 3e c2 d2 04 be 74 0f ed 3f
       -0.56867564 0.3816782 -0.12971023 1.8520341
0001e0 75 21 5e 3d 0b ad ac bd 28 83 6f be 95 e9 ac 3e
       0.054231126 -0.08431443 -0.23389876 0.3377196
0001f0 e7 5b ce 3c 77 c4 29 3f 17 ba 16 3f 5a 0e 96 be
       0.025190307 0.66315407 0.588777 -0.29307824

lstm.weight_hh_l0 f4 [128, 32]
000000 7d 85 95 bd dd 84 02 be cc f4 8f bd bd d3 58 3e
       -0.073008515 -0.12745996 -0.07029113 0.21174522
000010 81 ef 96 be 2a 23 43 3e 25 f9 ba 3c 85 ce 10 bd
       -0.29479602 0.19056383 0.02282388 -0.035353202
000020 35 71 9b be 12 8a ff 3c 81 7b 4b 3d d9 ff 87 3e
       -0.30359808 0.031193767 0.04967833 0.26562384
000030 ab 8c c8 3d f2 25 4b 3e f8 57 68 bd 84 ee ea bb
       0.09792455 0.19838694 -0.05672452 -0.0071695466
000040 54 44 de bd d3 dc e2 bd da db e7 3d 3c 33 d7 bb
       -0.10852876 -0.11077275 0.1132123 -0.006567387
000050 00 e8 2a be ea 58 1f be 52 38 04 bb 93 d2 ed 3e
       -0.16690063 -0.15561262 -0.002017517 0.46449718
000060 16 fe bc 3d e3 a5 64 3d f4 f8 ad 3d ba b1 7f 3e
       0.092281505 0.055822264 0.0849475 0.24970141
000070 03 ad 49 3d 3d b3 d3 3f 83 a1 83 3c 12 16 67 bf
       0.049237262 1.6539074 0.016068226 -0.9026805
000080 22 e9 14 3f 1f 1a 62 bf 1f d2 25 3e 0d ae 2a bd
       0.5816823 -0.8832111 0.16193436 -0.041669894
000090 b2 4a be 3d c4 43 95 3e 40 fc df be cc 97 45 3f
       0.09291591 0.29153264 -0.4374714 0.7718475
0000a0 dc 7d cd 3e 5a 8e ae be 85 9c 45 3f 0e 4b f6 be
       0.40135086 -0.3409298 0.77191955 -0.48104137
0000b0 f7 04 85 3d 2b 8a 6e 3f 12 5b 7b 3e 9c e3 ae 3e
       0.064950876 0.9317958 0.2454646 0.34158027
0000c0 8f ea f4 be a6 70 2a 3e 2f ac 97 bd 46 fb 09 3f
       -0.47835204 0.16644534 -0.07405888 0.5389904
0000d0 f7 32 a2 3e 6a 39 af bd 2c d0 ea bc eb 18 e8 bd
       0.31679508 -0.08555873 -0.028663717 -0.11332878
0000e0 55 27 87 bd 1b 9a 4e bc 16 5d b5 bd b0 1b 95 be
       -0.06599299 -0.012609984 -0.08855645 -0.29122686
0000f0 e3 45 dd 3d 10 a4 8e bb eb 58 6b bc b0 62 aa be
       0.108043455 -0.004353054 -0.014364461 -0.33278418
000100 d9 54 23 3c ca a3 33 3d e2 95 57 be 68 1f 37 3e
       0.00996896 0.043857373 -0.2105327 0.17883074
000110 6d 49 80 3c 44 94 d9 bd 8f 61 f7 3e 98 67 a0 3e
       0.015660012 -0.106239825 0.4831662 0.31329036
000120 24 52 a9 3d 11 a0 9e 3e 33 f0 2e be 72 c5 ef 3e
       0.0826762 0.30981496 -0.17083816 0.46830326
000130 5e da 1b 3d 4a 0c 59 3e 25 2a ab 3e 0b f7 31 bd
       0.038050048 0.21196094 0.3343059 -0.04344849
000140 26 c3 95 3e 26 d1 45 bf d1 c8 18 bd 1d e5 af bd
       0.2925045 -0.7727226 -0.03730089 -0.08588622
000150 4a e9 2a bd 1e 81 3f 3e 2d 98 45 3e 51 9a 06 3e
       -0.041726388 0.18701598 0.19296332 0.13144805
000160 f5 30 40 be 30 2b 49 be 01 6a 74 3d df 23 84 3d
       -0.18768676 -0.19645381 0.059671406 0.06452154
000170 cf 20 bc be 61 57 8d be 14 dc fa bc 91 0f 24 be
       -0.3674378 -0.27605727 -0.03062252 -0.16021563
000180 92 19 03 bf d0 d5 56 3f 83 d4 71 bf d1 5e a8 3f
       -0.5121089 0.8392 -0.9446489 1.3153936
000190 92 d7 a0 3d 18 e5 c1 3e c6 8f 0e be 81 ff 0f be
       0.07853617 0.37870097 -0.13922033 -0.14062311
0001a0 a5 17 55 bf 96 b1 88 3f 6a 88 56 bf 79 f7 36 3e
       -0.83239204 1.0679195 -0.838019 0.17867841
0001b0 ee 69 20 be 93 c9 d1 be ec 5d 27 3f 75 09 41 bf
       -0.15665409 -0.409741 0.6537769 -0.75405055
0001c0 f4 0d 6d be 83 c0 3d 3f ac 01 88 3e 71 76 45 be
       -0.23149854 0.74121875 0.26563776 -0.19283463
0001d0 ba fc 04 bf c5 ed 90 be 2a 5f 0c 3e b7 20 21 3f
       -0.5194813 -0.28306404 0.13708177 0.62940544
0001e0 8c 7e 33 3e 73 d0 e3 3e f1 7f 03 bd 64 2f 4f 3f
       0.17528743 0.44494972 -0.032104436 0.8093169
0001f0 9c 5f bb 3d c6 59 7a 3f 24 9c 64 3f 03 29 84 bf
       0.091490954 0.97793233 0.8930075 -1.0325016
000200 16 44 a5 be ce 32 de 3e 31 e4 57 3d 38 96 86 3d
       -0.32278508 0.43398136 0.052707855 0.06571621
000210 d3 e6 d8 be a5 b4 28 3a be 73 b5 3e 28 16 34 3e
       -0.42363605 0.00064356095 0.35439867 0.17586577
000220 70 52 0c bf 29 bb 42 3e bc c2 85 bd e8 0c ba 3e
       -0.5481329 0.19016708 -0.06531283 0.36337972
000230 d5 ac cd be b8 1f 14 be 5d 91 af 3e 8a c9 ce be
       -0.40170923 -0.14465225 0.3429059 -0.40388137
000240 a2 5d d6 bd 65 83 c8 be f4 bf 2e be 44 48 80 be
       -0.10467078 -0.39162746 -0.17065412 -0.25055134
000250 0e ad 28 be 08 a6 58 bc f2 70 99 be ee 2c c1 3e
       -0.16472265 -0.013223179 -0.29968983 0.3772959
000260 bd f7 af 3c db 05 30 be 5c b4 de be 5c 4c 9a 3e
       0.021480436 -0.17189734 -0.43496978 0.30136383
000270 66 cb c1 be 09 04 17 3f 4b 6e 3d be 27 a1 03 bf
       -0.37850493 0.5899053 -0.18499105 -0.51417774
000280 6b 1a ad 3e b8 f5 97 be f9 97 5e 3e d3 fd 4d 3e
       0.33809218 -0.29679656 0.2173766 0.20116358
000290 2c cc 69 3d f7 06 05 3c 09 08 29 be fe db fc bd
       0.05707948 0.008119336 -0.16506971 -0.12346648
0002a0 31 cb 00 3d 01 92 30 3e b1 b7 9a 3d 0e d7 6b 3d
       0.03144378 0.17243196 0.075545676 0.05757814
0002b0 f7 da d6 bd e6 b1 0d 3e a3 0b c1 3e 68 e9 d4 bd
       -0.10490983 0.13837394 0.3770419 -0.10396081
0002c0 9f a3 41 3e 51 7b a7 be f2 77 5a be 13 ea 68 3e
       0.18910073 -0.3271127 -0.21334818 0.22745542
0002d0 8e 7c 8d 3d c1 b1 20 3c 4a 0e 19 be 59 b9 12 bd
       0.069085225 0.009808005 -0.14946857 -0.035821293
0002e0 af 4f bf bd 7d c2 f8 3d 50 0a 73 3e 79 1f 50 bd
       -0.0934137 0.12146471 0.23734403 -0.050811265
0002f0 13 c7 1f be 68 e0 2d 3e 67 48 21 be 9e 31 dd 3b
       -0.15603285 0.16980135 -0.15750276 0.0067502996
000300 65 be 8e bd e7 7f ca 3d 91 d5 48 bf 7f 0f 12 3f
       -0.069699086 0.09887677 -0.78450876 0.57054895
000310 93 fe 09 3e 35 5a 9f 3d 5d 24 d1 3e b5 66 5e 3e
       0.13476019 0.077808775 0.40848055 0.21718867
000320 b8 48 d1 be 68 b0 13 3f 15 19 0f be 53 c1 01 3e
       -0.40875793 0.5769105 -0.13974412 0.12671404
000330 d0 49 0f be 06 f6 86 3e ed 0f a8 3e 87 f2 fa be
       -0.13993001 0.26359576 0.3282465 -0.4901316
000340 cb 61 ea bb 14 dc 45 3d 7a 0c e9 bd 8f fd af 3d
       -0.007152771 0.048305586 -0.11379333 0.08593284
000350 67 37 fb be e9 b5 81 3d 69 cc 0f 3f 24 cc 52 3f
       -0.49065706 0.06333525 0.5617128 0.82342744
000360 0d c5 1d be f6 b2 dd bd 05 67 8a 3e 65 d5 45 3e
       -0.154072 -0.1082515 0.27031723 0.19319685
000370 db cf 6e be 8c 04 16 3e 9a a2 20 be 39 38 f4 be
       -0.23321478 0.14650172 -0.15687028 -0.47699144
000380 c4 29 cc 3d 4e 8a 4b be e6 4b e6 3d 18 5f 0f bf
       0.09968904 -0.19876978 0.11244945 -0.56004477
000390 ca 2c 08 bf 1f 04 4e 3f 6a 8c ad bd 0c 13 98 bd
       -0.5319334 0.8047504 -0.084740475 -0.07425508
0003a0 a3 32 66 be 23 f5 c4 3e 99 a2 6d bf 35 95 65 3d
       -0.22480254 0.38468274 -0.9282623 0.056050498
0003b0 90 dc a9 3e 14 ba 46 be 27 bc 6c 3e d8 fb 41 3e
       0.33176088 -0.1940692 0.2311865 0.18943727
0003c0 1d a2 b8 be c6 3b 88 bc e6 9a 63 3f e8 39 53 3e
       -0.36061183 -0.016630065 0.8890823 0.20627558
0003d0 bf f9 c1 3e b0 4c 46 bf 0b 2c bf bc ef 40 16 be
       0.37885854 -0.77460766 -0.023336431 -0.14673208
0003e0 47 2b d8 be 4c c2 43 3f 09 1e 1d be 63 61 00 3f
       -0.42220518 0.7646835 -0.15343489 0.501486
0003f0 29 56 b7 be 62 f0 36 3f 35 94 45 3f bd 34 c9 be
       -0.35807922 0.71460545 0.7717927 -0.3929805

lstm.bias_ih_l0 f4 [128]
000000 df 00 2b 3e 98 f9 49 3e bc c7 77 be 7d 9f 97 3e
       0.16699551 0.19724119 -0.24197286 0.29613867
000010 2b ed 0e be b1 fc 4b 3d d8 cf d4 3d 54 09 b0 3e
       -0.1395766 0.049801532 0.103912055 0.34382117
000020 d5 3d 8f 3d 46 86 d0 bd 76 f8 1e 3e a8 62 4a 3e
       0.069942154 -0.101818606 0.15524468 0.19764197
000030 53 c0 fe 3e df 64 b4 bd 95 40 d9 3e bf f3 12 3e
       0.49756107 -0.08808302 0.42432085 0.14350794
000040 40 d2 06 be 41 aa e0 3e e9 b5 22 be d8 70 0c 3e
       -0.13166142 0.43879893 -0.15889706 0.13714921
000050 1e 2d c1 3e aa 50 62 3d 72 f0 2c be 22 0f 16 3e
       0.37729734 0.05525271 -0.16888598 0.1465421
000060 b5 9b f6 bd bd 72 c1 3d a5 a0 6b 3d c7 88 3d 3d
       -0.120414175 0.09445713 0.05752625 0.04627302
000070 be 7b 4d bd bd fc 75 3e 56 e2 b4 bd ba 27 95 3d
       -0.050166838 0.24022193 -0.08832233 0.07282968
000080 7c 5e 5a 3d 46 92 7c 3e 14 9d 8e bd 56 cd ba be
       0.053312764 0.24665174 -0.06963554 -0.36484784
000090 02 c9 04 be 57 06 c1 3d 99 22 0b 3e 62 b8 65 be
       -0.12967303 0.09425037 0.13587417 -0.22433618
0000a0 2f c9 fb 3d f1 9b 23 be e6 2b 72 be f5 2e 7a 3e
       0.12294232 -0.15977456 -0.23649558 0.24431975
0000b0 1e b9 35 3e 41 2c 39 3e 89 de 18 be e6 2f 13 3e
       0.17746398 0.18083288 -0.1492864 0.1437374
0000c0 eb f7 1a be 26 00 80 3e bd a6 aa 3d 64 9d be 3b
       -0.15133636 0.25000113 0.08332584 0.0058171023
0000d0 7b 16 18 3e 42 95 12 3d 2a c2 39 bd 30 df 6a 3e
       0.14852326 0.035786875 -0.045351185 0.22936702
0000e0 79 91 ae bd fb 31 32 3d 16 75 5f 3d db b3 82 3d
       -0.085238405 0.043504696 0.05455502 0.06381961
0000f0 38 16 1e be f2 94 b4 be 5e 6f 31 be 25 0d 51 3d
       -0.15438163 -0.35269886 -0.1732764 0.051037926
000100 0e a6 00 be bb c3 a3 3d 1c 61 bb 3b 18 7a 12 bd
       -0.12563345 0.07996317 0.0057183634 -0.03576097
000110 40 68 a1 3c 2e d4 03 3e 1f d6 2e be 7c 2d be bd
       0.01970303 0.12873909 -0.17073868 -0.09286019
000120 4f a9 6b 3d f1 71 ed 3b 79 99 fe bb f3 f8 3c 3d
       0.057534512 0.007246249 -0.00776976 0.046135854
000130 44 fe 15 3e 6a 99 2a bd 1d 11 09 3d d8 19 12 bd
       0.14647776 -0.041650213 0.033463586 -0.035669178
000140 28 be 9f bc 6f 52 f6 3d e1 a7 a2 3d 0f 31 38 3c
       -0.019499853 0.12027442 0.079421766 0.011242165
000150 26 69 c0 bd c2 f1 ec bd 52 d4 81 bd 99 83 72 3c
       -0.093950555 -0.11569549 -0.06339325 0.014801883
000160 ff 53 81 3d 97 e1 f4 3d 68 a3 fb 3c 0a 71 03 3d
       0.06314849 0.1195709 0.030717567 0.032090224
000170 a6 01 be 3d 1f b6 03 be 44 60 a5 3d 2c 11 12 be
       0.09277658 -0.12862442 0.08075002 -0.14264363
000180 e8 5c a7 3d 08 c1 01 3e a0 7e 01 3d 2b 44 5c 3e
       0.08172017 0.12671292 0.0316149 0.21510379
000190 2d ef a2 3c ed 67 3c 3d 08 b0 fa bb b0 f7 16 3f
       0.019889439 0.04599755 -0.007650379 0.5897169
0001a0 58 0c 92 bc b8 5b e2 bd 07 4c f4 3d 95 61 13 3e
       -0.017828152 -0.1105265 0.119285636 0.14392693
0001b0 17 84 f7 3e e5 ba 91 3c 82 dd 4d 3e 4a dd 98 3c
       0.48342964 0.017789314 0.2010403 0.018660206
0001c0 62 a2 4e be fd 75 cf 3e 03 bd 8f 3c 6a f0 02 3e
       -0.20179132 0.40519705 0.017546182 0.12787023
0001d0 fb 8e c3 3e 69 a8 16 be 90 07 10 be 16 4d 56 3e
       0.38195023 -0.14712681 -0.14065385 0.20927843
0001e0 3a 21 c5 bd e0 2d 83 bc 82 d3 1f 3c 62 70 39 3e
       -0.09625478 -0.016013086 0.009755017 0.18109277
0001f0 34 9e 11 3e 33 18 f2 3e ed 16 2f be 86 35 c2 3e
       0.14220506 0.47284088 -0.17098589 0.3793146

lstm.bias_hh_l0 f4 [128]
000000 53 d7 0c 3e 3f 05 d5 3d a2 8d b9 bd 35 4e 79 3e
       0.13754015 0.10401391 -0.090602174 0.2434624
000010 c6 4d a0 be 59 38 17 3e e8 bc 12 3e b9 67 cd 3e
       -0.31309336 0.14767589 0.14329875 0.40118197
000020 cd 9f 66 bd c4 16 af bd 50 32 d2 3d 48 35 40 bd
       -0.05630474 -0.08549264 0.102635026 -0.046925813
000030 a6 42 c7 3e af 67 69 3e 46 b1 21 3f df a7 1c b9
       0.38918036 0.22793458 0.6316112 -0.00014939856
000040 b3 f8 08 be 60 0b ad 3e 2c 77 44 be ce 78 33 3e
       -0.13376121 0.3379774 -0.19186085 0.17526552
000050 2d b1 9b 3e 7c c9 a6 3d 63 4f 54 bd ad 78 75 3e
       0.30408612 0.08143899 -0.05183352 0.23971815
000060 4f 90 fb bd cb 75 92 3c 5f 9e a2 3d 7a 5d 19 3d
       -0.12283384 0.017878434 0.07940363 0.03744266
000070 a7 b6 b6 3d d2 04 61 3e a0 f7 53 be 90 a6 b5 3e
       0.08921557 0.21974495 -0.2069993 0.3547864
000080 78 d1 50 3d 00 67 56 3e c0 91 07 be 4c 24 d5 be
       0.050981015 0.20937729 -0.13239193 -0.41629255
000090 e2 d6 97 be 86 70 51 be db 41 1d 3e 91 f3 d4 bd
       -0.2965613 -0.2045308 0.15357153 -0.10398019
0000a0 ac de 6a 3e 64 6f 1e be 72 ac a7 bd f9 8f 7f 3e
       0.22936505 -0.1547218 -0.08187188 0.24957265
0000b0 d1 74 7a 3d 38 c1 95 3c 19 dc 28 3d c4 8c ac 3d
       0.06114656 0.01828061 0.041225526 0.084252864
0000c0 8d 7a 86 3d 01 c5 9a 3b ac ec 0f 3d f5 cf d5 bc
       0.065663435 0.0047231917 0.035137817 -0.026100138
0000d0 94 39 42 3e 0e 8f c3 3d 1d 53 72 be 74 64 4b 3e
       0.18967277 0.0954877 -0.23664518 0.19862539
0000e0 59 a8 7c 3d e3 15 d0 bd ec 2c 58 bc 45 94 81 3d
       0.061683986 -0.101604246 -0.013194304 0.06327108
0000f0 f9 a2 af be 54 b5 ac be 88 95 39 3d e8 ea 50 be
       -0.34304026 -0.33732092 0.04530862 -0.2040211
000100 01 da 24 3d 98 e6 ae bc 9b 3e a9 bd 2a 7c aa 3d
       0.040246967 -0.02135019 -0.08263894 0.08324464
000110 ed ff 27 bd 3f d4 01 3e 93 f8 09 3e 9d f1 1d 3b
       -0.041015554 0.12678622 0.1347373 0.0024100312
000120 48 eb cd bd 93 1c 0f 3e c9 16 b3 bd c2 e3 7e bd
       -0.10054642 0.13975744 -0.0874458 -0.062228926
000130 94 09 11 be b8 b4 ad 3d 6e 3d 3f bd 6e ff 8d 3c
       -0.1416381 0.08481735 -0.046689443 0.017333712
000140 a0 97 92 bc 37 38 f2 bd 99 13 65 3d b8 e2 1c 3c
       -0.017894566 -0.118271284 0.055926893 0.009575538
000150 f8 88 4f 3d 08 0d 0c be 55 b0 11 3b 7e 55 56 3d
       0.050667733 -0.13676846 0.0022230346 0.052327625
000160 65 26 0c be 1f fd 9e 3d 0b b2 0b bc 38 77 26 3c
       -0.13686521 0.07763123 -0.0085263355 0.01016026
000170 08 4a 8b bc c9 ef 93 3d dd 07 42 3b f0 c8 c8 3d
       -0.017003074 0.0722347 0.0029606738 0.09803951
000180 d8 30 bd 3d d5 05 f2 3c 54 03 6e be 1b 7d 68 3e
       0.09237832 0.029543797 -0.23243457 0.22703974
000190 7c 40 92 be 02 71 22 be dd b8 c6 bc 27 f4 a7 3e
       -0.28564823 -0.15863422 -0.024258072 0.3280346
0001a0 d1 53 28 3e fe 64 22 3d 50 51 0a 3e 23 e2 56 3d
       0.16438223 0.039647095 0.13507581 0.052461755
0001b0 29 61 98 3e a8 08 a5 3c 10 88 0b 3e d5 65 13 3d
       0.29761627 0.02014573 0.13626122 0.035985786
0001c0 24 61 98 3d 45 ea 11 3f cb 7c 31 be 1b 6c 7c bd
       0.07440403 0.5699809 -0.17332761 -0.061626535
0001d0 fb 8c 9a 3e 17 48 3e bb 1c 7f c8 3c f2 e3 80 3e
       0.30185685 -0.0029034668 0.024474673 0.25173908
0001e0 60 a6 4e bb fc 20 f5 bd b9 2a fd bc d9 54 14 bc
       -0.0031532273 -0.11969182 -0.03090416 -0.009053432
0001f0 4e 6b 59 bd f7 f1 cc 3e a4 c2 b7 bd ac 14 e2 3d
       -0.05308085 0.40028355 -0.08972672 0.11039099

fc.weight f4 [1, 32]
000000 fb 74 2c 3e fe 32 3a be 8e f8 84 bc 5e b2 47 3d
       0.168415 -0.18183514 -0.016231801 0.04875409
000010 00 26 c1 3d 9a b8 b0 bd d5 f9 00 3d a9 8a 68 bc
       0.09431076 -0.0862896 0.03148826 -0.014193215
000020 81 97 21 3d 89 a5 98 3d f4 24 3a 3e 67 dc 8c 3d
       0.039451126 0.07453448 0.18178159 0.06877976
000030 e4 29 6f bd 19 1f a3 3d b4 4a 61 bd 41 17 7d 3d
       -0.05838956 0.07964916 -0.055002883 0.061789755
000040 89 52 c2 3d 8d 32 a9 bd 81 4c e4 bd 4e 73 03 bd
       0.094883986 -0.08261595 -0.111474045 -0.032092385
000050 26 da 53 3d d2 83 03 3e 2b a6 6c bd 15 65 07 bd
       0.051721714 0.12843254 -0.057775658 -0.033055384
000060 c0 31 9f 3d 04 99 15 be 86 ef 96 3d 2d 1f 36 bc
       0.07773161 -0.14609152 0.07369904 -0.011115831
000070 e4 db e9 3c 8c cf 44 bd b4 40 07 be 12 29 67 3d
       0.028547235 -0.048049495 -0.13208276 0.056435652
