time_series_intro_class/final_project/temp/1_layer_32_size_model_epoch_2000.pth (torch, 19555 bytes, 5 tensors)

lstm.weight_ih_l0 f4 [128, 1]
0	0x403cd5e6	2.9505553
1	0x405d739f	3.460182
2	0x400ddb8f	2.2165258
3	0xc0108c18	-2.2585506
4	0x3f0df626	0.5545372
5	0x3d91965c	0.07108757
6	0xc01fbeb5	-2.4960148
7	0xbfb329d4	-1.399714
8	0x4038a15f	2.8848493
9	0xbfec426a	-1.8457768
10	0x4023058b	2.5472133
11	0xc047b494	-3.1203966
12	0xc00c6fed	-2.1943314
13	0x3fabdcd9	1.3426772
14	0xbf9c132c	-1.2193351
15	0x3f1296be	0.57261264
16	0xc01249df	-2.2857587
17	0xc0219078	-2.5244427
18	0x3ef8838d	0.48537865
19	0xbf889b36	-1.0672367
20	0x3f1606a0	0.5860386
21	0x3f05a092	0.52198136
22	0xbd5a76c2	-0.053335913
23	0x3fb0deef	1.3818034
24	0x3f811d7a	1.008712
25	0x3edfb0d6	0.43689603
26	0x3f2e9347	0.6819348
27	0x3fd8c6b5	1.693564
28	0x3edceb7c	0.4314841
29	0x3f95ca8f	1.1702441
30	0x3f71317a	0.9421612
31	0xbf5cff7a	-0.86327326
32	0xbe7508ba	-0.2392911
33	0x3f55b4aa	0.83478796
34	0x401fbafb	2.4957874
35	0x405492ba	3.3214555
36	0x3fd06a42	1.6282427
37	0xbd81c9ed	-0.063373424
38	0xbedd9e8a	-0.43285018
39	0x3faa2ed6	1.3295543
40	0xbe732426	-0.23744258
41	0xbf239850	-0.63904285
42	0x3fde196b	1.7351507
43	0x3ff1bb79	1.8885337
44	0xbffba176	-1.9658649
45	0x3fa4fa6e	1.2888925
46	0xc01f7d97	-2.4920404
47	0xbf47adf3	-0.779998
48	0x3f32c774	0.6983559
49	0x3f7a22a7	0.97709125
50	0x3eb43322	0.3519526
51	0x3f9a5f74	1.206038
52	0xbf090db5	-0.5353654
53	0x3e7b0087	0.2451192
54	0x3f0bc7eb	0.54601926
55	0x40779ac2	3.8688207
56	0x3f95cd05	1.1703192
57	0xbe9a2c62	-0.30111986
58	0xbdedc2cc	-0.1160942
59	0xbf537695	-0.82602817
60	0xbf97d211	-1.1860982
61	0xbe6675a2	-0.22505811
62	0x3f64ebc2	0.8942224
63	0x3f03d947	0.51503414
64	0x3f110864	0.5665343
65	0xbf0ece80	-0.55783844
66	0xbe1bf1a0	-0.15228891
67	0x3fd52411	1.6651632
68	0x3e6358a3	0.22201781
69	0x3e1ce9dd	0.15323587
70	0xbf56e64f	-0.83945173
71	0x3f81105f	1.0083121
72	0x3cfb1ad4	0.030652441
73	0x3e3004a7	0.17189275
74	0xbdc704ae	-0.097176895
75	0xbf877bfb	-1.0584711
76	0x3f5f6c94	0.8727505
77	0x3ea44f1b	0.32091603
78	0xbdc14799	-0.09437484
79	0x3e894e24	0.2681743
80	0xbedd0aae	-0.4317221
81	0x40006481	2.0061343
82	0x3e9f0bc7	0.31063673
83	0x3f8d1fb3	1.1025299
84	0xbd3db67b	-0.046316605
85	0x3e55b8f5	0.20871337
86	0x3ed5690a	0.416817
87	0x3eeb3e1e	0.4594583
88	0xbefa3171	-0.48865846
89	0x3dfefc24	0.12450436
90	0x3f818c5f	1.0120963
91	0x3ddb9a37	0.107227735
92	0x3e29b635	0.16573413
93	0x402ee921	2.732979
94	0x3f81008e	1.0078294
95	0xbf005875	-0.50134975
96	0x3f985d59	1.1903487
97	0x40030804	2.0473642
98	0x3fc7019b	1.5547365
99	0xbf8ec2e6	-1.1153228
100	0x3f8cdb68	1.1004457
101	0x3df3924c	0.11893138
102	0xbfa6657f	-1.2999724
103	0xbf15b4a0	-0.58478737
104	0x3fffc8bb	1.9983133
105	0xbfe5d491	-1.7955495
106	0x40260497	2.5940301
107	0xbf12dcfb	-0.5736844
108	0xbf883c3a	-1.064338
109	0x3dfc8e7c	0.12331864
110	0xc062d898	-3.5444698
111	0xbe65e216	-0.22449526
112	0xbeaf5e13	-0.3425146
113	0xbfa00086	-1.250016
114	0x3effe9bd	0.49983016
115	0xbea4ddf6	-0.32200593
116	0xbeceaa4b	-0.40364298
117	0x3ee28bfc	0.44247425
118	0x3ed00aec	0.40633333
119	0x3fe0b8f5	1.7556444
120	0x3f302cc5	0.6881831
121	0xbdd41d43	-0.10357144
122	0xbeabd9fe	-0.33564752
123	0x3f4470f3	0.76734847
124	0x3dd64a9a	0.10463448
125	0x3edba6f8	0.42900825
126	0x3fc420af	1.5322474
127	0x3e0b3d2b	0.13597552

lstm.weight_hh_l0 f4 [128, 32]
0	0x3d2f97da	0.042869426
1	0xbdbc31df	-0.091892
2	0x3d5e0663	0.05420531
3	0x3dc8cbed	0.09804521
4	0xbf015dd2	-0.50533783
5	0x3e2a8b88	0.1665479
6	0x3e21805e	0.15771624
7	0xbee69a5b	-0.4503964
8	0xbeeacf3f	-0.4586124
9	0x3e297a1c	0.16550487
10	0x3d863cdc	0.06554577
11	0x3ebdb371	0.37050965
12	0x3e83bfe1	0.2573233
13	0x3e067a5b	0.13132612
14	0xbe33a092	-0.17541721
15	0x3cbcbe47	0.02303995
16	0xbc644ffc	-0.013935085
17	0xbe8724ce	-0.26395267
18	0x3dda0072	0.10644616
19	0xbdf52bb5	-0.11971227
20	0xbd9d872f	-0.076918
21	0xbe3787af	-0.17922853
22	0xbe6c8844	-0.23098856
23	0x3eb62778	0.35576987
24	0x3e6cec52	0.23137024
25	0x3db4d282	0.08829214
26	0x3d8a4870	0.067520976
27	0x3ee43368	0.4457047
28	0xbb6fbb1a	-0.0036580027
29	0x3fcadec6	1.5849235
30	0xbdf88d67	-0.12136345
31	0xbf572a83	-0.8404924
32	0x3f0193d0	0.5061617
33	0xbf409447	-0.75226253
34	0x3b3a76e3	0.002845221
35	0x3d6273ee	0.05528634
36	0x3db8a073	0.09014978
37	0x3ec7db26	0.39034384
38	0xbf194cec	-0.59883
39	0x3f8b5122	1.0884135
40	0x3f0cce97	0.5500273
41	0xbef4e7e1	-0.4783316
42	0x3f5c8127	0.8613457
43	0xbf3bf62f	-0.7342252
44	0xbe90ba65	-0.28267208
45	0x3f651ba2	0.8949529
46	0x3edc1745	0.42986503
47	0x3deaa43b	0.11457106
48	0xbf5ebe35	-0.8700898
49	0x3e12f1f3	0.14350109
50	0xbdf3da40	-0.11906862
51	0x3ecb2712	0.39678246
52	0x3eb2ccea	0.34921962
53	0xbdb59001	-0.08865357
54	0x3e83ef42	0.25768477
55	0x3dcb5527	0.09928351
56	0xbf09aaed	-0.5377644
57	0x3b8c3d3f	0.004279762
58	0xbe0114ae	-0.12605545
59	0xbea427fe	-0.32061762
60	0x3dfacef0	0.122465014
61	0xbdf79886	-0.120896384
62	0xbe37820b	-0.17920701
63	0xbe8d391d	-0.27582636
64	0x3928e8c1	0.00016108436
65	0x3c5c3f69	0.013442853
66	0xbe060ca5	-0.13090761
67	0x3f1de34c	0.6167495
68	0x3bb7ace8	0.005605329
69	0xbdbe4449	-0.09290368
70	0x3f10dd35	0.56587535
71	0x3f07f756	0.5311178
72	0x3d5d4bf1	0.0540275
73	0x3e226876	0.15860161
74	0xbe41eb9c	-0.18937534
75	0x3f0fa5cb	0.56112355
76	0x3c870165	0.016480157
77	0x3e5cadbe	0.21550652
78	0x3ea6b3fd	0.32559195
79	0xbdba8758	-0.09107846
80	0x3ed9738c	0.42470968
81	0xbf5ae112	-0.8549968
82	0xbda85680	-0.082196236
83	0xbd355aa0	-0.04427588
84	0xbdc4d865	-0.096115865
85	0x3e78977a	0.24276534
86	0x3e34d097	0.17657696
87	0x3e1f3761	0.15548469
88	0xbea68abe	-0.32527727
89	0xbe0895f7	-0.13338457
90	0x3d80f276	0.06296246
91	0xbce5271e	-0.027972754
92	0xbf22ec5b	-0.636419
93	0xbe983f7d	-0.29735938
94	0x3dc091be	0.09402798
95	0xbe3c35b4	-0.18379861
96	0xbef0b4f5	-0.4701306
97	0x3f40ded9	0.7534004
98	0xbf85002e	-1.039068
99	0x3fe0ab87	1.7552346
100	0x3df2fbc7	0.11864429
101	0x3e8477ed	0.25872746
102	0xbe12ff75	-0.14355262
103	0x3cc79a2d	0.024365509
104	0xbf6ca2cd	-0.92435914
105	0x3f9024ed	1.1261269
106	0xbf363358	-0.71172094
107	0x3cd69b3d	0.02619707
108	0x3d1b68e6	0.037941836
109	0xbe8a5b26	-0.27022666
110	0x3f2cfdd3	0.67574805
111	0xbf07d062	-0.5305234
112	0xbed0b5fc	-0.40763843
113	0x3fa146f4	1.2599778
114	0x3ddfb727	0.109236054
115	0x3eb6be14	0.35691893
116	0xbf4ae9df	-0.7926311
117	0xbe27c060	-0.16381979
118	0x3e2c7101	0.16839983
119	0x3f1f7557	0.6228842
120	0x3f0deedf	0.55442613
121	0x3ef6f944	0.4823705
122	0xbca5881c	-0.020206504
123	0x3f3d9ce6	0.74067533
124	0x3e818eab	0.2530416
125	0x3fcdf3eb	1.6090063
126	0x3facd786	1.3503273
127	0xbfa99517	-1.3248624
128	0xbeb1bdf6	-0.3471524
129	0x3f2834a2	0.6570531
130	0xba69c688	-0.0008917828
131	0x3ec5d985	0.38642517
132	0xbee717c0	-0.45135307
133	0x3dc0ff51	0.09423698
134	0x3eb2cf50	0.34923792
135	0x3e816f31	0.25280145
136	0xbf133132	-0.5749694
137	0x3e915f3b	0.28392968
138	0xbd1f42a5	-0.038881917
139	0x3ede1f42	0.43383223
140	0xbefa2545	-0.4885656
141	0xbe738c32	-0.23783949
142	0x3f1dc4df	0.61628526
143	0xbf0e6ae6	-0.55631864
144	0x3ab47304	0.0013767187
145	0xbee2add0	-0.44273233
146	0xbdb6d282	-0.0892687
147	0xbe36557c	-0.17806047
148	0xbe120f88	-0.14263737
149	0xbd3a0d11	-0.045422617
150	0xbea9ab29	-0.33138397
151	0x3ee31ebf	0.44359395
152	0xbe0933f7	-0.1339873
153	0xbdb91c16	-0.0903856
154	0xbf048738	-0.5176883
155	0x3eea398f	0.4574704
156	0xbee48ea4	-0.44640076
157	0x3e9b2ac4	0.30306065
158	0xbe43add2	-0.19109276
159	0xbeeec18d	-0.46632043
160	0x3e8f5d46	0.2800085
161	0xbec0c42f	-0.37649676
162	0x3e8c9d6e	0.2746386
163	0xbc914a0a	-0.0177355
164	0xbc77d643	-0.015126768
165	0x3c7e5952	0.015524225
166	0xbdbb37eb	-0.09141525
167	0xbe51c99e	-0.20487067
168	0x3d8c902d	0.06863437
169	0x3edffd6b	0.4374803
170	0xbdc79651	-0.097454675
171	0x3d981daa	0.07427533
172	0xbe650805	-0.2236634
173	0x3df980fa	0.121828035
174	0x3e734844	0.23758036
175	0xbdd289ef	-0.10280215
176	0x3e8dff75	0.2773396
177	0xbf0414e1	-0.5159436
178	0xbe925406	-0.2857973
179	0x3e68dc33	0.2274025
180	0x3db407d4	0.087905556
181	0xbc95b358	-0.018273994
182	0xbe2c32a9	-0.168162
183	0xbd74ea26	-0.059793614
184	0xbd0b55d2	-0.03401739
185	0xbcb2b561	-0.021815004
186	0x3e096abc	0.13419622
187	0x3dafbb30	0.08580625
188	0xbe9b9a80	-0.30391312
189	0x3e06995b	0.13144438
190	0xbe947a1f	-0.2899942
191	0x3e2e4634	0.17018968
192	0x3b8fcbce	0.004388309
193	0x3cbadfee	0.022811856
194	0xbf557cb3	-0.833934
195	0x3f1bfa35	0.6092866
196	0x3e431ee2	0.1905475
197	0x3d2ff254	0.04295571
198	0x3ecfdf21	0.4059992
199	0x3eb0644f	0.3445153
200	0xbec189fb	-0.37800583
201	0x3f381dc6	0.7192043
202	0xbe60f5a2	-0.21968701
203	0x3d91ef6f	0.071257465
204	0xbe11ee03	-0.1425095
205	0x3de7cfc7	0.11318927
206	0x3eb75421	0.35806373
207	0xbf149827	-0.58044666
208	0x3c1e8c58	0.009677015
209	0x3d2742eb	0.040835302
210	0xbe01d6a8	-0.12679541
211	0x3d84e72d	0.06489406
212	0xbeca1390	-0.3946805
213	0x3d9837bc	0.074325055
214	0x3f1298ab	0.572642
215	0x3f5bd103	0.858658
216	0xbe1c0af9	-0.1523856
217	0xbe13ab80	-0.14420891
218	0x3eab6674	0.33476603
219	0x3e6d2b39	0.2316102
220	0xbe9812b9	-0.29701784
221	0x3df7ff2e	0.121092185
222	0xbe9eef38	-0.31041884
223	0xbef13b4f	-0.4711556
224	0x3d4df247	0.05027988
225	0xbcd750c8	-0.026283637
226	0x3e01d3e9	0.12678494
227	0xbf15e302	-0.5854951
228	0xbf4b8abc	-0.79508567
229	0x3f9206b3	1.1408294
230	0xbe30a199	-0.17249145
231	0xbe0daf2f	-0.13836358
232	0xbe88cbdd	-0.26718035
233	0x3f2402ed	0.64066964
234	0xbf935ace	-1.1512086
235	0x3e45df7f	0.19323538
236	0x3e7b279d	0.2452683
237	0xbe99a33e	-0.30007356
238	0x3eddcdee	0.43321174
239	0x3e479cc4	0.19493395
240	0x3cd68cd5	0.0261902
241	0xbe2206fb	-0.15822975
242	0x3fa7373d	1.3063732
243	0x3f0bb981	0.5457993
244	0x3eb0f855	0.34564462
245	0xbf940d19	-1.1566497
246	0xbe8a8c0c	-0.27059972
247	0xbd831ab4	-0.064015776
248	0xbf1630af	-0.58668035
249	0x3f7f3b7b	0.99700135
250	0xbde7f027	-0.11325102
251	0x3f3cb70a	0.73716795
252	0xbd9b8c6b	-0.07595142
253	0x3ee348c0	0.4439144
254	0x3f9a4b67	1.2054261
255	0xbe0f4210	-0.13990045

lstm.bias_ih_l0 f4 [128]
0	0x3e3e5de7	0.18590508
1	0x3e42b47b	0.1901416
2	0xbe939286	-0.28822726
3	0x3e969750	0.29412317
4	0xbe32f883	-0.17477612
5	0x3d6f01e8	0.058351427
6	0x3ddde2cd	0.108342744
7	0x3f1c0e63	0.6095945
8	0x3db798cc	0.089646906
9	0xbddb03e4	-0.106941015
10	0x3e20e0a9	0.15710701
11	0x3e160089	0.14648642
12	0x3f0246cc	0.5088928
13	0xbd4d4420	-0.050113797
14	0x3ea8a034	0.32934725
15	0x3dea66f8	0.11445421
16	0xbda721dc	-0.08160755
17	0x3ec67b97	0.38766167
18	0xbe3b409d	-0.18286367
19	0x3e32d2af	0.17463182
20	0x3ec471a8	0.38367963
21	0x3d3fce22	0.046827443
22	0xbe3663c2	-0.17811492
23	0x3e08ec18	0.13371313
24	0xbe06c8ea	-0.1316258
25	0x3dd21c90	0.10259354
26	0x3d81d3ba	0.06339212
27	0x3ca2f495	0.019892016
28	0xbd56a4fb	-0.05240343
29	0x3e86a11d	0.26294795
30	0x3d9db6e1	0.07700897
31	0x3dda40e9	0.10656912
32	0x3d5a7182	0.053330906
33	0x3e97e8d8	0.29669833
34	0xbda1fb83	-0.079093
35	0xbe5b7d73	-0.21434574
36	0xbe065a40	-0.13120365
37	0x3da77354	0.08176294
38	0x3e0a5ac0	0.13511181
39	0x3ce7cf8c	0.028297208
40	0x3e08606e	0.13318035
41	0xbe280b1a	-0.16410485
42	0xbe6fe34c	-0.2342655
43	0x3e813ed0	0.25243235
44	0x3e485478	0.19563472
45	0x3e222250	0.15833402
46	0xbdfc8220	-0.12329507
47	0x3e24da83	0.1609898
48	0xbe20bff5	-0.15698226
49	0x3e952e95	0.29137102
50	0x3d8a24f4	0.067453295
51	0xbbfd24b9	-0.007725325
52	0x3e266fc6	0.16253576
53	0x3d80c128	0.06286842
54	0xbd3d0b72	-0.046153493
55	0x3e6c8456	0.23097357
56	0xbd8a7597	-0.0676071
57	0x3d9ea724	0.07746723
58	0x3d69a962	0.0570463
59	0x3ddecf82	0.10879423
60	0xbd623c91	-0.055233542
61	0xbece5c3a	-0.40304738
62	0xbe1f0462	-0.15529016
63	0x3df6f15d	0.12057755
64	0xbe067bc6	-0.13133153
65	0x3dc241b2	0.09485187
66	0xbcec5d02	-0.028852943
67	0xbc29a9bc	-0.010355409
68	0x3ccf1581	0.025278809
69	0x3df60427	0.12012511
70	0xbe38943d	-0.18025298
71	0xbdd5647b	-0.10419556
72	0x3d4aa1af	0.0494706
73	0x3c39d7aa	0.011342922
74	0xbbfdea39	-0.007748869
75	0x3d138076	0.03601118
76	0x3df98279	0.12183089
77	0xbd1e6880	-0.038673878
78	0x3d5dda6d	0.054163385
79	0xbc773323	-0.015087876
80	0xbd4e7f57	-0.05041441
81	0x3e035327	0.12824689
82	0x3d8b65b1	0.068065055
83	0x3c56d4e3	0.01311228
84	0xbdd49023	-0.103790544
85	0xbdbb79d4	-0.09154096
86	0xbd9d3d42	-0.076776996
87	0x3ca89bf9	0.020582186
88	0x3d9590b0	0.073029876
89	0x3dee5069	0.11636431
90	0x3d132bad	0.035930324
91	0x3c44316a	0.011974672
92	0x3de5534b	0.111975275
93	0xbe0e12c1	-0.13874342
94	0x3da7e6d3	0.08198323
95	0xbe106f50	-0.14104962
96	0x3dff7339	0.12473149
97	0x3e5057cb	0.2034599
98	0xbb5bbc5d	-0.0033529021
99	0x3e7b2c75	0.24528678
100	0x3b44e4d3	0.0030043616
101	0x3d444eaf	0.0479266
102	0xbc891459	-0.016733335
103	0x3f4ac665	0.79208976
104	0x3b86b605	0.004111054
105	0xbd9526f4	-0.0728282
106	0x3e00dac9	0.1258346
107	0x3e01590b	0.12631623
108	0x3f024e87	0.50901073
109	0x3d8e0da6	0.06936197
110	0x3e0e5bb6	0.13902172
111	0x3d183743	0.037162077
112	0xbe439ef8	-0.1910361
113	0x3f011686	0.50424993
114	0x3bf5fd35	0.0075069913
115	0x3e36cb46	0.1785098
116	0x3eca4301	0.39504245
117	0xbe180416	-0.14845309
118	0xbe1d3eb7	-0.15355955
119	0x3e4b6271	0.19861771
120	0xbd95f098	-0.0732128
121	0xbc4a8484	-0.012360696
122	0x3c55bf6c	0.013046127
123	0x3e41a6b6	0.18911251
124	0x3e0ab945	0.13547237
125	0x3f19b854	0.6004689
126	0xbd5c6947	-0.053811338
127	0x3ece7022	0.40319926

lstm.bias_hh_l0 f4 [128]
0	0x3e20345b	0.15644972
1	0x3dc67aad	0.09691367
2	0xbe0c240f	-0.1368563
3	0x3e773dd5	0.24144681
4	0xbeb25361	-0.34829238
5	0x3e1ff9b5	0.156226
6	0x3e174660	0.1477294
7	0x3f2abd9c	0.6669557
8	0xbd15e9ce	-0.036599927
9	0xbdb99451	-0.09061492
10	0x3dd602d2	0.10449757
11	0xbdc8de9c	-0.09808084
12	0x3ecd0fda	0.40051156
13	0x3e88249a	0.26590425
14	0x3f096127	0.5366387
15	0xbcef3b52	-0.02920309
16	0xbdab6ecc	-0.08370742
17	0x3e92dcb6	0.28684014
18	0xbe5d01e0	-0.21582747
19	0x3e59daa1	0.21274807
20	0x3e9ef5b7	0.3104684
21	0x3d958851	0.07301391
22	0xbd7a1c2a	-0.061062016
23	0x3e6855a3	0.22688918
24	0xbe094333	-0.1340454
25	0x3cd51dca	0.026015181
26	0x3daea1b2	0.08526935
27	0x3c353bac	0.01106159
28	0x3db221f2	0.08697881
29	0x3e784a3d	0.2424707
30	0xbd2aac3c	-0.04166816
31	0x3ec6eced	0.38852635
32	0x3d50e47e	0.050999157
33	0x3e84d332	0.2594238
34	0xbe1140f2	-0.14184931
35	0xbe8815b3	-0.26579055
36	0xbe989fbe	-0.29809374
37	0xbe5e3a22	-0.21701863
38	0x3e1c7a02	0.15280917
39	0x3e183885	0.1486531
40	0x3e755a7e	0.23960301
41	0xbe22de8d	-0.15905209
42	0xbda31b69	-0.079642124
43	0x3e83ef3d	0.25768462
44	0x3da270ed	0.07931695
45	0xbb8a355f	-0.004217788
46	0x3d89a8cd	0.06721649
47	0x3dcfe208	0.10150534
48	0x3d75d4c9	0.06001738
49	0x3d3ccbb2	0.046092696
50	0x3c9dd289	0.01926543
51	0xbd22604a	-0.03964261
52	0x3e5092df	0.20368527
53	0x3dfb058a	0.12256916
54	0xbe73256b	-0.23744743
55	0x3e4d099a	0.20023194
56	0x3da2700a	0.07931526
57	0xbd8a87c8	-0.067641795
58	0xbc2f5c11	-0.010703103
59	0x3dddafec	0.1082457
60	0xbe79bed2	-0.24389198
61	0xbec67c9c	-0.38766944
62	0x3d81a06a	0.06329425
63	0xbe09b57d	-0.13448139
64	0x3d0d833e	0.03454899
65	0xbbd3bb7f	-0.0064615603
66	0xbdf00bea	-0.117210224
67	0x3dde83de	0.108649954
68	0xbd112941	-0.035439733
69	0x3df20451	0.118172295
70	0x3e003a70	0.12522292
71	0xbc123bf4	-0.008925427
72	0xbdde6f13	-0.108610295
73	0x3e134e6d	0.14385386
74	0xbdb30bda	-0.08742495
75	0xbd942e49	-0.07235391
76	0xbe2a4696	-0.16628489
77	0x3db3cd32	0.08779372
78	0xbcd4e7ff	-0.02598953
79	0x3d1b4cd2	0.03791506
80	0xbd47ec12	-0.04880912
81	0xbde1e431	-0.11029852
82	0x3d368f40	0.044570208
83	0x3c3b867f	0.011445641
84	0x3d273b37	0.040827956
85	0xbde6a236	-0.11261408
86	0xbc36db98	-0.011160754
87	0x3d6e02a0	0.058107972
88	0xbe020831	-0.12698437
89	0x3d986bf1	0.07442463
90	0xbb592879	-0.0033135696
91	0xbc231b76	-0.009955278
92	0x3b0fe3d7	0.0021955871
93	0x3d7e6d64	0.06211604
94	0x3b896d95	0.0041939714
95	0x3dcc0cc8	0.09963375
96	0x3e0aa393	0.13538961
97	0x3dd9aee5	0.106290616
98	0xbe88e8fb	-0.2674025
99	0x3e83b2af	0.25722262
100	0xbe9ae5a7	-0.30253336
101	0xbe20774b	-0.15670507
102	0xbd089098	-0.03334102
103	0x3f07c8cc	0.53040767
104	0x3e3ecae9	0.18632092
105	0x3d9e673a	0.07734533
106	0x3e110614	0.14162475
107	0x3d0ebfeb	0.034850996
108	0x3ea57a2e	0.32319778
109	0x3d92e116	0.07171838
110	0x3d980c3c	0.074242085
111	0x3d5f2e63	0.054487597
112	0x3dae680a	0.085159376
113	0x3f2b45f6	0.66903627
114	0xbe3bc486	-0.18336686
115	0xbc340257	-0.010986886
116	0x3ea14101	0.31494907
117	0xbb8a9774	-0.0042294804
118	0x3c3d8baf	0.011568948
119	0x3e76dd5c	0.2410788
120	0x3ca2edac	0.019888721
121	0xbdeda61c	-0.116039485
122	0xbce234c8	-0.027613059
123	0xba877e7b	-0.0010337377
124	0xbd74ffee	-0.059814386
125	0x3f072535	0.5279115
126	0x3ce0da99	0.027447985
127	0x3e097fa8	0.13427603

fc.weight f4 [1, 32]
0	0x3e273b82	0.16331294
1	0xbe5ed0d3	-0.21759348
2	0x3c3eb143	0.011638942
3	0x3ddade60	0.10686946
4	0x3d926834	0.071487814
5	0xbdce837b	-0.10083672
6	0x3ce732c5	0.028222451
7	0x3b5b10b9	0.0033426716
8	0x3d4cfd83	0.050046455
9	0x3d9fd2a3	0.07803848
10	0x3e7e3ba7	0.24827443
11	0x3d8e0b64	0.06935766
12	0xbd2c793e	-0.042107813
13	0x3de08e55	0.10964648
14	0xbd1dde76	-0.038542233
15	0x3d87525e	0.06607507
16	0x3e36b662	0.17843011
17	0xbda87d1c	-0.08226988
18	0xbdac94f4	-0.08426848
19	0xbd33ba0a	-0.043878593
20	0x3dbc6d12	0.09200491
21	0x3e1706c6	0.14748678
22	0xbd65220a	-0.055940665
23	0xbd2d3bc4	-0.042293325
24	0x3dade0f7	0.08490174
25	0xbe33b61a	-0.17549935
26	0x3d21d9d7	0.03951439
27	0xbce4fb4c	-0.027951859
28	0x3d8c24eb	0.06842979
29	0xbdcc2c7f	-0.099694245
30	0xbe44b174	-0.19208318
31	0x3da5fabf	0.08104467
