time_series_intro_class/final_project/temp/2_layer_8_size_model_epoch_2500.pth (torch, 5603 bytes, 9 tensors)

lstm.weight_ih_l0 f4 [32, 1]
1.2139083 -4.918068 -0.01512526 -5.3213787 0.25938213 -2.900924 -4.216322 2.0695472
-2.060894 -5.335799 -0.15024206 0.11407539 4.9433284 -2.9793468 -0.852354 1.3041075
0.39038783 3.8766832 -0.7523285 -2.7612667 0.79093647 2.2312157 -1.5107236 0.7976475
1.287489 -3.973105 0.34525573 -3.2867138 3.8153903 -4.123781 -2.376968 1.6902363
00000000: 5961 9b3f d060 9dc0 f0cf 77bc bc48 aac0
00000010: bccd 843e bda8 39c0 1cec 86c0 7673 0440
00000020: b0e5 03c0 debe aac0 0ed9 19be 5ca0 e93d
00000030: bf2f 9e40 9ead 3ec0 df33 5abf ffec a63f
00000040: eae0 c73e 941b 7840 9a98 40bf 98b8 30c0
00000050: d07a 4a3f 3dcc 0e40 645f c1bf a032 4c3f
00000060: 71cc a43f 5a47 7ec0 5cc5 b03e 8559 52c0
00000070: 5b2f 7440 04f6 83c0 3e20 18c0 aa59 d83f

lstm.weight_hh_l0 f4 [32, 8]
0.7828448 -0.8338251 0.028145865 1.5347476 0.35494938 -0.5706951 0.66398984 0.24772532
0.05471532 -1.7099469 -0.87511975 -0.5809244 -1.4328756 -2.024796 0.82053876 -1.3523864
0.074867666 0.5164188 0.08658677 0.51432467 -0.7519317 0.2605535 0.58147323 0.011972613
0.7987106 0.29080194 -0.4654405 0.21393538 0.2788305 -0.11346839 0.3796768 0.60829216
0.5345144 -1.9971684 -0.2468261 1.0118165 -0.48057353 -0.028588424 0.2065396 0.1273217
0.089567095 0.3113369 0.064607665 -0.8731792 -0.102885 0.15010431 0.20196712 -0.3225841
0.41798842 -0.2582145 0.06682349 0.045111068 -0.35424647 0.024254387 0.43568316 0.123854816
0.10218614 -0.017186468 -0.37662712 -0.19414997 0.18489213 0.17412895 0.09133638 -0.17348751
-0.14262082 0.053404436 0.09618193 0.87221575 0.4275349 -0.588692 0.071756355 0.2875913
0.90893304 -0.87347 -0.19366135 -0.49056092 -0.85332304 0.009271738 0.52251303 -0.73920935
-0.10594189 -0.008454358 -0.16342716 -0.07951942 -0.7421628 0.208501 0.3385783 -0.57326484
0.15860161 -0.75955987 0.14782418 1.4395869 -0.7237802 -0.074603446 0.4209857 -0.39232096
0.17053477 -0.27641165 -0.024580061 -0.23675278 -0.010513459 -0.050546274 -0.67703927 -0.028041407
0.04355463 -0.40845454 -0.047308378 -0.57288927 -0.44011328 0.17845769 -0.25156182 -0.37540537
0.24560082 -0.75710046 0.17521593 0.17456894 0.4619191 -0.482905 0.21685046 -0.070793346
0.27876022 0.29792398 0.07536566 -0.5657793 -0.03517723 0.010940564 -0.36059994 -0.27874857
0.5938306 -0.15718079 -0.061852086 1.5457096 0.30044508 0.008808135 0.38331598 0.025808211
0.0747273 -0.044421628 0.031170072 0.013526632 0.52721655 0.34866878 -0.2667785 -0.0983327
-0.6174498 -0.23078391 0.24821664 0.033699147 0.30944383 -0.24603377 -0.5419876 -0.122007094
-0.44524682 -0.08653204 0.70018005 0.22506323 0.4198296 -0.16912031 -0.09296143 0.5129016
-0.60060704 -0.44858712 0.1689132 -1.188999 0.558091 -0.36421895 -0.47204605 0.14068832
0.12547714 0.27316293 -0.27645442 0.7735954 0.20470195 -0.33122054 0.08200331 0.024986902
0.4156537 0.46624538 0.40527418 0.23021731 0.33559456 0.25588924 0.27115497 -0.058498137
-0.38392347 -0.54937464 0.0022281373 -0.19325839 0.43119884 -0.15176018 -0.41548222 0.36458504
0.51426935 -0.294117 0.172591 2.5633576 0.8609587 -0.26212075 0.4929293 0.39234036
-0.37081665 -2.0836108 -0.6928114 -1.1161765 -1.7622428 -1.9155699 0.57695377 -1.2614852
0.2451757 -0.39572766 0.110436924 0.44548365 -0.778746 0.1253712 0.13510765 -0.43838307
1.0944731 -0.9893425 -0.533835 0.7874727 1.0363991 -1.1905122 0.822957 0.701427
1.0386391 -0.3084526 -0.05071002 0.79534465 0.06496731 -0.20788637 0.098202735 0.39794347
-0.61960953 -0.11594876 -0.017082809 -0.99156916 -0.061294213 -0.31133327 0.32555434 -0.6536542
-0.29454666 -0.4751002 -0.232327 0.14686538 0.16866376 -0.72794044 0.2861223 -0.33420882
0.4291381 0.21746004 -0.46464527 0.21250105 0.024379566 -0.288822 -0.28518873 -0.29296204
00000000: 8468 483f 9075 55bf 2892 e63c 9c72 c43f
00000010: edbb b53e 1319 12bf 3dfb 293f b5ab 7d3e
00000020: 2c1d 603d 8adf dabf d907 60bf 76b7 14bf
00000030: 7868 b7bf 4296 01c0 d40e 523f ff1a adbf
00000040: 3854 993d 0634 043f 6854 b13d c8aa 033f
00000050: 997e 40bf 4567 853e 6edb 143f c728 443c
00000060: 4c78 4c3f fee3 943e 384e eebe e011 5b3e
00000070: dfc2 8e3e 1e62 e8bd ff64 c23e 09b9 1b3f
00000080: f0d5 083f 37a3 ffbf fbbf 7cbe 3483 813f
00000090: bc0d f6be 4532 eabc 1e7f 533e 9f60 023e
000000a0: f46e b73d 8d67 9f3e 0651 843d ac88 5fbf
000000b0: 5fb5 d2bd f2b4 193e 78d0 4e3e be29 a5be
000000c0: 9402 d63e b134 84be c1da 883d 62c6 383d
000000d0: cb5f b5be 23b1 c63c dd11 df3e 98a7 fd3d
000000e0: f846 d13d a3ca 8cbc 45d5 c0be 40cf 46be
000000f0: 5d54 3d3e dc4e 323e 910e bb3d b6a6 31be
00000100: 310b 12be 9cbe 5a3d 08fb c43d 8849 5f3f
00000110: dbe5 da3e 85b4 16bf fff4 923d 2b3f 933e
00000120: d6af 683f bb9b 5fbf 294f 46be cd2a fbbe
00000130: 6173 5abf 7de8 173c 6ac3 053f d33c 3dbf
00000140: 10f8 d8bd 2684 0abc 7359 27be 14db a2bd
00000150: 62fe 3dbf 4981 553e 235a ad3e 7cc1 12bf
00000160: 7668 223e 8472 42bf 395f 173e 6244 b83f
00000170: a949 39bf b1c9 98bd 708b d73e 4bde c8be
00000180: aba0 2e3e d485 8dbe 205c c9bc 526f 72be
00000190: a540 2cbc 9c09 4fbd 7252 2dbf 18b7 e5bc
000001a0: 5766 323d f420 d1be 6ec6 41bd dfa8 12bf
000001b0: 8756 e1be 9dbd 363e b6cc 80be 2235 c0be
000001c0: c87e 7b3e 56d1 41bf ce6b 333e 33c2 323e
000001d0: a980 ec3e 533f f7be 0c0e 5e3e 1afc 90bd
000001e0: a9b9 8e3e 7e89 983e 5059 9a3d ead6 10bf
000001f0: 0016 10bd 0d40 333c 8ea0 b8be 22b8 8ebe
00000200: 4805 183f 00f4 20be 9d58 7dbd d0d9 c53f
00000210: f0d3 993e ff4f 103c fe41 c43e be6b d33c
00000220: a00a 993d 74f3 35bd 6158 ff3c cf9e 5d3c
00000230: aaf7 063f b784 b23e 3197 88be a862 c9bd
00000240: 3111 1ebf 9e52 6cbe 812c 7e3e 1e08 0a3d
00000250: 6c6f 9e3e 47f0 7bbe b3bf 0abf dbde f9bd
00000260: 64f7 e3be b637 b1bd 003f 333f fa76 663e
00000270: e8f3 d63e e02d 2dbe 9062 bebd 854d 033f
00000280: 62c1 19bf 36ad e5be 95f7 2c3e 1f31 98bf
00000290: 0ddf 0e3f e87a babe 05b0 f1be 9910 103e
000002a0: 147d 003e 03dc 8b3e 6f8b 8dbe 590a 463f
000002b0: 639d 513e bd95 a9be 5af1 a73d 55b1 cc3c
000002c0: 90d0 d43e b7b7 ee3e 1980 cf3e 16be 6b3e
000002d0: 0dd3 ab3e ea03 833e d3d4 8a3e be9b 6fbd
000002e0: 9e91 c4be d1a3 0cbf f105 123b 87e5 45be
000002f0: 18c6 dc3e 0567 1bbe 16ba d4be e4aa ba3e
00000300: 28a7 033f 8196 96be b2bb 303e 0d0e 2440
00000310: ca67 5c3f b134 86be 3b61 fc3e d6e0 c83e
00000320: aedb bdbe e159 05c0 175c 31bf dfde 8ebf
00000330: 2c91 e1bf 6531 f5bf 3eb3 133f 5978 a1bf
00000340: 570f 7b3e d19c cabe c12c e23d 6f16 e43e
00000350: e65b 47bf 4f61 003e a959 0a3e bf73 e0be
00000360: b217 8c3f 8d45 7dbf 69a9 08bf d097 493f
00000370: baa8 843f b462 98bf 4fad 523f b890 333f
00000380: 20f2 843f 80ed 9dbe 4fb5 4fbd b59b 4b3f
00000390: 950d 853d 2ae0 54be 841e c93d 3fbf cb3e
000003a0: bb9e 1ebf 8b76 edbd 3ff1 8bbc 7ad7 7dbf
000003b0: a40f 7bbd 1367 9fbe 0faf a63e e255 27bf
000003c0: d2ce 96be 5540 f3be 21e7 6dbe e163 163e
000003d0: 31b6 2c3e 4e5a 3abf 9f7e 923e 6b1d abbe
000003e0: fdb7 db3e d8ad 5e3e fce5 edbe e099 593e
000003f0: a8b7 c73c 7ae0 93be 4204 92be 1fff 95be

lstm.bias_ih_l0 f4 [32]
-0.02324451 0.2590363 -0.3559692 0.77899563 0.26866466 -0.19074368 0.23460166 -0.13679147
0.29983684 0.07212607 -0.09016686 0.043326255 0.11061674 0.059703384 0.1340826 -0.120208845
0.095752776 -0.054855585 0.042825393 0.07167346 0.4659888 -0.13292049 -0.15883313 0.10212401
0.5350218 0.67572916 -0.06151387 1.2354137 0.4610154 -0.23704363 0.38278058 0.17268409
00000000: 456b bebc 68a0 843e 9841 b6be 426c 473f
00000010: 6a8e 893e 5052 43be 6b3b 703e 1013 0cbe
00000020: 3784 993e d5b6 933d 67a9 b8bd df76 313d
00000030: 088b e23d 898b 743d f34c 093e 0e30 f6bd
00000040: 081a c43d 40b0 60bd ae69 2f3d 89c9 923d
00000050: 1696 ee3e 4f1c 08be 27a5 22be 6526 d13d
00000060: 30f7 083f 96fc 2c3f f8f5 7bbd 0922 9e3f
00000070: 360a ec3e 91bb 72be d1fb c33e 19d4 303e

lstm.bias_hh_l0 f4 [32]
0.45941678 0.6165942 -0.3251779 0.5817676 0.21474066 0.032988884 0.1291126 -0.23780541
0.4341666 -0.04278832 0.44206473 0.43310192 0.23736696 -0.14883326 0.14708665 0.0013240409
0.15807752 -0.08255754 -0.2467112 -0.09090735 -0.006159115 -0.10532017 0.160609 -0.1353595
-0.023905242 0.121114135 0.23373033 1.0792665 0.6035319 0.23677364 -0.12363039 0.4293835
00000000: ad38 eb3e 1ed9 1d3f b87d a6be b9ee 143f
00000010: fae4 5b3e 5a1f 073d 1836 043e 4383 73be
00000020: 164b de3e ce42 2fbd 4f56 e23e 89bf dd3e
00000030: 5310 733e bf67 18be e29d 163e 718b ad3a
00000040: 13df 213e ed13 a9bd dca1 7cbe a22d babd
00000050: 67d2 c9bb 1ab2 d7bd b076 243e ae9b 0abe
00000060: edd4 c3bc b00a f83d 0157 6f3e 6825 8a3f
00000070: 1181 1a3f ca74 723e ee31 fdbd 27d8 db3e

lstm.weight_ih_l1 f4 [32, 8]
-0.086930454 0.017821673 0.09935083 -0.16546175 0.19266436 -0.1741635 -0.031643838 0.027674032
0.1205548 -0.10875522 -0.43239132 -0.44406176 0.27322593 -0.5117062 0.1609754 -0.068953134
0.30276906 0.53145176 0.12565632 -0.4747189 0.48339075 0.03260042 0.80609703 0.085122354
0.37435284 -0.030972717 -0.3609686 -0.4659382 -0.037270423 -0.065299146 0.3566381 -0.48885626
-0.09438469 -0.8264339 -0.46247202 -0.32865375 -0.5722615 0.7443644 0.4030202 -0.49141645
0.07667661 0.5069605 -0.74389416 1.1148884 -0.09829856 -0.2794936 0.4516074 0.16312136
0.4576425 1.0174707 -0.45933104 0.99619764 0.6241931 0.20470431 0.21588716 0.2642813
0.17124367 -0.1301988 -0.017407918 -0.39560083 -0.40104657 0.11850452 0.15875217 -0.11952764
-0.34474784 0.6013029 0.44258928 -0.23112236 -0.2808756 -0.13864249 -0.20944022 0.095371395
0.047775503 -0.333414 0.15763377 -0.36351812 0.16893685 -0.31174102 0.8187093 -0.7884087
0.0823006 1.6139178 -0.013255801 -0.13603011 0.34383366 0.08080188 -0.032166086 0.4454034
-0.21280104 1.0376488 -0.47984627 -0.06256689 -0.9578863 0.89849347 -0.40089378 -0.8560478
-0.15819839 0.982211 0.052346118 0.25855017 -0.6704531 0.29592532 0.532595 -0.63376105
0.41693094 -0.54135734 0.28790012 1.6397521 -0.31212974 0.42658097 0.844352 0.053510424
-0.26912323 0.62615997 0.33425936 -0.085677534 0.7189245 -0.6200861 -0.1483199 0.81412137
0.2685729 0.4602737 0.55931973 0.82053566 -0.51453793 0.3228065 -0.13048254 0.009202977
0.3947191 -0.33370885 0.10631808 -0.43068385 0.39738524 0.11946811 0.1729106 0.23461148
0.35813743 -0.22003843 0.18929759 -0.47818083 -0.0921655 -0.53708166 0.32091942 -0.07895161
-0.46114662 0.41855592 -0.015011879 0.37368283 -0.30327034 -0.0082057 0.03328854 0.117574744
-0.32862335 0.2315763 -0.017485686 -0.5843135 0.48426145 0.6850039 -0.37974784 0.5113226
0.021641959 -0.051059585 0.16862449 -0.40502983 0.8854652 -0.0032876516 -0.2396936 -0.2953588
-0.5077764 -0.903757 0.24075949 0.5995448 -0.53002197 -0.2296319 0.49001417 -0.24247758
-0.20916365 -0.25437126 0.54764503 -0.20340659 0.48763582 0.30686536 -0.22005758 0.90909755
-0.2194565 -0.29611063 -0.24758229 -0.18565875 -0.11399402 -0.43632424 0.057572313 -0.025092464
0.00770789 -0.44427606 -8.988206e-05 -0.39462277 -0.16557822 -0.39084613 0.0260081 0.23033972
0.22406286 0.41497505 -0.48139185 -0.9448768 0.012388039 0.9814834 -0.40629485 -0.22639477
0.19361492 1.9867787 0.49821922 -0.23952496 0.09601686 0.2670101 0.67974794 0.5967923
0.31435236 0.46777046 -0.40053084 -0.39380288 -0.080656864 -0.3046623 0.49470326 -0.9150628
0.42467058 -0.57761216 -1.074768 -0.95282996 -0.30819935 0.4301069 0.0070914566 -1.4296749
0.20862997 -0.24237736 -0.2645621 1.4915206 -0.7595574 -0.80448073 0.5901939 -0.7009958
0.3914985 -0.13505988 0.119736426 1.6570296 0.16293137 0.0034560487 0.96145916 0.22358058
-0.43482703 0.056833368 0.12978911 -0.09333176 0.07877603 -0.37219924 0.14745699 -0.36211723
00000000: 9808 b2bd c2fe 913c 7378 cb3d ce6e 29be
00000010: ce49 453e eb57 32be f89c 01bd a7b4 e23c
00000020: 6fe5 f63d 0fbb debd 6562 ddbe 105c e3be
00000030: 45e4 8b3e 2dff 02bf bcd6 243e 4d37 8dbd
00000040: 8c04 9b3e 390d 083f 0dac 003e 5b0e f3be
00000050: fe7e f73e 0588 053d 605c 4e3f a154 ae3d
00000060: 2dab bf3e 7fba fdbc e0d0 b8be 748f eebe
00000070: dfa8 18bd 8fbb 85bd 4599 b63e 5e4b fabe
00000080: c34c c1bd 2c91 53bf 22c9 ecbe 4e45 a8be
00000090: bb7f 12bf aa8e 3e3f aa58 ce3e f09a fbbe
000000a0: a008 9d3d 2ac8 013f d96f 3ebf aab4 8e3f
000000b0: c150 c9bd c919 8fbe 1639 e73e 4909 273e
000000c0: 1e50 ea3e 7b3c 823f 702d ebbe cf06 7f3f
000000d0: 1ecb 1f3f 029e 513e 8611 5d3e e14f 873e
000000e0: 805a 2f3e d652 05be 0d9b 8ebc 318c cabe
000000f0: fa55 cdbe 7fb2 f23d ee8f 223e e8ca f4bd
00000100: ca82 b0be fdee 193f 109b e23e 57ab 6cbe
00000110: edce 8fbe 4cf8 0dbe 7f77 56be 1452 c33d
00000120: 3fb0 433d 3db5 aabe bf6a 213e 0c1f babe
00000130: c8fd 2c3e 859c 9fbe ef96 513f 27d5 49bf
00000140: 388d a83d dc94 ce3f dc2e 59bc 7a4b 0bbe
00000150: f70a b03e 757b a53d 96c0 03bd ea0b e43e
00000160: 84e8 59be add1 843f 69ae f5be 1223 80bd
00000170: 0938 75bf ab03 663f f341 cdbe f325 5bbf
00000180: c2fe 21be 2e72 7b3f e268 563d b060 843e
00000190: d0a2 2bbf 8683 973e 2558 083f 2a3e 22bf
000001a0: f977 d53e 6596 0abf a567 933e 66e3 d13f
000001b0: 78cf 9fbe d268 da3e 7427 583f bf2d 5b3d
000001c0: 85ca 89be 054c 203f 0b24 ab3e b477 afbd
000001d0: 700b 383f f6bd 1ebf 2ce1 17be 426a 503f
000001e0: 6382 893e ffa8 eb3e 942f 0f3f a00e 523f
000001f0: c2b8 03bf e546 a53e 379d 05be 15c8 163c
00000200: 9f18 ca3e e3db aabe 4bbd d93d 9882 dcbe
00000210: 1476 cb3e b2ab f43d 7a0f 313e fe3d 703e
00000220: ca5d b73e c151 61be 3ad7 413e 1ed4 f4be
00000230: 44c1 bcbd 2f7e 09bf 8d4f a43e 62b1 a1bd
00000240: 691b ecbe f64c d63e 62f4 75bc 5b53 bf3e
00000250: 4046 9bbe 3371 06bc 9059 083d 07cb f03d
00000260: 5241 a8be 5622 6d3e 243e 8fbc 9295 15bf
00000270: 1ef1 f73e 6a5c 2f3f 4f6e c2be 0ae6 023f
00000280: 7a4a b13c db23 51bd e6ab 2c3e 1260 cfbe
00000290: d9ad 623f a475 57bb 3d72 75be 4539 97be
000002a0: a2fd 01bf 9e5c 67bf a889 763e c57b 193f
000002b0: 85af 07bf a024 6bbe 23e3 fa3e 0b4c 78be
000002c0: ff2e 56be f33c 82be 7732 0c3f d149 50be
000002d0: 67ab f93e 751d 9d3e c656 61be 9eba 683f
000002e0: 34b9 60be d09b 97be 3686 7dbe 541d 3ebe
000002f0: b275 e9bd e465 dfbe f2d0 6b3d b68e cdbc
00000300: 7892 fc3b 2778 e3be 107f bcb8 ff0b cabe
00000310: 568d 29be fc1c c8be f00e d53c 2dde 6b3e
00000320: bc70 653e 9c77 d43e fe78 f6be 72e3 71bf
00000330: 34f7 4a3c 7f42 7b3f e105 d0be 08d4 67be
00000340: fd42 463e c44e fe3f 9716 ff3e 0846 75be
00000350: 7da4 c43d 8cb5 883e f603 2e3f 61c7 183f
00000360: cbf2 a03e 9c7f ef3e 6112 cdbe 88a0 c9be
00000370: 6d2f a5bd b2fc 9bbe bf49 fd3e 8e41 6abf
00000380: 6c6e d93e 64de 13bf ff91 89bf aaec 73bf
00000390: 4ecc 9dbe f936 dc3e 735f e83b 96ff b6bf
000003a0: 18a3 553e c531 78be af74 87be 26ea be3f
000003b0: 5b72 42bf 73f2 4dbf f316 173f 7674 33bf
000003c0: 7e72 c83e 234d 0abe 5f38 f53d 8c19 d43f
000003d0: 7bd7 263e e07e 623b 3022 763f 4ff2 643e
000003e0: a6a1 debe 1bca 683d 70e7 043e b924 bfbd
000003f0: 5455 a13d e690 bebe f7fe 163e 6e67 b9be

lstm.weight_hh_l1 f4 [32, 8]
0.26532996 0.64191806 -0.52363217 0.5677487 0.3866612 -0.12692174 0.4104545 -0.21009278
-0.18261306 1.2113982 0.12551352 -0.18456665 -0.40817478 -0.85652804 0.10405285 0.022335453
-0.09152738 0.21200728 -0.5806166 0.22302291 0.921311 -1.610089 -0.4043316 0.1340561
0.022010855 0.40133756 -2.8288853 -0.58538646 0.854079 -0.25979254 -1.0155004 0.95298904
0.11648067 1.4856015 0.115088455 -1.0037614 -0.9686343 0.9654476 0.04233567 0.086959735
-0.9144973 0.3043919 0.61690724 -0.28000394 0.7250759 0.58004177 -3.3582256 0.037036207
0.32181764 -0.27147213 -0.8415458 0.057034023 0.40088218 -0.22153063 0.39177778 -0.7157664
0.2988205 0.85221547 -0.65008354 0.75809497 0.13514377 0.54310054 0.0587955 -0.44890022
0.16429463 0.3081981 -0.46284539 0.5382321 0.5757943 0.39526457 -0.362721 -0.28780815
0.049284752 0.559587 -0.52180594 -0.58643675 1.3325728 -1.7853867 -0.7076955 -0.03445874
0.25357273 0.6299214 -0.16059485 0.6036748 0.28731474 -1.0296696 0.21681881 -0.8899681
0.35274845 -0.9323201 -0.38015622 -1.0436136 -0.1647049 0.07181767 0.09629253 0.6877047
0.281805 1.1933334 0.3596021 -0.86118054 -0.18379454 0.8984854 0.0448993 -0.54285544
0.9913491 -1.3163229 -1.9035529 -0.032252047 1.4374864 -1.2026657 1.307168 -0.5373076
0.584459 0.03354097 -1.781651 0.40790567 0.8512608 -2.407805 0.1892544 0.21809949
0.33441737 0.23396961 -0.7351572 0.3718349 0.74139994 0.57692945 0.20014414 -0.8566153
0.26325303 -0.593855 -0.24694884 -0.10999946 -0.34089658 -0.55921364 0.48710364 0.4787728
0.43694732 0.043444358 -0.57937205 0.01639938 0.4807213 -0.97796845 0.21487811 0.13651156
-0.4500907 0.52495384 0.23766267 0.8925934 -0.10618362 0.45384923 0.26646307 -0.3545763
-0.12261131 0.046682306 0.32448298 -0.11230158 -0.32355332 -0.57048416 -0.09758862 0.0763315
0.22617324 -0.35766128 0.32270893 0.823701 0.038437564 0.20422922 -0.38304847 -0.38371563
-0.085876234 0.3476015 0.26265746 -0.72830665 -0.7277404 -0.38239256 0.13810892 -0.64231163
-0.18126991 -0.8123712 -0.4090718 0.40540367 -0.09681287 -0.8430828 0.56259716 0.34463814
-0.05209634 0.39663586 0.20166439 0.06698731 -0.08028873 1.042036 -0.41347355 -0.29604307
-0.19038562 0.17331453 -0.18433055 0.6403104 0.0032932865 0.014083864 -0.030054176 -0.22886886
0.155306 0.65322167 -0.034557562 -1.1399224 -0.14365588 -1.285808 -0.36896756 -0.08945575
0.24080871 0.19877748 -0.24538684 0.7549393 1.0553904 -0.87587595 -0.28407568 -0.20132
-0.4406428 0.67539144 -1.9677385 -0.42738155 0.43320966 -0.8455927 -0.9916798 1.1337818
0.083427265 1.310304 -0.09677682 -0.57801294 -1.0730312 2.3430452 -0.15024626 -0.4379151
-0.730142 -0.384337 0.7783544 -0.55987644 0.447184 1.0280343 -2.2403643 -0.1245978
-0.22126529 0.16231515 -0.5619316 -0.37724847 0.76495856 -1.2216182 0.036612153 0.08232099
0.37859172 0.24701048 -0.39370373 0.44283774 0.22216366 1.2824153 0.13433099 0.04374334
00000000: 54d9 873e be54 243f c20c 06bf fb57 113f
00000010: 75f8 c53e c6f7 01be 1827 d23e 9022 57be
00000020: ebfe 3abe 190f 9b3f 9e86 003e 0aff 3cbe
00000030: 49fc d0be 6c45 5bbf a919 d53d d7f8 b63c
00000040: b572 bbbd 7018 593e 4aa3 14bf 1e60 643e
00000050: 0adb 6b3f 6517 cebf 8d04 cfbe 0146 093e
00000060: 1c50 b43c 1e7c cd3e 750c 35c0 e3db 15bf
00000070: eca4 5a3f 8703 85be ebfb 81bf 17f7 733f
00000080: 6b8d ee3d 3128 be3f 7fb3 eb3d 417b 80bf
00000090: 6bf8 77bf 9327 773f 2b68 2d3d f217 b23d
000000a0: 7f1c 6abf 41d9 9b3e a2ed 1d3f ad5c 8fbe
000000b0: 939e 393f 9e7d 143f 2bed 56c0 47b3 173d
000000c0: 48c5 a43e 65fe 8abe 8c6f 57bf 829c 693d
000000d0: 6e40 cd3e edd8 62be 1997 c83e 773c 37bf
000000e0: 00ff 983e cb2a 5a3f e06b 26bf 8312 423f
000000f0: 2163 0a3e a308 0b3f 8dd3 703d 40d6 e5be
00000100: da3c 283e 24cc 9d3e 12fa ecbe 94c9 093f
00000110: 4167 133f 1e60 ca3e 91b6 b9be 975b 93be
00000120: cfde 493d 1841 0f3f 1395 05bf b820 16bf
00000130: bf91 aa3f 8d87 e4bf 882b 35bf 9c24 0dbd
00000140: 49d4 813e 8742 213f fa72 24be 6f8a 1a3f
00000150: eb1a 933e 37cc 83bf c005 5e3e f3d4 63bf
00000160: 729b b43e 88ac 6ebf d6a3 c2be 2195 85bf
00000170: 67a8 28be 2415 933d 0535 c53d 6a0d 303f
00000180: bf48 903e 26bf 983f c41d b83e 5476 5cbf
00000190: a334 3cbe 2403 663f 54e8 373d 93f8 0abf
000001a0: 0ec9 7d3f 457d a8bf 9fa7 f3bf b91a 04bd
000001b0: 8eff b73f f3f0 99bf 4851 a73f fe8c 09bf
000001c0: 1b9f 153f 4262 093d 240d e4bf 03d9 d03e
000001d0: 3aec 593f 7a19 1ac0 e8cb 413e 7955 5f3e
000001e0: c138 ab3e bb95 6f3e 4333 3cbf 2561 be3e
000001f0: 63cc 3d3f a6b1 133f 96f2 4c3e 244b 5bbf
00000200: 1ac9 863e e206 18bf 28e0 7cbe 6647 e1bd
00000210: ff89 aebe a028 0fbf a665 f93e b521 f53e
00000220: 8fb7 df3e b6f2 313d ba51 14bf fe57 863c
00000230: 1a21 f63e 245c 7abf 0209 5c3e b0c9 0b3e
00000240: 4a72 e6be 6063 063f d85d 733e 0081 643f
00000250: cc76 d9bd ed5e e83e d96d 883e 068b b5be
00000260: a31b fbbd f235 3f3d a222 a63e 5ffe e5bd
00000270: c8a8 a5be 400b 12bf 8bdc c7bd b153 9c3d
00000280: f599 673e 611f b7be 1b3a a53e 12de 523f
00000290: b570 1d3d 7721 513e ee1e c4be 6076 c4be
000002a0: e1df afbd d3f8 b13e 0a7b 863e 4e72 3abf
000002b0: 324d 3abf f5c8 c3be 6d6c 0d3e 896e 24bf
000002c0: d29e 39be 8ff7 4fbf dc71 d1be 1291 cf3e
000002d0: d345 c6bd 46d4 57bf 5e06 103f 6974 b03e
000002e0: f962 55bd db13 cb3e 1c81 4e3e a530 893d
000002f0: 6b6e a4bd 7061 853f ceb2 d3be f592 97be
00000300: 73f4 42be 5d79 313e 26c1 3cbe 62eb 233f
00000310: 2ed4 573b 02c0 663c 2d34 f6bc 995c 6abe
00000320: 8908 1f3e 8939 273f 3b8c 0dbd fae8 91bf
00000330: 871a 13be 5b95 a4bf 51e9 bcbe 9434 b7bd
00000340: 8f96 763e 538c 4b3e b046 7bbe b443 413f
00000350: 0817 873f 6839 60bf 5e72 91be d526 4ebe
00000360: ef9b e1be 74e6 2c3f dbde fbbf c1d1 dabe
00000370: a8cd dd3e c378 58bf bade 7dbf c31f 913f
00000380: eadb aa3d 0bb8 a73f ed32 c6bd a8f8 13bf
00000390: 1659 89bf 74f4 1540 28da 19be 6836 e0be
000003a0: 96ea 3abf d2c7 c4be 3c42 473f 1054 0fbf
000003b0: 4df5 e43e a196 833f 2162 0fc0 222d ffbd
000003c0: 5e93 62be f135 263e c0da 0fbf b626 c1be
000003d0: 53d4 433f fc5d 9cbf a0f6 153d e897 a83d
000003e0: c6d6 c13e 51f0 7c3e 8993 c9be a1bb e23e
000003f0: df7e 633e 2f26 a43f 108e 093e 372c 333d

lstm.bias_ih_l1 f4 [32]
-0.31875852 0.5057586 0.07415238 -0.2228818 0.15699609 0.2705531 0.18271615 -0.1904049
0.28553095 0.3615974 -0.24134445 0.18241857 -0.6301295 -0.295792 0.15046139 0.016249163
-0.18044259 -0.14554386 0.10341975 0.19931877 0.42738 -0.090051 -0.24485086 -0.2687559
-0.08369017 0.10311794 -0.01956856 0.21534576 0.00107069 0.22673513 0.2051056 -0.118751615
00000000: 5134 a3be 6579 013f 34dd 973d 203b 64be
00000010: 95c3 203e f085 8a3e f119 3b3e 81f9 42be
00000020: 1d31 923e 4b23 b93e 0023 77be efcb 3a3e
00000030: 2b50 21bf 0d72 97be 8d12 1a3e f71c 853c
00000040: f1c5 38be 7309 15be bccd d33d 381a 4c3e
00000050: 8dd1 da3e a96c b8bd 2fba 7abe 609a 89be
00000060: c065 abbd 802f d33d 3f4e a0bc 9983 5c3e
00000070: 6556 8c3a 412d 683e 3407 523e 0c34 f3bd

lstm.bias_hh_l1 f4 [32]
-0.02766971 0.5738308 0.031304568 0.08387068 0.28285265 0.62269264 0.40773046 0.135271
-0.14930297 0.17064314 0.09695019 -0.17767116 -0.30787572 0.016026936 0.062101293 -0.2790827
-0.14543036 0.057085663 0.09566728 -0.37431633 -0.037601948 0.072523326 -0.031484533 0.23384713
-0.21311307 -0.21207397 0.31848168 -0.20337921 -0.23309545 0.32627723 -0.059758417 0.27789128
00000000: 96ab e2bc 93e6 123f 3839 003d 64c4 ab3d
00000010: 10d2 903e c968 1f3f 0cc2 d03e 7b84 0a3e
00000020: e1e2 18be 13bd 2e3e d28d c63d 6eef 35be
00000030: e3a1 9dbe ec4a 833c ed5d 7e3d ede3 8ebe
00000040: b2eb 14be a8d2 693d 35ed c33d 64a6 bfbe
00000050: 8004 1abd 1c87 943d edf5 00bd 9f75 6f3e
00000060: 503a 5abe eb29 59be 0810 a33e a442 50be
00000070: 93b0 6ebe cf0d a73e 3ec5 74bd c447 8e3e

fc.weight f4 [1, 8]
0.16959581 0.17752673 -0.034121275 0.17515096 -0.03196419 0.29956624 0.0019169145 -0.21861483
00000000: 86aa 2d3e 91c9 353e c0c2 0bbd c65a 333e
00000010: e2ec 02bd bf60 993e fa40 fb3a 91dc 5fbe
