time_series_intro_class/final_project/temp/2_layer_64_size_model_epoch_1100.pth (torch, 203811 bytes, 9 tensors)

lstm.weight_ih_l0 f4 [256, 1]
0	0xbf7209c8	-0.94546175
1	0x3f8796d1	1.05929
2	0x3f08d3db	0.53448266
3	0xbee2f10f	-0.44324538
4	0xbf8cd71f	-1.100315
5	0xbe0a7b69	-0.1352364
6	0x3edb59d3	0.42841968
7	0xbf88a1ad	-1.067434
8	0xbfeab7ec	-1.8337379
9	0xbf807d11	-1.0038167
10	0xbf61ba06	-0.88174474
11	0xbf332046	-0.6997112
12	0xbf02b2fc	-0.5105436
13	0x3d6df959	0.058099125
14	0xbfa549ac	-1.2913108
15	0x3f620aa5	0.8829749
16	0x3e021f9d	0.12707372
17	0xbf652b95	-0.89519626
18	0xbf01f677	-0.507667
19	0x3f38ac1d	0.72137624
20	0xbf0e062b	-0.5547816
21	0xbec8d7de	-0.39227194
22	0xbe97825c	-0.29591644
23	0xc01d2400	-2.4553223
24	0x3f6d37af	0.9266309
25	0xbf033d79	-0.51265675
26	0xbe006787	-0.12539493
27	0xbf3271fe	-0.6970519
28	0x3f54ed7f	0.8317489
29	0xbee27051	-0.44226316
30	0xbe9e3627	-0.3090069
31	0x3f0cd752	0.5501605
32	0xbf8a9a0c	-1.0828261
33	0xbf278157	-0.6543173
34	0xbf6b66d3	-0.9195377
35	0xc003e7b5	-2.0610173
36	0x3f8dd709	1.1081249
37	0xbfa61ed5	-1.2978159
38	0xbf992130	-1.1963253
39	0x3e1c51be	0.15265557
40	0xbf2f480b	-0.68469304
41	0x4019c731	2.4027827
42	0x3e306ef6	0.17229828
43	0x3e06b35e	0.1315436
44	0x3f11732a	0.5681635
45	0x3e4a6690	0.19765687
46	0xbfc6d994	-1.553515
47	0xbf4c8afd	-0.7989958
48	0xbefdeb53	-0.495936
49	0xbff506cb	-1.9142698
50	0x3e66e4a8	0.22548163
51	0xbee61188	-0.4493525
52	0x3f31eff7	0.6950678
53	0xbe3f1ea4	-0.18664032
54	0xbf811d3b	-1.0087045
55	0x3fffa1be	1.9971235
56	0xbe2c16c5	-0.16805561
57	0xbe137a2f	-0.14402078
58	0xbfb2274a	-1.391824
59	0xbe944819	-0.28961256
60	0x3dfc6236	0.1232342
61	0xc008879c	-2.133277
62	0x3e13259e	0.14369819
63	0xbd09653c	-0.03354381
64	0x3e5a928f	0.2134497
65	0xbf2d43b7	-0.6768145
66	0xbc0c9f86	-0.008582955
67	0x3f090795	0.53527194
68	0xbee496d8	-0.44646335
69	0xbe090523	-0.13380866
70	0xbf0f4bfd	-0.55975324
71	0x3f31dec3	0.6948053
72	0xbed4c050	-0.41552973
73	0xbf4149e9	-0.755034
74	0xbe8064e9	-0.25076988
75	0x3dde2619	0.1084711
76	0x3e422054	0.18957645
77	0x38e3f7ad	0.00010870337
78	0x3f92009d	1.1406437
79	0xbf820af7	-1.0159596
80	0x3eaba818	0.33526683
81	0xbe3a4d31	-0.18193509
82	0x3eb7ace4	0.35874093
83	0xbe8462b9	-0.2585657
84	0x3e309f93	0.17248373
85	0x3b4a2f19	0.0030850826
86	0x3fa62719	1.2980682
87	0xbef7f661	-0.4843016
88	0x40122381	2.283417
89	0xbe69fc2c	-0.22850102
90	0x3f58a325	0.8462394
91	0x3f0dc83b	0.5538365
92	0x4009cf65	2.1532834
93	0xbd4fe1a9	-0.050752316
94	0x3f0dd5df	0.55404466
95	0x3f416969	0.7555147
96	0x3f6bd8e5	0.9212783
97	0x3f94d2c6	1.1626823
98	0xbeb722b7	-0.35768673
99	0xc034470f	-2.816837
100	0x3fafd78a	1.3737652
101	0xbf801e02	-1.0009158
102	0x3fe62f55	1.7983195
103	0x3e440b67	0.19144975
104	0xbe4807f4	-0.19534284
105	0x3f87a064	1.0595822
106	0xbe23282f	-0.15933298
107	0xbf1e57cd	-0.61852723
108	0x3f0d6e5a	0.5524651
109	0x3e8ced47	0.27524778
110	0xbefb216e	-0.49048942
111	0x3f71b429	0.9441553
112	0xbd91da25	-0.07121686
113	0xbe941fae	-0.2893042
114	0x3f73fdd2	0.95309174
115	0x3e61876d	0.22024317
116	0x3f88a739	1.0676032
117	0xbf4fc904	-0.811661
118	0x3f953f96	1.166003
119	0x3eb6cf9f	0.35705277
120	0x3e8bf35c	0.27334106
121	0xbf0b13cb	-0.54327077
122	0x3fcc463f	1.5958937
123	0x3eb27321	0.3485346
124	0x3da387f8	0.07984918
125	0x3f1baa63	0.60806865
126	0x3ebce929	0.36896637
127	0x3f6c3f59	0.9228416
128	0x3ef9446a	0.48685008
129	0x3fb8ae5f	1.4428214
130	0xbf33f4d5	-0.7029546
131	0xbfc03629	-1.5016528
132	0xbfc32ba5	-1.5247694
133	0x3fb56959	1.4172775
134	0x3f08b36b	0.5339877
135	0x3f806750	1.0031528
136	0xbf7a8d80	-0.9787216
137	0xbf927043	-1.144051
138	0x3f68f735	0.9100221
139	0xbeaabc43	-0.33346757
140	0xbd829446	-0.06375937
141	0xbeffa9c1	-0.499342
142	0x3e80aeec	0.25133455
143	0x3f752b30	0.95769024
144	0xbf149227	-0.5803551
145	0x3f542fdd	0.82885534
146	0x3f0019c4	0.50039315
147	0xbf18db4a	-0.5970961
148	0xbeced7c9	-0.40399006
149	0xbf2dd441	-0.67902
150	0x3fc660d8	1.5498304
151	0xbf9e6eb2	-1.2377532
152	0xbf40b7d7	-0.7528052
153	0x3f42b985	0.7606433
154	0xbfbe139f	-1.4849738
155	0xbf1bbd92	-0.60836136
156	0x3e85ca31	0.26130822
157	0xbe7a5e77	-0.24450098
158	0xbf2802e9	-0.6562944
159	0x3fce578d	1.6120468
160	0xbf6b54c6	-0.9192623
161	0x3f1dbb9c	0.61614394
162	0x3f95d144	1.1704488
163	0xbf88d9e0	-1.069149
164	0x3ea55fd1	0.32299665
165	0xbfc2db2c	-1.5223136
166	0xbf4eacc2	-0.8073236
167	0xbd176dee	-0.03697007
168	0x3f1d4636	0.6143526
169	0x3eb3e211	0.35133412
170	0xbf4d898e	-0.80288017
171	0x3e62b246	0.22138318
172	0xbf4e2021	-0.80517775
173	0x3f346d43	0.7047922
174	0xbf0063ea	-0.50152457
175	0x3eea3349	0.45742252
176	0x3e90e540	0.28299904
177	0xbfcf86e1	-1.6213037
178	0x3d81908d	0.06326399
179	0x3e6c7ca8	0.23094428
180	0x3f668cb6	0.9005846
181	0x3f623037	0.8835482
182	0x3f831223	1.023991
183	0xbde705f1	-0.1128043
184	0xbf5f8dd6	-0.873258
185	0x3e7ede20	0.24889421
186	0xbf997a7e	-1.1990507
187	0x3e979f2a	0.2961362
188	0x3d3daf21	0.046309594
189	0x3f737f2a	0.9511591
190	0x3f0eea88	0.55826616
191	0xbf6fc997	-0.93666977
192	0xbe0ce9ca	-0.13761058
193	0x3f27c992	0.65541947
194	0x3f0d1dd3	0.55123633
195	0xbe413443	-0.18867593
196	0xbf8d19fb	-1.1023554
197	0xbd7ebdab	-0.0621926
198	0xbdc6b866	-0.0970314
199	0xbc11cee7	-0.008899427
200	0xbfa33c43	-1.2752765
201	0xbf60abd3	-0.8776218
202	0xbf29e625	-0.663668
203	0xbece493f	-0.40290257
204	0x3e7f8219	0.24951972
205	0x3ec8b711	0.3920217
206	0xbebbe25d	-0.3669614
207	0x3ede5e1e	0.4343118
208	0x3df0e86f	0.11763083
209	0xbe911730	-0.28338003
210	0x3e6c9b8f	0.23106216
211	0x3edc443f	0.43020818
212	0xbe8f24ab	-0.27957663
213	0xbde34f31	-0.11099089
214	0x3da71d4e	0.08159886
215	0xc02b0926	-2.6724334
216	0x3fe142cf	1.7598513
217	0xbf13dcb6	-0.57758653
218	0x3dbf874d	0.093519785
219	0xbe9f2847	-0.31085417
220	0x3fde1d57	1.7352704
221	0xbef628ad	-0.48077908
222	0x3e486bbc	0.19572347
223	0x3ecb54b2	0.39713055
224	0xbe91c942	-0.2847386
225	0xbeb25a33	-0.34834442
226	0xbf3cb03d	-0.7370642
227	0xc002d0f6	-2.044004
228	0x3fc6bc0a	1.5526135
229	0xbf6cead2	-0.9254581
230	0x3f361ea1	0.71140486
231	0x3d5e8ada	0.054331638
232	0xbf149724	-0.5804312
233	0x4024b963	2.573815
234	0x3f46474e	0.7745255
235	0xbeb69632	-0.35661465
236	0x3f345aad	0.7045086
237	0x3bcc2bd5	0.006230811
238	0xbfcf211c	-1.6181979
239	0x3e6507f9	0.22366323
240	0xbe91a8ed	-0.28449193
241	0xbf907a14	-1.1287255
242	0x3f1dfcb9	0.6171375
243	0x3ccc7f4b	0.024963042
244	0x3f8449fa	1.0335076
245	0xbee85689	-0.4537852
246	0x3eb27338	0.3485353
247	0x3fb82be6	1.4388397
248	0xbe9b47c9	-0.30328205
249	0x3e099960	0.13437414
250	0x3f34421f	0.7041339
251	0x3ea4b92e	0.3217253
252	0x3eed5c5c	0.46359527
253	0xbf7e1a4a	-0.99258864
254	0x3dad01c0	0.084475994
255	0x3f4c71d8	0.7986121

lstm.weight_hh_l0 f4 [256, 64]
0	0x3e7da362	0.24769357
1	0xbec485a5	-0.38383213
2	0x3e48e687	0.19619189
3	0x3ea99ba6	0.33126563
4	0x3ecf8473	0.40530738
5	0xbed34cdd	-0.4126958
6	0xbe0b4d1f	-0.13603638
7	0x3e693a33	0.22776107
8	0xbea22067	-0.31665346
9	0xbe95214e	-0.29126972
10	0x3ec950d7	0.39319488
11	0xbea0630d	-0.3132557
12	0xbe4ad8be	-0.19809243
13	0x3da66005	0.08123783
14	0x3df1cf9a	0.11807175
15	0xbea0da07	-0.31416342
16	0x3cedf20a	0.029046077
17	0x3e75a6f4	0.23989469
18	0x3e8a5813	0.2702032
19	0x3e3f9208	0.1870805
20	0xbd57a6b6	-0.052649222
21	0x3dd29fa3	0.102843545
22	0xbed4dc4e	-0.4157433
23	0x3d4756c5	0.048666734
24	0x3de5f089	0.11227519
25	0x3bc9ccc4	0.006158443
26	0x3ec7d713	0.39031276
27	0xbd8e8ea2	-0.06960799
28	0xbcca2387	-0.024675144
29	0xbe4f049a	-0.20216599
30	0xbdbcab14	-0.09212318
31	0xbe3affe9	-0.18261684
32	0x3d2c8264	0.042116538
33	0x3e205a85	0.1565953
34	0xbd8949ee	-0.06703554
35	0x3f388b26	0.72087324
36	0x3eab1fbb	0.33422646
37	0xbd8f00e9	-0.069825955
38	0xbdc3c24e	-0.09558545
39	0xbebabd0d	-0.3647236
40	0x3e253338	0.1613282
41	0x3ed59dee	0.41722053
42	0xbe689953	-0.22714739
43	0x3e5a8605	0.21340187
44	0x3e03371a	0.12813988
45	0x3e240e85	0.16021164
46	0xbd5eec3f	-0.05442452
47	0x3e1c1a66	0.15244445
48	0xbe658c38	-0.2241677
49	0xbdea938d	-0.11453924
50	0x3e934081	0.2876015
51	0x3db4d656	0.08829944
52	0xbe1a8237	-0.15088736
53	0xbe30d75e	-0.17269656
54	0x3da03537	0.0782265
55	0x3f0785d1	0.5293856
56	0xbdd1ae96	-0.10238378
57	0x3cdcca6a	0.026951987
58	0xbe81aad1	-0.25325635
59	0xbf12cc4e	-0.57342994
60	0x3db686ed	0.08912454
61	0x3e1f17cd	0.15536423
62	0xbe529ea9	-0.20568337
63	0xbe29dad2	-0.1658738
64	0x3d099e43	0.033598196
65	0xbf691cc6	-0.9105953
66	0xbe48725f	-0.19574879
67	0xbebc14ce	-0.36734623
68	0xbc384f69	-0.011249402
69	0x3d605528	0.05476871
70	0xbeaf97ff	-0.3429565
71	0xbe671fac	-0.22570676
72	0x3ee4e813	0.4470831
73	0x3ee5ea33	0.44905242
74	0xbe73557c	-0.23763078
75	0x3eaaa0ae	0.33325714
76	0x3f206bd6	0.62664545
77	0xbefafce8	-0.49021077
78	0xbe81fac5	-0.25386634
79	0xbf62b36b	-0.8855502
80	0xbe9926b4	-0.2991234
81	0xbe0a2a17	-0.13492619
82	0x3df8165d	0.121136405
83	0x3f548b14	0.83024716
84	0x3ef61778	0.4806478
85	0xbe0453a1	-0.12922527
86	0xbf0c4f56	-0.5480856
87	0x3e3550b2	0.17706564
88	0xbe13aba5	-0.14420946
89	0xbf138d40	-0.57637405
90	0xbf2573c1	-0.6462975
91	0x3ecfe23f	0.406023
92	0x3ef69faa	0.4816869
93	0x3ea0fd6b	0.31443343
94	0xbeb3c89b	-0.35113987
95	0x3ed3b565	0.4134933
96	0xbdee8368	-0.116461575
97	0x3f873705	1.0563666
98	0x3f7069a9	0.93911225
99	0x3e1af73a	0.15133372
100	0xbed29bc7	-0.41134474
101	0x3f43516d	0.7629612
102	0x3cbc925f	0.023019014
103	0x3f268e3d	0.6506079
104	0x3f4626bf	0.7740287
105	0xbe9faf3c	-0.3118838
106	0x3f2352a9	0.63798004
107	0xbf584be0	-0.84490776
108	0xbf1fe2c4	-0.6245539
109	0x3e839bfd	0.25704947
110	0x3eaaeb74	0.3338276
111	0x3da6e63d	0.08149383
112	0x3f0e1c06	0.5551151
113	0x3eb92538	0.36161208
114	0xbe3118ef	-0.17294668
115	0x3e6d1f04	0.23156363
116	0x3e44fba6	0.19236621
117	0xbf3c2118	-0.73488
118	0xbe432797	-0.19058071
119	0xbdb9df86	-0.09075837
120	0x3e680f4a	0.22662082
121	0xbefc1b82	-0.49239737
122	0x3f1cc8c0	0.6124382
123	0xbf2e4050	-0.68066883
124	0xbeb5d65b	-0.35515103
125	0xbee3b47c	-0.44473636
126	0x3f1d4e5a	0.6144768
127	0x3dbd7d2c	0.0925239
128	0xbd81a3fb	-0.06330105
129	0x3ddd06d0	0.10792315
130	0xbd3951a7	-0.045243885
131	0x3d6de2f4	0.058077767
132	0xbe288c64	-0.16459805
133	0x3daa3dcc	0.08312568
134	0x3e67713e	0.22601792
135	0x3d1edda1	0.03878558
136	0x3c8050ca	0.015663523
137	0x3d50fc9a	0.05102215
138	0xbd7214f3	-0.05910201
139	0x3c475b05	0.012167697
140	0x3dcf29c7	0.1011539
141	0xbe58551f	-0.21126221
142	0xbe904a5b	-0.2818173
143	0xbeebe4f1	-0.46073106
144	0x3cb952d9	0.022622513
145	0xbde34a73	-0.110981844
146	0x3e0d335d	0.13789125
147	0x3e3da563	0.18520121
148	0x3e7ebf87	0.2487775
149	0xbd9a83c6	-0.07544665
150	0xbdbed39f	-0.09317707
151	0x3e2b02c5	0.16700275
152	0xbe61a24d	-0.22034569
153	0xbd7fb366	-0.062426947
154	0xbde567aa	-0.11201413
155	0x3e0567ae	0.13027832
156	0x3e498bbf	0.19682215
157	0x3da896bb	0.082318746
158	0x3dce8f9c	0.10085985
159	0x3e1c3c68	0.15257418
160	0x3d306341	0.043063406
161	0xbf06f949	-0.5272413
162	0x3daf6e3c	0.085659474
163	0xbdeae717	-0.11469858
164	0xbd195cdc	-0.037442073
165	0x3e08852a	0.13332048
166	0x3d9c31f9	0.07626719
167	0x3e4f6650	0.20253873
168	0x3eaa781d	0.33294764
169	0xbdd65aab	-0.10466512
170	0xbe22cdfe	-0.15898892
171	0xbe9101ca	-0.28321677
172	0xbd0bfcf7	-0.034176793
173	0xbd1ffa6f	-0.03905719
174	0xbdb29867	-0.08720475
175	0x3dc40081	0.095704086
176	0x3e2938a3	0.16525511
177	0x3dfd6174	0.12372103
178	0x3c8a3c37	0.016874416
179	0xbe28f2a4	-0.1649881
180	0x3ec737fb	0.38909897
181	0xbdcaf9e6	-0.099109456
182	0xbd99c0f0	-0.07507503
183	0xbdf19731	-0.117964156
184	0x3ea3438b	0.3188747
185	0x3e2b197d	0.16708942
186	0xbe576b1a	-0.2103695
187	0x3e8281ea	0.25489742
188	0x3b6bcb9d	0.0035979517
189	0x3cb9ab48	0.022664681
190	0x3e9a934f	0.30190513
191	0xbe344c50	-0.17607236
192	0xbecc6108	-0.3991778
193	0x3dd1abcc	0.10237846
194	0xbc684228	-0.014175929
195	0xbd82cb97	-0.06386488
196	0x3e2eb9a6	0.17063007
197	0x3db2af1e	0.08724807
198	0xbe390768	-0.18069232
199	0xbe292fc3	-0.16522126
200	0x3e64a582	0.22328761
201	0x3e2c943b	0.1685342
202	0xbe84fe4b	-0.2597526
203	0x3e9e6f36	0.30944222
204	0xbd6d06ee	-0.057867937
205	0xbe5ffdd1	-0.21874167
206	0x3ddf1e69	0.10894472
207	0x3de46c84	0.1115351
208	0xbd2830f9	-0.04106233
209	0xbeaea750	-0.34112024
210	0xbd933f90	-0.07189858
211	0xbe6b912d	-0.23004599
212	0xbd16a889	-0.03678182
213	0xbea5047b	-0.3222998
214	0x3ebb595d	0.36591616
215	0x3e646431	0.22303845
216	0xbe4a685c	-0.19766372
217	0xbdbf4a00	-0.09340286
218	0x3de98ff4	0.1140441
219	0x3d9ad05f	0.07559275
220	0x3ee88d2e	0.45420212
221	0x3ce4077c	0.0278356
222	0x3c47fb5b	0.012205924
223	0xbcc107f1	-0.023563357
224	0x3ccc18d7	0.024914188
225	0x3eb184d9	0.34671667
226	0x3e31c555	0.17360432
227	0xbf4117d7	-0.75427
228	0xbea2ec98	-0.31821132
229	0x3d83dc72	0.06438531
230	0x3ccfdad6	0.025372904
231	0xbdbf5f5a	-0.09344359
232	0x3db8cda9	0.090236016
233	0xbeda3faf	-0.42626712
234	0x3ec48c62	0.38388354
235	0xbe94a3df	-0.29031274
236	0xbecadddc	-0.3962239
237	0xbe7782ea	-0.24171034
238	0xbe32ab90	-0.17448258
239	0xbcd453fc	-0.025918953
240	0x3e022b98	0.12711942
241	0x3e0a712a	0.13519731
242	0xb93d9caa	-0.00018082806
243	0xbeaeb3b9	-0.34121493
244	0x3e92bdfe	0.28660578
245	0x3d3415b7	0.04396602
246	0xbe196633	-0.14980392
247	0xbe91a109	-0.28443173
248	0x3d6691e9	0.056291495
249	0xbe6ddbaf	-0.23228334
250	0x3ea38217	0.31935188
251	0xbe29f963	-0.1659904
252	0xbdef7195	-0.11691586
253	0xbea66f55	-0.32506815
254	0xbd814aa9	-0.063130684
255	0xbdba92a3	-0.0911

lstm.bias_ih_l0 f4 [256]
0	0xbe36d1a8	-0.17853415
1	0x3e5e1dfa	0.21691123
2	0xbd363e53	-0.04449303
3	0x3eccb820	0.39984226
4	0x3e244e78	0.16045558
5	0x3eb527c5	0.35381904
6	0x3e2d0216	0.16895327
7	0xbd321197	-0.043473806
8	0x3d6ecb09	0.0582991
9	0x3e43fa0d	0.19138356
10	0x3ebc2447	0.36746427
11	0xbe4b5b5a	-0.19859067
12	0xbdef8a11	-0.11696256
13	0xbe08ba88	-0.13352406
14	0x3edaefc5	0.42761055
15	0x3ef22b74	0.47298777
16	0xbdf9ccfa	-0.12197299
17	0xbe82b579	-0.25529078
18	0x3c75c58a	0.01500071
19	0xbcf49213	-0.02985481
20	0xbdbb61bd	-0.091495015
21	0xbb35f00b	-0.0027761485
22	0x3ebb0898	0.36529994
23	0xbcfeaaa5	-0.031087229
24	0x3cc31657	0.023814363
25	0xbe1327cf	-0.14370655
26	0x3eb416ea	0.35173732
27	0x3e0edec7	0.1395217
28	0x3d39b0f6	0.04533478
29	0xbd95e083	-0.07318213
30	0xbd8b19fb	-0.06792065
31	0x3ee41ae3	0.44551763
32	0xbe436163	-0.19080119
33	0x3f43bbd8	0.764585
34	0x3eb8d342	0.36098677
35	0x3efc8dd7	0.49326965
36	0xbcbc0efd	-0.022956366
37	0x3ebcfb4e	0.3691048
38	0xbddd0e4c	-0.107937425
39	0xbeaab8da	-0.33344156
40	0xbbfc61b7	-0.007702078
41	0x3e146c41	0.1449442
42	0xbd92ab4b	-0.07161578
43	0x3e5b9e5e	0.21447131
44	0xbe35d92f	-0.1775863
45	0x3d5dd8dc	0.05416189
46	0xbe52e2d3	-0.20594339
47	0xbdf30bf3	-0.118675135
48	0x3d6a7d27	0.05724826
49	0xbd744168	-0.05963269
50	0xbb378fab	-0.0028009217
51	0x3a545ffd	0.00081014616
52	0x3e0e346f	0.1388719
53	0x3ea5e077	0.32397816
54	0x3cd615c9	0.026133435
55	0x3e81c120	0.25342655
56	0x3a7f468d	0.0009737991
57	0xbcdf29b6	-0.027241569
58	0x3e333fee	0.17504856
59	0x3eef0478	0.46683097
60	0xbe91f0ac	-0.2850393
61	0x3d221f12	0.039580412
62	0x3c3502a1	0.01104799
63	0x3d5a1f34	0.053252414
64	0x3e3aefe6	0.18255576
65	0x3e158043	0.14599709
66	0x3e19d244	0.15021616
67	0xbca40175	-0.020020226
68	0xbc14aa19	-0.009073758
69	0x3e12874b	0.14309423
70	0xbe13576c	-0.14388818
71	0x3ba43146	0.0050107567
72	0x3d2df491	0.042469565
73	0x3bd419b5	0.006472791
74	0x3e016509	0.12636198
75	0xbe17602c	-0.1478278
76	0xbd76c061	-0.06024206
77	0x3dc6b17d	0.09701822
78	0x3cb45ff1	0.022018405
79	0xbe9da1e9	-0.3078759
80	0x3cd573fd	0.026056284
81	0xbd9c138a	-0.07620914
82	0xbc5e3591	-0.013562576
83	0xbe43a142	-0.19104484
84	0xbea0d8ce	-0.3141541
85	0xbdceb4f9	-0.100931115
86	0xbe3d962d	-0.18514319
87	0xbdfb23ce	-0.122626886
88	0xbd88e457	-0.06684177
89	0xbe76cf08	-0.24102414
90	0xbe20608b	-0.15661828
91	0xbcebd55d	-0.028788263
92	0x3dfe3f80	0.124144554
93	0xbdc38f73	-0.09548845
94	0xbe116c1e	-0.142014
95	0xbd40174e	-0.046897225
96	0xbe02b988	-0.12766087
97	0xbf23a495	-0.6392301
98	0xbe480c37	-0.1953591
99	0xbe42fdc1	-0.19042112
100	0xbca058e2	-0.019573633
101	0xbe26ee64	-0.16301876
102	0x3d32387e	0.043510906
103	0xbe52b51b	-0.20576899
104	0xbe8c419b	-0.27393803
105	0x3e4f3789	0.20236029
106	0x3c7981ef	0.0152287325
107	0x3d71c08c	0.059021518
108	0x3d8a3405	0.06748203
109	0x3c9b1f9e	0.018935975
110	0xbc632abf	-0.013865172
111	0xbe25c12f	-0.16186975
112	0xbd1e3bb2	-0.03863115
113	0xbdf13f5e	-0.117796645
114	0xbe25deff	-0.16198348
115	0x3d4165b4	0.047216132
116	0xbd1defda	-0.03855882
117	0xbe76b4b7	-0.24092375
118	0x3d6cc341	0.057803396
119	0x3bb22122	0.0054360786
120	0x3d5b3deb	0.053525846
121	0xbdb49b48	-0.0881868
122	0x3e111e87	0.14171802
123	0xbd4b4119	-0.04962263
124	0xbe3d99a2	-0.18515638
125	0xbdc91e03	-0.098201774
126	0xbcd32066	-0.025772285
127	0xbd2b758b	-0.041860145
128	0x3c32ed4e	0.010920836
129	0x3d64197c	0.055688366
130	0x3d4c026c	0.049806997
131	0x3d9d2852	0.07673706
132	0xbd81ec78	-0.06343931
133	0xbcc8afa7	-0.02449782
134	0x3daf1caa	0.08550389
135	0xbd9fefa3	-0.07809379
136	0x3d8e19f1	0.06938542
137	0xbd135ae0	-0.035975337
138	0xbca812c9	-0.02051677
139	0xbcb9c847	-0.022678507
140	0xbbc403d3	-0.005981901
141	0xbd426ec1	-0.047468904
142	0xbd2259b4	-0.03963633
143	0xbcbb9670	-0.022898883
144	0x3d774f33	0.060378265
145	0xbc941dbe	-0.018080588
146	0xbd8c72f9	-0.06857867
147	0x3dd387a4	0.10328606
148	0x3b81e83c	0.003964452
149	0x3c00a89c	0.0078527
150	0xbda518f7	-0.08061402
151	0x3db27ebb	0.08715578
152	0x3cea28ac	0.028583847
153	0xbca8f32d	-0.020623768
154	0x3cd455a3	0.025919741
155	0xbd2e7185	-0.04258873
156	0x3dd5ed7b	0.104456864
157	0xbbcbbaf9	-0.0062173572
158	0xbd893509	-0.06699569
159	0x3bfc3305	0.0076965117
160	0x3c97c456	0.018526237
161	0x3c6bae98	0.014384888
162	0xbd8c6ed5	-0.06857077
163	0xbd2fd9bf	-0.04293227
164	0xbe0cf7a7	-0.13766347
165	0x3d59cbb2	0.053172775
166	0x3c154852	0.009111481
167	0x3c4b7cd6	0.0124199
168	0xbd4d8399	-0.05017433
169	0x3d537e69	0.051634226
170	0x3cfe05ae	0.031008568
171	0xbd62b50d	-0.055348445
172	0xbd568026	-0.052368306
173	0x3d75cea4	0.06001152
174	0xbb80d4f0	-0.003931634
175	0xbbeef621	-0.0072925244
176	0x3d8b9d67	0.068171315
177	0x3d22a4aa	0.039707817
178	0x3d114a0a	0.035471
179	0x3c0c9176	0.008579602
180	0x3db8c025	0.09021024
181	0x3d11e108	0.035614997
182	0x3d6f680a	0.05844883
183	0x3da593ae	0.08084808
184	0xbc634443	-0.013871255
185	0xbd078375	-0.03308435
186	0x3d87e6a1	0.06635786
187	0xbd71cffb	-0.059036236
188	0xbc540540	-0.012940705
189	0x3c249584	0.010045413
190	0x3cba38c0	0.022732139
191	0x3d8ef52f	0.06980359
192	0xbcf7ec57	-0.030264063
193	0x3f1c26d8	0.6099677
194	0xbd00806f	-0.031372484
195	0x3e6c28bb	0.23062412
196	0x3e760f2e	0.24029228
197	0x3e252612	0.16127804
198	0x3e1ee7e7	0.15518151
199	0xbcaba478	-0.020952448
200	0xbd50f31f	-0.05101311
201	0x3e3026fb	0.1720237
202	0x3e865d12	0.26242882
203	0xbe6aa6c2	-0.22915176
204	0xbe219010	-0.15777612
205	0xbe048142	-0.12939933
206	0x3ed9fb9c	0.42574775
207	0x3ef506af	0.47856662
208	0x3c353b89	0.011061558
209	0xbe7fe58b	-0.24989907
210	0xbe639884	-0.22226149
211	0xbd7859d9	-0.06063256
212	0xbd54f1fb	-0.051988583
213	0xbe44786c	-0.19186562
214	0x3eee7d2f	0.46579883
215	0xbc5f6f34	-0.013637353
216	0xbd0f6fe1	-0.035018805
217	0xbe3dd496	-0.18538126
218	0x3ee2bc87	0.4428446
219	0x3dd4fb70	0.103995204
220	0x3d6512e3	0.055926215
221	0xbdd91959	-0.10600538
222	0xbe0757a6	-0.13217029
223	0x3e5ea621	0.2174306
224	0xbd3cba44	-0.046076074
225	0x3f1db161	0.61598784
226	0x3eb2619a	0.3484009
227	0x3f0af4d6	0.5427984
228	0xbd2ff9d8	-0.04296288
229	0x3eabe9c1	0.33576778
230	0x3ceb57ed	0.02872845
231	0xbe409f91	-0.1881087
232	0x3e4f1b22	0.20225194
233	0x3da8ff18	0.0825178
234	0xbd9e910e	-0.07742511
235	0x3e92301b	0.28552327
236	0xbe175979	-0.14780225
237	0x3d395ee1	0.0452565
238	0xbe1ea6f6	-0.15493378
239	0xbdc70694	-0.097180516
240	0x3ce203a8	0.027589634
241	0x3e1f26d8	0.15542161
242	0x3d1bf3d7	0.03807434
243	0xbd0ccf2c	-0.034377262
244	0x3d8d0486	0.068856284
245	0x3e90515e	0.28187078
246	0x3d0287cd	0.03186779
247	0x3d6e8999	0.058236692
248	0xbca4046f	-0.020021645
249	0xbe47bb4e	-0.19505045
250	0x3e5f2f9f	0.2179551
251	0x3f0bbb77	0.54582924
252	0xbe8b9a17	-0.27266
253	0xbb0df765	-0.0021662351
254	0xbde45416	-0.111488506
255	0xbcdebd4a	-0.02718987

lstm.bias_hh_l0 f4 [256]
0	0xbe307e88	-0.17235768
1	0x3e80d266	0.2516052
2	0xbd1be553	-0.038060497
3	0x3eb0a913	0.34503993
4	0x3df24f82	0.11831571
5	0x3eacec01	0.33773807
6	0x3dabaee4	0.08382967
7	0xbe16a47b	-0.14711182
8	0xbdc445cf	-0.095836274
9	0xbc6fb251	-0.014629916
10	0x3ec30e76	0.3809697
11	0xbe3a6f29	-0.18206467
12	0xbe5e662e	-0.21718666
13	0xbe272e87	-0.16326343
14	0x3e8d1705	0.27556625
15	0x3f03bcd3	0.5146
16	0xbd25922e	-0.04042261
17	0xbe5c4398	-0.2151016
18	0xbe2af66e	-0.16695568
19	0x3d657975	0.056024034
20	0xbe45e828	-0.19326842
21	0xbd9d3fb6	-0.076781675
22	0x3f128976	0.57241
23	0xbd43c2ad	-0.04779308
24	0xbcab25f4	-0.02089212
25	0xbe258759	-0.16164912
26	0x3eb88285	0.36037078
27	0x3db92002	0.09039308
28	0xbd3205e5	-0.043462653
29	0x3c4a18a0	0.012334973
30	0xbe5d50a1	-0.21612789
31	0x3e62864d	0.22121544
32	0xbda9947f	-0.082802765
33	0x3f1bc973	0.6085426
34	0x3e8b6d28	0.27231717
35	0x3ebd98a5	0.3703052
36	0xbdf226a0	-0.118237734
37	0x3ec26268	0.37965703
38	0x3dd43f03	0.10363581
39	0xbe028fe1	-0.12750198
40	0x3cac748a	0.021051664
41	0x3deb4b7f	0.11489009
42	0xbcfccc8b	-0.030859252
43	0x3e655578	0.22395885
44	0x3d258907	0.040413883
45	0xbd967c51	-0.0734793
46	0xbe04424c	-0.12915915
47	0xbe7b6e67	-0.24553834
48	0x3d27617c	0.040864453
49	0x3db6861e	0.089122996
50	0xbe2f0260	-0.1709075
51	0xbdc6a556	-0.09699504
52	0x3d74341c	0.059620008
53	0x3e90df76	0.28295487
54	0x3ca3e82f	0.020008175
55	0x3e815f87	0.25268194
56	0x3d98f58f	0.074687116
57	0xbc3d35ce	-0.011548473
58	0x3e8d8e2e	0.27647537
59	0x3ec0cb99	0.37655333
60	0xbe94e6a2	-0.2908221
61	0xbd595e06	-0.053068183
62	0x3dacdf8b	0.08441075
63	0xbe2643f2	-0.16236857
64	0x3e6a3fdf	0.22875927
65	0x3d8e6c69	0.06954271
66	0x3dd1a157	0.10235851
67	0xbde5b2f6	-0.11215775
68	0xbd4cbdc6	-0.04998567
69	0x3e5a1802	0.21298221
70	0xbdc85f89	-0.09783847
71	0x3d0c3882	0.034233578
72	0x3c1a69c2	0.009424629
73	0xbc576607	-0.013146884
74	0x3e5d02d4	0.2158311
75	0xbd6b57b9	-0.057456706
76	0xbcd8f336	-0.02648316
77	0x3d229c84	0.039700046
78	0xbd96e72f	-0.073683135
79	0xbdd232d7	-0.10263603
80	0x3d5d177e	0.053977482
81	0xbd5b1aa9	-0.053492222
82	0x3db8dc14	0.090263516
83	0xbd782def	-0.06059068
84	0xbe6ffef2	-0.23437098
85	0xbe039c8f	-0.12852691
86	0xbd0820ac	-0.033234283
87	0xbe1f6aad	-0.15568037
88	0x3e06a3d6	0.13148436
89	0xbce2cf0a	-0.027686615
90	0xbe268879	-0.16262998
91	0x3bfab6d6	0.0076511903
92	0x3d2a0ebf	0.04151797
93	0xbdf62d80	-0.12020397
94	0xbd8c4bfe	-0.06850432
95	0x3dfa56fd	0.12223623
96	0xbe2f69ae	-0.17130157
97	0xbf241fc0	-0.64110947
98	0xbead4f02	-0.3384934
99	0xbdb74952	-0.089495316
100	0xbd0de0eb	-0.034638327
101	0xbe232bc0	-0.15934658
102	0xbddfb6fe	-0.10923575
103	0xbdff9493	-0.1247951
104	0xbe373934	-0.17892915
105	0x3e3f825c	0.18702072
106	0x3c9c8e68	0.019110873
107	0x3d5a1b4f	0.0532487
108	0x3d167aa3	0.03673805
109	0x3cb08fd2	0.021552954
110	0xbda7e9fd	-0.081989266
111	0xbd629aad	-0.05532329
112	0x3c467fed	0.012115461
113	0xbe08c0cd	-0.13354798
114	0x3c8e4cec	0.017370664
115	0xbdbc33c7	-0.09189563
116	0x3d9feaf2	0.07808484
117	0xbde8d2fa	-0.113683656
118	0xbc89a6e4	-0.016803212
119	0x3d44b777	0.04802653
120	0x3df52321	0.11969591
121	0xbdffedb9	-0.12496514
122	0xbc5eb443	-0.013592782
123	0xbca17a2c	-0.019711576
124	0xbdacd119	-0.0843832
125	0xbdb60e9c	-0.08889505
126	0x3dfe6907	0.12422376
127	0xbc512766	-0.012765741
128	0xbd3706b2	-0.04468412
129	0xbde65e32	-0.11248435
130	0xbd040a28	-0.03223625
131	0xbd959c95	-0.07305256
132	0x3d96f54b	0.07371005
133	0x3d2c2cae	0.042034797
134	0xbd92763e	-0.07151459
135	0x3dd665fb	0.1046867
136	0x3d13fdc7	0.036130693
137	0x3d306ff7	0.043075528
138	0xbabd6639	-0.001445002
139	0x3d767254	0.060167626
140	0x3d001561	0.03127039
141	0xbbdf9afa	-0.0068238946
142	0x3c08ac3e	0.008341847
143	0xbc695a5e	-0.014242737
144	0xbd9bdff9	-0.07611079
145	0xbca745b2	-0.020418976
146	0x3dae1449	0.08499963
147	0xbd9d60ba	-0.07684465
148	0x3ce06df7	0.027396185
149	0xbc7a2dd4	-0.015269715
150	0x3d902575	0.07038394
151	0xbac3686a	-0.0014908437
152	0xbdf0a7be	-0.11750744
153	0xbbb12adb	-0.00540672
154	0xbd32c77d	-0.043647278
155	0x3e006a56	0.12540564
156	0x3d30ad8a	0.04313425
157	0x3d42d326	0.047564648
158	0x3d75f937	0.060052123
159	0x3c41077d	0.0117815705
160	0xbd1152f2	-0.035479493
161	0xbcba7412	-0.022760425
162	0x3db4ceff	0.08828544
163	0x3dc5858a	0.09644611
164	0xbb10b3fc	-0.0022079935
165	0xbc3fdf5c	-0.011710968
166	0xbd160556	-0.036626182
167	0x3b931d76	0.004489596
168	0x3d2cdd2f	0.042203125
169	0xbdd40c46	-0.103539035
170	0xbbbc50ce	-0.0057469374
171	0xbccd3c0e	-0.02505305
172	0xbc00c18c	-0.007858645
173	0xbcc4e856	-0.024036568
174	0x3d163913	0.036675524
175	0x3d9d93d1	0.07694209
176	0xbd103320	-0.035205007
177	0x3cbb98af	0.022899954
178	0x3c609b0c	0.013708841
179	0xbca758a4	-0.02042801
180	0xbd81588c	-0.06315717
181	0xbca294d8	-0.019846365
182	0xbc4a5976	-0.012350431
183	0xbdef112c	-0.11673197
184	0x3a80414f	0.0009785088
185	0x3cbd4854	0.023105778
186	0xbda02529	-0.07819588
187	0x3da95f2b	0.08270105
188	0xbb31e769	-0.0027145988
189	0xbd5a6fc2	-0.053329237
190	0x3caead7a	0.021322954
191	0xbdd87bd5	-0.10570494
192	0xbda194bc	-0.07889697
193	0x3f2984c6	0.6621822
194	0xbde5be0f	-0.112178914
195	0x3eb3f8bd	0.3515071
196	0x3e952a50	0.29133844
197	0x3e91248a	0.2834819
198	0x3cb22940	0.021748185
199	0xbdb27515	-0.08713738
200	0x3d04e330	0.032443225
201	0x3e4b4532	0.19850615
202	0x3e751bad	0.23936339
203	0xbdb8a3a4	-0.09015587
204	0x3b271c30	0.0025498979
205	0xbd016bd5	-0.031596977
206	0x3eb61b6b	0.35567793
207	0x3f0a95bf	0.54134744
208	0xbc957b24	-0.018247195
209	0xbe6cffe2	-0.23144487
210	0xbb8f48ae	-0.0043726778
211	0x3df55a7e	0.11980151
212	0xbe1dd90d	-0.1541483
213	0xbe2c4fb1	-0.16827275
214	0x3eb723e6	0.35769576
215	0x3cd31c1b	0.025770238
216	0x3df1d717	0.11808603
217	0xbdd617af	-0.10453736
218	0x3e8d50f7	0.27600834
219	0x3e4722b9	0.1944684
220	0x3d03dec4	0.032194868
221	0x3c8234b9	0.01589428
222	0xbe689504	-0.22713095
223	0x3eac1264	0.3360778
224	0xbdbf5412	-0.09342207
225	0x3f22b5ad	0.63558465
226	0x3e558b0e	0.20853826
227	0x3f09468f	0.5362329
228	0xbdbe691f	-0.09297394
229	0x3eddc3d6	0.43313473
230	0xbd3084a2	-0.04309524
231	0xbe2acb53	-0.16679125
232	0x3e578942	0.21048453
233	0x3ccb9df4	0.024855591
234	0xbde21369	-0.110388584
235	0x3e913571	0.28361085
236	0xbe304712	-0.17214611
237	0xbd8ef0a7	-0.069794945
238	0xbe52b3b2	-0.20576361
239	0xbdf4837d	-0.11939142
240	0xbe2d6bd9	-0.16935672
241	0x3e56ab5b	0.20963804
242	0xbce7252d	-0.028215969
243	0xbde047dc	-0.10951206
244	0x3c918408	0.017763153
245	0x3e93a6fa	0.2883833
246	0xbdce3a5b	-0.10069724
247	0x3e4cd0a8	0.20001471
248	0x3d7aab7e	0.061198704
249	0xbe527999	-0.20554198
250	0x3e91318d	0.28358117
251	0x3f102c62	0.5631772
252	0xbe8d86e0	-0.27641964
253	0xbcbaef59	-0.022819208
254	0x3c3f09a5	0.011660014
255	0xbd70ab67	-0.058757212

lstm.weight_ih_l1 f4 [256, 64]
0	0xbd7c2d70	-0.06156677
1	0x3d9e5a61	0.07732082
2	0x3d7c4565	0.061589617
3	0x3e1008e7	0.14065896
4	0x3d54b7be	0.051933043
5	0xbd49e7ac	-0.049293205
6	0x3b56c7f9	0.0032773002
7	0xbd6fcc2b	-0.05854432
8	0xbd4a8cc4	-0.04945065
9	0xbd7cab0b	-0.061686557
10	0x3e843e15	0.25828615
11	0xbe25142e	-0.16120979
12	0xbd4c4e14	-0.04987915
13	0x3cc7bf6f	0.024383275
14	0x3d8a4ace	0.06752549
15	0xbe1b1852	-0.15145996
16	0xbd876fb3	-0.06613102
17	0xbcd14a0f	-0.02554801
18	0x3d56d03a	0.052444674
19	0x3ddb8e81	0.1072054
20	0xbe1e537a	-0.15461531
21	0xbcfd1c24	-0.030897208
22	0x3d76a7d0	0.060218632
23	0xbd8ea347	-0.069647364
24	0x3ca1ab5e	0.019735035
25	0x3e0911b2	0.13385656
26	0xbc3131cc	-0.010815095
27	0xbda5eb5d	-0.081015326
28	0xbe3d765c	-0.18502182
29	0xbd4752f6	-0.048663102
30	0x3e363383	0.17793088
31	0x3dcf0d2e	0.10109936
32	0xbe01363a	-0.12618342
33	0x3e13a744	0.14419276
34	0x3d7771d2	0.060411282
35	0x3d706d56	0.05869802
36	0x3e2f6e94	0.17132026
37	0xbc080e86	-0.008304244
38	0x3c863da7	0.01638682
39	0xbe2a05d8	-0.16603792
40	0x3e023334	0.12714845
41	0x3d065c1c	0.032802686
42	0xbd5901fd	-0.05298041
43	0xbcd879f8	-0.026425347
44	0x3d4f8ec3	0.050673258
45	0xbd69a5fa	-0.057043053
46	0x3dce8493	0.1008388
47	0xbd76051c	-0.060063466
48	0x3d76e033	0.060272407
49	0x3a8f0a96	0.0010913189
50	0x3c1c9219	0.009556317
51	0xbbc6db61	-0.0060686325
52	0xbdef8dd0	-0.116969705
53	0xbe3e0cb3	-0.18559532
54	0x3d7d598a	0.06185297
55	0x3e16b5fb	0.14717858
56	0xbd84c02a	-0.06481965
57	0xbc904c48	-0.017614499
58	0x3ca2af70	0.019859046
59	0xbe2e7ad6	-0.17039046
60	0x3db5e288	0.08881098
61	0xbdf8c966	-0.12147789
62	0xbd2106d5	-0.039313156
63	0xbd8f4200	-0.069950104
64	0x3d01da82	0.031702526
65	0x3ea07db7	0.31345913
66	0xbd40d9e9	-0.047082815
67	0xbd85d2c6	-0.065343425
68	0xbe0b2bde	-0.13590953
69	0x3b97a3ff	0.004627704
70	0x3da2a741	0.079420574
71	0x3e4827df	0.1954646
72	0xbe00cac6	-0.12577352
73	0xbdd7582c	-0.10514864
74	0xbf037ed3	-0.51365393
75	0xbe147e76	-0.14501366
76	0xbe226f79	-0.15862836
77	0x3c3e2d87	0.011607534
78	0x3d8eb266	0.069676206
79	0x3e0e487c	0.13894838
80	0x3df130c2	0.11776878
81	0x3ea1e458	0.31619525
82	0x3e341947	0.17587768
83	0xbe50ca3f	-0.20389651
84	0xbe1b49a1	-0.15164806
85	0x3aed5dc1	0.0018109606
86	0x3c4fdf50	0.012687519
87	0x3d0ac0a5	0.033875126
88	0xbed5e52a	-0.417764
89	0x3e55cccd	0.20878907
90	0xbd512243	-0.051058065
91	0x3f07d593	0.53060263
92	0x3ee35d10	0.4440694
93	0x3bf580d0	0.0074921623
94	0xbcdf56a3	-0.027262991
95	0xbe963def	-0.29344127
96	0xbe045561	-0.12923194
97	0xbef42be7	-0.47689745
98	0x3c803a16	0.015652698
99	0xbdb41518	-0.08793086
100	0xbebc08bc	-0.36725414
101	0xbea41add	-0.32051745
102	0xbef0e715	-0.47051302
103	0xbd9072c7	-0.07053142
104	0x3c8369a6	0.016041588
105	0xbea35c39	-0.31906298
106	0x3d2ffd8c	0.04296641
107	0x3dc29122	0.09500338
108	0x3e1df2af	0.15424608
109	0xbb8275ca	-0.0039813267
110	0x3e30099d	0.17191167
111	0x3e8b4c1c	0.27206504
112	0x3cb13290	0.021630555
113	0xbe80296d	-0.25031605
114	0x3e2845a3	0.16432814
115	0x3e33555c	0.17513031
116	0x3ec1bcdd	0.37839404
117	0x3d156415	0.0364724
118	0x3ecc0a8d	0.398518
119	0xbe82c0bc	-0.2553767
120	0x3c272a07	0.010202891
121	0x3c79e805	0.015253072
122	0xbe817aa4	-0.2528888
123	0x3ecce693	0.40019664
124	0xbe0182c4	-0.1264754
125	0x3e773b7b	0.24143784
126	0xbd43ecca	-0.04783324
127	0xbed7d456	-0.42154187
128	0xbddf9220	-0.10916543
129	0x3d358de9	0.04432479
130	0xbde9e212	-0.114200726
131	0xbf2af713	-0.66783255
132	0xbe8bb8a5	-0.2728931
133	0xbf10c8ef	-0.565566
134	0xbef4b336	-0.47792977
135	0x3e0a5164	0.1350761
136	0xbd1b50ce	-0.03791886
137	0x3ee00ac0	0.43758202
138	0xbf0184a5	-0.50593024
139	0x3b3439c4	0.0027500251
140	0x3f1bae02	0.6081239
141	0xbe61f770	-0.22067046
142	0xbe0fb2a6	-0.14032993
143	0xbf3fd056	-0.7492727
144	0xbdaa70af	-0.08322274
145	0x3e755795	0.23959191
146	0x3de4e552	0.11176552
147	0xbbe16296	-0.0068782074
148	0x3e8baae6	0.27278823
149	0xbe92918d	-0.2862667
150	0x3f1779ad	0.5917004
151	0xbe2d07da	-0.16897526
152	0xbed8a905	-0.42316452
153	0xbe1c2e35	-0.15252002
154	0xbe8664b1	-0.26248696
155	0x3f145068	0.5793519
156	0x3ec676f9	0.38762644
157	0xbeba8a8b	-0.36433825
158	0xbec0a63f	-0.37626836
159	0x3ca45409	0.020059602
160	0xbe45ecb3	-0.19328575
161	0x3f9a2549	1.2042629
162	0x3f3cf68a	0.7381369
163	0xbb7e1e84	-0.0038775513
164	0xbea5f0a1	-0.32410148
165	0x3e030aa0	0.12797022
166	0xbe846a78	-0.2586248
167	0x3e18cdeb	0.14922301
168	0x3f6dd3b2	0.92901146
169	0xbf2a7799	-0.6658874
170	0x3ec95813	0.39325008
171	0xbf3cc0f7	-0.7373194
172	0xbe3ac3e3	-0.18238787
173	0xbdda030e	-0.10645114
174	0x3db6b84a	0.08921869
175	0x3ea4341a	0.32071
176	0x3f10375e	0.56334484
177	0x3dab3226	0.083591744
178	0xbdab194d	-0.08354435
179	0x3dd69205	0.1047707
180	0x3eacf095	0.337773
181	0xbf5bf805	-0.8592532
182	0x3e74d566	0.2390953
183	0xbec7bd84	-0.39011776
184	0x3e67c061	0.2263198
185	0xbef6b3b4	-0.48183978
186	0xbea8f1e7	-0.32997057
187	0xbf2f2908	-0.68421984
188	0xbe794702	-0.24343494
189	0xbc5bf8b1	-0.013425992
190	0x3e368861	0.17825462
191	0xbdeaed6f	-0.11471068
192	0xbe377dac	-0.17919034
193	0x3c813eba	0.01577698
194	0x3d885d9d	0.0665848
195	0x3db2b31e	0.0872557
196	0x3e82edc9	0.2557204
197	0xbe8d8cec	-0.27646577
198	0xbe1b0f7b	-0.15142624
199	0xbdd5e235	-0.10443536
200	0xbd9e6955	-0.07734934
201	0xbcebfe11	-0.028807672
202	0x3e84e3bf	0.25955006
203	0x3d02cb0b	0.031931918
204	0xbe290e67	-0.165094
205	0xbda716ac	-0.08158621
206	0x3e735b61	0.23765327
207	0x3e749bb0	0.23887515
208	0x3e337db7	0.17528425
209	0xbe2ddf83	-0.16979794
210	0x3d316d79	0.043317292
211	0xbe417297	-0.18891369
212	0xbdb98e19	-0.09060306
213	0xbb978267	-0.0046236995
214	0xbd56ebf3	-0.052471112
215	0xbdfacdea	-0.12246306
216	0xbd307dde	-0.043088786
217	0x3db42db3	0.08797779
218	0x3e87355c	0.26407897
219	0x3d8013e2	0.06253792
220	0x3d52716d	0.051377703
221	0x3d2d0d6b	0.042249124
222	0x3e3a3d92	0.1818755
223	0x3c046031	0.008079574
224	0x3da68410	0.08130658
225	0xbe34f615	-0.17671998
226	0xbddbbf0a	-0.10729797
227	0xbe5039de	-0.20334575
228	0x3de0ae18	0.10970706
229	0x3dbc518e	0.09195243
230	0xbd19affb	-0.037521344
231	0xbe85227d	-0.26002875
232	0xbe7793e1	-0.24177505
233	0x3e0a78b8	0.13522613
234	0xbbb9af0f	-0.0056666206
235	0xbdc353f2	-0.09537496
236	0x3e08c708	0.13357174
237	0xbe5375f6	-0.20650467
238	0xbda07a15	-0.07835785
239	0x3dbf1d61	0.093317755
240	0x3e011c1c	0.12608379
241	0xbda5a4c1	-0.08088065
242	0xbe16c94c	-0.14725226
243	0xbe927466	-0.2860443
244	0x3d4ad38d	0.049518157
245	0xbe9009e2	-0.2813254
246	0xbd2901d2	-0.0412615
247	0x3e217cac	0.15770215
248	0x3e35d904	0.17758566
249	0x3da3ad8b	0.07992085
250	0x3dba4eae	0.09097038
251	0xbd64be99	-0.05584583
252	0x3e4173ce	0.18891832
253	0xbd94b899	-0.07261772
254	0xbce256de	-0.027629312
255	0x3db8e273	0.09027567

lstm.weight_hh_l1 f4 [256, 64]
0	0x3dbd8ceb	0.092553936
1	0xbd98b92a	-0.07457192
2	0xbde465bb	-0.11152216
3	0x3d43d363	0.047809016
4	0xbc163800	-0.009168625
5	0xbe1ce923	-0.1532331
6	0x3cf6e1b3	0.030136919
7	0xbd6b31ab	-0.057420414
8	0x3e0488d9	0.12942828
9	0x3ab66bd8	0.0013917638
10	0x3dec03ac	0.11524138
11	0xbde0b3ad	-0.109717704
12	0x3aded51f	0.0017000771
13	0xbe19dbaa	-0.15025201
14	0x3e3f3ba8	0.18675101
15	0x3d8f5880	0.06999302
16	0x3c8f676e	0.017505374
17	0xbe057e35	-0.13036425
18	0x3e18261d	0.14858289
19	0x3d1c5c3d	0.038173903
20	0x3c63bf45	0.013900583
21	0xbd44d25a	-0.04805217
22	0xbd83cf6f	-0.06436049
23	0xbd280e0e	-0.04102903
24	0x3e387a51	0.1801541
25	0xbe30479f	-0.17214821
26	0xbd81867d	-0.0632448
27	0x3e8cfc8d	0.2753643
28	0xbe20ee24	-0.15715843
29	0x3e051eb7	0.12999998
30	0xbe0dd3e9	-0.13850369
31	0xbdc1878f	-0.09449684
32	0x3e2d01e2	0.1689525
33	0x3d61c213	0.055116724
34	0x3e13b189	0.14423193
35	0x3e763404	0.2404328
36	0xbda77957	-0.081774406
37	0xbd9dc08e	-0.077027425
38	0x3e3a7139	0.18207254
39	0xbd98fdf8	-0.07470316
40	0x3d1f7a3c	0.03893493
41	0xbe519bb8	-0.20469558
42	0xbdb1b85b	-0.08677741
43	0xbe2700f3	-0.16308956
44	0x3c01a2b5	0.007912328
45	0x3e95d631	0.29264978
46	0x3d807fa6	0.06274347
47	0xbe166266	-0.14685974
48	0xbdfab6bb	-0.12241884
49	0x3e16b03a	0.14715663
50	0x3d35484c	0.0442584
51	0xbe7d0bc7	-0.24711524
52	0xbe49aa69	-0.19693913
53	0xbe8de818	-0.27716136
54	0xbc9bccea	-0.01901861
55	0x3e3aa389	0.18226446
56	0x3de233a3	0.11045005
57	0x3e54415b	0.20728056
58	0xbb5c5462	-0.0033619632
59	0x3d0ffa37	0.035150733
60	0xbda8b089	-0.082367964
61	0x3e364b39	0.17802133
62	0x3bc1a783	0.0059098615
63	0x3da267f3	0.07929983
64	0x3e7b7358	0.24555719
65	0x3e2871fd	0.16449733
66	0xbd057e2a	-0.032591023
67	0xbe3ae0b9	-0.18249787
68	0xbef98478	-0.48733878
69	0x3e44f670	0.19234633
70	0xbd5e893d	-0.0543301
71	0xbd915cf6	-0.07097809
72	0xbdcd418f	-0.1002227
73	0x3b4925e0	0.0030692741
74	0xbe165fd3	-0.14684992
75	0x3e70422b	0.23462741
76	0xbe30ae67	-0.17254029
77	0xbf204fa5	-0.6262153
78	0xbe95acf9	-0.2923353
79	0xbe995c87	-0.29953405
80	0xbea23be0	-0.31686306
81	0xb738400a	-1.0982165e-05
82	0xbf2a8709	-0.666123
83	0x3d0e15dd	0.03468882
84	0x3de68f29	0.112577744
85	0xbcb1570b	-0.02164795
86	0xbdc3f910	-0.09568989
87	0x3adea04d	0.0016985029
88	0xbe2c5ed1	-0.16833045
89	0x3cb62e5f	0.022238908
90	0x3e1048a4	0.1409021
91	0x3d27349d	0.04082166
92	0x3d8ba1c6	0.06817965
93	0x3e0e0d69	0.13872303
94	0x3d8dcd7b	0.06923958
95	0xbdbd5003	-0.09243777
96	0xbe58b996	-0.21164545
97	0xbdbfdfd4	-0.09368864
98	0xbc8c4ce6	-0.017126512
99	0xbc076a27	-0.008265055
100	0x3dd0bf90	0.10192788
101	0x3e54f58b	0.20796792
102	0x3e76fb1b	0.24119227
103	0xbe27a89e	-0.16372916
104	0xbc8c0492	-0.017092023
105	0x3e045adf	0.1292529
106	0x3e4aed1e	0.19817016
107	0xbe52077d	-0.20510669
108	0xbca00d81	-0.01953769
109	0xbe0e4542	-0.13893607
110	0xbd9ec45d	-0.07752297
111	0xbdf26aaa	-0.11836751
112	0xbdb79859	-0.08964605
113	0x3eb8f1b1	0.36121896
114	0xbe5eca3a	-0.21756831
115	0xbe862196	-0.261975
116	0x3f07b946	0.5301708
117	0x3effb749	0.49944523
118	0x3e280204	0.16407019
119	0xbe2ac90d	-0.16678257
120	0x3cf1154f	0.029429106
121	0xbd4a7b85	-0.049434204
122	0x3bfbf85b	0.0076895184
123	0xbdf34ea6	-0.118802354
124	0x3d8640b8	0.06555313
125	0xbd06def7	-0.03292748
126	0x3e3cd787	0.18441592
127	0x3da3c748	0.07996994
128	0x3e837591	0.25675634
129	0x3e26c8b3	0.16287498
130	0xbeccac02	-0.39974982
131	0x3e4fa47c	0.2027759
132	0xbd612de6	-0.054975413
133	0xbe03526e	-0.12824413
134	0x3ec442ec	0.38332307
135	0x3eb35899	0.35028532
136	0x3dcf803e	0.10131882
137	0xbd8759e7	-0.066089444
138	0xbe812b8c	-0.25228536
139	0xbec00e6f	-0.37511012
140	0xbc59a0e7	-0.013282991
141	0x3e23452e	0.15944359
142	0x3e8c5561	0.2740889
143	0xbe50b2de	-0.20380732
144	0xbe349465	-0.17634733
145	0xbdc078b4	-0.09398022
146	0x3e939fc4	0.2883283
147	0x3d1ea048	0.038727075
148	0xbe66f193	-0.22553091
149	0xbe63fab7	-0.22263609
150	0xbe50af31	-0.2037933
151	0x3d7ac289	0.06122068
152	0x3eae9d75	0.34104505
153	0x3c9b6e31	0.018973442
154	0x3e69fdcd	0.22850724
155	0x3e0daabd	0.13834663
156	0x3d1af1db	0.037828308
157	0x3e3fef48	0.18743622
158	0x3e3dc016	0.18530306
159	0x3ea17a9f	0.31538865
160	0x3e8d4c03	0.27597055
161	0xbe45f368	-0.19331133
162	0x3e0f8d98	0.14018857
163	0x3ef4cabb	0.4781092
164	0xbdb255a2	-0.087077394
165	0x3e9d5f56	0.30736798
166	0x3f0a87e6	0.54113615
167	0xbcf34911	-0.029697927
168	0x3d8d779e	0.06907581
169	0x3e077bf5	0.1323088
170	0xbdbeba55	-0.09312884
171	0xbdcf277c	-0.10114953
172	0x3df41c48	0.11919457
173	0xbdc191a7	-0.09451609
174	0x3df963b5	0.12177221
175	0xbe497ab6	-0.19675717
176	0xbeb1285b	-0.346011
177	0x3e0868a3	0.13321166
178	0x3d93a203	0.07208636
179	0xbf092768	-0.53575754
180	0x3b7ed477	0.0038883963
181	0xbd914be0	-0.0709455
182	0xbd2339d2	-0.039850064
183	0xbe2ede35	-0.17076953
184	0x3ec20e6c	0.37901628
185	0x3d50c57e	0.050969593
186	0xbe468b12	-0.19388989
187	0xbe9084d1	-0.2822633
188	0x3ecfb7de	0.40569967
189	0x3e106188	0.14099705
190	0x3e8df69a	0.27727205
191	0x3deb2d7a	0.11483283
192	0x3e105f92	0.14098957
193	0x3e7df33e	0.24799821
194	0x3d982c91	0.07430375
195	0x3e1205f2	0.1426008
196	0xbee9329f	-0.45546433
197	0x3e8e4ff0	0.27795362
198	0xbdfe4d50	-0.1241709
199	0xbe8f6024	-0.28003037
200	0xbe4c992e	-0.19980308
201	0xbd942e17	-0.072353534
202	0x3e9267e4	0.28594887
203	0x3eae2398	0.3401153
204	0xbe7993dc	-0.2437281
205	0x3e714fff	0.23565672
206	0x3e4cd08f	0.20001434
207	0xbd98da47	-0.07463508
208	0xbeb365e8	-0.35038686
209	0xbe0501c0	-0.12988949
210	0xbe838613	-0.25688228
211	0xbe80285a	-0.25030786
212	0x3e4081c5	0.18799503
213	0x3e0f37a6	0.13986072
214	0xbdfcbb61	-0.12340427
215	0xbe8bb51f	-0.27286622
216	0x3e03af03	0.1285973
217	0x3c252dcc	0.01008172
218	0xbdaaa78b	-0.083327375
219	0xbbb8ff66	-0.0056456802
220	0xbd839388	-0.06424624
221	0x3db10851	0.08644164
222	0x3e0862ae	0.13318893
223	0x3dfd7772	0.12376298
224	0xbec75dbc	-0.389387
225	0x3e9f1373	0.31069526
226	0x3e6b5fe4	0.22985798
227	0x3ba76486	0.005108419
228	0xbd90026b	-0.07031711
229	0x3eb04807	0.34429953
230	0xbd6789cc	-0.056527898
231	0xbd97bc63	-0.07408979
232	0x3e371cfd	0.17882152
233	0x3e38e2fb	0.18055336
234	0xbe1cee3b	-0.15325253
235	0xbdbd04ed	-0.09229455
236	0x3e250e25	0.16118677
237	0xbd9863dc	-0.07440922
238	0x3da5feee	0.081052646
239	0x3da55abd	0.080739476
240	0xbea1069c	-0.31450355
241	0x3e5a1ce8	0.2130009
242	0x3e164942	0.14676383
243	0xbed5a760	-0.4172926
244	0xbeccafdd	-0.39977923
245	0x3dafbec3	0.08581307
246	0x3e87354c	0.2640785
247	0x3e3e2dde	0.18572184
248	0x3f1734b3	0.5906479
249	0x3e233218	0.15937078
250	0xbe452ecc	-0.19256133
251	0x3e9d4801	0.30718997
252	0x3d8e0369	0.06934244
253	0x3e9faba7	0.31185648
254	0xbe432ac9	-0.1905929
255	0xbe5fc7b2	-0.21853521

lstm.bias_ih_l1 f4 [256]
0	0xbe025dd7	-0.1273111
1	0xbb3f894e	-0.0029226127
2	0xbc9c40da	-0.019073892
3	0x3bd73bef	0.006568424
4	0x3cca679b	0.024707606
5	0xbd92a526	-0.07160406
6	0xbdad5318	-0.084631145
7	0x3e1ba32a	0.15198961
8	0xbd78fb94	-0.0607868
9	0xbe10d33a	-0.14143077
10	0x3def117d	0.116732575
11	0x3e449e7f	0.19201086
12	0xbdb1abaf	-0.08675324
13	0x3c288ab2	0.010286974
14	0x3e721592	0.23641041
15	0xbdd08292	-0.10181154
16	0xbdf3be85	-0.11901573
17	0x3cb0f02e	0.021598902
18	0x3e0d6f13	0.13811903
19	0xbd4c0b30	-0.049815357
20	0xbdb09c4b	-0.086235605
21	0xbdde1b46	-0.10845046
22	0xbe4b54fa	-0.19856635
23	0xbc193147	-0.009350128
24	0x3d35b780	0.044364452
25	0xbe20facb	-0.1572067
26	0xbd926628	-0.07148391
27	0xbcf24640	-0.029574513
28	0xbc2fab5d	-0.0107220085
29	0xbce9daf0	-0.02854678
30	0x3d893fcc	0.067016214
31	0x3e1addde	0.15123698
32	0x3e57e939	0.21085061
33	0x3d80c66a	0.062878445
34	0xbdf832c5	-0.121190585
35	0x3c4cad55	0.012492497
36	0xbcf1bd25	-0.029509136
37	0x3dc14d8a	0.094386175
38	0x3e4484aa	0.19191232
39	0x3de87bbd	0.11351726
40	0xb60fbe07	-2.141927e-06
41	0xbdcb8cef	-0.0993899
42	0x3d0a6d32	0.033795543
43	0xbc2f6302	-0.010704758
44	0x3cef4d5c	0.029211693
45	0x3d2d1b21	0.0422622
46	0xbd82d796	-0.06388776
47	0x3e444620	0.19167376
48	0x3e43080f	0.19046043
49	0x3c84a726	0.016192984
50	0xbe475e65	-0.19469602
51	0x3dd2f14b	0.10299929
52	0x3b6db36b	0.0036270272
53	0x3ecf268f	0.40459105
54	0x3d8af1c4	0.067843944
55	0xbcf4f8e3	-0.029903835
56	0x3dbc6ac5	0.09200052
57	0xbdf6bc65	-0.12047652
58	0xbd9c5b41	-0.07634593
59	0x3de48ef0	0.11160076
60	0xbd158cc0	-0.036511183
61	0xbc960b69	-0.018315988
62	0x3d0a4ae2	0.03376282
63	0x3c3b249a	0.011422301
64	0x3bdde7e3	0.006772028
65	0xbd6578a5	-0.05602326
66	0xbe4cdbd6	-0.20005736
67	0x3ddb8586	0.10718827
68	0x3df0bff5	0.11755363
69	0x3d4b06ad	0.049566913
70	0xbdf913aa	-0.12161954
71	0x3dbf352f	0.09336316
72	0xbdd651a2	-0.10464789
73	0x3c6ba874	0.014383424
74	0xbe921fff	-0.28540036
75	0xbdc45194	-0.09585872
76	0xbd81b886	-0.06334023
77	0xbd5a844c	-0.053348824
78	0x3e560f39	0.20904244
79	0xbade1b35	-0.0016945364
80	0x3d22f262	0.039781936
81	0xbde7b2b1	-0.113133796
82	0xbe825c25	-0.25460926
83	0xbdb35e2e	-0.08758198
84	0x3da13586	0.07871537
85	0xbabfdea9	-0.0014638501
86	0xbd7e9532	-0.062154002
87	0xbe2bed2e	-0.16789696
88	0xbe39f5ec	-0.18160218
89	0xbcdb4053	-0.02676407
90	0xbd1c9a37	-0.03823301
91	0xbd935bfd	-0.0719528
92	0xbe3e8d95	-0.18608697
93	0x3dfd160b	0.1235772
94	0xbd8566bc	-0.06513736
95	0xbe4ed811	-0.2019961
96	0x3e211c2a	0.157334
97	0x3c901e2b	0.01759251
98	0xbe0997c0	-0.13436794
99	0x3e0e02b6	0.13868222
100	0x3de6e625	0.11274365
101	0x3bfef2a9	0.007780392
102	0x3de5ad97	0.1121475
103	0xbda3dff4	-0.080017
104	0xbdef77c5	-0.11692766
105	0xbc8080a3	-0.015686339
106	0x3d76bbd3	0.060237717
107	0x3ceee41d	0.029161507
108	0xbdeb485b	-0.1148841
109	0xbda38957	-0.0798518
110	0x3da9bfdf	0.0828855
111	0x3e17a8cc	0.14810485
112	0xbe970177	-0.29493305
113	0x3d816704	0.06318477
114	0xbd03f47f	-0.03221559
115	0xbcb2b9ee	-0.021817174
116	0xbdeeb1fa	-0.1165504
117	0xbd8884a6	-0.06665926
118	0x3d631bde	0.055446498
119	0x3cf76f73	0.03020451
120	0x3e13d261	0.14435722
121	0xbe1edc5b	-0.15513746
122	0x3cc8c942	0.02451003
123	0xbc90f05d	-0.01769274
124	0x3d7c5b5a	0.061610557
125	0xbc25b7ba	-0.010114605
126	0x3d98b77c	0.07456872
127	0xbdcd0603	-0.10010912
128	0xbd5bb077	-0.053635087
129	0x3d6db9ba	0.05803845
130	0x3d0a276a	0.033728994
131	0x3c9fabaa	0.019491035
132	0x3d42d25a	0.047563888
133	0x3dd3778b	0.103255354
134	0xbce5fa56	-0.028073471
135	0x3d43e651	0.04782707
136	0xbc749b9f	-0.014929681
137	0x3c10fc83	0.008849266
138	0xbe4f80f9	-0.20264043
139	0x3c00bc8c	0.007857453
140	0x3d0465d0	0.03232366
141	0xbd283ede	-0.04107558
142	0x3dc57721	0.09641863
143	0xbd02fa16	-0.03197678
144	0xbda9c10c	-0.08288774
145	0x3c8a1457	0.016855402
146	0xbded801c	-0.115967005
147	0x3b7fad39	0.003901316
148	0x3db61410	0.08890545
149	0xbda50cee	-0.08059107
150	0xbdebd322	-0.1151488
151	0xbd4a8089	-0.049438987
152	0x3dba336f	0.090918414
153	0xbd726282	-0.059175976
154	0xbd3d771c	-0.04625617
155	0x3c1a7849	0.009428092
156	0x3c9a0f53	0.018806135
157	0x3bfd5489	0.0077310246
158	0xbd65b96c	-0.056085035
159	0xbd1128e5	-0.03543939
160	0xbdc649ae	-0.09682022
161	0x3bb05e90	0.0053823665
162	0x3be79334	0.0070671085
163	0xbcb5389a	-0.022121716
164	0xbd64f843	-0.055900823
165	0x3cba23c4	0.022722133
166	0xbca3c272	-0.01999018
167	0xbd71ede2	-0.059064753
168	0xbcd78a5e	-0.026311096
169	0x3dae0d30	0.08498609
170	0x3db50914	0.08839622
171	0xbce18cd5	-0.027532974
172	0xbd1c3149	-0.03813294
173	0x3d6018af	0.05471104
174	0xbbafaa13	-0.0053608506
175	0xbc3cc5ed	-0.011521799
176	0x3c81958d	0.015818382
177	0xbd872576	-0.06598942
178	0xbbbe1a90	-0.0058015063
179	0xbd6f2f77	-0.058394875
180	0x3e1faea4	0.15593964
181	0xbc996dfb	-0.0187292
182	0x3c2af308	0.01043392
183	0xbdbefdf8	-0.093257844
184	0xbdc6f4cd	-0.09714661
185	0x3d048bc3	0.03235985
186	0xbd6e3d85	-0.05816414
187	0xbd912640	-0.07087374
188	0xbda96b6c	-0.08272442
189	0xbaa1ab8a	-0.0012334448
190	0xbb09e742	-0.0021042381
191	0x3d77de35	0.060514648
192	0xbdc93ef2	-0.09826459
193	0x3cecf393	0.028924739
194	0x3df5e5af	0.12006699
195	0xbdcbd025	-0.0995181
196	0xbdd22fda	-0.10263033
197	0x3d9ae9a3	0.07564094
198	0xbcdb520b	-0.02677252
199	0x3da43ec1	0.08019782
200	0xbe1279a6	-0.14304218
201	0x3dc57212	0.09640898
202	0x3d241968	0.04006329
203	0x3c5e0e7f	0.013553261
204	0xbd414df2	-0.047193475
205	0x3e1625f9	0.14662923
206	0xbd2975bb	-0.041372042
207	0xbdf5de93	-0.12005343
208	0x3e144211	0.14478327
209	0x3c7a3dea	0.0152735505
210	0x3d801976	0.06254856
211	0xbcaae60b	-0.020861646
212	0x3d607510	0.05479914
213	0xbccde69a	-0.025134373
214	0xbd13e10f	-0.036103304
215	0x3d1e67f8	0.03867337
216	0xbbcae8ed	-0.0061923177
217	0xbd9abd07	-0.07555585
218	0x3ce7bd07	0.028288377
219	0x3cbf37d1	0.023342045
220	0xbce62271	-0.028092595
221	0xbe14f5cf	-0.14546894
222	0xbdc98219	-0.09839267
223	0x3eb1fa4d	0.34761277
224	0x3c8eeebb	0.01744782
225	0x3ccf120f	0.025277166
226	0xbd9ec297	-0.07751959
227	0x3dfc3eeb	0.12316688
228	0x3c17db49	0.00926859
229	0x3d9d26a5	0.076733865
230	0x3d418e98	0.04725513
231	0x3e348b9c	0.17631382
232	0x3d2e5b70	0.04256767
233	0xbe23c87e	-0.1599445
234	0x3d153fb5	0.03643771
235	0x3bdc294b	0.0067187897
236	0x3e0515ee	0.12996647
237	0x3d60412c	0.054749653
238	0xbde82a3e	-0.11336182
239	0x3cc4d758	0.024028465
240	0xbdec694a	-0.1154352
241	0xbc9f35d1	-0.019434841
242	0xbdc96563	-0.09833791
243	0x3d708c01	0.058727268
244	0x3dfe3d13	0.12413993
245	0x3f2c02d0	0.6719179
246	0x3d21076f	0.03931373
247	0xbd86599e	-0.06560062
248	0xbddb8e7b	-0.10720535
249	0x3c99ad6c	0.018759452
250	0xbe20a9a9	-0.1568972
251	0xbd68e2ec	-0.056857035
252	0x3be68b2e	0.0070356345
253	0x3dde3b44	0.10851148
254	0xbe436492	-0.19081333
255	0x3da710d8	0.081575096
