time_series_intro_class/final_project/temp/2_layer_16_size_model_epoch_1300.pth (torch, 15459 bytes, 9 tensors)

lstm.weight_ih_l0 f4 [64, 1]
-0.3714581 -3.4623756 -1.2156354 -1.4870225 -1.718493 2.2871466 -0.86463517 -0.48057204
0.98889726 2.9405751 -1.1093411 0.30995473 0.54378766 1.6161764 -3.1633086 0.22237167
0.051856216 -0.6310633 -0.62902206 -0.7841025 -0.39035144 1.4905037 -0.77377397 -2.2461934
0.07816351 1.1688156 -0.4361111 -0.26984194 0.4738955 0.36098596 -4.223994 1.6016891
-1.6991066 -1.8677874 -1.8007972 -1.3247274 -1.5971718 -0.034929432 -1.0830926 -1.6117831
0.115384266 -0.40222758 1.0780268 -0.19787312 -0.59443814 -1.3308113 1.13751 -1.012934
0.9623558 -3.0771008 -0.15101983 -0.7475311 -0.059040528 2.3432364 -1.0790856 -0.6900559
0.21165426 3.840585 -0.68431646 -0.06357489 0.49097288 -0.05964316 -3.2043061 1.7557025
00000000: c22f bebe 9097 5dc0 f199 9bbf c156 bebf
00000010: 94f7 dbbf 9c60 1240 bb58 5dbf 8a0d f6be
00000020: 5f28 7d3f 6232 3c40 e4fe 8dbf 63b2 9e3e
00000030: ab35 0b3f dede ce3f a673 4ac0 66b5 633e
00000040: 2f67 543d 5d8d 21bf 9707 21bf f1ba 48bf
00000050: 25dc c7be d3c8 be3f 0d16 46bf a2c1 0fc0
00000060: 3114 a03d c09b 953f f449 dfbe b928 8abe
00000070: 6ea2 f23e 27d3 b83e f52a 87c0 2604 cd3f
00000080: 537c d9bf a813 efbf 8680 e6bf ab90 a9bf
00000090: 2070 ccbf 2a12 0fbd c7a2 8abf e94e cebf
000000a0: 964e ec3d c6f0 cdbe c8fc 893f 409f 4abe
000000b0: 192d 18bf 0658 aabf ed99 913f d2a7 81bf
000000c0: f35c 763f 38ef 44c0 f1a4 1abe 335e 3fbf
000000d0: 7bd4 71bd 96f7 1540 7a1f 8abf 81a7 30bf
000000e0: e5bb 583e 25cc 7540 5d2f 2fbf 8d33 82bd
000000f0: cc60 fb3e 634c 74bd 5a13 4dc0 dcba e03f

lstm.weight_hh_l0 f4 [64, 16]
-0.102414474 0.71300113 0.6924213 0.40775573 0.19338173 -0.059648514 -0.0378506 0.2867636
0.43647358 -0.06957843 -0.06759982 0.13454014 -0.0054413555 0.79688346 -1.3155758 0.26042128
-0.048762087 -0.23588401 -0.44102478 -0.11258999 -0.17904124 0.36322597 -0.067628264 0.3249023
0.09276293 -0.031107983 0.09203371 0.046545133 -0.044869967 -0.12121544 0.018753704 -0.21035884
0.35171726 0.58056843 0.5528912 0.29646719 0.12575045 -0.06449324 -0.0054571014 0.20603567
0.022477876 0.26638114 -0.29179925 0.015137399 -0.004150976 0.1773342 0.72634965 -0.44918266
0.105274044 0.061293222 0.27758774 0.0115033565 0.2637058 -0.010248231 0.005857673 0.13415001
-0.07755809 0.14722393 -0.44795182 -0.16980866 0.2853424 0.6517542 0.4239381 -0.2621286
0.4390685 0.555852 1.2236903 0.8750213 0.35957223 0.021050747 0.36651254 0.622305
0.4000839 -0.1061706 -0.49233785 0.20572326 -0.059292603 0.5436556 -0.048636843 -0.26184136
0.37989342 0.29915997 0.22884452 -0.09027532 0.028038843 0.49883237 0.039298706 -0.008945406
0.064011425 -0.026736137 -0.16785845 0.2566579 0.111874685 0.055125304 -0.6525114 0.022007227
-0.0735013 0.2578347 0.2959249 -0.14197548 0.2778197 -0.0016891399 -0.20104173 -0.08115122
-0.03390182 0.108355574 -0.37809604 -0.061781965 -0.027496574 -0.05219125 0.7931053 0.23371217
0.08130832 -0.24090047 0.37635532 0.031158037 0.18496712 0.10886798 0.3178385 0.34562024
0.07069345 -0.086259395 -0.25671297 -0.061978705 -0.072924875 0.22498739 0.23349695 -0.11682585
0.23549305 0.28327727 0.18362314 0.16638748 0.09276141 0.36556312 0.20556185 0.007862681
0.15924037 -0.4360281 -0.2325644 -0.05618093 -0.5406549 -0.05875537 0.9594399 0.1615342
0.19131021 0.14868414 0.21839716 0.28274667 -0.15731104 0.010858631 0.2163804 0.10470668
0.21543269 -0.24706322 0.121444896 0.060981635 0.1512393 0.5762915 -1.2389915 0.023648322
0.31521878 0.3461343 0.09217797 0.28977436 0.12315385 0.4002798 0.14010544 0.11311322
0.061990842 -0.18091513 -0.08115962 -0.26643804 0.0016362064 0.06620375 -0.095604405 -0.06044327
-0.044182766 -0.17542657 -0.30139366 -0.30466822 -0.25138086 -0.04653489 -0.078918494 0.043484844
-0.29609156 0.21799055 -0.096999705 -0.076918654 -0.13519312 0.23990823 0.3542513 0.019330513
0.07612125 0.27449724 0.19673696 0.08032001 0.44198138 -0.03199709 0.16490296 0.12723961
-0.1922094 -0.39178348 -0.2913871 0.03750093 0.12375933 0.32985234 -0.31364113 0.16141547
0.62655735 -0.08684825 0.19990198 0.24664268 0.585553 0.18458939 0.09330528 0.23076196
-0.36542642 -0.18431474 -0.4515418 0.2784946 -0.040798366 -0.21635592 0.5112585 0.014791848
0.15316735 0.26232958 -0.42732322 0.7691138 0.20358051 0.042083435 0.38566643 0.6872681
0.8174157 0.13530935 -0.035242125 -0.78961 0.589289 -0.52374244 -0.52129275 0.33498204
0.47181484 -0.060789663 -0.106401145 0.1235754 -0.26330048 -0.33028823 -0.16965334 0.08506425
0.19134212 0.39672014 0.017615099 0.016828973 0.027334664 0.25600848 -1.5502045 -0.173107
00000000: aebe d1bd 3e87 363f 8642 313f 5cc5 d03e
00000010: dc05 463e 0052 74bd 3b09 1bbd aed2 923e
00000020: 7779 df3e 237f 8ebd c671 8abd e4c4 093e
00000030: 664d b2bb 8e00 4c3f ca64 a8bf f055 853e
00000040: c1ba 47bd 948b 71be 00ce e1be 9595 e6bd
00000050: 9656 37be c1f8 b93e b080 8abd 9859 a63e
00000060: 7efa bd3d 2bd6 febc 2b7c bc3d 1ca6 3e3d
00000070: 92c9 37bd cd3f f8bd 5ea1 993c 4f68 57be
00000080: 4914 b43e 22a0 143f 478a 0d3f 8cca 973e
00000090: bac4 003e 0815 84bd 7cd1 b2bb 04fb 523e
000000a0: 8623 b83c 1c63 883e b666 95be da02 783c
000000b0: e904 88bb 1997 353e 0df2 393f 45fb e5be
000000c0: eb99 d73d 9a0e 7b3d fb1f 8e3e 9378 3c3c
000000d0: 7204 873e 32e8 27bc b9f1 bf3b 9f5e 093e
000000e0: c7d6 9ebd dfc1 163e f159 e5be 52e2 2dbe
000000f0: 6618 923e 5dd9 263f 6a0e d93e b835 86be
00000100: 96cd e03e 514c 0e3f e2a1 9c3f 6501 603f
00000110: da19 b83e 9e72 ac3c 88a7 bb3e 614f 1f3f
00000120: ccd7 cc3e f96f d9bd b513 fcbe 1ea9 523e
00000130: cddc 72bd 032d 0b3f 6d37 47bd 1210 86be
00000140: 6481 c23e 7f2b 993e 3856 6a3e 44e2 b8bd
00000150: b7b1 e53c f566 ff3e aef7 203d c18f 12bc
00000160: 6c18 833d be05 dbbc 16e3 2bbe aa68 833e
00000170: 8e1e e53d 12cb 613d fd0a 27bf 8048 b43c
00000180: d987 96bd e902 843e 7883 973e 0562 11be
00000190: 623e 8e3e 2166 ddba e2dd 4dbe 9c32 a6bd
000001a0: a3dc 0abd 87e9 dd3d ce95 c1be 160f 7dbd
000001b0: 7f40 e1bc 7ec6 55bd f308 4b3f 3e52 6f3e
000001c0: fa84 a63d 9dae 76be a5b1 c03e 243f ff3c
000001d0: 0568 3d3e 2df6 de3d babb a23e 23f5 b03e
000001e0: bac7 903d c4a8 b0bd e26f 83be 62dd 7dbd
000001f0: a359 95bd 1863 663e d319 6f3e 6442 efbd
00000200: 1725 713e b809 913e b407 3c3e 7b61 2a3e
00000210: b2f9 bd3d 172b bb3e ce7e 523e 79d2 003c
00000220: e80f 233e 133f dfbe 5d25 6ebe fa1d 66bd
00000230: 5c68 0abf 79a9 70bd da9d 753f 3969 253e
00000240: d3e6 433e a840 183e 81a3 5f3e 2cc4 903e
00000250: 2516 21be 66e8 313c d392 5d3e 7570 d63d
00000260: 639a 5c3e 24fe 7cbe 1ab8 f83d e1c7 793d
00000270: 7ade 1a3e d787 133f 4697 9ebf 20ba c13c
00000280: 5b64 a13e 8438 b13e cec7 bc3d 4e5d 943e
00000290: 1638 fc3d 79f1 cc3e cd77 0f3e e7a7 e73d
000002a0: 1cea 7d3d d141 39be 0437 a6bd 916a 88be
000002b0: fa75 d63a d595 873d 3ecc c3bd 5d93 77bd
000002c0: fdf8 34bd 06a3 33be 4550 9abe 79fd 9bbe
000002d0: feb4 80be 5e9b 3ebd 05a0 a1bd 2a1d 323d
000002e0: 5099 97be ea38 5f3e c8a7 c6bd 8787 9dbd
000002f0: 1170 0abe 81aa 753e 6d60 b53e 065b 9e3c
00000300: 75e5 9b3d e78a 8c3e 6a75 493e d17e a43d
00000310: 624b e23e 610f 03bd 52dc 283e 1a4b 023e
00000320: 8ad2 44be d897 c8be b130 95be 939a 193d
00000330: 8875 fd3d 68e2 a83e 9295 a0be 194a 253e
00000340: 1066 203f 7fdd b1bd 1bb3 4c3e e68f 7c3e
00000350: cde6 153f 0005 3d3e d716 bf3d dd4c 6c3e
00000360: 2c19 bbbe 01bd 3cbe 7d30 e7be d896 8e3e
00000370: 301c 27bd 688c 5dbe d6e1 023f 8259 723c
00000380: e7d7 1c3e 1050 863e 1cca dabe a4e4 443f
00000390: 6977 503e ae5f 2c3d 1276 c53e cdf0 2f3f
000003a0: 2842 513f 898e 0a3e 0c5a 10bd e223 4abf
000003b0: a5db 163f fc13 06bf 7173 05bf c482 ab3e
000003c0: b791 f13e 95fe 78bd d8e8 d9bd 1915 fd3d
000003d0: 52cf 86be 8a1b a9be 9bb9 2dbe 2a36 ae3d
000003e0: 30ef 433e e71e cb3e 8a4d 903c eadc 893c
000003f0: f2ec df3c 8b13 833e 1a6d c6bf f642 31be

lstm.bias_ih_l0 f4 [64]
0.13870628 -0.15809202 0.27786228 0.17767365 0.0907485 -0.15183331 0.21628843 -0.12327422
-0.21018653 0.30736604 -0.006660474 0.15598992 -0.27211183 -0.2026651 0.35079136 0.011321369
0.20575395 0.24198999 0.31705263 0.15093146 0.11917075 -0.09578697 -0.13249648 0.16485052
0.21142323 0.1371893 -0.15110935 0.0021499617 0.28917268 -0.002107413 -0.20605445 -0.13002478
0.0305164 0.004688221 -0.052277222 -0.07290442 0.08434711 -0.0149064055 0.11237331 -0.09521458
-0.07967993 -0.12443585 -0.113007955 -0.10553802 0.030417949 -0.096074775 0.03243806 0.019843537
0.25857913 0.25803676 0.31061223 0.27913135 0.24254222 -0.065733925 0.047010727 0.16637869
-0.12834398 0.42125347 -0.029307483 -0.16407366 0.00033499178 0.18832372 0.47897205 -0.0009938467
00000000: 0509 0e3e e0e2 21be f743 8e3e 15f0 353e
00000010: 59da b93d 317a 1bbe b77a 5d3e 3277 fcbd
00000020: 233b 57be 155f 9d3e 1b40 dabb d2bb 1f3e
00000030: 3e52 8bbe 7187 4fbe ed9a b33e 437d 393c
00000040: 2ab1 523e 39cc 773e b954 a23e c78d 1a3e
00000050: cb0f f43d f52b c4bd 28ad 07be 93ce 283e
00000060: 557f 583e 5a7b 0c3e 69bc 1abe 5fe6 0c3b
00000070: 710e 943e 861c 0abb f0ff 52be 3725 05be
00000080: 87fd f93c a69f 993b a420 56bd ea4e 95bd
00000090: 2dbe ac3d ff39 74bc fa23 e63d ddff c2bd
000000a0: 3b2f a3bd 39d8 febd b770 e7bd 5124 d8bd
000000b0: 102f f93c dac2 c4bd c5dd 043d ea8e a23c
000000c0: 7c64 843e 651d 843e 9108 9f3e 4eea 8e3e
000000d0: fd5c 783e 829f 86bd 528e 403d 2d5f 2a3e
000000e0: 9b6c 03be 89ae d73e 3f16 f0bc ed02 28be
000000f0: d6a1 af39 efd7 403e d33b f53e f643 82ba

lstm.bias_hh_l0 f4 [64]
0.2180555 0.1688464 0.29111633 -0.04695333 0.11239329 -0.22039056 -0.026666572 0.017184624
0.032354284 0.30665734 -0.09288435 0.03498846 -0.25976127 -0.09696068 0.8014674 0.16209759
-0.13419971 0.07883065 0.20807415 -0.14979373 0.14038585 0.11142584 0.15902232 0.25254613
-0.17799966 0.1606029 0.30034077 -0.29364085 0.1486131 0.23484655 -0.123021774 -0.15689544
0.0006033718 0.06957716 0.013574808 0.013650243 -0.018579869 -0.17755334 0.12419439 0.13121952
0.16588394 0.060681958 0.0822285 -0.00093784224 0.18482924 0.07128437 -0.11674678 0.0022178083
0.16234958 -0.04830031 0.06496492 -0.048551925 0.31127113 0.20213202 0.16715895 0.0589295
0.043724764 0.13869657 0.09966548 0.1268723 0.06514283 0.17039119 0.8272918 -0.16412374
00000000: f149 5f3e 12e6 2c3e 330d 953e 2352 40bd
00000010: 742e e63d 10ae 61be db73 dabc c5c6 8c3c
00000020: ed85 043d 3102 9d3e 263a bebd 0f50 0f3d
00000030: 6eff 84be 5293 c6bd f82c 4d3f e9fc 253e
00000040: a66b 09be f771 a13d 6411 553e 8763 19be
00000050: 4fc1 0f3e 3b33 e43d bfd6 223e ba4d 813e
00000060: 8b45 36be 1675 243e 44c6 993e 1858 96be
00000070: 082e 183e 9d7b 703e d7f2 fbbd 33a9 20be
00000080: 992b 1e3a 787e 8e3d df68 5e3c 45a5 5f3c
00000090: cf34 98bc 8bd0 35be a159 fe3d 695e 063e
000000a0: 7bdd 293e a58d 783d 6a67 a83d 87d9 75ba
000000b0: e043 3d3e 8afd 913d f018 efbd a658 113b
000000c0: f83e 263e 8cd6 45bd 540c 853d 62de 46bd
000000d0: ee5e 9f3e b2fb 4e3e b72b 2b3e 0f60 713d
000000e0: bd18 333d 7906 0e3e 6a1d cc3d d0ea 013e
000000f0: 9b69 853d 077b 2e3e 65c9 533f 0e10 28be

lstm.weight_ih_l1 f4 [64, 16]
-0.21795979 0.10071857 -0.18205723 -0.22612137 -0.24196316 0.12806389 0.25155842 0.11581196
-0.2089672 -0.00086135213 0.112167224 -0.10755529 -0.27401757 -0.03328481 0.058378454 0.18814297
0.30260137 0.84947073 0.77832484 0.16284806 0.35558504 0.38491303 0.26309812 0.31330362
-0.06868601 -0.1817125 -0.5793706 -0.19067019 -0.2900711 -0.37032825 -0.5929576 0.35035932
0.18996423 0.17990702 0.11353824 0.12230428 -0.21779703 0.13879125 -0.23137139 0.00939459
-0.10714491 -0.21353292 -0.30480176 0.11224003 0.028365433 -0.16461758 0.083593056 0.3265828
0.09284123 0.3016823 -0.2187205 -0.25770843 0.1132889 -0.02558502 0.020124726 -0.2301297
-0.2483413 -0.12668295 -0.18816884 -0.16197409 -0.14037998 -0.050501246 -0.38520017 -0.074227154
0.15187335 -0.098429464 -0.15403834 -0.3716423 0.17662653 0.43536785 -0.1632657 -0.2398572
0.2153428 -0.23210943 -0.11514924 -0.0104474295 0.16021085 -0.33715963 0.10277204 0.08187941
0.44572467 0.2755761 0.07273434 -0.039583288 0.51481193 0.10437107 -0.2947853 -0.41505682
-0.16543178 -0.21856704 -0.085813425 0.42160863 0.11848897 0.09548135 -0.7129072 0.010758203
-0.11770207 -0.3217773 -0.25995815 -0.4921468 -0.07907628 0.14720383 -0.50946915 -0.3590239
-0.13077846 0.010685133 0.23185056 0.32746333 -0.21650398 -0.13077113 0.109774224 0.077620596
-0.51287717 -0.4878275 -0.43483013 -0.13480675 -0.356892 0.46833768 -0.010867202 -0.08726762
0.37897557 -0.7266675 0.2327072 -0.44688877 -0.3309771 -0.96532834 1.1456058 -0.05059774
0.5686704 1.5358057 0.7973087 0.35848954 0.5020168 0.29408213 0.12797813 -0.0787637
-0.110570885 -0.31090152 -0.71849513 0.06143148 0.120366946 -0.5440968 -0.49389964 0.9082606
-0.31707278 -0.07289637 0.29821247 0.20525579 -0.17154059 -0.1468232 -0.18015687 -0.060197804
-0.14790781 -0.3194359 0.11181127 -0.122246586 0.12952065 0.018720264 -0.008178078 0.18135834
-0.18363006 -0.08327081 0.007075536 -0.23934142 0.028821807 0.022274861 -0.44305414 -0.28276807
-0.07514575 -0.16635425 0.33655214 0.50984037 -0.179865 -0.026191086 0.0049298154 0.027343301
-0.28211594 -0.23498014 0.2507714 -0.07632062 -0.1046769 0.17952095 -0.019524721 -0.3071156
-0.0509553 -0.18923502 -0.26293677 0.020926353 -0.12712623 -0.025955422 0.07057675 0.40361536
-0.13041128 -0.36666054 -0.29564965 -0.1666707 -0.11412447 0.5553636 0.21775305 0.051834878
0.0030071463 -0.3702704 -0.14965905 -0.16448899 -0.41997328 -0.62543 0.3176142 0.39802822
0.41466355 -0.2144577 -0.10958104 -0.15872753 0.0075753904 -0.34847382 0.16381812 -0.033871226
0.12535417 -0.1669043 -0.008103188 -0.05095848 0.116221905 -0.0730721 -0.16167334 -0.005252058
0.41686204 0.3826563 0.31255287 0.0015801883 0.47936058 0.009085911 -0.1804102 -0.022006985
-0.4070111 0.11095317 -0.33227375 0.07218658 0.17712192 0.11939879 0.2703506 0.0990641
0.41117564 0.2554063 0.41659752 0.084046714 0.15451956 0.714713 0.22261946 0.3427871
-0.4638923 0.009625674 -0.27854267 -0.13169165 -0.5132337 0.007009572 0.22936414 0.41716674
00000000: da30 5fbe 8a45 ce3d 366d 3abe 5c8c 67be
00000010: 31c5 77be 2e23 033e 44cc 803e d22e ed3d
00000020: 7ffb 55be 5dcc 61ba eeb7 e53d f345 dcbd
00000030: 084c 8cbe a755 08bd 3f1e 6f3d 8da8 403e
00000040: 91ee 9a3e ea76 593f 4c40 473f a4c1 263e
00000050: 3e0f b63e 5213 c53e ccb4 863e 5569 a03e
00000060: 40ab 8cbd d712 3abe a251 14bf 0c3f 43be
00000070: 3384 94be aa9b bdbe 12cc 17bf 4c62 b33e
00000080: fc85 423e 8c39 383e bd86 e83d ab7a fa3d
00000090: 2f06 5fbe 4b1f 0e3e 9fec 6cbe c4eb 193c
000000a0: ca6e dbbd 60a8 5abe fa0e 9cbe 1ade e53d
000000b0: a05e e83c 8391 28be d632 ab3d dc35 a73e
000000c0: 8b23 be3d 1a76 9a3e 44f8 5fbe 5cf2 83be
000000d0: 0304 e83d ad97 d1bc 9cdc a43c 1fa7 6bbe
000000e0: 2f4d 7ebe 2db9 01be 55af 40be 89dc 25be
000000f0: c5bf 0fbe 65da 4ebd f538 c5be 6804 98bd
00000100: b084 1b3e 6395 c9bd 3abc 1dbe e647 bebe
00000110: 96dd 343e 89e8 de3e 202f 27be 209d 75be
00000120: d382 5c3e 18ae 6dbe 5dd3 ebbd b22b 2bbc
00000130: 500e 243e 30a0 acbe 267a d23d 64b0 a73d
00000140: 0636 e43e 5018 8d3e bef5 943d 1622 22bd
00000150: b7ca 033f 80c0 d53d 19ee 96be 5482 d4be
00000160: f366 29be 0ad0 5fbe f3be afbd 16dd d73e
00000170: 58aa f23d ba8b c33d 1681 36bf 2d43 303c
00000180: c80d f1bd ffbf a4be 3c19 85be aafa fbbe
00000190: bff2 a1bd 9abc 163e 926c 02bf fbd1 b7be
000001a0: caea 05be b210 2f3c 3c6a 6d3e 46a9 a73e
000001b0: 38b3 5dbe dee8 05be 4fd1 e03d 8cf7 9e3d
000001c0: eb4b 03bf 87c4 f9be 0ea2 debe c80a 0abe
000001d0: 8cba b6be f5c9 ef3e 590c 32bc 5eb9 b2bd
000001e0: 1609 c23e e206 3abf cc4a 6e3e 9bce e4be
000001f0: d575 a9be c21f 77bf 36a3 923f 933f 4fbd
00000200: 6294 113f 4895 c43f 6c1c 4c3f f18b b73e
00000210: 2c84 003f ef91 963e b30c 033e dd4e a1bd
00000220: fd72 e2bd 7c2e 9fbe 4cef 37bf 939f 7b3d
00000230: f282 f63d ee49 0bbf 6ae0 fcbe c483 683f
00000240: 5d57 a2be b14a 95bd 4eaf 983e 932e 523e
00000250: 56a8 2fbe d258 16be 0b7b 38be f991 76bd
00000260: 2575 17be 1a8d a3be 4ffd e43d 6b5c fabd
00000270: 10a1 043e 3d5b 993c 58fd 05bc 00b6 393e
00000280: 8509 3cbe e389 aabd e6d9 e73b eb15 75be
00000290: b61b ec3c c579 b63c fed7 e2be fac6 90be
000002a0: 04e6 99bd c558 2abe 9050 ac3e e684 023f
000002b0: 882e 38be b08e d6bc 4a8a a13b 0fff df3c
000002c0: 8071 90be a29e 70be 1c65 803e fc4d 9cbd
000002d0: d860 d6bd 57d4 373e 4ff2 9fbc 423e 9dbe
000002e0: 81b6 50bd d3c6 41be a69f 86be be6d ab3c
000002f0: 612d 02be 77a0 d4bc 8b8a 903d aca6 ce3e
00000300: 898a 05be eeba bbbe 645f 97be b9ab 2abe
00000310: 17ba e9bd 4f2c 0e3f a8fa 5e3e cf50 543d
00000320: 8b13 453b 1594 bdbe 3940 19be cd6f 28be
00000330: bd06 d7be 2e1c 20bf 549e a23e 5bca cb3e
00000340: c84e d43e cd9a 5bbe 066c e0bd 7889 22be
00000350: fb3a f83b 296b b2be f0bf 273e 8ebc 0abd
00000360: d85c 003e f6e8 2abe 3cc3 04bc d7b9 50bd
00000370: c005 ee3d d3a6 95bd b28d 25be 7519 acbb
00000380: f16e d53e 87eb c33e ee06 a03e 521e cf3a
00000390: c06e f53e 13dd 143c 74bd 38be fe47 b4bc
000003a0: c263 d0be 6a3b e33d c91f aabe 8fd6 933d
000003b0: 735f 353e 5a87 f43d 656b 8a3e 1ee2 ca3d
000003c0: 9d85 d23e 9dc4 823e 454c d53e af20 ac3d
000003d0: 603a 1e3e 6ef7 363f 5bf6 633e ca81 af3e
000003e0: 4b83 edbe 01b5 1d3c 259d 8ebe 2dda 06be
000003f0: 4963 03bf 8db0 e53b 6fde 6a3e e196 d53e

lstm.weight_hh_l1 f4 [64, 16]
-0.024362968 0.26277336 -0.19210626 -0.24334757 0.2024498 -0.31030652 0.009619006 0.40327385
-0.186669 0.108736984 -0.033791553 -0.14440274 0.100373246 -0.10278637 0.013389033 -0.06358678
-0.18562919 -0.23952934 -0.14430383 -0.06299617 0.39589664 0.1486671 -0.3034418 -0.0318787
0.3520702 0.101077214 0.124466866 0.008271628 0.17813036 -0.18458399 -0.121013425 -0.28486237
-0.044553336 -0.1107687 -0.10953347 -0.05041958 0.29278725 0.0785974 0.010570312 0.142725
-0.006003899 0.024972718 -0.18005826 0.0002035164 0.01893571 -0.048362717 -0.26621574 0.18809707
0.00875413 0.0662189 -0.076327674 -0.059487764 -0.108112626 -0.16097938 -0.07026348 0.28318167
-0.142253 -0.060412504 0.18156683 -0.027405934 0.3388158 -0.0884091 0.13607861 0.043217614
-0.15113038 -0.7657898 0.4400421 0.31330225 0.5110931 0.22421671 -0.074807346 -0.018614886
1.1260654 0.1489572 0.2756281 0.33279568 0.24360682 0.14261995 -0.12390575 0.20720525
-0.009743198 -0.25261074 -0.20635127 0.08961496 0.13055405 0.31310454 -0.10095584 -0.15970068
0.7036739 0.15282106 0.11660122 -0.025723176 -0.1799586 -0.102730036 0.19296628 0.6099076
0.22780415 0.12964076 -0.21289995 -0.21543615 -0.0012771295 -0.13943575 -0.2274488 -0.1455213
-0.122569226 -0.1732981 -0.090025276 0.2418948 -0.10013501 0.22955853 0.011895252 0.35318223
-0.4737092 -0.41245064 0.1839086 -0.043376528 0.79526913 0.6390209 -0.09908995 -0.249341
0.70976096 -0.031845063 0.012263435 0.6008377 0.16605957 -0.28636873 -0.35116547 0.28090963
0.14659932 -0.9042835 0.3244201 0.30724466 0.57827276 0.42674452 0.053801518 -0.08498676
1.6159297 -0.14424285 -0.041936085 0.21267867 0.13268565 -0.4822262 -0.22330453 0.37252137
-0.17962287 0.17791909 0.009163966 -0.39176282 0.18764709 0.05955017 0.09447851 0.2380693
-0.064671576 0.036003828 0.11796717 0.018059468 -0.05578855 0.2523819 0.15932144 -0.17315525
0.056895953 0.13995443 -0.27388316 -0.18263389 -0.31333992 -0.10478497 0.05241153 -0.40368044
0.053568624 0.050135043 -0.07598719 -0.32775387 0.0036943466 0.28412765 0.047341015 0.06549975
-0.25903818 0.043911096 0.13099837 -0.3219896 0.40548977 0.3399167 0.032821275 -0.10139297
0.2759277 -0.09707191 -0.089717306 -0.06986765 0.31077924 -0.08668635 -0.21250807 -0.16218762
-0.18495509 -0.253666 0.10514683 -0.05585464 0.58423316 0.40454936 -0.20218046 -0.10593286
-0.04537457 -0.05121333 0.51547235 0.18329072 0.90636057 0.13195018 -0.2787171 -0.4735744
0.05840724 -0.23457153 -0.012216373 -0.2271491 -0.12419319 -0.17936277 -0.094337404 0.111406125
0.16499911 -0.021708718 -0.20928821 -0.031060798 0.15499187 0.33743116 0.008030534 0.3653044
-0.17952132 -0.34742367 0.010349861 -0.2526264 -0.13684942 0.17780906 -0.05292744 0.22794744
0.68663037 -0.057414655 -0.16888806 0.079623625 -0.21216245 0.4285291 -0.15762822 0.22184546
-0.050386276 0.075284466 -0.40513015 -0.4199214 0.06073041 0.43052888 -0.117939316 0.4618095
-0.176988 -0.4860055 0.31426412 0.14509432 0.003450701 0.3202673 -0.32802153 0.074150845
00000000: d994 c7bc 3b8a 863e 81b7 44be 1b30 79be
00000010: 004f 4f3e 7fe0 9ebe 0999 1d3c e979 ce3e
00000020: 2926 3fbe 7fb1 de3d 0369 0abd 50de 13be
00000030: 7d90 cd3d a981 d2bd ad5d 5b3c c939 82bd
00000040: 9415 3ebe 2e47 75be 62c4 13be 2304 81bd
00000050: f7b2 ca3e 303c 183e b95c 9bbe 3d93 02bd
00000060: 8c42 b43e 9201 cf3d 7ce8 fe3d b985 073c
00000070: ce67 363e 9603 3dbe e3d5 f7bd 7bd9 91be
00000080: 8f7d 36bd b3da e2bd 1553 e0bd c384 4ebd
00000090: 36e8 953e acf7 a03d 1a2f 2d3c 8126 123e
000000a0: 5bbc c4bb 9693 cc3c 3161 38be 0567 5539
000000b0: 101f 9b3c fc17 46bd 6e4d 88be 859c 403e
000000c0: 7c6d 0f3c c69d 873d af51 9cbd 71a9 73bd
000000d0: 276a ddbd c7d7 24be 4de6 8fbd 30fd 903e
000000e0: c5aa 11be 1a73 77bd a8ec 393e 6982 e0bc
000000f0: 4479 ad3e d50f b5bd 3158 0b3e f404 313d
00000100: ecc1 1abe cd0a 44bf 334d e13e 2769 a03e
00000110: ffd6 023f 1199 653e 9834 99bd 3f7e 98bc
00000120: e922 903f 3c88 183e 201f 8d3e 3264 aa3e
00000130: 1174 793e f70a 123e 4cc2 fdbd 9d2d 543e
00000140: efa1 1fbc 3256 81be bf4d 53be 0c88 b73d
00000150: f6af 053e 3d4f a03e efc1 cebd 9388 23be
00000160: f923 343f 207d 1c3e 9fcc ee3d 69b9 d2bc
00000170: 1147 38be 2064 d2bd f498 453e e822 1c3f
00000180: 7e45 693e 8cc0 043e 7202 5abe 4b9b 5cbe
00000190: 5b65 a7ba 3fc8 0ebe 57e8 68be 8903 15be
000001a0: 9305 fbbd 0f75 31be 2c5f b8bd 45b3 773e
000001b0: 9613 cdbd 6411 6b3e 4ee4 423c 4dd4 b43e
000001c0: 038a f2be bb2c d3be 8952 3c3e 96ab 31bd
000001d0: c296 4b3f e096 233f acef cabd 3f53 7fbe
000001e0: e5b2 353f f86f 02bd 93ec 483c 80d0 193f
000001f0: 850b 2a3e ec9e 92be f6cb b3be 63d3 8f3e
00000200: 221e 163e 207f 67bf 641a a63e 2c4f 9d3e
00000210: af09 143f 427e da3e fb5e 5c3d 8a0d aebd
00000220: c9d6 ce3f 66b4 13be 2cc5 2bbd 70c8 593e
00000230: bfde 073e 5ae6 f6be f1a9 64be 1fbb be3e
00000240: 0fef 37be 6c30 363e 7624 163c 2395 c8be
00000250: 8f26 403e e1ea 733d f37d c13d 70c8 733e
00000260: 8872 84bd c078 133d c698 f13d 73f1 933c
00000270: 8982 64bd 3338 813e 2925 233e 9c4f 31be
00000280: bb0b 693d 3750 0f3e 6a3a 8cbe 6104 3bbe
00000290: 176e a0be 8199 d6bd 79ad 563d 34af cebe
000002a0: c66a 5b3d 675a 4d3d 2c9f 9bbd 5bcf a7be
000002b0: da1c 723b 2e79 913e a7e8 413d bc24 863d
000002c0: a7a0 84be 1fdc 333d 7024 063e d2db a4be
000002d0: 5b9c cf3e 9009 ae3e 9a6f 063d 1ea7 cfbd
000002e0: 6546 8d3e a3cd c6bd b5bd b7bd c516 8fbd
000002f0: 751e 9f3e 9d88 b1bd b79b 59be 8314 26be
00000300: de64 3dbe 83e0 81be 3957 d73d d6c7 64bd
00000310: 4e90 153f 1821 cf3e 6508 4fbe 54f3 d8bd
00000320: afda 39bd 12c5 51bd fff5 033f 90b0 3b3e
00000330: 3f07 683f f31d 073e 02b4 8ebe 5878 f2be
00000340: 6e3c 6f3d 8533 70be 2f27 48bc c699 68be
00000350: 0059 febd e0aa 37be f833 c1bd e528 e43d
00000360: 87f5 283e 7bd6 b1bc a64f 56be 3773 febc
00000370: 30b6 1e3e c7c3 ac3e 8092 033c 2e09 bb3e
00000380: 70d4 37be 84e1 b1be 7792 293c 3f58 81be
00000390: 4122 0cbe 9413 363e 71ca 58bd 0e6b 693e
000003a0: 02c7 2f3f a12b 6bbd fef0 2cbe b611 a33d
000003b0: 1d41 59be 2b68 db3e 4b69 21be 752b 633e
000003c0: d761 4ebd be2e 9a3d 386d cfbe f0ff d6be
000003d0: 73c0 783d 486e dc3e 2b8a f1bd 4b72 ec3e
000003e0: 583c 35be b7d5 f8be 3ae7 a03e 9b93 143e
000003f0: 2825 623b 13fa a33e 70f2 a7be 66dc 973d

lstm.bias_ih_l1 f4 [64]
-0.104830384 0.055126335 0.01284207 -0.07751338 0.08526519 -0.27242985 -0.018846061 0.29379746
0.016020607 -0.13468279 -0.04399585 -0.11036204 0.2283296 -0.034043398 -0.19738387 -0.020635549
0.059816856 -0.12831768 -0.2964296 0.13193594 -0.03676296 -0.23128271 0.040867317 -0.042065572
-0.03377053 -0.14747156 -0.0495672 0.15899108 -0.30123687 -0.19219355 0.124091335 0.16107324
-0.2048728 0.111869246 0.018936587 0.17132026 -0.013098716 0.028624203 0.0713085 0.07138771
0.11323819 0.18765597 -0.09265565 -0.026661813 0.08481868 -0.07497714 -0.03077395 0.020088349
0.025009723 -0.33858147 -0.0461532 -0.15856454 -0.11251508 -0.24773371 -0.13384292 0.25690097
-0.0466165 -0.027678795 -0.23590675 0.20703223 0.0069680996 -0.24910614 0.03162751 0.056717366
00000000: 50b1 d6bd 27cc 613d 8c67 523c 56bf 9ebd
00000010: 849f ae3d ed7b 8bbe 0e63 9abc 9f6c 963e
00000020: a63d 833c 49ea 09be fe34 34bd 7e05 e2bd
00000030: 3ccf 693e 1771 0bbd ff1e 4abe e20b a9bc
00000040: 8502 753d b665 03be 9fc5 97be 371a 073e
00000050: c294 16bd 60d5 6cbe 7d64 273d f34c 2cbd
00000060: f852 0abd c902 17be fa06 4bbd 8fce 223e
00000070: b83b 9abe 63ce 44be 9923 fe3d 62f0 243e
00000080: 2dca 51be b41b e53d e720 9b3c 946e 2f3e
00000090: ff9b 56bc 4e7d ea3c 310a 923d b833 923d
000000a0: 6de9 e73d e328 403e 3fc2 bdbd e069 dabc
000000b0: 6bb5 ad3d 9d8d 99bd a719 fcbc 5290 a43c
000000c0: 31e1 cc3c 8d5a adbe 230b 3dbd be5e 22be
000000d0: 4e6e e6bd e8ad 7dbe 1e0e 09be 8688 833e
000000e0: f1f0 3ebd a4be e2bc 8a91 71be 4200 543e
000000f0: a854 e43b ae15 7fbe d98b 013d 7850 683d

lstm.bias_hh_l1 f4 [64]
-0.10748589 -0.20563237 -0.14790694 0.18778343 -0.0067611313 -0.14119093 -0.26062417 0.3483238
0.19199401 -0.14170888 0.011164209 -0.006710389 0.2086275 -0.17079313 -0.35370144 -0.4049747
0.06187835 -0.24483319 -0.27759936 -0.25226858 -0.088780455 0.110407114 -0.11005564 -0.07224489
0.18181255 -0.27461562 -0.20423217 -0.18064345 0.1276535 -0.17810602 0.1028727 0.13430128
-0.13563235 -0.24272667 0.15840787 0.0048650918 0.12169314 0.010583921 0.030256337 0.21118028
-0.0035627047 0.12261109 0.0666421 0.1928346 -0.087936856 -0.1858752 -0.064296566 0.107418574
-0.023128323 -0.21420133 -0.09380668 -0.09887987 -0.05020272 0.12282792 -0.3278031 0.008118947
0.13172415 -0.23501037 -0.112605765 0.16946831 -0.057186082 0.1334201 0.14761327 -0.14777
00000000: 9021 dcbd 4b91 52be eb74 17be 4d4a 403e
00000010: 7b8c ddbb 5b94 10be 8870 85be 7f57 b23e
00000020: 149a 443e 221c 11be 16ea 363c d3e2 dbbb
00000030: 73a2 553e 65e4 2ebe 5b18 b5be d858 cfbe
00000040: 2774 7d3d 8db5 7abe 8121 8ebe 5929 81be
00000050: 87d2 b5bd 201d e23d da64 e1bd 21f5 93bd
00000060: 122d 3a3e 6b9a 8cbe 3d22 51be 99fa 38be
00000070: 99b7 023e 6d61 36be ecae d23d 4686 093e
00000080: 35e3 0abe 578d 78be ac35 223e 596b 9f3b
00000090: 413a f93d 2f68 2d3c 23dc f73c a53f 583e
000000a0: 447c 69bb 861b fb3d a77b 883d 6f76 453e
000000b0: 3d18 b4bd 1256 3ebe ebad 83bd 45fe db3d
000000c0: 9c77 bdbc 9857 5bbe b71d c0bd 8781 cabd
000000d0: 5ea1 4dbd 348d fb3d cfd5 a7be 5505 053c
000000e0: b2e2 063e 8fa6 70be da9d e6bd 1a89 2d3e
000000f0: f43b 6abd 479f 083e ef27 173e 0551 17be

fc.weight f4 [1, 16]
-0.17153068 -0.012172106 0.089399114 0.1146844 0.03299605 0.08345985 -0.1217229 -0.04730709
0.115421385 0.18336184 0.022714293 0.109948836 -0.022243807 -0.114190005 -0.029868709 -0.0022030936
00000000: bda5 2fbe 836d 47bc e216 b73d a8df ea3d
00000010: de26 073d ffec aa3d db49 f9bd 14c5 41bd
00000020: 0c62 ec3d 35c3 3b3e 5313 ba3c db2c e13d
00000030: a538 b6bc 73dc e9bd 39af f4bc c761 10bb
