time_series_intro_class/final_project/temp/2_layer_16_size_model_epoch_1900.pth (torch, 15459 bytes, 9 tensors)

lstm.weight_ih_l0 f4 [64, 1]
0	0xbe8ac8fd	-0.27106467
1	0xc0835b66	-4.104907
2	0xbf8b4576	-1.0880573
3	0xbfe55387	-1.7916116
4	0xbfc19109	-1.5122386
5	0x4027bf95	2.6210682
6	0xbf959f09	-1.1689159
7	0xbec59d62	-0.38596636
8	0x3fb3903d	1.4028393
9	0x4068f052	3.639668
10	0xbf3a9f15	-0.7289899
11	0x3e583978	0.21115673
12	0x3e18ab63	0.14909129
13	0x400a05c0	2.156601
14	0xc03df00c	-2.9677763
15	0x3eaf06ca	0.34184867
16	0x3ec0a2e4	0.37624276
17	0xbead6614	-0.33866942
18	0xbf9317c6	-1.149163
19	0xbf7f6a02	-0.9977113
20	0xbecca9a7	-0.39973184
21	0x4003ed98	2.0613766
22	0xbfdc50d8	-1.7212172
23	0xc04208cd	-3.0317872
24	0x3ed1dd89	0.4098933
25	0x3fb4d4e5	1.412747
26	0xbee9c0c3	-0.45654878
27	0xbe978db1	-0.2960029
28	0x3efbdb07	0.49190542
29	0x3e1c99ff	0.1529312
30	0xc0927fcc	-4.5781
31	0x3fe12afe	1.7591245
32	0xc013bb7b	-2.308318
33	0xc039e698	-2.9046993
34	0xc0193e12	-2.3944135
35	0xbfcc73a0	-1.5972786
36	0xc0043c03	-2.0661628
37	0x3cac756c	0.021052085
38	0xbfecc50f	-1.8497638
39	0xc01e3cef	-2.472469
40	0x3e9c473b	0.30523095
41	0xbee0376e	-0.4379229
42	0x3fb1f553	1.3902992
43	0xbf05f5ee	-0.52328384
44	0xbf55bce5	-0.83491355
45	0xbfffc003	-1.9980472
46	0x3fa1f737	1.2653569
47	0xbfa1e6ba	-1.2648537
48	0x3fbf1a10	1.4929829
49	0xc0810fc8	-4.0331764
50	0xbe9c0b63	-0.30477437
51	0xbf335947	-0.700581
52	0xbd3bbda8	-0.045835167
53	0x403de7d3	2.9672744
54	0xc0022e30	-2.034069
55	0xbf97f60b	-1.1871961
56	0x3f28603c	0.6577184
57	0x409757a3	4.729448
58	0xbf0cb52f	-0.54963964
59	0xbe2f86ef	-0.17141317
60	0x3ebb3795	0.36565843
61	0x3e141194	0.1445983
62	0xc03b68b6	-2.928266
63	0x4005e258	2.09194

lstm.weight_hh_l0 f4 [64, 16]
0	0x3dbd9762	0.092573896
1	0x3f4ca267	0.79935306
2	0x3f357ed1	0.7089663
3	0x3f01770b	0.5057227
4	0x3e1e489b	0.15457384
5	0xbb9e471c	-0.0048302542
6	0xbc0ff72c	-0.008786958
7	0x3e863838	0.26214767
8	0x3f1d765f	0.61508745
9	0xbe83fb56	-0.25777692
10	0xbd1b2232	-0.037874408
11	0x3e4aa3af	0.19789003
12	0x3d931502	0.07181741
13	0x3f8c8748	1.0978785
14	0xbfc6c61c	-1.5529208
15	0x3e854124	0.2602626
16	0xbe593f33	-0.21215515
17	0xbe169567	-0.1470543
18	0xbeb63be2	-0.35592562
19	0x3d42ffec	0.047607347
20	0x3bb14d96	0.0054108603
21	0x3db31821	0.087448366
22	0x3da99ded	0.08282075
23	0x3ebe495d	0.37165347
24	0x3d85796d	0.06517301
25	0x3f00575f	0.5013332
26	0xbcacfb7f	-0.021116016
27	0xbeab9a4b	-0.33516154
28	0x3dccdd7d	0.10003183
29	0xbea6bc5b	-0.3256558
30	0x3ec3dfc5	0.3825666
31	0xbf0973cc	-0.53692317
32	0x3efa0690	0.48833132
33	0x3f2db29e	0.67850673
34	0x3f0f8291	0.56058604
35	0x3eafdbf6	0.34347504
36	0x3e88d225	0.26722828
37	0xbd8dd3b8	-0.06925148
38	0x3da0a66c	0.078442425
39	0x3e51ed68	0.2050072
40	0x3d8d6ac0	0.069051266
41	0x3e83f6dc	0.25774276
42	0xbec30105	-0.38086715
43	0xbcc92ec6	-0.024558436
44	0x3cb568cb	0.022144696
45	0xbe766dad	-0.24065275
46	0x3f3d8593	0.74031943
47	0xbf003384	-0.50078607
48	0x3d88e98e	0.06685172
49	0xbd74c7af	-0.059760746
50	0x3ed57420	0.4169016
51	0xbcb4e39d	-0.02208119
52	0x3edd71ef	0.43250987
53	0x3dd9738d	0.10617743
54	0x3c49a593	0.012307542
55	0x3e19b981	0.1501217
56	0xbd611b8e	-0.05495792
57	0xb9941db7	-0.000282509
58	0xbf10fab6	-0.56632555
59	0xbe698bd0	-0.2280724
60	0x3eb7831d	0.3584222
61	0x3f2cef5c	0.67552733
62	0x3f1359ad	0.5755871
63	0xbdfd2b54	-0.1236178
64	0x3ef544e1	0.47904113
65	0x3efc7613	0.49308833
66	0x3fa32ee4	1.2748685
67	0x3f7d56c7	0.98960537
68	0x3e9c43ef	0.3052058
69	0x3d673b7c	0.056453213
70	0x3eaff652	0.34367615
71	0x3f17a940	0.5924263
72	0x3f04fc88	0.5194783
73	0xbe331738	-0.17489326
74	0xbee71e33	-0.45140228
75	0x3e6f8218	0.2338947
76	0xbdcbc9f5	-0.099506296
77	0x3f175ead	0.5912884
78	0xbd94113f	-0.07229852
79	0xbe9252d1	-0.2857881
80	0x3efb6534	0.4910065
81	0x3e8323ed	0.25613347
82	0x3ee53329	0.44765595
83	0xbce8011a	-0.028320838
84	0x3e26861d	0.16262098
85	0x3f1f7236	0.6228365
86	0x3e090f28	0.13384688
87	0x3e13baf2	0.14426783
88	0x3d49ed4a	0.049298562
89	0xbe3d1cf4	-0.18468076
90	0xbea55e30	-0.32298422
91	0x3e8a6471	0.27029756
92	0x3e223bee	0.15843174
93	0x3e47f3a7	0.1952654
94	0xbee69741	-0.45037273
95	0x3e15f9fe	0.14646146
96	0xbdaf21a9	-0.08551342
97	0x3e69792a	0.22800127
98	0x3eb61ad4	0.35567343
99	0xbe0d8318	-0.1381954
100	0x3eacead2	0.33772904
101	0x3d36be70	0.04461521
102	0xbe607bc3	-0.21922211
103	0xbdeaee94	-0.114712864
104	0xbdca1af3	-0.098684214
105	0x3e1f1921	0.1553693
106	0xbee09828	-0.43866086
107	0xbdfdb0fe	-0.12387274
108	0xbd64540b	-0.055744212
109	0x3dd28f2f	0.10281216
110	0x3f4821eb	0.78176755
111	0x3e8040ae	0.25049347
112	0x3ec20752	0.3789621
113	0xbec5bb29	-0.38619354
114	0x3eee9c68	0.46603703
115	0x3e0f42b4	0.13990289
116	0x3ea4ae57	0.3216426
117	0x3cee4645	0.029086241
118	0x3ef76e99	0.48326567
119	0x3ef8b8d1	0.48578504
120	0x3ea9eeb6	0.33189934
121	0xbe122274	-0.14270955
122	0xbed8ec15	-0.42367616
123	0xbe1c31fd	-0.15253444
124	0x38a0eed2	7.673878e-05
125	0x3d5ea47e	0.05435609
126	0x3e847a27	0.25874445
127	0xbe47735f	-0.19477604
128	0x3e98293d	0.29718962
129	0x3f181b83	0.5941698
130	0x3ee5b9c7	0.448683
131	0x3e977ac9	0.29585865
132	0x3e57a9d2	0.21060875
133	0x3f0f89c4	0.5606959
134	0x3e88de11	0.26731923
135	0x3ce76139	0.028244602
136	0x3e587aa1	0.21140529
137	0xbf03e67f	-0.51523584
138	0xbeb59089	-0.35461834
139	0xbdba8704	-0.091077834
140	0xbf1e0082	-0.61719525
141	0xbd30423b	-0.043031912
142	0x3f8d11cd	1.1021057
143	0x3e79e122	0.24402288
144	0x3de5544e	0.111977205
145	0x3d948f3e	0.07253884
146	0x3e33ec92	0.17570713
147	0x3e67225e	0.22571704
148	0xbe2ad7c0	-0.16683865
149	0xbd8ffde1	-0.070308454
150	0x3e3faf08	0.18719113
151	0x3e1d3765	0.15353163
152	0x3e606754	0.21914417
153	0xbe6f4e75	-0.23369773
154	0x3e123ff4	0.14282209
155	0x3e143136	0.14471897
156	0x3e91e4c5	0.2849485
157	0x3f4c8d89	0.79903466
158	0xbfa035a3	-1.2516369
159	0xbe01bfbf	-0.12670802
160	0x3e9247ae	0.28570312
161	0x3d1d1038	0.038345546
162	0x3dc699c4	0.09697297
163	0x3ed4a5fb	0.41532883
164	0x3da45804	0.080246
165	0x3ee1ba56	0.44087476
166	0x3e448181	0.19190027
167	0x3e41fc85	0.18943985
168	0x3e31c763	0.17361216
169	0xbe5c3597	-0.21504818
170	0xbd8bfae9	-0.06834967
171	0xbeb224b7	-0.34793636
172	0x3d87c5e0	0.066295385
173	0x3dcefd36	0.1010689
174	0x3e2745ab	0.1633517
175	0xbe3065e2	-0.17226365
176	0xbe7c3731	-0.24630429
177	0xbea6e25f	-0.32594582
178	0xbe96d3c2	-0.29458433
179	0xbec4a52d	-0.3840727
180	0xbe7ec703	-0.24880604
181	0xbe8feee5	-0.2811195
182	0xbd94827f	-0.07251453
183	0xbca25946	-0.01981796
184	0xbee36053	-0.44409427
185	0x3ea42416	0.3205878
186	0xbe1a30f9	-0.15057744
187	0xbe2e946f	-0.1704881
188	0x3d8be5b9	0.068309255
189	0x3f1074bb	0.56428117
190	0x3ea8abf3	0.32943687
191	0xbd839db5	-0.064265646
192	0x3d86b438	0.06577343
193	0x3ee9961b	0.45622334
194	0x3ec6d792	0.38836342
195	0x3eaf2c62	0.3421355
196	0x3f133b2d	0.5751217
197	0x3d843f0a	0.06457336
198	0x3eeceb29	0.46273163
199	0x3ef15efb	0.47142777
200	0xbd26f800	-0.040763855
201	0xbebdaa3b	-0.37043938
202	0xbecb7e44	-0.3974477
203	0xbe9fb94a	-0.31196052
204	0x3db875ca	0.090068415
205	0x3e81c159	0.25342825
206	0xbdd0426f	-0.10168921
207	0x3d3c5b2d	0.04598539
208	0x3f79d6b5	0.9759324
209	0xbef24c90	-0.47324038
210	0x3e472d36	0.1945084
211	0x3e3daba5	0.18522508
212	0x3f419e4c	0.75632167
213	0x3ea1ad0c	0.31577337
214	0x3e0126bd	0.12612434
215	0x3e2adc3e	0.16685578
216	0xbec98bf1	-0.3936458
217	0x3cfea41c	0.031084113
218	0xbf0b53ee	-0.5442494
219	0x3e8918c1	0.26776698
220	0x3e4d9bb2	0.20078924
221	0xbdfe63d2	-0.12421383
222	0x3ef95fbd	0.48705855
223	0xbe8adb1e	-0.27120298
224	0x3e094e55	0.13408788
225	0x3e21c38e	0.15797254
226	0xbeef81c7	-0.467787
227	0x3f33c634	0.7022431
228	0x3e522296	0.20521006
229	0x3d929d4b	0.071589075
230	0x3eccae00	0.399765
231	0x3f4d3032	0.80151665
232	0x3f6041a8	0.87600183
233	0x3d2171c4	0.039415136
234	0xbc680536	-0.014161399
235	0xbf5993cd	-0.8499115
236	0x3f2e0794	0.67980313
237	0xbf42a3ae	-0.76031005
238	0xbdf93853	-0.12168946
239	0x3ebbc752	0.36675507
240	0x3ef5c258	0.47999835
241	0xbe1a35af	-0.15059541
242	0xbe31a941	-0.17349721
243	0x3db08b53	0.08620324
244	0xbe8db13b	-0.2767428
245	0xbef87287	-0.48524877
246	0xbd892027	-0.06695586
247	0x3b13c470	0.0022547506
248	0x3df68f95	0.12039105
249	0x3f069b22	0.52580464
250	0xbc3d115e	-0.011539785
251	0xbdf9d61f	-0.121990435
252	0x3d96c3e5	0.07361583
253	0x3d16ab9e	0.03678476
254	0xbfbf8e78	-1.4965353
255	0xbeb5058c	-0.35355794

lstm.bias_ih_l0 f4 [64]
0	0x3e524fde	0.2053828
1	0x3e0e8e33	0.13921432
2	0x3ea47fb1	0.3212867
3	0x3e3c52a3	0.18390898
4	0x3d8e088e	0.069352254
5	0xbe1b3fc1	-0.15161039
6	0x3e634ec6	0.22198018
7	0x3c56bc8b	0.013106476
8	0xbe71b4e1	-0.23604156
9	0x3e9b5681	0.30339435
10	0x3cbfa653	0.02339474
11	0x3e786f3a	0.2426118
12	0xbe3318b4	-0.17489892
13	0x3a80167c	0.0009772326
14	0x3eb16c4d	0.3465294
15	0x3c2fece7	0.010737634
16	0x3e6b813a	0.22998515
17	0x3eb1ccea	0.3472665
18	0x3ea7a00b	0.3273929
19	0x3e021165	0.12701948
20	0x3df6f5a9	0.12058575
21	0xbd3cf8a7	-0.04613557
22	0xbe209a2c	-0.15683812
23	0x3e9ee2b9	0.3103235
24	0x3e68b8ae	0.227267
25	0x3e194efd	0.14971538
26	0xbe0ac2b2	-0.13550833
27	0x3d7cd3e1	0.0617255
28	0x3ead144a	0.33804542
29	0x3e8fafd5	0.28063837
30	0xbe381f50	-0.17980695
31	0xbdc5a4c0	-0.09650564
32	0xbb0a65ff	-0.0021117923
33	0x3baa468e	0.005196399
34	0xbd03e1ac	-0.03219764
35	0xbd5a0279	-0.053225014
36	0x3d9486b7	0.07252257
37	0x3ce7e402	0.028306965
38	0x3d94f946	0.07274108
39	0xbdfbc9d4	-0.12294355
40	0xbddcd323	-0.10782459
41	0xbdffe5d3	-0.12495007
42	0xbe0c68f4	-0.13711911
43	0xbddb6889	-0.10713298
44	0x3d2aba57	0.041681614
45	0xbda2b7e5	-0.07945231
46	0x3d2e2390	0.042514384
47	0x3d2a845f	0.041630145
48	0x3eb87833	0.36029205
49	0x3f26b444	0.65118814
50	0x3eba8e78	0.3643682
51	0x3e8fab3d	0.28060332
52	0x3e78e512	0.24306133
53	0xbd890631	-0.06690634
54	0x3d8bdeaa	0.06829579
55	0x3ea5fcc2	0.324194
56	0xbe013b52	-0.12620285
57	0x3ecd4e43	0.4009877
58	0xbaa807be	-0.001281969
59	0xbd32f8e6	-0.0436944
60	0x3de2cfa6	0.11074762
61	0x3ee791b5	0.45228353
62	0x3f0185ad	0.505946
63	0xbcfa3c50	-0.030546337

lstm.bias_hh_l0 f4 [64]
0	0x3e91c86d	0.28473225
1	0x3eeeab8a	0.4661525
2	0x3eab48ed	0.33454075
3	0xbd26c7d8	-0.04071793
4	0x3dba5ca9	0.09099705
5	0xbe6173a0	-0.22016764
6	0xbcabd3e1	-0.020975055
7	0x3e1d402f	0.15356515
8	0x3bd4f943	0.006499441
9	0x3e9af99d	0.30268565
10	0xbd80ac72	-0.06282891
11	0x3df90ecc	0.121610254
12	0xbe267340	-0.16254902
13	0x3dda7be1	0.10668159
14	0x3f4c159d	0.7972048
15	0x3e25642c	0.16151494
16	0xbde13708	-0.109968245
17	0x3e3c86d6	0.18410811
18	0x3e5fa7cd	0.21841355
19	0xbe31dfec	-0.17370576
20	0x3e11344d	0.14180107
21	0x3e24f15e	0.161077
22	0x3e09e9b5	0.13468058
23	0x3ecbc924	0.39801896
24	0xbe260c32	-0.1621559
25	0x3e3148b9	0.17312898
26	0x3ea1c34c	0.31594312
27	0xbe6faf13	-0.2340663
28	0x3e4a39fe	0.19748685
29	0x3f0480e6	0.51759183
30	0xbdc6319f	-0.09677433
31	0xbdfcacbb	-0.12337633
32	0xbd032c74	-0.032024816
33	0x3d8f8905	0.07008556
34	0x3d09d936	0.033654414
35	0x3d088499	0.03332958
36	0xbcf911af	-0.03040394
37	0xbe099053	-0.13433962
38	0x3dad2ee3	0.084562086
39	0x3dd3f2f1	0.10349072
40	0x3e0d0ba2	0.13773969
41	0x3d767272	0.060167737
42	0x3d6e0c53	0.058117222
43	0xbb25ffa2	-0.002532937
44	0x3e48cc8e	0.19609281
45	0x3db4087f	0.08790683
46	0xbdda760e	-0.106670484
47	0x3cc4a507	0.024004472
48	0x3e873350	0.26406336
49	0x3eb0905c	0.34485137
50	0x3df323c6	0.118720576
51	0xbd40d794	-0.04708059
52	0x3e9fa2c7	0.31178877
53	0x3e4dc89b	0.20096056
54	0x3e40f74d	0.18844338
55	0x3e5df23c	0.21674436
56	0x3d3bde10	0.045866072
57	0x3df28b82	0.11843015
58	0x3e02c16b	0.12769096
59	0x3e7d2f77	0.24725138
60	0x3e33c4dc	0.17555565
61	0x3ede633c	0.43435085
62	0x3f5ab125	0.8542655
63	0xbe4652fd	-0.19367595

lstm.weight_ih_l1 f4 [64, 16]
0	0xbe9baccb	-0.30405268
1	0x3d7e2baa	0.06205336
2	0xbe80f3c1	-0.2518597
3	0xbe100699	-0.14065017
4	0xbe630b21	-0.22172214
5	0x3df3fbad	0.11913238
6	0x3ecb62b8	0.39723754
7	0xbcb667b0	-0.022266239
8	0xbe665c46	-0.22496137
9	0x3ce9a899	0.028522776
10	0x3d370cd7	0.04468998
11	0xbe331f0f	-0.17492317
12	0xbe8887c2	-0.26666075
13	0xbe61ba8f	-0.22043823
14	0x3e5c1646	0.21492872
15	0x3e3fafd8	0.18719423
16	0x3f855286	1.0415809
17	0x401c5858	2.442892
18	0x3fb82cd3	1.4388679
19	0x3e9a3e62	0.3012572
20	0x3f4be6b3	0.79648894
21	0x3e63dfe3	0.22253375
22	0x3f0befe8	0.5466294
23	0x3d841322	0.06448962
24	0xbe266e69	-0.16253056
25	0x3d8e82d0	0.06958544
26	0xbf7f4ca7	-0.9972634
27	0xbe79abe6	-0.2438198
28	0xbddfe321	-0.10931993
29	0xbef7b8fa	-0.48383313
30	0xbf58c5ae	-0.84676635
31	0x3e488f07	0.1958581
32	0x3e5f68e0	0.2181735
33	0x3f29ebc9	0.66375405
34	0x3e17e84e	0.14834711
35	0x3e2c50bf	0.16827677
36	0xbe914dbd	-0.28379622
37	0x3e1a576d	0.15072413
38	0xbd4980af	-0.049194988
39	0xbeb32583	-0.34989557
40	0xbcab082c	-0.02087792
41	0xbeccc678	-0.3999517
42	0xbeb50b07	-0.35359976
43	0xbd80de77	-0.06292432
44	0xbe4c56cf	-0.1995499
45	0xbf56c354	-0.838918
46	0x3c9c8f94	0.019111432
47	0x3ef46776	0.47735184
48	0x3e3eab66	0.18620071
49	0x3ecc765e	0.39934057
50	0xbe214c9f	-0.15751885
51	0xbe69b959	-0.22824611
52	0x3e3102fd	0.17286296
53	0x3d2cd2c2	0.04219318
54	0xbbc125f2	-0.005894416
55	0xbe80ef7f	-0.2518272
56	0xbe5fa286	-0.21839342
57	0xbe11aa78	-0.14225185
58	0xbe5c2eb0	-0.21502185
59	0xbe83e34f	-0.2575936
60	0xbedebc7b	-0.43503174
61	0xbee9cb57	-0.45662948
62	0xbee36eaa	-0.44420367
63	0xbdf0ee3a	-0.11764188
64	0x3e8188de	0.25299734
65	0xbe2bb117	-0.16766773
66	0xbe721543	-0.23640923
67	0xbecc5198	-0.39906
68	0x3e4be3ab	0.19911067
69	0x3edf1e44	0.43577778
70	0xbd88ac2d	-0.06673465
71	0xbf03e89f	-0.51526827
72	0x3e8b0bed	0.27157536
73	0xbe0ebc15	-0.13938935
74	0xbe20484a	-0.15652576
75	0xbe38013b	-0.1796922
76	0x3e1c64d3	0.15272836
77	0xbf1f175a	-0.62145007
78	0x3e3905b9	0.1806859
79	0x3de93f04	0.113889724
80	0x3f6e1e20	0.9301472
81	0x3f5f85b6	0.873134
82	0x3e767f3b	0.24071972
83	0xbd193408	-0.037403136
84	0x3f3885b2	0.72079
85	0xbd2e12ab	-0.042498272
86	0xbe8b3d1c	-0.2719506
87	0xbeb6c881	-0.35699847
88	0xbea6b4f3	-0.32559928
89	0xbdfd2f93	-0.1236259
90	0xbe8f8498	-0.28030849
91	0x3f0411ec	0.51589847
92	0x3e66a6b1	0.22524525
93	0xbe996b1c	-0.2996453
94	0xbf3ac5a9	-0.72957855
95	0xbdd86619	-0.105663486
96	0xbe2e5f94	-0.17028648
97	0xbe5928f6	-0.21207032
98	0xbe1bf770	-0.15231109
99	0xbde7a1d3	-0.113101624
100	0xbdb5dc98	-0.088799655
101	0x3e979465	0.29605404
102	0xbe9f4506	-0.31107348
103	0x3dbf9a96	0.09355657
104	0x3d270df6	0.0407848
105	0xbd773742	-0.060355432
106	0x3e6d617e	0.23181722
107	0x3d821d74	0.06353274
108	0xbeaeb698	-0.34123683
109	0xbda34b1d	-0.07973311
110	0x3f0cc463	0.5498716
111	0x3dd63728	0.10459739
112	0xbf16a975	-0.5885232
113	0xbe5fb8f1	-0.21847893
114	0xbea3b0e6	-0.319709
115	0xbd8ebf0e	-0.069700345
116	0xbec10a42	-0.3770314
117	0x3f1b62ed	0.60697824
118	0x3d94906e	0.0725411
119	0x3da9b787	0.08286958
120	0x3ee67b3f	0.45015904
121	0xbf589010	-0.8459482
122	0x3e974ff1	0.29553178
123	0xbf374c93	-0.7160122
124	0xbf045686	-0.51694524
125	0xbf04ef7f	-0.5192794
126	0x3f97a136	1.1846073
127	0x3de00ed7	0.109403305
128	0x3f65fb2e	0.89836395
129	0x4018130d	2.3761628
130	0x3f58b2ac	0.8464763
131	0x3eaefc23	0.3417674
132	0x3f070cda	0.52753985
133	0x3f0fad5f	0.5612392
134	0x3db90870	0.090348125
135	0xbdf60b9f	-0.12013935
136	0x3c8f3d3e	0.017485257
137	0xbecc6f0c	-0.39928472
138	0xbf40fdbf	-0.75387186
139	0x3e75755e	0.23970553
140	0x3e3e45ff	0.18581389
141	0xbf2588e3	-0.64662
142	0xbf4b3d3f	-0.7939033
143	0x3f81c7b8	1.0139074
144	0xbe943798	-0.28948665
145	0xbe5b8152	-0.2143605
146	0x3ea1bc99	0.315892
147	0x3e4c5056	0.1995252
148	0xbe08837c	-0.13331407
149	0xbe14f833	-0.14547805
150	0xbe2db2c8	-0.16962731
151	0xbdd31b13	-0.10307898
152	0xbe23657d	-0.15956683
153	0xbebdbf1a	-0.3705986
154	0x3dc168f4	0.09443846
155	0xbd4e8659	-0.050421093
156	0x3e58a521	0.21156742
157	0x3d56c7d3	0.05243666
158	0x3bf3fdb4	0.0074460153
159	0x3e5a5770	0.21322417
160	0xbe833f54	-0.25634253
161	0xbdd4e880	-0.10395908
162	0xbe02da89	-0.12778677
163	0x3dc90902	0.09816171
164	0xbe1dc331	-0.15406491
165	0xbe2d2c8c	-0.16911525
166	0xbcdc7d82	-0.026915316
167	0x3e7403cf	0.23829578
168	0x3e7aab93	0.24479513
169	0xbe1ff3bd	-0.15620323
170	0x3ed9b620	0.42521763
171	0x3e4d89cf	0.20072101
172	0xbdb989f8	-0.090595186
173	0xbf2cd9da	-0.67519915
174	0x3e76a476	0.24086174
175	0xbe53f182	-0.20697597
176	0xbefc6723	-0.49297437
177	0xbf011386	-0.50420415
178	0x3dedbfdb	0.11608859
179	0xbe0d6377	-0.13807474
180	0xbe166efc	-0.14690775
181	0x3e42517f	0.18976401
182	0xbd81bd92	-0.06334986
183	0xbebe375c	-0.3715161
184	0xbd8826b2	-0.066480055
185	0xbe28fc1a	-0.16502419
186	0xbe62ca12	-0.22147396
187	0xbd8763c1	-0.066108234
188	0xbe15d888	-0.14633381
189	0xbd8ce23c	-0.06879088
190	0x3e60aecc	0.2194168
191	0x3ecfde76	0.40599412
192	0xbf39a8d6	-0.7252325
193	0xbf94f296	-1.1636531
194	0xbf27775a	-0.6541649
195	0xbf0d7de7	-0.55270237
196	0xbe93cad8	-0.28865695
197	0x3f0e141b	0.5549943
198	0xbe5a93c0	-0.21345425
199	0xbdd571ab	-0.10422071
200	0x3ac09ba6	0.0014694824
201	0xbedb9122	-0.42884165
202	0xbd7996af	-0.06093472
203	0xbe97c8f9	-0.29645517
204	0xbf09f017	-0.53881973
205	0xbf0a7fe2	-0.54101384
206	0x3eb9ae06	0.36265582
207	0x3e9ce2c7	0.30641767
208	0x3ef687bd	0.48150435
209	0xbe3707c3	-0.17874055
210	0x3b1dcb95	0.0024077643
211	0xbdba479e	-0.09095691
212	0x3d8a9445	0.067665614
213	0xbefb591c	-0.49091423
214	0x3e57ec42	0.21086219
215	0xbdd6f7dc	-0.10496494
216	0x3d83d575	0.06437198
217	0xbe1e9d39	-0.15489663
218	0xbe017a46	-0.126443
219	0xbd739939	-0.059472296
220	0x3c1dc283	0.009628895
221	0xbe73121d	-0.23737378
222	0xbe032719	-0.12807883
223	0xbd7653aa	-0.060138382
224	0x3f1bbfce	0.60839546
225	0x3ec42998	0.38312984
226	0x3eb9f4c0	0.36319542
227	0x3e133820	0.14376879
228	0x3ef874ec	0.48526704
229	0x3db327f1	0.087478526
230	0xbda0205a	-0.078186706
231	0x3ec17476	0.37784165
232	0xbea2284c	-0.3167137
233	0x3d5a64c0	0.05331874
234	0xbebd3344	-0.36953175
235	0x3c84a908	0.016193882
236	0x3e5e9f9f	0.21740578
237	0x3dcea29a	0.100896075
238	0x3ecf4cad	0.40488186
239	0x3e262683	0.16225629
240	0x3ed7d25c	0.4215268
241	0x3fa8f7cb	1.320062
242	0x3f01bb08	0.5067601
243	0x3f38c89e	0.7218112
244	0x3e0d790b	0.13815705
245	0x3f833744	1.0251241
246	0x3f25259e	0.64510524
247	0x3f44c080	0.7685623
248	0xbe76e9dd	-0.2411265
249	0xbdf6d069	-0.1205147
250	0xbe588e94	-0.21148139
251	0xbeea5c07	-0.45773336
252	0xbf3e706f	-0.7439031
253	0xbef0ec0c	-0.4705509
254	0x3f0fdf7a	0.56200373
255	0x3f0a205a	0.53955615

lstm.weight_hh_l1 f4 [64, 16]
0	0xbd81b30d	-0.06332979
1	0x3cbd03a3	0.023073023
2	0x3e7295e2	0.23689988
3	0x3c17fe59	0.00927695
4	0x3ec4b17c	0.3841666
5	0xbec1dab9	-0.37862185
6	0xbda16705	-0.078809775
7	0x3ecf42e5	0.40480724
8	0xbe8d63f3	-0.27615318
9	0x3e242812	0.1603091
10	0xbe261287	-0.16218005
11	0xbe025d93	-0.12731008
12	0x3e90e320	0.28298283
13	0xbde60d2a	-0.112329796
14	0x3cb7a55b	0.022417715
15	0xbe2bf864	-0.16793972
16	0xbf178762	-0.5919095
17	0xbe11bcd2	-0.14232185
18	0xbe21c925	-0.15799387
19	0xbe998053	-0.29980716
20	0x3f1d5c03	0.61468524
21	0xbd4122ea	-0.047152437
22	0xbd93d601	-0.072185524
23	0x3e1a8a5d	0.15091844
24	0x3e746118	0.23865163
25	0x3e468829	0.19387878
26	0x3eed9eee	0.46410316
27	0xbd6c4d84	-0.057691112
28	0x3e2129bc	0.15738577
29	0xbe73be3d	-0.23803039
30	0x3e5b3e18	0.21410406
31	0xbed02829	-0.4065564
32	0xbdef0418	-0.11670703
33	0xbf11691a	-0.56801
34	0x3f2d1b91	0.6762019
35	0x3e4b1f3f	0.19836138
36	0x3f9db96b	1.232221
37	0x3e07dd9a	0.13268128
38	0x3e2da4df	0.16957425
39	0x3d697bd7	0.05700287
40	0x3e8a88b8	0.27057433
41	0x3e98bf64	0.2983352
42	0xbf27b1c2	-0.6550561
43	0xbe55da82	-0.20884135
44	0x3ef30ff1	0.474731
45	0xbe712915	-0.23550828
46	0x3e5a3b0b	0.21311586
47	0x3ca8b632	0.02059469
48	0x3b984f09	0.0046480936
49	0x3d0d212e	0.03445547
50	0xbe08e966	-0.13370284
51	0xbd8604af	-0.06543862
52	0x3dc08dc3	0.09402039
53	0xbdeab622	-0.1146052
54	0xba98629a	-0.0011626065
55	0x3ea8da00	0.3297882
56	0x3df55eab	0.11980947
57	0xbda765cf	-0.08173715
58	0x3e120e0a	0.14263168
59	0xbd8b6d1c	-0.0680792
60	0x3f11af3c	0.5690801
61	0xbd6ae725	-0.057349343
62	0x3ebd0dae	0.369245
63	0x3eaa33f1	0.33242753
64	0xbf1800ee	-0.5937642
65	0xbf6b71e8	-0.9197068
66	0x3f861dff	1.0477904
67	0x3f21fcbe	0.6327628
68	0x3f9adf87	1.2099465
69	0x3e836e5c	0.25670135
70	0xbc655d29	-0.013999262
71	0x3eafd438	0.34341598
72	0x3ffe3417	1.9859647
73	0x3ed48a95	0.4151198
74	0x3ed2612e	0.41089767
75	0x3f33b18b	0.70192784
76	0x3f3bdc40	0.7338295
77	0xbe062923	-0.1310163
78	0x3e760926	0.24026927
79	0x3e0a42b8	0.13502014
80	0xbdb36061	-0.08758617
81	0xbf1079bf	-0.5643577
82	0xbddf5695	-0.10905186
83	0x3e97e5ad	0.29667416
84	0x3e3ef295	0.18647225
85	0x3dc693d1	0.096961625
86	0x3d42db39	0.04757235
87	0x3d05ead8	0.032694668
88	0x3fc53b26	1.5408676
89	0x3e3ac091	0.18237521
90	0x3dfc30bc	0.12313983
91	0x3e2df141	0.16986562
92	0xbdcdd83a	-0.100510076
93	0xbd53bb34	-0.051692203
94	0x3eac6f55	0.3367869
95	0x3f80d2b2	1.0064299
96	0x3e7bf8ec	0.24606675
97	0xbe6e4342	-0.23267844
98	0xbea49626	-0.32145804
99	0xbe463fe1	-0.19360305
100	0x3c412e66	0.011790847
101	0x3df621b1	0.12018145
102	0xbd8f51b3	-0.06998005
103	0xbe3bed46	-0.18352231
104	0xbd3ad9f0	-0.045617998
105	0xbe0cdc4b	-0.1375591
106	0x3e2bf2b9	0.1679181
107	0x3e9f1d3d	0.31076995
108	0xbc8e8cce	-0.017401125
109	0x3e7fe8dc	0.24991173
110	0x3ed5e64c	0.41777265
111	0x3ed19ece	0.4094147
112	0xbf54ad86	-0.83077276
113	0xbf745c94	-0.95453763
114	0x3e98dee8	0.29857564
115	0xbe8f13a7	-0.2794468
116	0x3f94fc44	1.1639485
117	0x3f3a0370	0.72661495
118	0xbe0c3045	-0.13690288
119	0xbd4006c0	-0.046881437
120	0x3f9e0736	1.2345951
121	0xbbf7e1b0	-0.007564746
122	0x3f5770c4	0.8415644
123	0x3f7344f9	0.9502712
124	0x3ee5170e	0.44744152
125	0xbe97828d	-0.2959179
126	0xbd65af8b	-0.056075614
127	0x3ee595a5	0.44840732
128	0x3e92d1e3	0.28675756
129	0xbfb6bc74	-1.4276261
130	0x3f3786b7	0.71689934
131	0x3f42a4e3	0.7603285
132	0x3f15670c	0.5836036
133	0x3f327510	0.69709873
134	0x3cc527a4	0.024066754
135	0xbeaae630	-0.33378744
136	0x3fd2dfc5	1.6474539
137	0xbd7f9be2	-0.06240452
138	0xbd08fc58	-0.03344378
139	0xbda16305	-0.078802146
140	0x3da35b0d	0.07976351
141	0xbf5bcbb7	-0.8585772
142	0xbede5ed4	-0.43431723
143	0x3f1b681c	0.60705733
144	0xbe4c56c6	-0.19954976
145	0x3ee2d1c4	0.44300663
146	0xbc83758f	-0.016047267
147	0xbec988fd	-0.39362326
148	0x3ecafae9	0.39644554
149	0xbd8e5b61	-0.06951023
150	0x3deff046	0.117157504
151	0x3e9bbd73	0.30417976
152	0xbd8fdf33	-0.07024994
153	0x3c037a1a	0.008024717
154	0xbc1480b3	-0.009063887
155	0xbcd33ab3	-0.025784826
156	0x3d52465c	0.05133663
157	0x3e8c5a31	0.2741256
158	0x3e5e87c5	0.2173148
159	0xbe497e1e	-0.19677016
160	0x3d27a39e	0.040927522
161	0x3e005ce8	0.12535441
162	0x3f08d62d	0.53451806
163	0x3e86d80a	0.263367
164	0xbdd3803f	-0.103271954
165	0xbe03bf20	-0.12865877
166	0xbd86800c	-0.06567392
167	0xbf3c673f	-0.7359504
168	0x3eb75d17	0.3581321
169	0x3f14b0a3	0.58082026
170	0xbe3d843a	-0.18507472
171	0xbece6c3e	-0.40316957
172	0x3f079f48	0.5297742
173	0xbaa065e2	-0.0012237395
174	0x3da2c85d	0.079483725
175	0x3e829e8a	0.2551158
176	0xbea46b53	-0.32113132
177	0x3dc4c7ed	0.09608445
178	0x3e968dd9	0.29405096
179	0xbe7bd44f	-0.24592708
180	0x3f0b6793	0.54454917
181	0x3eca09c3	0.39460573
182	0xbcbe936a	-0.023263652
183	0xbe077a1f	-0.13230179
184	0x3e83aa4d	0.25715867
185	0xbd50d194	-0.05098112
186	0xbc8fe58e	-0.017565515
187	0xbcba71ce	-0.022759344
188	0x3e9f9284	0.3116647
189	0xbdeaff63	-0.114744924
190	0xbd99765b	-0.07493278
191	0xbe6e04a5	-0.23243959
192	0xbec657f2	-0.38738972
193	0xbe5a0ff3	-0.21295147
194	0xbe4950db	-0.1965975
195	0x3e15627a	0.14588347
196	0x3ea81230	0.32826376
197	0x3ed56877	0.41681263
198	0x3bd00cfb	0.0063492036
199	0x3d064d79	0.032788727
200	0x3f1576e4	0.5838454
201	0x3d8a9224	0.06766155
202	0x3f235f15	0.6381696
203	0x3ef204ff	0.47269437
204	0x3f9f7892	1.245867
205	0x3d80627a	0.06268783
206	0xbe0b2340	-0.13587666
207	0x3e8f0d32	0.27939755
208	0x3d5fcc13	0.05463798
209	0xbec0ffb9	-0.376951
210	0x3de01edc	0.10943386
211	0xbe53eb0a	-0.20695129
212	0x3e116ae7	0.14200936
213	0xbe860535	-0.26175848
214	0xbda7934a	-0.0818239
215	0x3e3046e2	0.1721454
216	0x3eebe98e	0.46076626
217	0xbd4156ed	-0.04720204
218	0xbedfb7c6	-0.43694896
219	0x3b718fd0	0.00368594
220	0x3ec15cf5	0.37766233
221	0x3ed1a566	0.40946501
222	0x3e69e8ef	0.22842763
223	0x3e6f7c9c	0.23387378
224	0xbd240667	-0.04004517
225	0xbea09094	-0.31360304
226	0xbd924974	-0.07142916
227	0xbda70fd9	-0.081573196
228	0xbe699e0f	-0.22814201
229	0x3edc28a2	0.4299975
230	0xbeb30292	-0.34962898
231	0x3e48078b	0.19534127
232	0x3f53da85	0.8275531
233	0xbd60874a	-0.05481652
234	0x3d1b4f93	0.037917685
235	0x3c15d5e9	0.009145238
236	0xbdeedbfb	-0.11663052
237	0x3edbc621	0.42924598
238	0xbd9acf4d	-0.07559071
239	0x3ebc936b	0.3683122
240	0x3e61b171	0.22040345
241	0xbe931581	-0.28727344
242	0xbe51b037	-0.20477377
243	0xbe81aeb4	-0.253286
244	0xbdaf980b	-0.08573922
245	0x3f46b897	0.7762541
246	0xbd9a08e7	-0.07521229
247	0x3f143013	0.57885855
248	0xbdde0a55	-0.108418144
249	0xbec4ab3d	-0.38411894
250	0x3e7f6613	0.24941282
251	0x3e0e4cb0	0.13896441
252	0x3e919104	0.2843095
253	0x3e060d76	0.13091072
254	0xbf00b9e9	-0.50283676
255	0x3eb22961	0.34797195

lstm.bias_ih_l1 f4 [64]
0	0xbda5e549	-0.08100373
1	0x3e49063b	0.19631283
2	0x3dfd416d	0.123659946
3	0xbd4f1b6f	-0.050563272
4	0x3e6e3f9f	0.23266457
5	0xbe8995c3	-0.26872072
6	0x3d85d8b0	0.065354705
7	0x3e94f5f4	0.29093897
8	0x3d6b2a79	0.057413552
9	0xbe0ede41	-0.1395197
10	0x3ec2c253	0.38038883
11	0xbdc5a4ed	-0.09650598
12	0x3e9ec38e	0.3100857
13	0xbdd9e249	-0.106388636
14	0xbe3877eb	-0.18014495
15	0x3deb10e8	0.11477834
16	0x3d9ec579	0.07752509
17	0xbcd460d8	-0.025925085
18	0xbe85ffcb	-0.26171717
19	0x3e017244	0.12641245
20	0xbd8c50b7	-0.06851333
21	0xbe5f0efa	-0.21783057
22	0x3e060280	0.13086891
23	0xbd8ed8a3	-0.06974914
24	0xbe07353f	-0.13203906
25	0xbe2cf5e1	-0.1689067
26	0x3e8fcbb1	0.28085092
27	0x3e1f1482	0.15535167
28	0xbea8982c	-0.32928598
29	0xbe32e481	-0.1746998
30	0x3e5ae8d1	0.21377875
31	0x3e70ff34	0.23534852
32	0xbe4b30e2	-0.19842866
33	0x3e0cc0d9	0.1374544
34	0x3adb82a8	0.0016747313
35	0x3e382847	0.17984115
36	0xbc9c1704	-0.019053943
37	0x3ddbd220	0.107334375
38	0x3d8df2ba	0.06931062
39	0x3e554b4e	0.20829508
40	0x3d8e7369	0.069556065
41	0x3e314428	0.17311156
42	0xbe278c61	-0.16362144
43	0xbccae60f	-0.024767904
44	0x3df74d70	0.12075317
45	0xbdc456bd	-0.095868565
46	0xbdb18b79	-0.086691804
47	0xbd17af68	-0.037032515
48	0x3d0b91b9	0.03407452
49	0xbea9d4c4	-0.3317014
50	0x3d386acb	0.04502372
51	0xbe1a4e36	-0.15068898
52	0x3d80ea84	0.0629473
53	0xbe8bc898	-0.27301478
54	0xbd83cc93	-0.06435504
55	0x3e8ba79e	0.2727632
56	0xbd522cf8	-0.051312417
57	0xbd08dec5	-0.033415575
58	0x3dc3c0e1	0.09558273
59	0x3e5edd22	0.21764043
60	0xbd3b49cf	-0.045724686
61	0xbe9b850b	-0.3037494
62	0xbd178409	-0.036991153
63	0x3e64c22a	0.22339693

lstm.bias_hh_l1 f4 [64]
0	0xbdab5589	-0.08365924
1	0xbd83fc4f	-0.064446084
2	0xbd17eaa6	-0.037089013
3	0x3e5be31a	0.21473351
4	0x3e10035e	0.14063784
5	0xbe0cc760	-0.1374793
6	0xbe34a845	-0.17642315
7	0x3eb0e0d4	0.3454653
8	0x3e6efce3	0.23338656
9	0xbe16101a	-0.1465458
10	0x3edf003e	0.43554872
11	0x3bea27ba	0.007145849
12	0x3e94ad27	0.29038355
13	0xbe78f93b	-0.24313824
14	0xbeac44e4	-0.3364631
15	0xbe8a03ca	-0.26956016
16	0x3da2fe4d	0.0795866
17	0xbe11dc06	-0.14244089
18	0xbe78b75a	-0.24288693
19	0xbe83fd59	-0.25779226
20	0xbdf6d8ed	-0.12053094
21	0x3dfdaa64	0.12386015
22	0xbca447aa	-0.020053703
23	0xbdcca75c	-0.09992859
24	0x3dab1930	0.083544135
25	0xbe97940b	-0.29605135
26	0x3e0136f6	0.12618622
27	0xbe3cb4a6	-0.18428287
28	0x3dcbfd02	0.09960367
29	0xbe24778b	-0.16061227
30	0x3e452ea2	0.1925607
31	0x3e559518	0.20857656
32	0xbe0449ea	-0.12918821
33	0xbe5e5a62	-0.21714166
34	0x3e10884c	0.14114493
35	0x3c5b5021	0.013385803
36	0x3ded0847	0.115738444
37	0x3db6dfde	0.08929418
38	0x3ce77e82	0.028258566
39	0x3eb2386a	0.34808666
40	0xbd4183c3	-0.0472448
41	0x3ddd51c2	0.1080661
42	0xbb8dace7	-0.00432359
43	0x3e4766db	0.1947283
44	0xbd5500a9	-0.052002583
45	0xbe53ba92	-0.2067664
46	0xbdf632d8	-0.120214164
47	0x3d4e04e9	0.05029765
48	0xbc666a94	-0.014063496
49	0xbe544bbb	-0.20732014
50	0xbb2c55be	-0.0026296224
51	0xbdba6047	-0.09100395
52	0x3e004405	0.12525947
53	0x3dc7c6e1	0.0975473
54	0xbe8441da	-0.2583149
55	0x3cc47399	0.023980903
56	0x3e0213da	0.12702885
57	0xbe768659	-0.24074687
58	0x3e6022ea	0.21888319
59	0x3e3865fa	0.18007651
60	0xbde1083a	-0.10987897
61	0x3da154e2	0.07877518
62	0x3da1c78d	0.078993894
63	0x3c9ae95e	0.018910106

fc.weight f4 [1, 16]
0	0xbe35d1f6	-0.17755875
1	0xbe202118	-0.15637624
2	0x3e0b0876	0.13577446
3	0x3dd8a1e5	0.10577754
4	0x3d2cae87	0.04215863
5	0x3df00184	0.11719039
6	0xbe56ebf6	-0.2098845
7	0xbdf3bdd9	-0.11901445
8	0x3e2a0fe4	0.16607624
9	0x3e390fb7	0.18072401
10	0x3d96ae1f	0.0735743
11	0x3de97180	0.113986015
12	0xbda21485	-0.0791407
13	0xbd49dd31	-0.04928321
14	0xbd0d5d39	-0.034512732
15	0xbc89250a	-0.016741294
