time_series_intro_class/final_project/temp/2_layer_64_size_model_epoch_1000.pth (torch, 203811 bytes, 9 tensors)

lstm.weight_ih_l0 f4 [256, 1]
000000 c4 0a 72 bf cf dc 88 3f 58 72 08 3f ff a9 d7 be
       -0.9454768 1.0692385 0.53299475 -0.42121884
000010 ba 2e 8a bf 7c 2d fd bd 8f f8 c9 3e 4e cb 88 bf
       -1.079551 -0.12362191 0.39447448 -1.0687044
000020 1a 17 e8 bf 30 35 80 bf 87 7b 5f bf 2c fc 32 bf
       -1.813205 -1.0016232 -0.8729786 -0.69916034
000030 ca c5 06 bf 18 7c 75 3d 53 26 a5 bf 6e 6e 5d 3f
       -0.5264555 0.0599328 -1.2902321 0.8649663
000040 4a f7 1b 3e 90 14 63 bf 82 41 01 bf 40 85 39 3f
       0.15231052 -0.8870325 -0.5049058 0.7246895
000050 ee b3 0e bf 93 46 cd be 45 78 92 be 4b 3d 1b c0
       -0.557433 -0.40092906 -0.28607383 -2.425616
000060 fe 5c 6b 3f 62 7e fd be f9 f7 d9 bd 33 c4 30 bf
       0.9193877 -0.49510485 -0.10643 -0.69049376
000070 23 bf 57 3f 61 9f dc be 1d 04 91 be b6 6f 10 3f
       0.84276026 -0.43090346 -0.2832345 0.5642046
000080 ed 72 89 bf 56 0e 31 bf 5c 12 6b bf 8e d1 02 c0
       -1.0738198 -0.691625 -0.9182489 -2.0440402
000090 a6 47 8e 3f 1f 4e a2 bf 5e a9 99 bf cf d1 14 3e
       1.1115615 -1.2680091 -1.2004812 0.1453316
0000a0 54 8e 30 bf 5a 67 1a 40 e5 fb 1c 3e 98 9b 03 3e
       -0.68967175 2.412558 0.15330465 0.12852323
0000b0 37 d9 0c 3f 61 2a 46 3e 66 3d c5 bf c6 1d 48 bf
       0.55018944 0.19352104 -1.5409362 -0.7817043
0000c0 00 b2 f4 be 2a a5 f2 bf ff 00 62 3e b7 15 ec be
       -0.47792053 -1.8956654 0.22070692 -0.46110317
0000d0 82 9c 30 3f 4c 83 30 be 84 88 7f bf e1 dd fd 3f
       0.6898881 -0.17237586 -0.9981768 1.9833337
0000e0 04 11 2b be a6 65 2b be cf f0 b1 bf 39 a9 9e be
       -0.1670571 -0.16737995 -1.3901614 -0.30988482
0000f0 b9 92 c8 3d 41 d6 07 c0 a1 0e 1c 3e 06 9a 04 bd
       0.0979361 -2.122452 0.15239955 -0.03237345
000100 b7 f6 54 3e e1 ad 2b bf fe ef e8 3c 1f a0 0f 3f
       0.20797239 -0.67062193 0.02843475 0.561037
000110 55 2b d1 be c3 22 f9 bd 42 6d 07 bf 07 ac 30 3f
       -0.40853372 -0.121648334 -0.5290109 0.6901249
000120 1e a7 cf be c8 01 36 bf 3f 69 7d be e8 90 f6 3d
       -0.40557188 -0.7109647 -0.2474718 0.120393574
000130 0b 4c 5d 3e 42 db 96 3c f9 20 94 3f 46 45 7c bf
       0.2161104 0.018415097 1.1572562 -0.985432
000140 f9 81 a5 3e a2 21 2e be c7 4f ba 3e 82 3d 77 be
       0.32325724 -0.17005017 0.3638899 -0.24144557
000150 b1 72 38 3e 97 d8 f3 3c 90 b7 a4 3f a1 ca e8 be
       0.18012501 0.029766364 1.2868519 -0.45467094
000160 bc fb 11 40 f3 f2 5f be 00 13 57 3f 97 d8 0a 3f
       2.2809896 -0.21870022 0.84013367 0.5423674
000170 14 20 0a 40 26 82 c1 ba ef ee 0a 3f c6 81 43 3f
       2.158208 -0.0014763519 0.54270834 0.76369894
000180 c1 a4 6e 3f 79 73 9f 3f c1 7c b6 be 87 de 34 c0
       0.93220145 1.2457114 -0.35642055 -2.826082
000190 e6 59 af 3f c9 3c 75 bf 84 f6 ea 3f 23 db 54 3e
       1.369931 -0.95795876 1.8356481 0.20786719
0001a0 8d dc 31 be 07 2b 89 3f a3 78 0f be 02 01 22 bf
       -0.1736929 1.0716256 -0.14010863 -0.6328279
0001b0 d5 0b 07 3f 20 ee 93 3e c9 1e f3 be a2 71 79 3f
       0.5275243 0.28892612 -0.47484425 0.97439015
0001c0 a1 6a 53 bd 01 df 86 be ec 7e 70 3f 0c 35 5e 3e
       -0.05161536 -0.26342013 0.9394367 0.21699923
0001d0 70 3d 8c 3f 29 d6 44 bf e2 0b 98 3f 57 12 b6 3e
       1.0956249 -0.7688928 1.1878626 0.35560867
0001e0 60 f6 82 3e e9 b4 07 bf 09 4d cd 3f 43 a1 c4 3e
       0.25578594 -0.5301042 1.6039134 0.38404283
0001f0 59 59 e9 3d f1 41 1d 3f a5 16 c1 3e f8 48 6d 3f
       0.11393995 0.61428744 0.3771259 0.92689466
000200 49 61 f2 3e 1e 27 b3 3f 54 b9 2c bf d9 0b b9 bf
       0.47339848 1.3996313 -0.6747029 -1.4456741
000210 d2 e8 b8 bf e2 11 ad 3f a5 9e 04 3f 7f 9a 78 3f
       -1.4446051 1.3521082 0.5180457 0.9711074
000220 3f 1e 71 bf 48 3b 8c bf 85 56 65 3f 44 76 a6 be
       -0.94186777 -1.0955591 0.89585143 -0.32512105
000230 aa 3b 34 bd 7c 87 ef be b4 81 77 3e 34 91 68 3f
       -0.044002213 -0.46783054 0.24170572 0.9084656
000240 57 23 07 bf 67 50 4c 3f f3 cd f6 3e b8 cc 13 bf
       -0.527883 0.79810184 0.48204002 -0.5773425
000250 5c 17 c3 be 7b 91 25 bf f8 5b bf 3f 15 db 98 bf
       -0.3810376 -0.6467511 1.4949942 -1.1941859
000260 1e 26 3b bf 96 02 3f 3f c9 e3 b6 bf f3 e5 17 bf
       -0.7310504 0.7461332 -1.4288265 -0.5933525
000270 f1 1c 7a 3e 9a b5 66 be 79 97 1f bf 8c 58 c4 3f
       0.24425103 -0.22530213 -0.62340504 1.5339522
000280 0c 49 64 bf c1 ee 19 3f 19 77 8f 3f 9b 09 87 bf
       -0.8917396 0.60129935 1.1208221 -1.0549806
000290 4f df a4 3e 71 84 bb bf 4e 4b 48 bf 71 a1 90 bc
       0.3220162 -1.4649793 -0.78239906 -0.017655106
0002a0 e1 37 16 3f 4c be b0 3e 60 7d 45 bf 9e 4d 71 3e
       0.58679014 0.34520185 -0.7714443 0.23564765
0002b0 0a cb 40 bf f8 7a 2d 3f e8 d1 f9 be 26 07 e2 3e
       -0.75309813 0.6776576 -0.48792958 0.4414608
0002c0 f3 c8 83 3e 83 90 c8 bf 16 54 88 3d 25 d6 61 3e
       0.2573925 -1.5669101 0.06656663 0.22054346
0002d0 a7 7a 5b 3f b2 7b 5a 3f 61 0f 80 3f 87 1a e2 bd
       0.8573403 0.85344994 1.0004693 -0.11040216
0002e0 da b4 58 bf 15 ae 77 3e 07 16 96 bf f5 b8 90 3e
       -0.8465096 0.24187501 -1.1725472 0.2826611
0002f0 7e 79 1f 3d f7 c1 6c 3f 6a 89 05 3f e5 85 63 bf
       0.038934223 0.92483467 0.521628 -0.8887618
000300 a6 2e 1e be 90 00 23 3f 01 dd 0c 3f 03 22 28 be
       -0.15447482 0.63672733 0.55024725 -0.16419224
000310 51 1e 89 bf 63 c7 1f bd 7b 83 ed bd ba 1f 32 bc
       -1.0712377 -0.03900851 -0.115973435 -0.010871822
000320 dd e1 a0 bf 15 9a 5d bf 12 58 27 bf b8 d6 cb be
       -1.2568928 -0.86563236 -0.6536876 -0.39812255
000330 23 23 78 3e 0e d9 c6 3e a7 40 b6 be 16 02 db 3e
       0.24232154 0.38837475 -0.355962 0.4277503
000340 69 db 13 3e 8b eb 88 be a5 bf 6e 3e 90 be e3 3e
       0.14439167 -0.26742205 0.23315294 0.44481325
000350 5e 73 8d be 4e b8 e2 bd ea df b7 3d df f8 28 c0
       -0.2762708 -0.110703096 0.08978255 -2.64019
000360 a1 96 e1 3f d7 f3 0f bf 11 aa ba 3d c0 1a 9e be
       1.7624093 -0.56231445 0.09114469 -0.30879784
000370 2d a0 e0 3f e6 f5 df be 64 92 4d 3e 66 5e ce 3e
       1.7548882 -0.43742293 0.20075375 0.40306395
000380 bd b7 8c be d1 6f c0 be 68 dc 3e bf 72 6b 02 c0
       -0.2748393 -0.3758531 -0.74555063 -2.037808
000390 06 0f c8 3f 40 5d 65 bf 24 e0 39 3f e3 5f 6f 3d
       1.5629585 -0.89595413 0.72607636 0.058441054
0003a0 fd 8e 15 bf c1 36 25 40 77 22 41 3f 38 80 bd be
       -0.5842131 2.581467 0.75443214 -0.37011886
0003b0 b8 2e 2c 3f d7 ce 66 3c de 3e cd bf 74 ee 76 3e
       0.6725879 0.0140874 -1.603481 0.241144
0003c0 58 d1 8d be 9f 71 8d bf b5 08 1c 3f 58 4c b1 b9
       -0.2769878 -1.10503 0.60950786 -0.0003381695
0003d0 59 6d 84 3f ea cb e5 be 85 0c ba 3e 7e 0b b8 3f
       1.034587 -0.44882137 0.36337677 1.4378507
0003e0 75 29 a1 be f9 79 d1 3d ed bb 32 3f ad d4 9a 3e
       -0.31476942 0.102283426 0.69818 0.30240384
0003f0 55 47 ec 3e 7d d9 7b bf bd 9d bb 3d aa e6 4c 3f
       0.46148172 -0.98378736 0.091609456 0.80039465

lstm.weight_hh_l0 f4 [256, 64]
000000 13 ee 79 3e ea a1 c8 be 94 39 44 3e 8a 80 a8 3e
       0.24407224 -0.3918603 0.1916259 0.32910568
000010 2c f7 c4 3e 7d 3f ca be 69 3b f6 bd e7 0f 5b 3e
       0.38469827 -0.39501563 -0.1202305 0.21392785
000020 78 5e 98 be 7b f6 8b be 1d 29 c2 3e 4f d6 94 be
       -0.29759574 -0.27336487 0.37921992 -0.29069754
000030 c5 97 29 be 42 66 9f 3d 93 d6 bf 3d df 2d ad be
       -0.16561802 0.07783176 0.09367099 -0.3382406
000040 f4 19 40 3d d1 2b 6a 3e 26 d1 87 3e e3 47 59 3e
       0.04689975 0.22868277 0.26526755 0.21218829
000050 78 65 ce bc c0 c0 e0 3d 9a 54 dc be 26 fd 54 3d
       -0.025194868 0.10974264 -0.43033296 0.051999234
000060 ac e9 ed 3d 36 e0 24 bc e6 d3 bf 3e f4 2e 82 bd
       0.11616835 -0.010063222 0.37466353 -0.06356612
000070 09 de a1 bc 42 7f 42 be 0b f4 bd bd dc 6f 40 be
       -0.019759195 -0.18993858 -0.09275063 -0.18792671
000080 8c 2f 42 3d ad 71 1a 3e 02 12 59 bd 4c 58 36 3f
       0.047408625 0.15082426 -0.05299569 0.7122848
000090 0d 08 a7 3e 35 cb 50 bd fb a4 9c bd 9c 31 ac be
       0.3262333 -0.050975043 -0.07648655 -0.336316
0000a0 a9 2b 29 3e b9 38 d2 3e 24 6c 5d be 3e d9 54 3e
       0.16520561 0.410589 -0.21623284 0.20785996
0000b0 75 f2 fd 3d eb c0 24 3e fe 8d 35 bd 77 11 14 3e
       0.12399761 0.16089217 -0.044324867 0.14459787
0000c0 e1 cc 5a be be f3 ce bd f8 cf 8e 3e bb d3 a9 3d
       -0.21367218 -0.10105084 0.27893043 0.082923375
0000d0 10 56 10 be 37 dd 31 be 71 f8 86 3d 99 6e 06 3f
       -0.1409533 -0.17369543 0.06590355 0.5251251
0000e0 62 1a fe bd 06 a6 96 3c f8 76 74 be b8 e2 0b bf
       -0.12407376 0.018389713 -0.23873508 -0.5464282
0000f0 7b 8c 9e 3d 9a d1 09 3e 44 7e 49 be 08 39 21 be
       0.07741638 0.13458863 -0.19677073 -0.15744412
000100 08 15 99 3b 73 9f 69 bf ba 90 48 be 18 63 c3 be
       0.0046716966 -0.91258925 -0.19586459 -0.3816154
000110 07 e1 47 bc ed 8d b5 3c 4d 0b b1 be 56 24 70 be
       -0.012199647 0.022162402 -0.34578934 -0.23451361
000120 c6 a0 e5 3e 97 a2 e9 3e 78 57 76 be 75 cc a7 3e
       0.44849223 0.4563186 -0.24056804 0.32773176
000130 65 23 23 3f 67 61 f9 be 07 3b 84 be 35 d4 63 bf
       0.6372588 -0.48707125 -0.25826284 -0.8899568
000140 9d c5 a0 be 6a fd 02 be 50 08 e0 3d 8f c0 54 3f
       -0.31400767 -0.12791982 0.109390855 0.8310632
000150 e3 93 e8 3e 71 82 00 be cc cf 0c bf 07 7d 2d 3e
       0.4542533 -0.1254976 -0.5500457 0.16942225
000160 84 b1 07 be 1e 84 14 bf 22 99 25 bf af ba cf 3e
       -0.1325131 -0.58014095 -0.6468679 0.40572116
000170 2f 4a f1 3e 51 9a 95 3e 05 e3 b5 be 68 6b c9 3e
       0.4712691 0.29219297 -0.35524765 0.39339757
000180 b5 8d fd bd 43 2d 89 3f f3 0b 71 3f fa e7 12 3e
       -0.12380544 1.0716938 0.9415886 0.14346305
000190 c9 80 cf be 65 f3 43 3f 2f 96 c4 3c df e4 21 3f
       -0.40527943 0.76543266 0.023997394 0.63239855
0001a0 8f 31 49 3f 0d fb a7 be 11 d0 27 3f b3 65 59 bf
       0.78591245 -0.32808724 0.6555186 -0.84920806
0001b0 19 c4 1d bf b1 71 76 3e ba aa a1 3e 57 09 9c 3d
       -0.61627346 0.24066807 0.31575567 0.07618969
0001c0 f5 a2 0f 3f 6d e6 ba 3e 2e 99 33 be 06 ec 5d 3e
       0.5610803 0.36503926 -0.17538902 0.21672067
0001d0 9f 4b 35 3e 16 a6 3d bf ff 71 44 be bf 13 c3 bd
       0.17704628 -0.7408155 -0.19184111 -0.09525251
0001e0 0b e0 7a 3e 1a f8 01 bf 7c 06 1d 3f c9 f7 32 bf
       0.24499528 -0.507692 0.6133802 -0.6990934
0001f0 dd b4 b5 be 94 a7 e4 be be 56 19 3f 1b 7c f0 3d
       -0.3548955 -0.44659102 0.59897983 0.11742421
000200 0b 23 8a bd d1 01 f2 3d 7a 43 41 bd 7f 77 2d 3d
       -0.06744965 0.11816753 -0.04718349 0.04235029
000210 57 f8 16 be f2 f4 70 3d 29 5c 46 3e 21 27 c5 3c
       -0.14743172 0.058827348 0.19371094 0.02406651
000220 44 6c 8c 3c 14 37 52 3d 30 20 62 bd d6 de 03 3c
       0.017141469 0.051322058 -0.055206478 0.008048734
000230 9e a7 bb 3d 44 66 51 be ac f9 89 be 20 1b ea be
       0.0916283 -0.20449167 -0.26948297 -0.4572382
000240 54 b4 95 3b b5 3d c0 bd 1c e8 0b 3e 20 00 2a 3e
       0.004568616 -0.0938677 0.13662761 0.1660161
000250 3c e8 69 3e 39 8c 89 bd 0e d9 e3 bd 5d b1 28 3e
       0.22842497 -0.067161985 -0.11125384 0.16473909
000260 98 48 45 be 2a 00 6f bd b1 ad c7 bd e0 95 f8 3d
       -0.19265974 -0.058349766 -0.09749926 0.121379614
000270 1b 62 35 3e 1f 3d ea 3c ca 91 c9 3d 6b 7f ee 3d
       0.17713206 0.028593598 0.0984226 0.11645397
000280 4c 36 06 3d d7 d2 00 bf 6d 59 a1 3d 21 a2 e8 bd
       0.032766625 -0.50321716 0.07878385 -0.11359049
000290 d4 d0 60 bc 89 5e 09 3e 11 9f af 3d e9 32 3e 3e
       -0.0137216635 0.13414969 0.085752614 0.18574108
0002a0 28 c4 a8 3e d1 d0 ce bd 03 2f 23 be db 04 8b be
       0.32962155 -0.10098422 -0.15935902 -0.27152142
0002b0 ae fc 94 bc 7d 72 44 bd 28 35 c5 bd f2 bc 94 3d
       -0.018186893 -0.047960747 -0.096292794 0.07262601
0002c0 6a 67 2a 3e a2 0b 03 3e c1 87 ea 3b 34 31 10 be
       0.16641012 0.12797406 0.0071572964 -0.1408127
0002d0 b7 42 c2 3e fe 93 b4 bd d8 b9 9f bd 40 8b e2 bd
       0.37941524 -0.0881729 -0.07799119 -0.11061716
0002e0 9d fd 9d 3e 3f 38 28 3e b0 d2 4e be 06 66 6f 3e
       0.30857554 0.16427706 -0.20197558 0.23378763
0002f0 07 98 c8 bc 32 d8 be 3c 29 d7 87 3e d1 90 14 be
       -0.024486555 0.02329645 0.26531342 -0.14508368
000300 db 50 ce be ab 73 dd 3d 9a d6 ee bc d9 d8 50 bd
       -0.40296063 0.108130775 -0.029155064 -0.050988052
000310 9d a4 2e 3e 03 83 89 3d d2 4b 3d be 61 66 2a be
       0.17054982 0.067144416 -0.18485954 -0.16640617
000320 ca a2 6f 3e 05 f7 38 3e a3 f8 8c be 8e 96 a4 3e
       0.23401943 0.1806298 -0.27533445 0.32146114
000330 77 46 f3 bc 21 15 66 be 71 09 e8 3d 53 f5 df 3d
       -0.029696686 -0.22468998 0.11329926 0.10935464
000340 1a 2b 22 bd 1b 65 af be 00 c2 97 bd bf 75 70 be
       -0.039591886 -0.34256825 -0.074100494 -0.23482417
000350 78 78 af bc bb 64 a6 be 2e 7a c2 3e 8a 96 74 3e
       -0.021419749 -0.32498726 0.3798384 0.23885551
000360 39 d6 50 be 78 3a dc bd 94 85 12 3e c9 6f c1 3d
       -0.2039422 -0.107533395 0.14308769 0.094451495
000370 03 26 ed 3e f8 2d 25 3c 1f 0f d1 ba 06 ef 27 bd
       0.46318063 0.010081761 -0.0015949941 -0.040999435
000380 d7 73 20 3d 47 ed b3 3e 0e ce 30 3e 74 c6 3d bf
       0.039172973 0.35141966 0.17266104 -0.7413094
000390 53 e0 a9 be a9 f4 a6 3d 73 11 ba 3c 5e 16 c9 bd
       -0.33178958 0.08152134 0.022713399 -0.09818719
0003a0 85 1f d2 3d 07 01 e0 be e3 c2 c8 3e d1 41 8a be
       0.10259918 -0.43750784 0.39211187 -0.2700334
0003b0 10 a8 c8 be 6d 19 78 be 7d df 22 be ba 26 01 bd
       -0.39190722 -0.24228449 -0.15905567 -0.031531073
0003c0 b3 b8 07 3e 92 e3 13 3e 9d 4d 59 3b 13 2a a2 be
       0.13254051 0.1444228 0.0033157833 -0.31672725
0003d0 e2 c7 98 3e 93 00 3a 3c 3f 50 18 be 50 d6 93 be
       0.29839998 0.011352676 -0.14874361 -0.28874445
0003e0 0a 93 73 3d e0 60 72 be c0 65 9d 3e 6b 56 36 be
       0.0594664 -0.23669767 0.30741692 -0.17806403
0003f0 9a de f3 bd 2c 5a a8 be 62 b5 7c bd d0 51 df bd
       -0.11907692 -0.32881296 -0.061696418 -0.10904276

lstm.bias_ih_l0 f4 [256]
000000 c5 b0 33 be 04 d7 60 3e a4 4b 29 bd 80 02 cc 3e
       -0.17547901 0.21957022 -0.041331902 0.39845657
000010 6f 7d 21 3e 86 ff b5 3e 28 c8 31 3e a1 f7 0c bd
       0.15770505 0.3554651 0.1736151 -0.034415845
000020 65 4e 8c 3d 13 61 47 3e ea c7 bc 3e 3d 21 39 be
       0.0685089 0.19470625 0.36871272 -0.18079086
000030 f9 5b e3 bd 10 c3 f5 bd 55 b2 dc 3e 16 94 ef 3e
       -0.11101527 -0.12000096 0.43104807 0.46792668
000040 68 14 ca bd db 89 75 be 5d 5a dd 3c 21 cf ba bc
       -0.098671734 -0.23978369 0.027020628 -0.022803845
000050 bb fa 9a bd aa aa 46 3c c4 01 b3 3e 7e 83 e0 bc
       -0.07567354 0.01212565 0.34962285 -0.02740645
000060 b5 26 e4 3c 73 82 03 be aa 08 b4 3e 6f 87 13 3e
       0.027850488 -0.12842731 0.3516286 0.14407133
000070 0b 9c 54 3d d1 b9 7b bd c1 72 66 bd b9 43 e1 3e
       0.051906627 -0.061456505 -0.05626178 0.4399698
000080 a6 7a 32 be 36 5d 42 3f 6b 93 b9 3e 56 7f fb 3e
       -0.17429599 0.7592348 0.36245283 0.49120587
000090 77 51 87 bc ca 6b bb 3e 6e 20 d5 bd 19 87 9d be
       -0.016518338 0.36605674 -0.10406576 -0.30767134
0000a0 58 c7 dc ba af ef 17 3e 2a d5 6f bd e3 fe 5e 3e
       -0.0016844077 0.14837526 -0.0585529 0.21776919
0000b0 99 6b 2b be a8 5e 8d 3d 14 dd 46 be 89 96 d5 bd
       -0.16740264 0.0690282 -0.19420272 -0.10429103
0000c0 2d 1b 88 3d 69 da 71 bd af eb 46 3b 95 4f 73 3c
       0.06645808 -0.059046183 0.003035288 0.014850517
0000d0 e5 f5 14 3e 71 f5 a2 3e f1 cb 00 3d b0 78 83 3e
       0.14546926 0.31827882 0.031444494 0.25678015
0000e0 35 1f 92 3b e2 05 70 bc 27 0f 35 3e ca 0d ed 3e
       0.0044592866 -0.01464984 0.17681561 0.46299583
0000f0 fe ce 8b be d0 ef 27 3d 9e 06 82 3c 1c 58 79 3d
       -0.2730636 0.041000187 0.015872296 0.060875043
000100 a0 1a 34 3e 73 cc 13 3e a6 7a 12 3e b7 c8 70 bc
       0.17588282 0.1443346 0.14304599 -0.014696292
000110 11 a8 83 bc c8 d2 12 3e 0c 11 11 be bf df 9c 3b
       -0.016071351 0.14338219 -0.14166659 0.004787415
000120 1d d1 3e 3d fe 64 24 3c 7b a6 00 3e 4f 0a 0e be
       0.046586145 0.010033844 0.12563507 -0.1387112
000130 08 13 64 bd e1 82 d8 3d e0 67 f1 3c 70 e2 9b be
       -0.055682212 0.10571838 0.029468477 -0.30446196
000140 9a 8a 36 3d 2e 9c 95 bd 75 0e 0a bc 46 a9 40 be
       0.044565775 -0.073051795 -0.008426298 -0.18814573
000150 1b 92 98 be 32 42 bd bd ec 31 3b be f8 28 fa bd
       -0.2979897 -0.092411414 -0.18280762 -0.122148454
000160 15 ed 85 bd ef 3e 68 be f6 bf 1a be 8f 67 e9 bc
       -0.065393604 -0.22680257 -0.1511229 -0.028491763
000170 97 2d 02 3e a2 f3 a4 bd 88 05 08 be c5 e4 57 bd
       0.12712704 -0.08054282 -0.1328336 -0.052708406
000180 8f 49 f6 bd fc 0f 24 bf ac c8 42 be 73 43 48 be
       -0.12025749 -0.6408689 -0.19021863 -0.1955698
000190 2a de 9a bc 2f c0 22 be 73 73 36 3d fb 58 3d be
       -0.018904764 -0.15893625 0.044543695 -0.18490975
0001a0 c4 61 86 be 4e d3 4b 3e 88 34 cd 3c b6 51 66 3d
       -0.26246464 0.19904825 0.025049463 0.05623027
0001b0 70 52 99 3d de 3d b4 3c 9f b2 98 bc 05 66 22 be
       0.07486427 0.022002157 -0.01863986 -0.1585923
0001c0 85 61 0e bd 85 12 f1 bd 3e 6f 24 be 81 29 2d 3d
       -0.03476097 -0.117711104 -0.1605806 0.04227591
0001d0 4c 53 13 bd 69 30 75 be ec 99 6b 3d 79 88 87 3b
       -0.03596811 -0.23944248 0.05751984 0.004136142
0001e0 c1 f6 6c 3d a3 c7 a4 bd 52 bd 0e 3e 33 d3 3b bd
       0.05785251 -0.0804589 0.13939407 -0.045855712
0001f0 92 07 2e be c7 db c9 bd df 9b d7 bc 1e ff 26 bd
       -0.16995075 -0.09856372 -0.026319442 -0.040770642
000200 d8 20 09 3c c5 f8 5e 3d c8 40 52 3d d5 76 a1 3d
       0.008369647 0.054436464 0.05133131 0.078839935
000210 ea 44 74 bd 1b 09 c3 bc e3 52 a9 3d 5e 5b a3 bd
       -0.059636034 -0.023808053 0.082677625 -0.07976411
000220 63 4d 9d 3d b3 68 05 bd 3f 3e 8a bc 2b ed 9a bc
       0.07680776 -0.032570552 -0.016875384 -0.018911919
000230 8c 4a e4 bb 85 f3 56 bd 3d 36 1f bd f2 07 d1 bc
       -0.0069668945 -0.052478332 -0.038870085 -0.025516484
000240 61 22 72 3d 44 55 b9 bc 0f 2c 90 bd 97 19 d3 3d
       0.059114818 -0.022623666 -0.070396535 0.10307615
000250 40 8c 2e 3c 1b 1b a7 3b 6e 03 a6 bd c2 d8 b7 3d
       0.010653555 0.005099667 -0.08106123 0.0897689
000260 12 ba cf 3c ed da c4 bc 47 12 d9 3c d5 6b 34 bd
       0.02535728 -0.024030173 0.026497973 -0.04404815
000270 4b 79 d2 3d d0 a9 07 bc 2e 8a 89 bd 1a 54 e2 3b
       0.10277041 -0.008280233 -0.06715809 0.0069069983
000280 d5 87 ad 3c f4 91 95 3c d8 70 8d bd 7f 25 2f bd
       0.021182934 0.018258072 -0.06906289 -0.04276037
000290 92 1e 0a be e9 36 65 3d dd 3d 14 3c 92 18 4b 3c
       -0.13488224 0.05596057 0.0090479525 0.012395995
0002a0 bd 39 35 bd 82 df 5b 3d 2c 9e 10 3d 2e e7 63 bd
       -0.044244517 0.05367995 0.035307094 -0.055640392
0002b0 b5 22 60 bd 4a 5e 7f 3d 6c 31 85 bb 50 e3 cc bb
       -0.0547206 0.06234578 -0.0040647294 -0.0062526837
0002c0 2d a2 96 3d d7 f5 2a 3d 8f fb 11 3d f5 88 0a 3c
       0.07355151 0.041738357 0.035640296 0.008455505
0002d0 3f 5f b9 3d 39 a8 17 3d 05 2c 6d 3d f3 33 a0 3d
       0.0905137 0.037025664 0.05790331 0.078224085
0002e0 fb f4 6a bc 8b 66 19 bd 6c 88 84 3d 6d a3 82 bd
       -0.014340634 -0.03745131 0.06471333 -0.06378827
0002f0 d6 c7 73 bc 92 d7 29 3c 20 f9 ad 3c 54 33 8e 3d
       -0.014879188 0.010366337 0.021236956 0.06943384
000300 f7 c3 e7 bc a6 a1 1b 3f 52 89 f4 bc bd aa 6a 3e
       -0.028291686 0.6079353 -0.029850636 0.22916694
000310 53 a0 71 3e 54 f4 25 3e 9c 56 26 3e 80 b6 47 bc
       0.23596315 0.16206485 0.16243976 -0.0121895075
000320 5d 5e 2b bd fa af 33 3e 6f 86 86 3e 78 75 58 be
       -0.04183804 0.17547598 0.2627444 -0.21138561
000330 3a eb 1e be cd 6e eb bd 3e c7 d9 3e d5 f8 f4 3e
       -0.1551942 -0.11495743 0.42534822 0.47846094
000340 4c 45 09 3d bb 29 70 be 04 8d 57 be 31 07 5c bd
       0.033513352 -0.23453419 -0.21049887 -0.053717796
000350 f0 c1 1c bd 4f b0 32 be 9d 69 eb 3e 16 3e 24 bc
       -0.03827089 -0.17450069 0.45979014 -0.010024568
000360 91 27 ff bc db 18 2d be 07 f0 e1 3e 03 8d de 3d
       -0.031146796 -0.16904013 0.4412844 0.108667396
000370 36 cf 7e 3d dd 87 bf bd 1c 41 f6 bd 76 1f 5a 3e
       0.06220933 -0.09352086 -0.120241374 0.21301064
000380 14 ee fe bc 2a 0c 1c 3f 9d ca b1 3e ea 51 0a 3f
       -0.031119384 0.6095606 0.34724894 0.5403124
000390 10 54 17 bd d0 ff a9 3e eb 70 06 3d 4c ca 28 be
       -0.036945403 0.33202982 0.03282253 -0.1648342
0003a0 15 ef 55 3e 9f b1 b0 3d 3e 70 83 bd 6b 73 93 3e
       0.20891984 0.086276285 -0.06417893 0.28798994
0003b0 35 68 0d be b7 06 7b 3d 87 7c 12 be 37 be a8 bd
       -0.13809283 0.0612857 -0.14305316 -0.082394056
0003c0 b6 d8 13 3d 2b 2c 1e 3e 37 25 38 3d 0f ca ba bc
       0.036095344 0.15446536 0.044957366 -0.022801427
0003d0 b2 9f 99 3d a1 e8 8c 3e 55 e4 13 3d 5e 35 82 3d
       0.075011626 0.27521232 0.036106426 0.06357835
0003e0 5c e2 31 bc 93 9c 39 be d4 ad 60 3e 3f f1 0a 3f
       -0.010857191 -0.18126135 0.2194131 0.5427436
0003f0 3f 9e 85 be 1b 09 84 ba 4b 05 db bd 32 92 a6 bc
       -0.26097295 -0.0010073514 -0.10694369 -0.020333383

lstm.bias_hh_l0 f4 [256]
000000 a5 5d 2d be e9 2e 82 3e a4 f2 0e bd 73 f3 af 3e
       -0.16930254 0.25426415 -0.03489937 0.34365425
000010 51 ad ec 3d c2 c3 ad 3e 3d 3b b5 3d f2 5d 0d be
       0.11556495 0.33938414 0.088491894 -0.13805369
000020 e9 5c af bd 06 42 39 bc 19 b2 c3 3e 0c 35 28 be
       -0.08562643 -0.011307245 0.38221815 -0.16426486
000030 24 4f 58 be 83 55 19 be 95 d9 8e 3e 20 71 02 3f
       -0.2112394 -0.14974026 0.27900377 0.50953865
000040 b7 41 8c bc 76 62 4c be 6c a7 1e be 7e 2d 81 3d
       -0.017121179 -0.19959435 -0.15493554 0.06307505
000050 98 b4 35 be d9 75 7d bd 0b 86 0e 3f 05 af 34 bd
       -0.17744672 -0.061879966 0.55673283 -0.044112224
000060 96 15 8a bc fd e1 15 be 45 74 b8 3e 63 71 c2 3d
       -0.016855996 -0.14636989 0.36026207 0.09494283
000070 d0 1a 17 bd 6f 1a c5 3c 48 60 51 be 00 d8 5c 3e
       -0.036890805 0.024060456 -0.20446885 0.21566772
000080 e3 c6 87 bd d1 6a 1a 3f 51 2d 8c 3e 24 8a bc 3e
       -0.066297315 0.6031924 0.27378324 0.36824143
000090 45 f7 e4 bd e4 d2 c0 3e e1 2c dc 3d d1 58 d0 bd
       -0.111799754 0.37660897 0.107507475 -0.101731904
0000a0 8e c0 dd 3c 25 52 f2 3d 20 ca 91 bc fd b5 68 3e
       0.027069356 0.11832074 -0.017796576 0.22725673
0000b0 8c 3f 4f 3d 1e 14 70 bd 1b 79 f0 bd ae b3 6c be
       0.050597712 -0.058612935 -0.11741849 -0.23115417
0000c0 ac 1a 4d 3d 93 b9 b7 3d 89 08 29 be 25 e4 a9 bd
       0.050074264 0.08970942 -0.16507162 -0.08295468
0000d0 dd 9c 87 3d 70 f4 8d 3e 48 6a cf 3c 17 17 83 3e
       0.06621716 0.27725554 0.025319234 0.25603554
0000e0 00 19 a0 3d 32 be 88 3a d9 75 8e 3e eb d4 be 3e
       0.07817268 0.0010432659 0.27824286 0.3727182
0000f0 f4 c4 8e be 48 8d 53 bd e2 c0 b6 3d b6 75 1e be
       -0.27884638 -0.05164841 0.08923508 -0.1547459
000100 99 6a 63 3e d9 04 8b 3d 19 f2 c2 3d ac cb da bd
       0.22208633 0.06788034 0.09518833 -0.106833786
000110 46 67 69 bd 7f 63 5a 3e b8 d2 c3 bd 54 4e 0b 3d
       -0.056983255 0.21327017 -0.09561676 0.034010246
000120 25 dc 5d 3c de 0d 1d bc 45 44 5c 3e 89 00 46 bd
       0.013541256 -0.009585826 0.21510418 -0.048340354
000130 7a 98 b3 bc 4d 3f 46 3d 45 a5 87 bd 12 35 cb bd
       -0.021923292 0.048400212 -0.066233195 -0.09922232
000140 13 74 94 3d f7 2b 4e bd fc 60 c3 3d 02 4e 6c bd
       0.07248702 -0.050334897 0.09539983 -0.05769158
000150 99 71 5f be 56 c6 f5 bd 2e 1f fd bc 3d ed 1e be
       -0.21820678 -0.1200072 -0.030898657 -0.15520187
000160 88 1f 08 3e 02 9e 5c bc e4 e7 20 be f6 36 02 3c
       0.13293278 -0.013465406 -0.15713459 0.007947674
000170 2d 46 36 3d af 91 d7 bd c7 fd 72 bd 3c 70 ee 3d
       0.04450052 -0.10525834 -0.059324052 0.11642501
000180 f2 d4 27 be 27 8b 24 bf 2e ad aa be b8 d4 c1 bd
       -0.16389826 -0.6427483 -0.3333525 -0.09464401
000190 a0 23 0b bd 8b fd 1e be 8d 99 dd bd 6b dc d4 bd
       -0.03396952 -0.15526406 -0.10820303 -0.10393604
0001a0 ac 79 2b be 21 1e 3c 3e fb 01 ed 3c 7c ac 4e 3d
       -0.16745633 0.18370868 0.028931608 0.050457463
0001b0 9a b7 34 3d 12 ae c9 3c 4d b1 b1 bd ed 2d 55 bd
       0.04412041 0.024619136 -0.086763956 -0.05204575
0001c0 7a f4 82 3c 6f aa 08 be 01 cb 99 3c e8 51 c6 bd
       0.015985716 -0.13346265 0.018773558 -0.09683591
0001d0 44 39 a5 3d 6a ca e5 bd 4e f9 8b bc 64 64 3f 3d
       0.08067563 -0.11220248 -0.017086651 0.0467266
0001e0 8c ff fd 3d 07 1a f0 bd 03 63 82 bc 51 9e 82 bc
       0.12402257 -0.11723714 -0.015916353 -0.015944632
0001f0 10 ad 8d bd 60 cc b6 bd 2f 4a fd 3d b6 4d 3f bc
       -0.06917775 -0.089257 0.12367665 -0.011676243
000200 d5 79 41 bd 90 ee e8 bd 94 97 fb bc 12 4e 91 bd
       -0.04723533 -0.11373627 -0.030711927 -0.07094969
000210 4c bf 9e 3d e8 ff 2e 3d 05 40 98 bd 40 fa d2 3d
       0.07751331 0.04272452 -0.07434086 0.10301638
000220 7e 64 32 3d 24 62 3e 3d 05 f1 0f 3b f7 ef 82 3d
       0.043552868 0.046480313 0.0021963727 0.06393426
000230 2f 19 f8 3c dc e0 41 bc 19 3a 15 3c b6 1e 8a bc
       0.030285446 -0.011833396 0.00910809 -0.016860347
000240 5e 76 9e bd 38 7d cc bc 33 5b aa 3d c7 ce 9d bd
       -0.077374205 -0.024962053 0.08318176 -0.07705455
000250 07 9d 0b 3d 6e a4 93 bc fe 3a 8f 3d f6 16 93 3a
       0.0340853 -0.018022742 0.06993674 0.0011222053
000260 61 43 f7 bd f0 64 10 bc 28 69 30 bd 9c d7 fd 3d
       -0.120733984 -0.008813128 -0.043069035 0.1239464
000270 1d c5 29 3d 06 60 3a 3d ef 4e 75 3d 1a 18 34 3c
       0.041447747 0.04550173 0.05988973 0.010992074
000280 24 71 06 bd 6c b9 9a bc fc cc b3 3d a8 df c5 3d
       -0.032822743 -0.018887244 0.08779332 0.096618
000290 31 49 16 3a 74 32 12 bc f9 47 16 bd f0 54 92 3b
       0.0005732952 -0.008923162 -0.036689732 0.0044656917
0002a0 0b 27 45 3d c3 db cf bd 3e d8 bd ba 60 a0 cf bc
       0.048132937 -0.10149338 -0.0014484001 -0.025345027
0002b0 c4 4b 27 bc fc c8 b1 bc 95 ad 15 3d 03 b5 9f 3d
       -0.010210935 -0.021702282 0.036542494 0.07798197
0002c0 83 53 f4 bc 06 3b cc 3c 28 61 63 3c ed 5c a8 bc
       -0.029824978 0.024930488 0.013878144 -0.020552123
0002d0 78 b9 80 bd 62 06 97 bc 6c 49 53 bc e7 70 f4 bd
       -0.06285375 -0.01843566 -0.012895923 -0.11935597
0002e0 e1 76 05 3a 17 82 99 3c 5e 83 a3 bd bb a3 9f 3d
       0.00050912617 0.01873879 -0.07984041 0.07794901
0002f0 17 79 98 bb 30 1f 59 bd da 6d a2 3c b0 3d d9 bd
       -0.004653107 -0.05300826 0.019827772 -0.10607469
000300 ae 8a 9d bd 94 ff 28 3f 34 a0 e2 bd ab 39 b3 3e
       -0.07692467 0.6601498 -0.110657126 0.35004935
000310 de f2 92 3e b5 8b 91 3e df 9e ed 3c cb 82 a0 bd
       0.28700918 0.284269 0.02900642 -0.07837447
000320 f1 77 2a 3d 31 ce 4e 3e 4e 6e 75 3e 1a 41 94 bd
       0.04161829 0.20195843 0.23967859 -0.0723898
000330 b1 29 a8 3b c1 88 8c bc 0d e7 b5 3e c8 8e 0a 3f
       0.005131923 -0.017155053 0.3552784 0.54124117
000340 7e c6 89 3b 0b 44 5d be 6b 28 f2 3b f8 c1 01 3e
       0.0042045703 -0.21607988 0.007390072 0.1267165
000350 0d cd 0f be 94 87 1a be 54 10 b4 3e c7 b4 f0 3c
       -0.14043064 -0.15090781 0.35168707 0.029383076
000360 15 c5 f9 3d 20 a0 b4 bd 77 84 8c 3e 6e eb 4b 3e
       0.121957935 -0.08819604 0.27444813 0.19914028
000370 18 9b 1d 3d af 7a e8 3c e8 5d 5c be 1d cf a9 3e
       0.038477987 0.028378813 -0.21520197 0.33165827
000380 81 b2 a0 bd 76 10 21 3f 08 5d 54 3e a3 a3 08 3f
       -0.07846547 0.6291574 0.20738614 0.5337469
000390 45 16 b2 bd e5 d9 db 3e b8 bf 1f bd 0e f6 12 be
       -0.08695654 0.42939678 -0.039001197 -0.14351675
0003a0 35 5d 5e 3e 09 68 ea 3c 99 f2 c6 bd c1 78 92 3e
       0.21715243 0.028614061 -0.097142406 0.28607753
0003b0 ce 55 26 be 7d 39 5c bd 43 89 46 be 20 3b d6 bd
       -0.1624367 -0.053765763 -0.19388299 -0.10460496
0003c0 1c b6 24 be ae b0 55 3e 57 c2 ae bc c8 92 c8 bd
       -0.16085094 0.20868179 -0.021332903 -0.09793621
0003d0 98 f0 c3 3c 3d 3e 90 3e 13 8c c5 bd e3 48 52 3e
       0.023918435 0.28172484 -0.09645858 0.20535617
0003e0 8e 1a 90 3d de 5a 44 be 9c f0 91 3e 2a 62 0f 3f
       0.07036315 -0.19175288 0.28503883 0.5600916
0003f0 08 8b 87 be 02 71 b1 bc 23 c0 84 3c d3 95 54 bd
       -0.2647326 -0.021660332 0.0162049 -0.051900696

lstm.weight_ih_l1 f4 [256, 64]
000000 06 1f 95 bd 34 aa a5 3d bf ef dc 3c e8 a6 08 3e
       -0.07281308 0.08089104 0.026969789 0.1334492
000010 e5 49 13 3d e1 72 03 bd 47 67 0c 3c a6 5f 89 bd
       0.035959143 -0.03209198 0.008569545 -0.067076966
000020 5b 30 f7 bc b7 e3 3e bd 25 c7 81 3e 5a 7a 08 be
       -0.030174425 -0.046603885 0.25347248 -0.13327923
000030 2b bc 2d bd 67 aa c9 3b a2 fc 54 3d 6d 07 2b be
       -0.04241578 0.0061543467 0.051998742 -0.16702051
000040 8b 3e 65 bd ba 9e 3f bd f2 94 8d 3c b9 1d dd 3d
       -0.05596785 -0.046782233 0.017282937 0.10796685
000050 76 a1 0d be 33 77 24 bd 1c 6c 8a 3d 42 24 56 bd
       -0.13831124 -0.04015274 0.067589015 -0.052280672
000060 a4 2c 4d 3d af ac f0 3d 77 1b a7 3c bb d5 cb bd
       0.0500914 0.11751687 0.020398838 -0.09952875
000070 3a 3b 4f be d2 0b 46 bd 68 ec 2e 3e c8 a0 b9 3d
       -0.20237437 -0.048351116 0.1708237 0.0906387
000080 14 d9 ce bd f4 c7 14 3e 3f 07 92 3d 76 66 27 3d
       -0.10099998 0.14529401 0.07130288 0.0408692
000090 3f dd 42 3e 60 be a1 bb fd 4e 6c 3d 74 96 2d be
       0.19029711 -0.0049360245 0.057692517 -0.16951925
0000a0 24 3f 24 3e 13 c1 2e 3d 13 ab 70 bd 76 16 e1 bc
       0.16039711 0.0426646 -0.0587569 -0.02747653
0000b0 36 2f 25 3d 8f 85 6e bd 0d 4b 85 3d ad cf b7 bd
       0.040328227 -0.05823284 0.065084554 -0.08975158
0000c0 74 e5 90 3d 2e b2 df 3c be a4 a9 bc fd 22 79 bc
       0.07075015 0.027306642 -0.020708438 -0.015206096
0000d0 fd 70 e4 bd ff 88 43 be 90 94 fd 3c 6f 54 20 3e
       -0.11154363 -0.19095229 0.03095463 0.15657209
0000e0 13 6b 7a bd d9 a8 bf bc d3 17 ec 3c 09 bb 46 be
       -0.06113727 -0.023395943 0.028819954 -0.19407286
0000f0 fc 0b b9 3d ac 47 17 be c8 11 0c bd 7a 81 46 bd
       0.09035489 -0.14773434 -0.034196645 -0.048463322
000100 ab 15 23 bb 83 89 a0 3e cb 7e a2 bd 1e b8 3d bd
       -0.0024884741 0.31354913 -0.0793434 -0.046318166
000110 da c1 c0 bd cc ca 64 bd 59 31 3e 3d 1a 6c 4c 3e
       -0.09411974 -0.055857465 0.04643378 0.19963112
000120 3a b1 d0 bd 00 2a 27 bd 0a 27 02 bf 66 6c f9 bd
       -0.10190053 -0.04081154 -0.5084082 -0.121788785
000130 29 f8 05 be 66 91 ea bc fd e5 bb 3c 0e f3 d1 3d
       -0.13082947 -0.028633785 0.022936815 0.10251437
000140 a6 28 b7 3d fd fc 9a 3e ce f1 17 3e 50 d6 49 be
       0.089433 0.3027114 0.14838335 -0.1971066
000150 a5 8b 06 be 7d 6a 81 bc 94 c2 b0 bb 87 c4 3a 3d
       -0.13139208 -0.015797848 -0.0053942893 0.04559758
000160 c6 35 c5 be 80 75 30 3e 47 03 8c bc 7a 68 05 3f
       -0.38517588 0.17232323 -0.017091407 0.52112544
000170 f4 bc e9 3e 4a 2b a5 3c 29 2a 19 bd b5 15 99 be
       0.45651972 0.020162243 -0.037393723 -0.29899374
000180 30 19 02 be 6a 47 ec be dd 68 8e 3c bc 81 c1 bd
       -0.12704921 -0.46148235 0.017383987 -0.09448573
000190 95 38 bb be c5 35 97 be 68 f5 ec be bb 84 99 bd
       -0.36566606 -0.2953321 -0.4628098 -0.074960195
0001a0 11 82 14 3d 7b 87 a6 be 41 30 f4 3c a7 1f 7e 3d
       0.036256853 -0.32525238 0.029808166 0.062041905
0001b0 62 b3 18 3e 07 4a 7d bd 62 1d 4c 3e d9 be 8f 3e
       0.14912179 -0.061838176 0.19933084 0.28075293
0001c0 ee 7c 81 3d 7f e5 62 be e7 b5 1b 3e 88 d0 30 3e
       0.063226566 -0.22157858 0.15206109 0.17267048
0001d0 e4 12 c9 3e 36 06 92 3c 06 81 c4 3e 8d 91 69 be
       0.39272225 0.017825227 0.38379687 -0.2280943
0001e0 3d c2 46 3d 5e fe b6 3c b7 55 86 be b9 af c7 3e
       0.048525084 0.022338089 -0.2623727 0.39001253
0001f0 9a 3b 19 be 96 84 6c 3e 86 d6 25 bd 55 e6 cd be
       -0.14964142 0.23097453 -0.04048779 -0.40214792
000200 95 6b c5 bd 93 0c 46 3d 9c 6f c9 bd 4d 68 23 bf
       -0.0963966 0.048351835 -0.09835741 -0.63831025
000210 c1 9f 67 be 19 1f 0c bf a3 dd eb be f4 dd 01 3e
       -0.22619535 -0.5473495 -0.46067533 0.12682325
000220 5d 49 2f bd 3e 85 e2 3e b4 f2 fb be 21 76 8e 3b
       -0.042794574 0.4424228 -0.49208605 0.004347578
000230 6f 6d 12 3f 1c e6 5c be 33 f5 22 be fd 4c 3f bf
       0.5719823 -0.21572155 -0.15913849 -0.7472685
000240 fc 8a 83 bd dd c9 64 3e 39 9c d5 3d bb 3d 95 bb
       -0.064229935 0.2234263 0.10430188 -0.004554478
000250 49 dd 8d 3e 6d 61 8c be 1d 57 0e 3f 19 e9 18 be
       0.2770789 -0.2741808 0.55601674 -0.1493267
000260 47 e1 ce be 9a f1 20 be 99 fb 76 be 7d 41 12 3f
       -0.40406248 -0.15717164 -0.24119414 0.5713118
000270 6d ca bd 3e 0e 37 a5 be 57 16 ba be 4c 71 1f 3d
       0.370685 -0.32268566 -0.3634517 0.038926408
000280 a0 37 32 be 68 30 94 3f 70 fe 38 3f 1e 57 e6 3b
       -0.17404032 1.1577272 0.7226324 0.007029428
000290 61 98 9d be ab 06 05 3e 77 e9 6e be d7 03 26 3e
       -0.30780318 0.12990825 -0.23331247 0.16212402
0002a0 08 e8 69 3f 45 8b 24 bf 86 b8 ba 3e c0 17 3d bf
       0.91369677 -0.6427501 0.36468905 -0.73864365
0002b0 dd 10 33 be f6 4c d0 bd fd 8e ad 3d 3e 06 9e 3e
       -0.17486902 -0.10170929 0.084745385 0.30864137
0002c0 b6 e1 0c 3f af ab b3 3d 50 3a c7 bd ca 49 b9 3d
       0.5503191 0.087729804 -0.09727919 0.09047277
0002d0 79 62 ac 3e 0f c3 50 bf 2b 74 6b 3e 29 1c c3 be
       0.3366888 -0.81547636 0.22993533 -0.38107422
0002e0 40 96 6b 3e 0e c5 e7 be 08 90 a3 be e2 06 2a bf
       0.23006535 -0.45267528 -0.31945825 -0.6641675
0002f0 60 3c 7b be c1 49 c3 bc 8f 53 36 3e b3 a5 d9 bd
       -0.2453475 -0.02383888 0.17805313 -0.10627308
000300 b3 bd 0d be 9f 07 48 3b 5f 2a 6f 3d e2 69 60 3d
       -0.13841896 0.003052212 0.058390018 0.054788478
000310 59 cf 69 3e dd 5b 74 be 75 47 19 be 2b f8 a0 bd
       0.22833003 -0.23863168 -0.14968665 -0.07859834
000320 08 ed b9 bd 65 d1 95 bd 93 28 8e 3e 8c c0 46 3c
       -0.09078413 -0.073153295 0.2776533 0.012130868
000330 97 a8 0e be b9 11 8d bd db 26 87 3e 42 06 7a 3e
       -0.139315 -0.06888146 0.26396832 0.2441645
000340 3f 83 3f 3e 26 61 1a be 20 dd 8b 3d f9 f1 48 be
       0.1870241 -0.15076122 0.068292856 -0.19623555
000350 83 c0 c0 bd 79 23 a1 bc da 36 28 bd 94 c8 03 be
       -0.09411719 -0.019670235 -0.041067936 -0.12869483
000360 f3 56 21 bd bb b3 cc 3d a8 0a 67 3e 55 5b 2a 3d
       -0.03938956 0.09995218 0.22562659 0.041591007
000370 73 34 c9 3c e2 37 c0 ba 55 cf 20 3e 2d 6f c7 3b
       0.024561143 -0.0014665092 0.15704091 0.006086251
000380 c0 55 86 3d 74 fe 0e be 6b 6f d3 bd c5 db 3e be
       0.06559324 -0.13964254 -0.10323986 -0.18638523
000390 25 3b 0b 3e c1 63 a4 3d a0 ee b4 bd 63 e5 88 be
       0.1359678 0.08026839 -0.088345766 -0.26737508
0003a0 9d aa 6a be 19 35 25 3e 29 cc c2 bb 00 41 23 bd
       -0.22916646 0.16133536 -0.005944748 -0.03985691
0003b0 b2 a9 14 3e 49 94 3a be 83 46 e0 bd b5 54 a8 3d
       0.14517859 -0.18220629 -0.10950949 0.082192816
0003c0 30 ad b8 3d 4d a6 e3 bd 30 ef 16 be 85 4b 85 be
       0.09017408 -0.11115704 -0.1473968 -0.2603418
0003d0 9e 1e 1a 3d f8 eb 91 be 2c 5b 87 bc 3c 9e 20 3e
       0.037626855 -0.28500342 -0.016522966 0.15685362
0003e0 40 96 e9 3d ae 64 8b 3d 4b 38 a6 3d 9d 93 ad bd
       0.11405611 0.068063125 0.08116206 -0.084754206
0003f0 3b 4e 24 3e 41 2d b8 bc 1c 59 80 bd 92 ec 6d 3d
       0.16045468 -0.022482516 -0.06266996 0.05808694

lstm.weight_hh_l1 f4 [256, 64]
000000 04 c4 a3 3d fb cf 51 bd cf 17 e3 bd ef a9 b8 3d
       0.079963714 -0.051223736 -0.110885255 0.09016787
000010 c2 ae 19 3b 80 9e fa bd d8 e8 09 3d 4d bf aa bd
       0.002345011 -0.12237263 0.033669323 -0.08337269
000020 a5 46 e6 3d a2 d0 aa 3b 7a 5c ca 3d eb 0d dd bd
       0.11243943 0.0052128593 0.0988092 -0.1079367
000030 24 1a e3 bb aa c7 0d be d0 05 37 3e bf d8 a6 3d
       -0.0069306064 -0.13845697 0.17873311 0.0814681
000040 58 75 ac bc 98 36 23 be 95 59 27 3e b4 2e c7 3c
       -0.021052048 -0.15938795 0.16342767 0.024314262
000050 9b df 0d 3d 1d 06 4e bd 81 cd c2 bc a5 f8 55 bd
       0.034637075 -0.0502988 -0.023779633 -0.05223908
000060 84 a8 23 3e 96 a7 2d be 21 03 3d bd 5a 1c 85 3e
       0.15982252 -0.1695846 -0.046145562 0.25998193
000070 95 05 0e be ee ff eb 3d 71 fd fe bd a9 bc c9 bd
       -0.13869317 0.11523424 -0.12450684 -0.09850437
000080 da 38 1d 3e c3 9b 45 3d 21 cf 12 3e 8a 27 57 3e
       0.15353718 0.04824425 0.14336826 0.21011177
000090 61 db 73 bd fe 7a df bd d2 e4 24 3e ea 65 94 bd
       -0.059535388 -0.10912131 0.16102913 -0.07246001
0000a0 4d 32 ec 3c 47 a9 2b be 50 2a ce bd 28 b5 1a be
       0.028832579 -0.16763793 -0.10066664 -0.15108168
0000b0 02 da c5 bc 9e 2f a2 3e 3b 1e 43 3d ac 1a 22 be
       -0.024151806 0.31676954 0.047636252 -0.15830487
0000c0 11 ca 10 be 69 4b 10 3e a0 32 70 3d 47 9a 7f be
       -0.14139582 0.14091267 0.05864203 -0.24961196
0000d0 2e dc 53 be 08 6e 94 be c8 25 00 bd 27 ef 39 3e
       -0.2068946 -0.28990197 -0.03128603 0.18157636
0000e0 ae 7b df 3d 02 2b 52 3e 48 34 94 bc 77 11 35 3d
       0.10912262 0.20524219 -0.018091336 0.04420611
0000f0 c6 f4 7a bd bc 2d 32 3e 76 a1 e6 3c bb 0a a0 3d
       -0.06126859 0.17400259 0.028153162 0.07814547
000100 e9 c8 76 3e 45 da 1f 3e 05 ec 75 bc b8 b1 51 be
       0.24100079 0.15610607 -0.015009885 -0.2047795
000110 fa 81 cb be 1a b3 42 3e 6d ac 6a bd a5 3a 74 bd
       -0.39747602 0.19013634 -0.057293344 -0.05962624
000120 49 7c 9e bd 4b ff 52 bc 7d 01 11 be 7b c0 68 3e
       -0.07738549 -0.012878249 -0.14160724 0.22729675
000130 65 30 17 be d1 41 17 bf de 37 96 be f1 99 91 be
       -0.14764555 -0.590848 -0.29339498 -0.2843776
000140 ae 43 97 be 1e 67 fe ba 8a 72 26 bf 09 d7 34 3d
       -0.29543823 -0.0019409393 -0.6501852 0.044150386
000150 04 d0 c8 3d 9d c0 e9 bc a3 9d b2 bd 86 95 e9 bb
       0.09805301 -0.028534228 -0.08721473 -0.0071284203
000160 a0 90 35 be d8 a5 57 3d f5 c7 12 3e 32 46 45 3d
       -0.17730951 0.052648395 0.1433409 0.048162647
000170 4e 82 ae 3d ce bd c0 3d e2 a3 2d 3d 28 07 2e bd
       0.085209474 0.09411202 0.04239262 -0.042487293
000180 56 57 4a be c6 77 91 bd 18 fa 4a bd 98 a7 8c bc
       -0.19759879 -0.07102923 -0.049554914 -0.017169759
000190 0a 37 b3 3d 7c 29 3b 3e 10 b7 6d 3e 0d 52 27 be
       0.08750732 0.18277544 0.23214364 -0.16339894
0001a0 1e 8e 3d bd fc 31 ff 3d fa 10 31 3e c6 e0 2b be
       -0.04627811 0.12460706 0.17291632 -0.16784963
0001b0 44 ad 11 bd f0 f3 f0 bd ba 37 b3 bd d0 b5 c5 bd
       -0.03556563 -0.117652774 -0.087508634 -0.096538186
0001c0 c9 90 c4 bd 49 c0 b4 3e c4 19 50 be 56 6e 65 be
       -0.09597928 0.35302952 -0.20322329 -0.22405371
0001d0 a3 fe 04 3f ba 47 00 3f a9 ba 22 3e 79 43 05 be
       0.51951045 0.50109446 0.15891518 -0.1301402
0001e0 e8 02 c6 3c 53 68 1f bd fd 6b cb 3c f0 9e 06 be
       0.024171308 -0.03891785 0.024831766 -0.13146567
0001f0 2f 37 7d 3d fe ca 99 3b 5b 1e 1e 3e 75 85 9e 3d
       0.061820205 0.004693388 0.15441267 0.07740299
000200 48 20 80 3e 66 7f 34 3e d4 29 c1 be 7e f1 5d 3e
       0.2502463 0.17626724 -0.37727225 0.21674153
000210 f9 b9 89 bd 3f c5 11 be 80 9e c2 3e 6b f2 99 3e
       -0.067249246 -0.142354 0.3801155 0.30067763
000220 b1 ee ea 3d 55 df 61 bd 59 5c 81 be 30 5f bb be
       0.11471308 -0.055144627 -0.25265768 -0.3659606
000230 75 45 d3 bc 50 5b 29 3e 5e b6 9c 3e cd a9 66 be
       -0.025789956 0.16538739 0.30607885 -0.22525711
000240 b4 03 1b be 2e b2 ab bd bc 82 95 3e 3b 4f db 3c
       -0.15138131 -0.083835945 0.29201305 0.026771178
000250 d8 82 5d be dd 38 5c be 05 51 20 be 74 67 2f 3d
       -0.21631944 -0.21506067 -0.15655906 0.04282327
000260 a5 76 a0 3e 1f f2 ae 3c 24 0e 68 3e d6 f5 2a 3e
       0.3134052 0.021355687 0.22661644 0.16695341
000270 6c 11 4c 3d 66 30 38 3e 02 34 1b 3e cd 0b b1 3e
       0.049821302 0.17987213 0.15156558 0.34579316
000280 70 f2 87 3e a0 a1 59 be 36 82 08 3e 07 60 ec 3e
       0.26552153 -0.21253061 0.13330922 0.46167013
000290 01 59 c2 bd c6 7f 8c 3e 9c 8e 06 3f 23 60 25 bd
       -0.094896324 0.27441233 0.52561355 -0.040374886
0002a0 c1 41 71 3d 27 0c 35 3e 99 a3 a8 bd cb ee b0 bd
       0.0589006 0.17680417 -0.08234329 -0.08639296
0002b0 51 e4 c5 3d e7 6d ad bd f1 12 db 3d 1a 70 4f be
       0.096626885 -0.08468228 0.10696972 -0.20257607
0002c0 6a ab a8 be f7 d9 ee 3d 44 ae 90 3d b5 f0 0a bf
       -0.3294328 0.11662667 0.070644885 -0.5427354
0002d0 8c 70 e2 3c 00 d3 89 bd a7 89 5e bd c3 7b 3a be
       0.027641557 -0.06729698 -0.054330494 -0.18211274
0002e0 8e 8c c1 3e 78 89 2f 3d de d4 4d be 1c 89 93 be
       0.37802547 0.04285571 -0.20100734 -0.28815544
0002f0 51 a6 d7 3e cc f6 21 3e e3 ee 8c 3e f4 40 df 3d
       0.42119077 0.15816802 0.27526006 0.10901061
000300 38 b9 f1 3d 68 cb 5d 3e db 93 67 3d a0 4b 41 3e
       0.11802906 0.21659625 0.05653749 0.18876505
000310 f3 61 de be 21 06 8d 3e ca af d9 bd 92 af 86 be
       -0.43434104 0.27543738 -0.10629232 -0.26305825
000320 ed 36 37 be f9 bd b7 bd 81 d0 84 3e 47 60 9b 3e
       -0.17892046 -0.08971781 0.25940326 0.3034689
000330 9c 95 57 be bd d5 4e 3e ea dc 4d 3e 91 dc ef bc
       -0.21053165 0.20198722 0.20103803 -0.029279979
000340 24 4c ae be 4a 7a 06 be bb 3a 50 be c7 1e 54 be
       -0.34042466 -0.13132587 -0.20334904 -0.20714866
000350 a2 af 34 3e 12 02 14 3e a1 f7 fa bd c4 88 51 be
       0.17645124 0.14453915 -0.12254263 -0.20462328
000360 4e 44 fa 3d dd 12 0c 3c 50 5e ad bd 74 88 fa 3b
       0.12220059 0.008549419 -0.08465254 0.007645661
000370 77 05 92 bd 7c 11 9f 3d 99 24 04 3e c7 c0 0a 3e
       -0.071299486 0.07767007 0.12904586 0.13550101
000380 1d 9f b5 be c8 02 99 3e b9 f0 6b 3e f2 ea 0d bd
       -0.35472956 0.29884934 0.23041047 -0.03464789
000390 32 50 6e bc dd a2 a1 3e d2 86 95 bd 29 2b 4c bd
       -0.014545487 0.31569567 -0.073011056 -0.04984585
0003a0 04 48 09 3e 82 45 1a 3e ca 11 e3 bd 41 c6 83 bd
       0.13406378 0.15065578 -0.11087377 -0.06434298
0003b0 b3 0f 05 3e d3 4a 98 bd b7 c1 bc 3c 41 9f b6 3d
       0.1299427 -0.074361466 0.02304159 0.08917094
0003c0 31 e3 8e be 42 4c 2e 3e 02 d4 db 3d 7f 19 db be
       -0.27907708 0.17021278 0.10733797 -0.4279289
0003d0 6d 0f c4 be 6a 2d 3a 3d a0 ed 84 3e 17 e0 f5 3d
       -0.3829302 0.045453466 0.25962543 0.12005632
0003e0 90 fe 06 3f a4 bc d5 3d e3 d7 1a be 1f 6a 9a 3e
       0.5273218 0.10436371 -0.15121417 0.3015909
0003f0 f4 c9 be 3c 69 44 a6 3e b7 0f 0e be 76 82 45 be
       0.023289658 0.32474068 -0.13873182 -0.19288048

lstm.bias_ih_l1 f4 [256]
000000 9b 28 e7 bd c7 b9 99 3c e4 cd 89 bc c3 0b 40 3c
       -0.11287042 0.018765343 -0.01682181 0.011721554
000010 dd 9c db 3c c7 3a 38 bd ac 64 98 bd 21 b7 12 3e
       0.026808197 -0.04497793 -0.07441077 0.1432767
000020 fc 0d 38 bd a5 96 06 be af f2 00 3e ed fb 41 3e
       -0.04493521 -0.13143404 0.12592576 0.18943758
000030 b2 c7 ab bd e2 6f 31 3c bc 86 7b 3e b9 2e c1 bd
       -0.08387698 0.010829898 0.24563116 -0.0943274
000040 ec 2d ed bd ec ba 18 3d 2d d5 07 3e a3 bc 14 bd
       -0.115810245 0.037287638 0.13264914 -0.03631271
000050 7a e0 95 bd 8e f8 d2 bd b6 a0 38 be cb 62 b7 bb
       -0.07318206 -0.10301314 -0.18030056 -0.005596494
000060 a5 58 3f 3d d5 2c 19 be 84 2c 67 bd a9 ca 82 bc
       0.046715397 -0.14958508 -0.056438938 -0.015965777
000070 0f a1 e1 39 f5 08 1b bd df 0e af 3d 68 f4 13 3e
       0.00043035342 -0.03785034 0.08547758 0.14448702
000080 82 47 66 3e 26 51 98 3d ee 21 e7 bd 92 b9 a2 3c
       0.22488216 0.07437353 -0.112857684 0.019863877
000090 fd 8d 13 bd 6e 30 bb 3d 49 03 3d 3e cf a2 f1 3d
       -0.036024082 0.091400966 0.18458284 0.117986314
0000a0 fb 59 0e 3c 61 3a b0 bd ab b0 44 3d b7 a4 e9 3b
       0.008688445 -0.08604885 0.048020046 0.0071302312
0000b0 29 24 29 3d ef 95 69 3d 68 83 79 bd 84 ca 36 3e
       0.04129425 0.057027753 -0.060916334 0.17850691
0000c0 3a 02 40 3e d5 7b a5 3c 85 b4 34 be b1 b1 c2 3d
       0.1875085 0.02020065 -0.17646988 0.09506548
0000d0 4e 76 83 bb 6b 41 d0 3e bf d0 93 3d ae 8a 10 bd
       -0.0040119058 0.4067491 0.072175495 -0.035288505
0000e0 46 b1 bc 3d 70 87 e3 bd 3c a8 60 bd 08 d2 df 3d
       0.092135 -0.11109817 -0.05484794 0.10928732
0000f0 2f ed a5 bc dd d7 8f bb 9b 08 3a 3d f8 ab f3 bb
       -0.0202547 -0.0043897466 0.045418363 -0.0074362718
000100 76 39 5c 3c 8c 3c 67 bd 9f 89 48 be ab 79 c3 3d
       0.013441434 -0.056454226 -0.19583748 0.09544691
000110 8c d9 eb 3d d4 4e 6c 3d b9 d2 02 be cb d6 ac 3d
       0.11516103 0.057692364 -0.12775697 0.08439406
000120 20 2d bc bd f5 45 07 3d ca 10 8d be 04 be bb bd
       -0.091882944 0.0330257 -0.27551872 -0.09167102
000130 1b 19 7b bd 0c e8 8a bd 74 d5 56 3e 68 f5 1d bc
       -0.06130324 -0.06782541 0.20979863 -0.009641029
000140 62 6e 1c 3d df 00 de bd 3c aa 7d be 35 f5 9f bd
       0.038191207 -0.1084001 -0.2477197 -0.078104414
000150 f6 7e a9 3d d6 86 fa 3b a4 67 52 bd c6 03 22 be
       0.08276169 0.007645468 -0.05136837 -0.15821752
000160 ee 48 32 be ea fe ed bc f7 d4 fe bc 02 5f 79 bd
       -0.17410633 -0.029052217 -0.031107409 -0.060881622
000170 9d 25 3c be e4 00 c6 3d 5e 7a 28 bd df 68 53 be
       -0.18373723 0.096681386 -0.041132323 -0.20645474
000180 6a 43 24 3e e9 91 01 3d 57 62 08 be 56 6a 04 3e
       0.16041341 0.03163329 -0.13318764 0.12931189
000190 93 b5 c8 3d 4a 39 be ba 40 ec c4 3d 4f 86 ab bd
       0.098002575 -0.0014512923 0.096153736 -0.08375227
0001a0 52 ac e3 bd 55 e0 cc bc 4c df 72 3d c6 95 f9 3c
       -0.11116852 -0.025009314 0.059294984 0.030466925
0001b0 95 89 c3 bd f2 d7 82 bd 50 f6 b6 3d 20 fc 06 3e
       -0.09547726 -0.063888445 0.08933699 0.13182116
0001c0 98 1a 92 be d2 b6 8c 3d 1f 8a d0 bc e9 64 32 bd
       -0.28535914 0.06870808 -0.025456486 -0.043553267
0001d0 6d e4 d9 bd b3 49 99 bd 7e b5 6b 3d 74 f0 99 3c
       -0.10639272 -0.0748476 0.05754613 0.018791415
0001e0 98 27 06 3e 2c f5 14 be 8f ff 0b 3d 61 a3 16 bd
       0.13101041 -0.1454665 0.034179267 -0.036776904
0001f0 cd f7 7a 3d 18 83 6a bc d0 8c 96 3d e9 c6 d5 bd
       0.061271477 -0.014313482 0.073510766 -0.1043833
000200 02 9b 57 bd fb 3c 80 3d 76 8c 08 3d a3 ba 7d 3c
       -0.05263806 0.06261631 0.03333708 0.015486392
000210 3a cf 45 3d 1e 9d cb 3d 39 e7 db bc 75 57 1b 3d
       0.04829333 0.09942077 -0.026843654 0.037925202
000220 8b f7 1d bc 8d c8 00 3c 67 74 47 be 21 d9 3e 3c
       -0.009641538 0.007860315 -0.19477998 0.011648447
000230 24 f2 cc 3c e1 f8 20 bd b0 39 c8 3d 9d 3c e1 bc
       0.025017805 -0.03929985 0.09776628 -0.027494723
000240 f2 02 a2 bd b1 77 76 3c e9 64 ee bd 13 a1 03 3c
       -0.07910718 0.015043185 -0.11640341 0.008034009
000250 aa af ad 3d e2 e2 ac bd 52 a4 e8 bd 91 42 4f bd
       0.08480771 -0.08441712 -0.113594666 -0.050600592
000260 ce a2 a8 3d a1 5e 64 bd 67 4f 3e bd 7a 63 4a 3c
       0.082341775 -0.055754308 -0.046462443 0.012352819
000270 7f a8 7d 3c 14 f7 07 3c b2 77 5e bd 7d 18 01 bd
       0.015482067 0.008298654 -0.05431337 -0.031517494
000280 92 d3 c2 bd 14 68 c9 3b 10 93 a9 3b 03 72 84 bc
       -0.0951301 0.0061464403 0.005175002 -0.016167646
000290 88 d4 6b bd 54 24 f1 3c 08 ae a8 bc 70 2b 68 bd
       -0.057575732 0.029436268 -0.020590797 -0.05668205
0002a0 7c 2b 01 bd 89 07 c2 3d fc 83 b9 3d 05 1b ca bc
       -0.03153561 0.094740935 0.09058377 -0.024671087
0002b0 58 72 1c bd d7 bb 57 3d aa 9d d3 bb 2b 8b 63 bb
       -0.038194984 0.052669372 -0.006458004 -0.0034720402
0002c0 59 d4 8d 3c 07 aa 76 bd eb a0 21 bc 00 6f 6b bd
       0.01731317 -0.060220744 -0.009865026 -0.057478905
0002d0 2e 68 1a 3e bc ca b5 bc e0 a2 0f 3c 0d 8d c0 bd
       0.15078804 -0.022191398 0.00876686 -0.09401903
0002e0 93 b8 bc bd 17 c8 23 3d ca 24 77 bd 51 26 97 bd
       -0.09214892 0.039985742 -0.06033782 -0.07380355
0002f0 2f 29 a8 bd 6b 89 a1 3a 3c 5f 83 bb d4 78 5f 3d
       -0.0821098 0.0012324279 -0.0040091556 0.05455859
000300 22 47 aa bd 76 78 34 3d d2 6c fa 3d ce d5 cd bd
       -0.08314349 0.044060193 0.12227787 -0.10050546
000310 b8 0e bb bd 3a 4a ba 3d 5e fa 79 bc 28 59 97 3d
       -0.09133667 0.09096189 -0.015257446 0.07390052
000320 ef a4 00 be f3 32 df 3d d7 27 45 3d 68 11 4b 3c
       -0.12562917 0.1089839 0.048133697 0.012394287
000330 d8 c2 1d bd ae da 0e 3e 53 90 22 bd cc 72 de bd
       -0.038515896 0.13950607 -0.03968842 -0.108617395
000340 3e 86 15 3e c4 39 0c 3d 8d 87 80 3d 10 57 1f bc
       0.1460199 0.034234777 0.06275854 -0.009725347
000350 9c 29 83 3d f1 b0 8c bc fb 8c f0 bc 36 02 2d 3d
       0.06404421 -0.017174216 -0.0293641 0.042238437
000360 e3 ef eb bb 62 e0 89 bd 58 51 52 3d 43 b1 0c 3d
       -0.0072002276 -0.06732251 0.051347107 0.034348737
000370 65 7d 61 bc e7 99 13 be 8a be a9 bd 0b 37 b0 3e
       -0.013762807 -0.14414178 -0.082882956 0.34416994
000380 30 fd ff 3c 87 b8 1d 3d 1b ff 84 bd de 64 02 3e
       0.031248659 0.038506057 -0.0649397 0.1273379
000390 6b 5e bd 3b bf a1 99 3d 67 d8 2e 3d f2 7e 36 3e
       0.0057790778 0.07501554 0.042686846 0.17821863
0003a0 68 27 51 3d bb 82 12 be 44 f0 64 3d 14 5a ca 3c
       0.05106297 -0.14307682 0.055893198 0.024701156
0003b0 39 28 08 3e 28 05 98 3d ee 44 e0 bd 1b c5 ca 3c
       0.13296594 0.074228585 -0.10950647 0.02475219
0003c0 05 01 ed bd 41 08 03 bc bb 5a a0 bd 55 a9 6c 3d
       -0.1157246 -0.007997573 -0.078298055 0.057778675
0003d0 bb a4 01 3e 14 b2 29 3f fb 59 33 3d 70 2f 94 bd
       0.12660496 0.6628735 0.043786984 -0.072356105
0003e0 4f d7 d6 bd df 4c f1 3c 69 36 08 be bf c9 6f bd
       -0.104902856 0.0294556 -0.13302006 -0.05854201
0003f0 ce f0 cc 3c a5 b1 0a 3e 51 3b 3b be 5e 86 92 3d
       0.025017168 0.13544329 -0.18284346 0.07154535
