time_series_intro_class/final_project/temp/3_layer_32_size_model_epoch_2100.pth (torch, 87779 bytes, 13 tensors)

lstm.weight_ih_l0 f4 [128, 1]
00000000: 3a70 3c3e f0d2 b53f 3eff cd3f e340 04bf
00000010: 3747 ecbe 3b31 e53d 9f1b 733e 4ca5 babe
00000020: bf8c 913f 0119 503d 1ac5 633e 8cc2 c03e
00000030: f622 7e3e a0ef 10c0 9d8b ee3e 146d dbbf
00000040: bd7e 0fbf ac9b c4be f8e7 e33e 1569 00bf
00000050: fa52 823c 7f2c 9c3e cde9 753f f85b 6ebf
00000060: 37b2 7a3f d9bb bebe 8127 743f 3314 e7bf
00000070: add8 af3c 8bc7 05c0 7891 f43e 0cc2 39bf
00000080: 636b 0bbf 4a1d 9f3f 1162 da3f 0ca9 813f
00000090: 6fee a7bb 9632 0f3f 8780 a9be 7c30 77bf
000000a0: d107 be3f f489 173f b851 4c3f 83a7 6d39
000000b0: a7af 3b3e c771 0bbf 7cc7 cc3d 5ac4 bebf
000000c0: a8b5 6cbf 4e56 923f b025 713e b414 0f3f
000000d0: c99f a63f e635 1c3f 18f5 8f3f 7cbd 583e
000000e0: c480 fa3f 9bd4 d63e 5010 a43f 30a1 e6bf
000000f0: ddc8 c13f 6c06 fcbf 8310 e6bd 3c9a d2bd
00000100: 3ef1 233f 779d 0340 cfa4 f6bf 3b2a 0040
00000110: e625 5e3f 453a 96bf 2296 143f c2db 5a3f
00000120: 1217 04c0 84bd 813f 846d ae3f 51e9 92bf
00000130: 4e19 42bf 941f 2240 1a43 1ebe 1d30 2b3f
00000140: 51d0 343f d2dd 12c0 c9c6 823f 1d88 cbbf
00000150: 260d 03c0 33eb 60bf 512e 98bf f155 833f
00000160: a6ca 18c0 25be 453f f283 e7bf 5bcb ef3f
00000170: 36bb fdbf 89bf 00c0 5aa4 76bf e071 97be
00000180: 1cd8 85bf bd38 c33f 6aa6 be3f a08e 0dbe
00000190: bd5d 363e c5f7 e93e 6cc7 0fbe 2fe3 7bbf
000001a0: d8fa c03f 02b5 d13e 0830 123f fed9 ad3e
000001b0: 73af 703e f18f d9bf 2b23 8f3e f7dc d4bf
000001c0: 332f 7ebf 3565 933b c162 243e 06e5 91be
000001d0: e6c1 713e 8fc2 8b3e 975b 9b3f 2c73 043e
000001e0: 35e5 a03f 2b7c b23e e952 c03f a451 10c0
000001f0: 2ad1 0c3f 4fd3 0bc0 e3b3 1f3f 9245 8fbf
0.18402186 1.4204998 1.6093519 -0.5166151 -0.46148083 0.111910306 0.23741005 -0.36454237
1.1371077 0.050805096 0.22243157 0.37648427 0.24818024 -2.2646255 0.4659089 -1.7142663
-0.5605276 -0.38400018 0.44512916 -0.5016034 0.015908707 0.30502698 0.96059877 -0.93109083
0.97928184 -0.3725269 0.9537278 -1.8053039 0.021465624 -2.0903041 0.47767234 -0.7256172
-0.54460734 1.2430813 1.7061177 1.0129714 -0.005124859 0.55936563 -0.3310587 -0.96558356
1.4846135 0.59194875 0.7981219 0.00022664484 0.18328725 -0.54470485 0.09998986 -1.4903672
-0.92464685 1.1432588 0.23549533 0.55890965 1.3017513 0.6101974 1.1246672 0.21166033
1.9570546 0.4195908 1.2817478 -1.801794 1.5139424 -1.968946 -0.11233618 -0.10283324
0.6403998 2.056486 -1.9269046 2.0025775 0.8677658 -1.1736532 0.58041584 0.85491574
-2.063908 1.013596 1.3627172 -1.1477453 -0.7581986 2.5331774 -0.15455285 0.6687029
0.70630366 -2.2947888 1.0216914 -1.5900913 -2.0476775 -0.87858886 -1.1889135 1.0260602
-2.3873687 0.7724326 -1.8087142 1.8733934 -1.9822757 -2.0116904 -0.9634453 -0.29579067
-1.0456576 1.525169 1.4894536 -0.13823938 0.17809196 0.45696846 -0.14040917 -0.9839353
1.5076551 0.4095841 0.5710454 0.33955377 0.23504429 -1.6997052 0.2795652 -1.6629933
-0.9929077 0.004498149 0.16053297 -0.28495044 0.23609123 0.27296874 1.2137326 0.1293456
1.2569948 0.34860358 1.5025302 -2.254983 0.5500666 -2.1847723 0.6238386 -1.1193106

lstm.weight_hh_l0 f4 [128, 32]
00000000: 4707 483e ea0e de3e a6e6 bdbe 1e1d ab3e
00000010: 778f 44be 50e9 c7be efe8 58be 2300 a7be
00000020: c5c7 77be d681 373f b38f 0b3f 447a 0c3e
00000030: eed5 9dbe c1c7 0dbe f2f9 5abd b4f9 27bf
00000040: ee79 e7be 2139 22bf cd39 b13e 44be e2bd
00000050: 79d9 8cbf 7fa9 1abf f07b 05be 181d 313e
00000060: 2740 d1be ae9a 443f e1ef 24bf e6d9 a6be
00000070: beae 55bf 9581 d13d 118c 64be b18f 19be
00000080: a637 6c3e e173 3a3e a023 6dbe 9d08 403d
00000090: c31b 2e3c 5a9c 6bbd 9140 ecbd edf2 35be
000000a0: 214f 83be 51ea 09be e35a c53d 46bd ed3c
000000b0: ab41 b53d cc94 fabd 64ba 46be 40cb a9bd
000000c0: aeb5 16bd 2d12 31bd 8855 1c3c 472b 1fbe
000000d0: 7c2e bfbd 01be 84bd 2490 e8bd 2797 53be
000000e0: a8e0 44be 3c2e 80bd 4474 e83d 11c4 3abe
000000f0: ebed f63d 929d f33d fb52 a73c 8115 24be
00000100: b247 723e 5bb6 293e 9409 b4be 9b64 abbd
00000110: 25be d9bd bf85 51be 2e35 3fbb d1a3 9bbe
00000120: 302e 80be 3072 6dbe 03d6 593e e545 b03e
00000130: 3bbc 153e 0264 b5bd d132 2ebe 2e77 8cbd
00000140: bc05 bcbd 6eea 933e 8571 d0bc 56b0 42bc
00000150: 9717 f8be f4ac adbe 74f0 96be 0b88 243e
00000160: f655 52be 6947 f73e ddf0 b4be 95e1 07be
00000170: 912c 8abe af2b 473e d6dc 973d c91a 90be
00000180: 3f05 813e 1889 d33e 2239 acbe f5bd aa3e
00000190: 11df b4be 4937 3ebd 03fe 1e3c d1eb 4dbe
000001a0: fd65 d4be 2e9b 11be f35d 9f3e 8a31 d93d
000001b0: 1497 6a3e 3076 7fbd ea4f 083e ba7a 8fbe
000001c0: 8b21 febd dd2d 19bf b11c 833e 7b91 19be
000001d0: 1822 62be 377f 11be f475 c3be 682b afbe
000001e0: a6b1 babd d922 af3d 5521 08be 91bf 10be
000001f0: 2a44 89bd 9801 8b3d 540a 96be 2eb0 36bf
00000200: 0b56 bcbd a5ae 973d a89f 50bd b745 e6bd
00000210: 6c4c 193d 86ef 8d3e bb3f 43be aebb ebbc
00000220: 9d3f 3ebd 6c68 5cbb 6ab3 c7bd 80b8 c6bd
00000230: a185 92be d84d f5bd 59e9 d2be d638 2b3e
00000240: 85de 033c 3b0c 7c3d 4bb8 1b3c f9d6 5f3e
00000250: 35d5 15bc 7d09 293e 3333 00be a600 013f
00000260: e5ae d1bd b2c5 9e3d b2f8 c2be 72ec 63bc
00000270: 2e52 d3bd 9b4e babc 0eb0 a23c 2265 0c3d
00000280: cd81 c6be f558 8cbe 72e2 ad3d c8d2 613d
00000290: b2ae 983d f808 16be 1446 463e 9734 083e
000002a0: 5722 313e ae98 0dbe eb67 10be 3b6d 6abd
000002b0: 11b9 813d 6e6d f0bd c987 00be bd04 4c3e
000002c0: f3ca 113e 74d6 373e 5891 7a3c 5927 c5bd
000002d0: 2152 603e 28e8 173e 33ee bb3e f4bd 7cbd
000002e0: 0cf6 943e 3993 85bd 9767 4c3e f423 e63c
000002f0: 698e fb3e 40f9 dc3d d9e1 653e 4488 323e
00000300: 7506 a03c 611f 45be 89c6 653e 549d 0fbe
00000310: cf6d e6bd 2672 4e3c b09d f43d bc1d 2cbe
00000320: 0912 d13d 390c 0abe f93c 57be ba65 443e
00000330: f0e4 30bc 193e 15be 99a6 973e 6950 833e
00000340: 9e44 5abe 58ab 743e 0f89 35be d513 933e
00000350: 860e f53e cd6f 663d 2e03 b93e 7d2a 92be
00000360: 491e e13e 5682 7e3d 9d6c 0c3f 2dd4 dd3d
00000370: ccb0 803e 48a9 773d cc10 a93e 11d2 0d3e
00000380: f3b2 06bf 187a 83bc 76dd 223e f966 5c3d
00000390: 91c1 bb3c fb3a a13b 5489 8a3d 11e2 1fb9
000003a0: c711 c9bd 9837 8ebd e627 553d a6ca 82be
000003b0: fc2c 233d dd7a 53be b1b3 b2bd 8cb0 cebd
000003c0: 59f8 923c 8932 103e 4cac 663e a420 72be
000003d0: 9d98 683e d3ca df3d faf0 613e 13b6 933d
000003e0: dcae 933e 3d8f 3ebe 550a 213e 10a0 9fbe
000003f0: ddba d13e 7884 993e eadb 13be 7c66 d73e
0.19534026 0.43370754 -0.37090033 0.33420652 -0.19195352 -0.3904519 -0.21182607 -0.32617292
-0.241973 0.7168249 0.5451614 0.13718516 -0.30827278 -0.13845731 -0.053461023 -0.6561539
-0.45210212 -0.6336842 0.3461441 -0.110714465 -1.1003867 -0.6041488 -0.1303556 0.17296255
-0.40869257 0.7679852 -0.64428526 -0.32588118 -0.8346976 0.10229794 -0.22319056 -0.1499622
0.23068103 0.18208267 -0.23158121 0.046883214 0.010626736 -0.057522155 -0.115357526 -0.1776845
-0.25646308 -0.13468291 0.09636476 0.029020917 0.08850416 -0.12235412 -0.1940704 -0.0829072
-0.036794357 -0.043230224 0.009541877 -0.15543853 -0.09335038 -0.06481553 -0.11355618 -0.20663129
-0.19226325 -0.062588185 0.11350301 -0.18238856 0.12057098 0.118952885 0.02042531 -0.16023828
0.23660162 0.1657347 -0.35163558 -0.08368798 -0.1063197 -0.20461176 -0.0029175985 -0.3039842
-0.25035238 -0.2318809 0.21273045 0.34428325 0.14622585 -0.088569656 -0.17011572 -0.06858669
-0.09180781 0.28889793 -0.025444755 -0.011882862 -0.48455498 -0.33921015 -0.29480326 0.16067521
-0.20540604 0.4829667 -0.35340014 -0.13269646 -0.26987126 0.19450258 0.07415168 -0.28145435
0.25199315 0.41315532 -0.3363734 0.3334805 -0.35326436 -0.046439443 0.009704116 -0.20109488
-0.4148406 -0.14219353 0.31126365 0.10605152 0.22909194 -0.06236857 0.13311735 -0.2802332
-0.124087416 -0.59835607 0.25607827 -0.14996903 -0.22083318 -0.14208685 -0.3817593 -0.34212804
-0.09115915 0.085515685 -0.13293965 -0.14135577 -0.067024544 0.06787413 -0.29304755 -0.7136258
-0.09196099 0.07406358 -0.05093351 -0.11243766 0.037426397 0.27721804 -0.1906728 -0.028776016
-0.046447385 -0.0033631576 -0.097510174 -0.09703159 -0.28617576 -0.11977738 -0.41193655 0.167209
0.008048658 0.0615351 0.009504388 0.2185935 -0.009145071 0.16507526 -0.12519531 0.50391614
-0.102384366 0.07752551 -0.38080364 -0.013911353 -0.10318409 -0.02274256 0.01985934 0.034276135
-0.38770905 -0.2741162 0.08490457 0.055132657 0.074551955 -0.14651859 0.1936267 0.13301311
0.17298256 -0.13827774 -0.14102142 -0.057233077 0.06334127 -0.11739622 -0.12551798 0.19923683
0.14237575 0.17952901 0.015293442 -0.096266456 0.2190633 0.14834654 0.3670517 -0.06170459
0.2909397 -0.06522221 0.19961391 0.028093316 0.49132088 0.10789728 0.22449435 0.17434794
0.019534329 -0.19250251 0.22439016 -0.1402486 -0.11251413 0.012600457 0.11944139 -0.16808218
0.10208518 -0.13481225 -0.21019353 0.1917943 -0.01079677 -0.1457447 0.2961929 0.25647286
-0.21315238 0.23893487 -0.17728065 0.28726068 0.47862643 0.056258965 0.36135238 -0.2854804
0.43968418 0.062136017 0.5485323 0.10831485 0.25134885 0.060464174 0.33020627 0.13849665
-0.52616805 -0.01604943 0.15904793 0.05380914 0.022919448 0.004920361 0.067644745 -0.00015247638
-0.09817844 -0.069441974 0.052040003 -0.25545233 0.039837822 -0.20652337 -0.0872568 -0.100922674
0.017940687 0.14081778 0.22526664 -0.23645264 0.22714467 0.109273575 0.22064582 0.07212462
0.28844345 -0.18609329 0.15726598 -0.31176805 0.40962878 0.29983878 -0.1443936 0.42070377

lstm.bias_ih_l0 f4 [128]
00000000: 01e6 103f 4837 c23d 4096 34bd d0cc ec3e
00000010: 65f0 0fbe ec05 933d c708 d5be ffc4 523e
00000020: 94b2 d53d 0203 923d 227f a53e f961 26be
00000030: de4d 1e3e ca0f db3e 7650 c13d 7c1e d9bb
00000040: d868 92be ffd7 073f 426a f7bc 88fb e93e
00000050: 01e2 b33e 8276 08be f70d 39be 921a 4a3e
00000060: aa59 2a3e 67f6 253e 16e5 a53e 5621 a3bb
00000070: 48fd fb3d 235d 523e 79f2 55be d901 8a3e
00000080: 5a55 d43e 8b92 aebd 048a 2a3d c83f 803d
00000090: 1111 10be 65f5 bf3d cc99 81be 808c e7bd
000000a0: bffa 3dbc 28d7 82bc 2935 8ebe 1174 4e3d
000000b0: dd01 bd3e aaa3 f73c cd2e f63c 9953 03bd
000000c0: 0987 17bd f57b d73c 55a3 d7bc 2a3c 8fbd
000000d0: 038a fd3d 08d1 333e ca3c 84bd 90f1 2f3e
000000e0: b241 ebbd 1529 8c3e 1c4b ea3c 6760 95bd
000000f0: 4778 83bc fadc 5dbc 1fac 67be 9df5 183f
00000100: 274d 98bd 6c58 013e a04a ff3c ae20 e03d
00000110: 3339 10be fdc0 9dbd a825 7d3d 7591 0abd
00000120: 1bec 81bd 82e4 093d b00c f63c ecda d23d
00000130: ce1f acbd 582a a63c 3cb1 7a3c bcfc 6a3b
00000140: 8e02 22be 61c0 063d 29d5 cc3c 33cf 1ebd
00000150: a1b8 0bbe 5fce 13be a8e3 8bbb 3b82 053e
00000160: 1c58 33bd c132 0fbe 391d d23d ce25 10bd
00000170: 8888 dbbd c0e4 4c3e 999e 663d b88d 07be
00000180: d5e7 293e 6fa1 8e3e b479 803e c810 833e
00000190: 02a2 6d3d 4ddf 04be 87da e3be ec9e c7bd
000001a0: c8c5 3b3e 4e45 5a3d 1aff 073e d46f 0e3d
000001b0: 6504 b43d 2044 083f a6c8 483e 5c51 19bd
000001c0: 55a5 55be c2d0 be3e c555 ffbd 2489 9e3e
000001d0: 8844 3c3e be34 e8bd 72d8 44bd 7d17 4f3e
000001e0: dbea 8c3e b7e3 fb3d 37df 4f3e 17ba 12be
000001f0: 67f9 0c3e 2846 aebd e4e6 8bbd d430 5fbd
0.5660096 0.094832 -0.044088602 0.4625001 -0.14056547 0.07178864 -0.4160826 0.2058296
0.10434452 0.0712948 0.32323557 -0.16248311 0.15459391 0.42785484 0.09439175 -0.0066259485
-0.28595614 0.5306396 -0.030202035 0.45699716 0.35133365 -0.13326457 -0.18071733 0.19736698
0.16635767 0.16207276 0.3240134 -0.004978339 0.12304169 0.20543341 -0.20893277 0.26954535
0.41471368 -0.085240446 0.04163553 0.06262165 -0.1406901 0.09372977 -0.2531265 -0.11306095
-0.011595427 -0.015971735 -0.27774933 0.05040366 0.36915484 0.030229408 0.030051613 -0.032062147
-0.036994014 0.026304225 -0.026323 -0.06993897 0.12379839 0.17560208 -0.06456907 0.17181993
-0.1148714 0.27375093 0.028600268 -0.07293778 -0.016048564 -0.013541454 -0.22624253 0.59749776
-0.07436591 0.12631387 0.031163514 0.10943733 -0.1408432 -0.07702825 0.06180349 -0.033830125
-0.06343862 0.033665188 0.030035347 0.10295662 -0.08404504 0.020283863 0.015301045 0.0035856208
-0.15821287 0.03289831 0.025003986 -0.03877182 -0.13644649 -0.14434193 -0.004269082 0.1303796
-0.0437852 -0.13984205 0.1025948 -0.035192303 -0.10719401 0.20009136 0.056303594 -0.13237655
0.16592343 0.2785754 0.25092852 0.2559874 0.05801583 -0.12975807 -0.4450266 -0.09747109
0.18337166 0.05328875 0.13280907 0.034774616 0.08789901 0.5322895 0.19607791 -0.037431106
-0.2086385 0.37268645 -0.12467531 0.30964005 0.18385518 -0.11338185 -0.04805798 0.20223804
0.2752293 0.122992925 0.20299993 -0.143288 0.13767014 -0.08509475 -0.06831148 -0.054489926

lstm.bias_hh_l0 f4 [128]
00000000: 4a3b f23e 3664 893e c905 53bb 3d1e 9e3e
00000010: 2766 cb3d 7fc0 783d 3619 ccbe 4583 87bd
00000020: 1b52 393e 012f 883e 5c3f 553e 8751 2cbe
00000030: b614 a83d 271f cb3e f8d3 563e fff8 fbbd
00000040: b3c7 42be 8da9 ed3e 940a 4cbe d12f b73e
00000050: 3c33 cf3e 6524 c73d 0d80 5abe cca4 8fbd
00000060: 8341 a83e c3bb 583e 5148 603e 1ebf d3bd
00000070: 3084 60bb f780 c9bd 2f0a 8fbe facc a33e
00000080: bbc2 cf3e 9aef c1bd 0375 f5bd e58b 033e
00000090: 659e 09be 8f8f 563d f451 a53c ac17 f13d
000000a0: a34d 44be 4a75 213e 1957 98be 8486 773d
000000b0: 1ca2 d93e f2b8 d7bd b5b0 dc3d 1218 9c3c
000000c0: 31d9 88be 5fa6 5dbe 8c62 1f3e c79f 57bc
000000d0: 5160 f23d abdc 1d3e f44f a4bd 7578 213b
000000e0: 903b 933d 37ba 313e d440 853e cb66 61be
000000f0: 464e 5a3e 2077 3f3e b5c9 c7be ac11 143f
00000100: 4ee7 463e 227c 26be 3d1f 70bd 74ae 79bc
00000110: e463 083e 5fd7 ac3d 16ca aabd 509b 41bd
00000120: 9b5c 7ebd a1ed 573e 5f55 db3d cf00 67bd
00000130: c01b 78bd fb55 9ebd 788f 7f3b c017 82be
00000140: 657c 893c 05ea dfbd 5d13 1f3e 8a15 c2bb
00000150: a6b1 af3d 0637 533d 065c f4bc e80a 1bbe
00000160: 4336 993c 1bba ec3d baf4 05be a824 3fbd
00000170: b22b 623d 6ed2 4bbc 2249 7bbd d08c 043e
00000180: ab56 1bbc e600 0e3e 6a31 5b3e 7e5e 9d3e
00000190: 5860 12be 5420 04be eb14 9fbe faba bd3c
000001a0: ce30 ed3d 8894 b53d 930a 2c3e 1b51 81be
000001b0: 1576 713e 1ae0 423f 1c92 8fbd 705c 173d
000001c0: 3586 61be b125 ba3e b2d2 3abe 5974 be3e
000001d0: 7adc 643e b8c3 de3d 9f5b 55be ea8f 85bd
000001e0: 787b df3e e010 2b3e 6ea5 bf3e 83ee 1a3d
000001f0: 8f15 923d f097 eabd 2701 b83c a52f 3e3e
0.4731086 0.26834267 -0.0032199493 0.30882445 0.099315934 0.060730454 -0.39862984 -0.066168346
0.18097727 0.2659836 0.20824951 -0.16827975 0.08207075 0.39672205 0.20979297 -0.123033516
-0.19021492 0.4641842 -0.1992591 0.3577867 0.40468776 0.097237386 -0.2133791 -0.070138544
0.3286248 0.21165375 0.21902587 -0.10339187 -0.0034258477 -0.09839051 -0.27937457 0.31992322
0.40578255 -0.094695285 -0.11985209 0.12846334 -0.13439329 0.052383002 0.02018068 0.11772093
-0.19170241 0.15767398 -0.2975395 0.06043102 0.42506492 -0.105333224 0.10775892 0.019054446
-0.26728204 -0.21645497 0.15564936 -0.0131606525 0.11834777 0.1541621 -0.08023062 0.0024638448
0.07189095 0.17356192 0.26026022 -0.22011869 0.21318921 0.18697786 -0.39021078 0.57839465
0.19424173 -0.1625829 -0.05862354 -0.015239347 0.13319355 0.08439516 -0.08339326 -0.04726726
-0.062100034 0.21086742 0.107096426 -0.056397256 -0.06057334 -0.07731243 0.0038995426 -0.25408745
0.016782949 -0.109333076 0.1553473 -0.005922978 0.085788056 0.051566146 -0.029829036 -0.15140879
0.018702632 0.11558934 -0.13081637 -0.046665817 0.055217452 -0.012440307 -0.06134904 0.1294434
-0.0094811125 0.1386753 0.21405569 0.30736154 -0.14294565 -0.12902957 -0.31070647 0.023160446
0.115815744 0.08866221 0.16800909 -0.2525719 0.23580201 0.761232 -0.0701029 0.03695339
-0.22023852 0.3635688 -0.18244436 0.3719814 0.2234973 0.10877174 -0.20835732 -0.0652159
0.43648887 0.16705656 0.374309 0.03782512 0.07133018 -0.11454761 0.022461487 0.18572862

lstm.weight_ih_l1 f4 [128, 32]
00000000: e0f8 6bbe d41e d2be 9bd1 af3e 9a56 1f3e
00000010: 59e8 3f3f f273 313f eb49 c23d 4414 1f3f
00000020: 1cf2 8f3e 3b62 a43e a5ce 31be a5da 08bf
00000030: b16a 02be 2319 cb3e 7281 1d3c d620 c13e
00000040: 91bc d33e ee16 26be e59b 31be fb22 50be
00000050: 52aa fe3e 5fb2 353f 153a 8a3e 40b1 b03e
00000060: 84e9 f43d 5bf1 17bf c08f 92bd d3e1 073f
00000070: 5dd9 473d 27b9 babe 3b24 103e 5629 f83d
00000080: 530b 043c 4c1a d33d 9bee 923d b9b1 813e
00000090: 9184 2f3c 1bfd 1c3a 5387 b63d a87a 8dbe
000000a0: 6fdd d0bc a24d 4b3e b55b 833e 41b2 25be
000000b0: 3bca 583e cfdb eb3e e533 10be e272 943d
000000c0: 745d 99bd 07ab d5bd 38dd 283e 9745 a6be
000000d0: b7aa 99be 57c8 3a3d fa05 b3bd 45d9 173e
000000e0: f224 93be 1a68 a03e 8133 d7be ae75 d73d
000000f0: b663 03be 1f30 a3bd 52aa 15be ee2f b6bd
00000100: 105e 91be 06aa d7bd edfa 593e cefe b13d
00000110: 1121 e03e 9c0c dcbd a4f5 b1bd 8a83 d23c
00000120: e1ba 15bc 6aec 803e 13b7 a23d f106 88be
00000130: 8922 3e3e a68b 8e3e 95b0 8bbd ef60 6fbd
00000140: b919 833e 66d1 203e 8c43 14be 2ddc 86be
00000150: d900 01be 76a2 edbd 3387 573e 2cd8 93be
00000160: 0833 8f3e 075c 01be b488 bdbd 205f 22be
00000170: cb8e 6e3e 3558 253e 8b66 a1bd d0a4 b93d
00000180: 5383 54bd 953f 0e3e f8d3 843e 8b79 1d3d
00000190: 370e 533d 8417 b43d 1855 48bd 797d 02be
000001a0: 2cae 6ebd 7c38 e1bc 4f9e c83e 11e8 14be
000001b0: b202 8a3d 484f ab3e b791 51be 24bf 1bbe
000001c0: bab1 393d 0ec6 29be dad3 04bd a3cf bc3d
000001d0: 9ba3 573e 0c59 143d 1cd9 35be 4ac7 083f
000001e0: 0db1 963e cc06 013d e9df 98bd ab79 b43d
000001f0: e0c7 6dbd 942e 9f3d aa11 f2bd 8d53 a33d
00000200: cc32 c1bd 4d43 853d d81b 80be 3bfd 703e
00000210: 2924 613e 16d8 dcbc 448b 953e 9893 143e
00000220: 0770 cebd d642 babd 5bcc 96bc 017d e2be
00000230: d50b 0b3e ce6f 4a3d adb1 c43d 71c8 9fbc
00000240: d1fe b53e bf2f 663c f1b5 6e3e c331 61be
00000250: e1f4 bfbd 5a94 3ebc 6e4f 9d3d 537c 40bb
00000260: 6200 adbe a93e dfbe 7ba9 26be 48ae 49be
00000270: f7ec 8f3e 2a28 853e 6b96 46be 7ef3 cfbd
00000280: 9aa9 a3be b2bc 9a3d bd6e 6dbe 6d3c 9bbe
00000290: eac7 62bd 48fa 2fbe f85b aa3d 3bab 7abd
000002a0: db46 0f3d efe6 cd3e 71fb ff3e 3f3f 203e
000002b0: 62d2 12bf 58a9 223f 5b46 22bf 6146 9a3e
000002c0: d992 88bd dc53 64be c0fe 0f3d 2ba9 8a3e
000002d0: 06a6 01bf f1fe a0be 4cac abbe 6e67 ea3e
000002e0: 8471 cebe 5e24 4c3e 6d09 a7bd b225 fe3e
000002f0: c989 f4be d093 d7be 6e75 9d3d 1708 a53c
00000300: a0c8 a9bd eeed 083e 26f3 60be 201a b33d
00000310: 9d65 3e3e 3314 c63c c4a1 e73c 6218 473d
00000320: bfe7 913d 73b9 873e 28d1 03bd a49d 543d
00000330: bccc 5b3c 4830 923e b109 85be b384 823c
00000340: 4e82 283e a223 063d e756 81bd 4023 96bc
00000350: dce2 67be 5734 203e 2714 153e ca4c eb3d
00000360: d979 863d 4ded 3e3e 3f6f 1bb9 94e1 7b3e
00000370: 22ce 73be 738f 7d3c a60b aa3e 10d2 82bd
00000380: 9bd5 3c3f 003a 063f 99a6 17bf 6c7d a03e
00000390: 850b c2be eff0 adbe 1907 cdbe d453 c4be
000003a0: 5bc7 02bf 5db1 653d 1f08 4c3e 02d0 dabe
000003b0: 8407 0c3f b310 ce3c ba27 383d c2c8 39bf
000003c0: f2d5 1dbd 4fbb 02bf 74cf cc3b b7fb d8be
000003d0: c0cf c6be fde3 e5be 374d 26bf 9cfc 9a3d
000003e0: 740d 16bf 4c18 b83e d89f 5ebf bf91 96be
000003f0: a09f 01bf f62a ad3e 3ae3 0ebf 64a3 39bf
-0.23044157 -0.41039145 0.34339604 0.1556038 0.7496391 0.69317544 0.09486755 0.621403
0.28114402 0.32106194 -0.17363985 -0.53458625 -0.12736012 0.39667615 0.009613382 0.37720364
0.41354802 -0.16219684 -0.17344625 -0.20325844 0.4973932 0.709753 0.26997438 0.3451023
0.11958602 -0.59352654 -0.071563244 0.53078955 0.04879128 -0.36469385 0.14076321 0.12117259
0.0080593405 0.1030775 0.07174417 0.25330904 0.010712759 0.00059886434 0.0891253 -0.27632642
-0.025496213 0.19853833 0.25655904 -0.1618128 0.21170895 0.46066138 -0.14082296 0.07248475
-0.07488528 -0.104330115 0.16490638 -0.32474968 -0.30013058 0.045601215 -0.08741374 0.14828975
-0.28739125 0.31329423 -0.42031482 0.105204925 -0.12831005 -0.07968163 -0.14615753 -0.088958606
-0.28392076 -0.10530476 0.21287127 0.08691178 0.43775228 -0.107445925 -0.0868943 0.025697488
-0.009138794 0.2518037 0.07945075 -0.26567796 0.18567862 0.27840918 -0.0682079 -0.058442052
0.25605562 0.15704879 -0.14478892 -0.26339856 -0.1259798 -0.116032526 0.21047668 -0.28875864
0.2796862 -0.12632762 -0.0925459 -0.158566 0.23296659 0.1614693 -0.07880887 0.090646386
-0.051883053 0.13891442 0.2594297 0.03844599 0.05152723 0.08793548 -0.048909277 -0.12743177
-0.058271572 -0.027492754 0.3918328 -0.14541651 0.06738795 0.33458924 -0.20465742 -0.15209633
0.04533551 -0.16579458 -0.0324286 0.09219291 0.21058504 0.036217734 -0.17758602 0.5342909
0.29431954 0.031500623 -0.074645825 0.08812269 -0.058051944 0.07772556 -0.118197754 0.079749204
-0.09433517 0.06506977 -0.25021243 0.235341 0.2198645 -0.026958507 0.29207814 0.14509428
-0.10079961 -0.09094779 -0.018407991 -0.44235995 0.13578732 0.04942303 0.096042015 -0.019504758
0.35545972 0.0140494695 0.23311593 -0.21991639 -0.09372879 -0.011632049 0.07681166 -0.0029370978
-0.33789355 -0.43602493 -0.16275589 -0.1969539 0.28110477 0.26007205 -0.19393317 -0.10153864
-0.31965333 0.07555522 -0.23186775 -0.3031954 -0.055366434 -0.17185318 0.08318323 -0.061198454
0.034979682 0.4021525 0.49996522 0.15649126 -0.5735227 0.6353965 -0.63388604 0.3013182
-0.06668634 -0.22297615 0.035155058 0.2708219 -0.50643957 -0.31444505 -0.3352989 0.45782036
-0.4032098 0.19935748 -0.08156095 0.49638134 -0.47761372 -0.4210496 0.076884136 0.02014546
-0.08290219 0.13372013 -0.21967754 0.08745217 0.1859345 0.024179554 0.028275378 0.048607238
0.0712428 0.26508674 -0.03218189 0.05190815 0.013415512 0.2855246 -0.25983956 0.015932417
0.16455957 0.032748826 -0.063154034 -0.018327355 -0.22645134 0.15644966 0.14558469 0.11489256
0.06566209 0.1864521 -0.00014823394 0.2459777 -0.23809102 0.0154760955 0.33212012 -0.063877225
0.73763436 0.5243225 -0.5923858 0.3134569 -0.37899414 -0.3397288 -0.40044478 -0.38345206
-0.5108544 0.05607735 0.19924973 -0.42736822 0.5469897 0.025154447 0.04495976 -0.7257196
-0.038534112 -0.5106706 0.0062503163 -0.42379543 -0.38830376 -0.44900504 -0.6496157 0.07567713
-0.5861428 0.35956037 -0.8696265 -0.2940807 -0.50634193 0.3382184 -0.5581547 -0.7251494

lstm.weight_hh_l1 f4 [128, 32]
00000000: 165c 89be b389 41be 9efe 3d3e 9deb 473c
00000010: 9480 733e 7a77 19be 1c7f 60be 7a83 24bd
00000020: 346c 333d ffec 793e b3fc 8a3e 03ac 4b3e
00000030: 1a82 09bf 0e12 30bf 7e7b e4bd 2e97 cd3e
00000040: c77a e1be abe9 6cbe 2184 3f3d 42d9 8dbe
00000050: 3f8c 6a3d 0cf9 dabe 80aa 333e 747b 81be
00000060: d692 813e e639 833b 64ee 383d eb18 85be
00000070: 75e6 1abe 4a96 373e 670f 97be d58b 45be
00000080: 2f68 843e 5d25 4b3c 64f6 b63d 73d6 163e
00000090: 1c8c f13e 08a9 af3e fff6 0cbe 59cf 033f
000000a0: f935 bb3e 73af 983d 08c6 9ebd b452 e0be
000000b0: d6df 1cbd 7927 48be f885 9f3d 3397 263f
000000c0: f083 ccbd f1c0 25bd 07c1 9fbd 5a80 82be
000000d0: bd38 a2bd d84f 88be 2e20 cfbe 6c6c a73e
000000e0: fd17 873d 3b7f 6c3d 918d 613d 18ad c63d
000000f0: fe07 1d3d 0607 d1be 70af 203e 839d a4bd
00000100: b95e 47bd 00d4 7b3d f01d 203e f8fd 63bd
00000110: 34d5 603e 6634 c6bc e329 80bd 4ec1 7d3e
00000120: f9f2 863d f050 0cbe cede db3c 4737 5d3e
00000130: 9aa1 fabe dbc2 9ebd 8731 67be b900 3bbe
00000140: 5f4d f6be 922f d7bd 320f a8be e471 e53d
00000150: 7b22 ee3c bf4c b43d 1017 773d a358 08be
00000160: 0e44 9d3d a16a f4be 85f0 08bd f9cb ac3e
00000170: c19e c1be 6f1c 863c 2b3c f63e e760 a8bd
00000180: 2d13 473e 3ab3 5e3e e975 0a3f 441b 923e
00000190: c90c 573e a63f 87be 78fa 06bf 5618 833f
000001a0: c7b7 b83d 80da b4bd 5ca8 d5be 50d9 35be
000001b0: f2ed ac3d 5028 92bd 9d1e a93d 31d6 3f3d
000001c0: 0b55 2c3e a641 d1be 37e3 c7bd 49e6 c43e
000001d0: 5aec 0e3e 3238 4fbe 0cee 2c3f 1440 ee3d
000001e0: 3100 9dbd 25ba 77be b6a5 a1bd 372f f93d
000001f0: 9076 4abe 7794 e3be 2882 14bf e023 3dbe
00000200: 546e fdbd 89cb 94bc d913 c03d 06ed be3b
00000210: 7dbb 973e b0ae 80be bb83 ecbd b3c4 98bd
00000220: 70dc 813e a449 39bd 5679 5a3e e28d d33e
00000230: 2c0a b0be 1713 24bf c1f2 f0bd 64b4 2bbe
00000240: 3e07 f1be 8233 b0bb b61b 66be 73dc 803e
00000250: caf8 8bbc 9cc9 2b3e e9ac 77be 0782 023e
00000260: e8db d1bd 0bbd 823d 2e11 543e 27b7 5c3e
00000270: 7f13 ab3e 87a4 6f3e daf7 123d de5e 553d
00000280: 6323 333e 79d5 7b3e 5e06 04bf fe4a 87be
00000290: 47ed 2abe dbb5 483e beba e03e a4cb 48be
000002a0: bee9 023d 8453 563e fff7 0cbe 5ec1 923e
000002b0: d576 aa3d b734 abbb b75e fb3e 3eb5 40bd
000002c0: 2ddd c7bd 955d 3a3d 8261 a9bc 9a63 8b3e
000002d0: 3afe 003e 4474 96be 2cc1 88bf 46d0 0ebf
000002e0: 0029 33be 4363 063f fdc7 0e3e 5398 44bf
000002f0: 80fa 4cbe efe3 a03e 4889 8e3e 317e 973c
00000300: 8e94 2abc 3c16 e7bd 9343 8cbe 91d3 cc3e
00000310: 5464 893e c540 953d fc4d 1d3e dcaa 263e
00000320: f8ba a53d d40a a63d 0b6b 7bbc 5f7a 553e
00000330: b669 1dbe b830 81bb 5df6 8abe 315e 8f3e
00000340: 539e 02be f9f2 05be 2ec5 d9bd e812 00be
00000350: 52d0 e03a c80a d1be 77ed 9cbe 0fc3 01be
00000360: 23cb 7a3d 4f7c 9a3c 6506 a63e 594e 0cbe
00000370: 0956 debd 8b7a 03be d147 9cbc c61d 53bd
00000380: 8427 3d3f 0f4a c7bd 1812 e93d 551b dabe
00000390: 3f57 0b3f d060 19bf 54ab 993d a41d c23e
000003a0: 2eeb 2dbd bf27 90be 7f78 fbbe 4288 9bbd
000003b0: 307c edbe d17e 33bd c7c4 babd 4830 e73e
000003c0: b638 84be 646b 03be 93ad 153f 4347 313e
000003d0: ad45 c43e e20e 83be 180c c63e d55a 86be
000003e0: 1f1c ddbd 0067 41be 0343 b73e 4af6 06bf
000003f0: 0ffb 4ebc 49e1 cabe 49ea e53e e26b a53d
-0.26828068 -0.18900184 0.1855416 0.012202171 0.23779517 -0.14986983 -0.21923488 -0.04016445
0.043804362 0.24406813 0.2714592 0.19889836 -0.53714144 -0.6877755 -0.11156367 0.40154403
-0.44038984 -0.23136012 0.046756867 -0.27704817 0.057262655 -0.42768133 0.1754551 -0.252895
0.2530734 0.0040047048 0.045149222 -0.25995573 -0.15126975 0.17928424 -0.2950394 -0.19291623
0.25860736 0.012399045 0.08933714 0.14730243 0.47177207 0.34308648 -0.13766097 0.5148826
0.36564615 0.07455339 -0.07752615 -0.43813097 -0.038299404 -0.19546308 0.077892244 0.6507446
-0.099861026 -0.040467206 -0.07800489 -0.2548855 -0.07920978 -0.26623416 -0.4045424 0.32699907
0.06596372 0.057738524 0.05506665 0.09700984 0.0383377 -0.4082567 0.15691924 -0.080378555
-0.04867432 0.061481476 0.1563642 -0.055662125 0.2195633 -0.024194907 -0.06257989 0.24780771
0.06589312 -0.1370275 0.02683964 0.21603118 -0.48951417 -0.077520095 -0.22577487 -0.18261994
-0.48105904 -0.1050712 -0.32824093 0.112033635 0.029069176 0.08803701 0.06032473 -0.13315062
0.07678996 -0.477376 -0.033432502 0.3374937 -0.37816432 0.01637098 0.4809278 -0.08221608
0.19440909 0.21748057 0.54086167 0.28536427 0.21000971 -0.26415747 -0.52725935 1.0241802
0.09019428 -0.08830738 -0.4173001 -0.1775868 0.08443822 -0.07136595 0.08257792 0.04683513
0.16829316 -0.40870398 -0.09760135 0.38456944 0.13957348 -0.2023628 0.6755073 0.11633316
-0.07666052 -0.24192102 -0.07892935 0.12167209 -0.1977179 -0.44449207 -0.580111 -0.18470716
-0.12374559 -0.01816346 0.09378786 0.0058265952 0.2963523 -0.25133276 -0.11548563 -0.074593924
0.25363493 -0.045236245 0.21335348 0.41319185 -0.3438276 -0.6409163 -0.11765052 -0.16768032
-0.47075838 -0.005377234 -0.22471508 0.2516819 -0.017086405 0.16776127 -0.24187054 0.12744914
-0.10247022 0.06383713 0.20709679 0.21554242 0.33413312 0.23402606 0.0358809 0.052092426
0.17493968 0.24593152 -0.51572216 -0.26424402 -0.16692077 0.19600622 0.43892473 -0.19608933
0.031961195 0.20930296 -0.13766478 0.28663152 0.08323447 -0.00522479 0.490957 -0.047047846
-0.09758983 0.045499403 -0.020676378 0.27224427 0.1259698 -0.2938558 -1.0683951 -0.5578655
-0.17496109 0.5249521 0.13943477 -0.7679493 -0.20017433 0.314239 0.27839112 0.01849279
-0.010411395 -0.11283538 -0.27395305 0.40005162 0.26834357 0.072877444 0.1536178 0.16276115
0.08092302 0.08107534 -0.015345345 0.20847462 -0.15372357 -0.0039425753 -0.27141085 0.2800155
-0.12755708 -0.13080968 -0.10633312 -0.12507212 0.0017151928 -0.40828538 -0.3064992 -0.12672065
0.061228883 0.018858103 0.32426754 -0.13701762 -0.10856254 -0.12839715 -0.019077213 -0.051542066
0.7388842 -0.097309224 0.11380404 -0.42598978 0.5443 -0.5991335 0.07503381 0.3791324
-0.042460613 -0.28155324 -0.4911537 -0.075943485 -0.4638381 -0.043822113 -0.091195635 0.45154023
-0.25824517 -0.12833935 0.5846798 0.1731234 0.38334408 -0.25597292 0.38681102 -0.26241174
-0.10796379 -0.18886948 0.35793313 -0.5271956 -0.012633099 -0.39625004 0.44905308 0.08077218

lstm.bias_ih_l1 f4 [128]
00000000: 0a69 8ebd 3466 9c3d 68ea f3bd 0caf 1bbd
00000010: 3a0b 7b3e 4cbd 85be 0ab1 66be 78b7 fe3e
00000020: 8a1d 8c3e 026f a43d 1fc8 c93e 69bc c0bd
00000030: cc66 a1be 8212 3cbe 8bd0 e7ba afde 1c3f
00000040: 9c98 8d3e 96d1 c1bd cbb4 4ebd 393b af3e
00000050: e0ee 50bd aa1e 823d 9366 ba3e f0ce 60be
00000060: 99bc 93bd c6d8 5c3e 0275 8e3d 2cea e33d
00000070: b72b d5bc 0e7b 4ebe 18f1 2abc 55d8 e1bd
00000080: fc1c 273d 4378 283e 549c 6ebd 25a9 4f3e
00000090: f526 d73b 5221 fabb db27 603e ddcc c4bc
000000a0: 0d18 a33c fdc2 143d 85a1 21be 46d8 b8bd
000000b0: fb08 183e 5237 9fbc 0092 153e 9995 073e
000000c0: 201d c73b 1c19 f33d 5797 a7bd 3642 e5bc
000000d0: bfc8 393e 1a9c a73b 71d4 053e 0499 013e
000000e0: 8d4c 863d 0f31 403e e314 2e3b dd55 4d3e
000000f0: 8179 bdbc d810 e93d 1060 cabd 03ce cabd
00000100: 54e0 d73d 52b5 aa3d 3e55 2bbe b552 933c
00000110: 913c 0ebe 5ed1 ddbd dc1d b43d fa02 01be
00000120: ae64 d13b a1e0 f83d 4197 353e 244a 383e
00000130: 6ec0 073d ab46 09be 3595 64bb df14 d3bd
00000140: 768d e53c ca40 4ebe 6e42 13be 8774 7f3e
00000150: 4c68 6bbc 989c 103e bc85 213e b35b fd3c
00000160: 868f 7bbd 0bb5 ac3c c9ca 29be afa1 223d
00000170: 2443 363b 1c82 98bd 283e a43d a94d 97bd
00000180: 52d5 c3bd d254 663e a54c 39be 3827 b9bd
00000190: 0b0e 87bc 1a48 0abe bc72 163c 10b5 e73e
000001a0: b9fb 173e a42e bcbd 5d9e b83e af4a 81bd
000001b0: 2f27 14bd 1259 233e 900f 0c3e 30f1 b83e
000001c0: a375 9a3e 4a33 ce3d 023a 3dbd b5d4 f33e
000001d0: e0da ec3d a3ba 123e fa39 173f 03f0 bcbd
000001e0: af26 cebd 4433 923e 0330 193e bebe 6d3e
000001f0: f378 87bd e672 433d ab1a 163e 12b7 3fbe
-0.06953628 0.07636681 -0.11909944 -0.038008735 0.24516001 -0.26120985 -0.22528473 0.4974935
0.27366287 0.080289856 0.39410493 -0.094109364 -0.3152374 -0.18366435 -0.0017686052 0.6127729
0.27655494 -0.094638035 -0.050465386 0.3422487 -0.05100906 0.06353505 0.36406383 -0.2195394
-0.072137065 0.21567068 0.06955911 0.11128649 -0.026021821 -0.20164129 -0.010433458 -0.1102759
0.040799126 0.16452126 -0.058254555 0.20279367 0.0065659233 -0.0076333666 0.21890204 -0.024023468
0.01990893 0.036318768 -0.15784271 -0.09025626 0.14847176 -0.019435558 0.14606476 0.1324066
0.00607647 0.118700236 -0.08183163 -0.027985673 0.18142985 0.0051150443 0.13069321 0.12656027
0.0655757 0.18768714 0.0026562742 0.20052285 -0.023129227 0.11380166 -0.09881604 -0.09902575
0.10540834 0.08335365 -0.16731736 0.017983774 -0.13890292 -0.10830949 0.08794758 -0.12598792
0.006390176 0.121522196 0.1773348 0.17997032 0.0331425 -0.13405864 -0.0034878973 -0.10306715
0.028021555 -0.20141903 -0.1438081 0.24946795 -0.014368128 0.14122236 0.15773672 0.030927515
-0.06141617 0.021082422 -0.16581263 0.039704975 0.0027811015 -0.074466914 0.08019668 -0.073878594
-0.09562172 0.22493294 -0.18095644 -0.090406835 -0.016486188 -0.13504067 0.009182628 0.45255327
0.14842118 -0.091885835 0.36058322 -0.06313073 -0.03617018 0.15951946 0.13677812 0.3612151
0.30167875 0.10068376 -0.0461979 0.4762322 0.115651846 0.14329009 0.5907284 -0.09225466
-0.10065972 0.28554738 0.14959721 0.23217294 -0.06614866 0.047716998 0.1465861 -0.1872218

lstm.bias_hh_l1 f4 [128]
00000000: 86c4 95be 23f7 c43d 776d 28bd d714 943d
00000010: c1fd 963d c2aa 9fbe 50da f73b 9fd1 313f
00000020: efc8 663e 15a6 5c3e e0c0 e43e 3e59 de3d
00000030: 282b 9fbd 41af 2fbe 698d 23be cdf1 ca3e
00000040: d603 a13e 9f7a 8abc 3d74 b6bd 01fe b23e
00000050: c86d 2f3d 29e4 fc3d 155f 923e 0137 4ebc
00000060: 0acc 10be 89db 753e 0575 71bd 9789 8fbc
00000070: 3845 1ebd 991b 153d 0f4e 253e 5a36 15be
00000080: 0238 54be 0e96 053e 2ae6 de3d 701d 193e
00000090: 4642 07bd 0343 51be 3b2d a1bd bdbe 4cbe
000000a0: b4f5 353e 9052 62bb 764a 81be 0c0c 1ebe
000000b0: ba73 ca3d 8598 703e 189b b8bd 1938 fd3c
000000c0: f357 623d b92a af3d 98b9 933d a8ec eabd
000000d0: 6630 983e 5b6c d3bc 2483 653e 7159 9a3c
000000e0: 55d3 08be 1772 2e3e e4b0 80bd b439 303e
000000f0: 6539 fdbd 7a9f ff3d 0e2a 0c3d acb1 29be
00000100: e954 373d c58e fb3c 653b ffba 6542 f6bd
00000110: 965d da3d 4af8 d2bd a06c 83bd c4ee 14be
00000120: e0e1 2e3b 49c2 a53d a253 7bbd 7397 3cbd
00000130: 3ee6 a7bb 45c4 4d3e 92bc 1b3d 56f2 aabd
00000140: d9f7 fcbd 14d9 dc3d 93c2 3a3d 3a1d c9bc
00000150: e69e 81bd 8637 c23d 4ec7 7f3c e230 2c3e
00000160: fc58 7fbd d94a ec3d 3c63 5abd 42c8 2ebe
00000170: c11e 733d fdca 0e3e ce88 163e f39f 0c3e
00000180: 6ada 11be f926 483d d38b 3f3d 7f72 263e
00000190: 56ea 903a 7091 2d3d 8bc5 563d 462f e13e
000001a0: 3e36 a23e 75dd 6e3e b7e7 1e3e 075a 073e
000001b0: cfb7 76be fa97 193e 85a6 f23d c2d7 973e
000001c0: 44d3 f13c f9ac e53d a552 36be 79e2 4a3e
000001d0: a323 353e 349c d83d 8f03 ea3e fdfb 38be
000001e0: 43c9 4abd 9abd f33d ce91 1f3d 5fef 573e
000001f0: 2a54 0ebd c319 6cbe 1034 3d3d 57f5 99bd
-0.29251498 0.0961745 -0.04112002 0.072305374 0.073726185 -0.31184965 0.0075638667 0.6946048
0.22537588 0.2154773 0.44678402 0.10856865 -0.07771903 -0.17156698 -0.15971912 0.39637604
0.3144824 -0.016904173 -0.089088894 0.34959415 0.042829305 0.123482056 0.28588167 -0.012586356
-0.14140335 0.24009527 -0.05894949 -0.017521663 -0.03864023 0.036403272 0.16143058 -0.14571515
-0.2072449 0.13045523 0.10883744 0.14952636 -0.033022188 -0.20435719 -0.07869955 -0.19994636
0.1776951 -0.0034534074 -0.25252122 -0.15434283 0.09885354 0.23495682 -0.09013957 0.030910539
0.055259656 0.085530706 0.072131336 -0.1147092 0.29724425 -0.025808504 0.22413307 0.018841477
-0.13361867 0.1703571 -0.06283739 0.17209512 -0.12364463 0.124815896 0.034219794 -0.16571683
0.04475871 0.030707726 -0.0019472657 -0.120243825 0.10662381 -0.10301264 -0.06417203 -0.14544207
0.0026684925 0.080936976 -0.061359055 -0.04604287 -0.0051238826 0.20094402 0.03802163 -0.08347003
-0.12351961 0.10783592 0.045595717 -0.02455007 -0.063291356 0.094832465 0.015611483 0.16815522
-0.06234072 0.115377136 -0.053317294 -0.1706858 0.0593555 0.13944621 0.14700624 0.13732891
-0.14243475 0.048865292 0.046764206 0.16254614 0.0011056166 0.042375028 0.052434485 0.4398138
0.31682009 0.23326667 0.1551808 0.13217936 -0.24093555 0.1499938 0.11848167 0.29656798
0.029519685 0.112146325 -0.17804964 0.19812955 0.17689376 0.105766684 0.4570584 -0.18064876
-0.049508344 0.11901398 0.03895741 0.21087407 -0.034748234 -0.23056702 0.04619223 -0.07517498

lstm.weight_ih_l2 f4 [128, 32]
00000000: 7662 5f3d 911c ecbd a6a6 8d3e b9dd 423d
00000010: 6237 fc3d 2241 55bd cc0d f9bd 0e64 c43e
00000020: d509 b7bd 7583 4abe d864 633e b69c 3b3e
00000030: 802b 3dbc 20b4 843e 0db5 51be 31f9 a6be
00000040: 3804 09be c278 9d3e a0e9 203e 83e6 10be
00000050: 6592 27be 70c2 303c c8dc 433e 5245 fe3d
00000060: a94f 8a3e 0bd8 48be 82f9 e9bd 550b a53d
00000070: 6ce1 fa3d 7f91 b23d f5c5 8dbd ac23 febd
00000080: 181e 383d acda 0c3e 7aa0 30bc c7a1 113e
00000090: da57 c53e f7c8 9dbe e54a e2bd 9cc0 87bd
000000a0: fda9 68bc 378d a43b 5140 e23e 3539 b23e
000000b0: 16da bbbe 4045 28be 8a2d a6be ce66 90be
000000c0: fd7f 16be b3bb b83e 774d b73e b07f 643d
000000d0: 6927 9c3e d24e e4bd e791 833e 8e0e debe
000000e0: 10b4 85bc 5f93 24bf fb9f 203f 2966 333e
000000f0: 33bf 54be eab2 b9ba 62db 5dbe 8528 8e3d
00000100: de82 e93c 3c72 603d e11b e53d 7ea5 dfbe
00000110: 87b3 2fbf e5ef e5bc bdba 95be 2828 f2be
00000120: 10ed 0fbd f2f2 cdbd 4f3c 68be d32f 0abf
00000130: ee60 8dbe faad dabe 70c3 41be e0ca ef3e
00000140: 7a79 353f f490 97be aa2f d93e 5d56 9a3f
00000150: 238f e53d 37b3 42bd ad16 173e 327a 883d
00000160: 0530 34be b690 b9be d277 733e 253d 3c3e
00000170: 919d 203f 6da1 c7be bd95 643e dfd7 f73d
00000180: 8cda f23d bed4 bbbd 9772 93be b62a dabd
00000190: 4caa c53e 11d6 91be 6958 f2be d897 2f3d
000001a0: 37a8 84be 9294 8dbe 64ba 9cbe e961 913d
000001b0: 2eff 18be 54af 51be b530 b2be 2187 543e
000001c0: 211e 54be ba75 54be ddb3 2bbe 24b9 ce3d
000001d0: f2ab acbc 29d4 203e 8b0d 87be d3f2 6cbe
000001e0: e805 e43c 158a bbbd 88cd 46be 0e51 80bc
000001f0: 14a3 893d 98fa b6be 123a a73e 7bb7 093e
00000200: 3a4c cc3b 5bf7 efbd 0bf2 8cbe f337 b43d
00000210: 595d d8be ec75 373d d2bc a53e 7c87 e7be
00000220: 1373 213e 7ef1 c13d 469e ee3e bb0f a5be
00000230: cbf2 62bd 08cb 3abe 57de b93e bf2a a0bc
00000240: 33ee 043e 7cc1 d83e ac2a 113e 3dca 4d3c
00000250: 4ba4 4d3e 4fb8 15bf 5798 87be 6ebe f43b
00000260: 1368 20bd cdac e73e b4c3 6e3e 397a 18be
00000270: 43f4 213f 3432 923e e54b 133e c83b 36be
00000280: 860d 2e3d 0f23 9dbd 1e2f 0abe 4539 97bd
00000290: 1689 d83d 180f 28be 0f0f 923d 0ed8 a0bd
000002a0: 8749 41be e825 29be 95e5 2c3e cf04 6ebd
000002b0: fc0a 35be e9e2 bbbe e7f4 24bc f0c9 4d3e
000002c0: ffd3 36bd 7bbb 333a 4173 8abc fca1 5d3e
000002d0: 1715 783e ad1f 20bd 104f 32bc 8d4c df3c
000002e0: 9036 2a3e e525 ed3c 13f0 f9bd bf4b e4bb
000002f0: 24ec 883e d9f6 ce3c d013 2b3e 6b10 d8bc
00000300: 9b7a 2cbe fef1 26be c044 2ebe c48f 93be
00000310: b4fa 8cbe 1322 ce3e b4d7 a13b a08c 5bbd
00000320: 08c1 b03e 836f 30be 71b1 8e3c 7a6d 83bf
00000330: 92d9 5bbe 52e1 0ebd 48be 92bf ea5c 523f
00000340: 1f80 2e3f 9960 8fbe 65f8 e43d 2266 323f
00000350: b882 e2bd 4549 9cbd 7435 3d3e 34d1 793d
00000360: f13c 86be 51aa 86be 0685 7cbd 514b 5c3f
00000370: 2268 3c3f 9dd5 fdbe 955e af3d d265 163c
00000380: 425f c0bd 0297 27bf 9223 283e 88fa c5bd
00000390: 56be 27be 9b13 b53d c229 f0bd cbbd c8bd
000003a0: 3ed3 a1be 2ea8 72be ac6e 853d 90c4 e9be
000003b0: 33e2 85be 5fab 9cbe 87f0 67be fbd8 6c3d
000003c0: 628b 873d ebd4 61be ce9f a2bd 8aad 9c3e
000003d0: baf9 163e a49d 813c 149f 94be c3fd 13bd
000003e0: 0592 263e 2cba fdbd 6274 9ebe 10b7 cb3e
000003f0: 680a 193f 3c09 d4be e783 b53d b6e7 85be
0.05453726 -0.11528886 0.27666205 0.047574732 0.12315251 -0.05206407 -0.12160835 0.38357586
-0.08937422 -0.1977671 0.22206438 0.18321499 -0.011546016 0.25918674 -0.20479222 -0.32611993
-0.13380516 0.30756193 0.15714121 -0.14150433 -0.16364439 0.010788545 0.1912719 0.124155656
0.270139 -0.19613664 -0.11424543 0.08058802 0.12250027 0.087191574 -0.06922523 -0.124091476
0.044950575 0.13755292 -0.010780448 0.1422187 0.38543588 -0.30817387 -0.11049441 -0.06628534
-0.014200685 0.005021717 0.44189695 0.3480927 -0.36689824 -0.16432667 -0.3245662 -0.28203434
-0.14697261 0.36080703 0.35801288 0.055785835 0.30498818 -0.11147846 0.25697252 -0.4337048
-0.016321212 -0.6428737 0.6274411 0.1751944 -0.20776062 -0.00141677 -0.21665719 0.06941322
0.028504785 0.054796442 0.11186958 -0.43680948 -0.6863331 -0.028068492 -0.29244033 -0.47296262
-0.03513819 -0.10056104 -0.22679256 -0.53979224 -0.27613014 -0.4271086 -0.1892221 0.4683447
0.70888484 -0.29602778 0.42419177 1.2057606 0.11208942 -0.047534194 0.14754744 0.06663932
-0.17596443 -0.36243218 0.23776177 0.183827 0.6274043 -0.38990346 0.22322746 0.12101721
0.11858091 -0.09171437 -0.28798363 -0.10652678 0.3860649 -0.28483632 -0.47333077 0.04286942
-0.25909588 -0.27652413 -0.30610955 0.07098753 -0.14941093 -0.20477039 -0.34802786 0.20754673
-0.20714618 -0.20748034 -0.16767831 0.100939065 -0.021078084 0.15705933 -0.2637752 -0.23139505
0.027834848 -0.091571964 -0.19414341 -0.01566365 0.06720558 -0.35738063 0.32661492 0.13448898
0.006234673 -0.11717101 -0.27528414 0.08799734 -0.4225872 0.044790193 0.3237062 -0.45220554
0.15766554 0.09469889 0.46605128 -0.32238564 -0.055407327 -0.18241513 0.36302444 -0.019551633
0.12981491 0.42335117 0.14176434 0.012560424 0.20082204 -0.5848436 -0.26483414 0.00746899
-0.039161753 0.45249024 0.23316842 -0.14890374 0.6326334 0.28553927 0.1438442 -0.17796242
0.042493366 -0.076727025 -0.13494536 -0.0738397 0.10573022 -0.16412008 0.071317784 -0.07853709
-0.18875705 -0.16518366 0.16884454 -0.058110055 -0.17679971 -0.36696556 -0.010068155 0.20096564
-0.04463577 0.0006856245 -0.01690066 0.21643823 0.24226795 -0.03909271 -0.010883108 0.027258182
0.16622376 0.028948734 -0.12203994 -0.0069670375 0.2674266 0.02526419 0.16706777 -0.026375016
-0.16843645 -0.1630325 -0.17018414 -0.28820622 -0.2753502 0.40260372 0.004939044 -0.053600907
0.3452227 -0.17230038 0.017418595 -1.0267785 -0.21469715 -0.03488285 -1.1464319 0.82173026
0.6816425 -0.28003386 0.1118019 0.6968709 -0.11060089 -0.076311626 0.18477422 0.060990527
-0.2621837 -0.26301816 -0.0616503 0.86052424 0.73596394 -0.49577036 0.08562962 0.009179549
-0.09393169 -0.65464795 0.16419819 -0.09666926 -0.16381201 0.0884163 -0.11726715 -0.09801825
-0.31606477 -0.23696968 0.065152496 -0.45657778 -0.2614914 -0.30599496 -0.22650348 0.057824116
0.06618382 -0.22053878 -0.079406366 0.3060115 0.147437 0.01582224 -0.29027617 -0.036130678
0.1626664 -0.12389025 -0.30948168 0.39788103 0.59781504 -0.41413295 0.08863049 -0.26153344

lstm.weight_hh_l2 f4 [128, 32]
00000000: 4ca2 9abd c6d5 f2bb 2481 08be 68f2 97be
00000010: e78e 55bd d5ea 77be d6f5 22bd b863 bfbd
00000020: a430 ad3d aa53 bdbe fb52 513e bf2a e0bd
00000030: 7fc3 99be 771e b9be 6bee 10be 19b1 b33e
00000040: 8030 88bd c3ea bfbe 4b85 ecbd 02b3 93be
00000050: 3821 3dbe 4246 933e 4b10 6a3e 2ebd ac3e
00000060: 8a76 a0bd 9f77 62be 1b1f f23d 1ece 8dbe
00000070: 5e63 593d 65e7 8cbc d3da a73d eb56 19bd
00000080: 2bae a7be 153e c73e f2c6 563e 66e4 883e
00000090: 9c69 0d3f ad2a 86be 3f98 1e3e 2144 f8be
000000a0: 710c 44be 475b f33d 8bf4 78be 1954 29be
000000b0: 4f3f 233d b81b dbbe dd27 55be 3e7b 893e
000000c0: 56f5 ac3e 1d12 3cbe 5180 66bd 75e0 97be
000000d0: eff5 8e3e 2e10 763e c670 96bd 5e12 be3e
000000e0: 90cc b4bd 412f 90be df33 023f 482a 24bd
000000f0: 284a 18be 9b01 d8be e954 92bd 997c 5abf
00000100: d024 ea3d f6d3 27bf 62ba aebe 4858 d73d
00000110: 5451 2abe 78f8 063e d37b c3bd 1834 b3bd
00000120: a21b 4d3e 2afd edbc b441 a2be 7f60 b7be
00000130: 9369 003f ab41 993c 7050 593e 8622 cd3d
00000140: b06d bb3e 1eb9 c3be 1aae 08bf 0b76 253f
00000150: f22a a4be 58b5 ffbe 7221 bc3d 8ba3 2f3f
00000160: 503a f83e 9cab 293f b97a 18be 0357 c6be
00000170: de84 813d d050 a43e 5b7a 4a3f afb2 8cbd
00000180: 9553 8d3e b70e b3bd 9e09 0bbf 4590 873e
00000190: 8202 bdbe cc35 863e a3af 293e b4f2 bd3c
000001a0: 9328 343e c7e5 813d cd77 8abe 449c 60bd
000001b0: 20b9 37bd dbad c1bd a489 ffbd f5cc 9b3d
000001c0: 6e95 4d3d 9766 e43d 7d9a 35be e110 e63e
000001d0: 9e79 11bf 6a19 3d3e 2d83 483e ad4c 483f
000001e0: 658f 913d 909c 153e 6252 1fbf 3386 593e
000001f0: 39b5 74be fc44 adbd 58ed 4d3b 4bf1 dc3d
00000200: ba20 bd3d fa28 6ebd 3e65 8c3d bf88 d3be
00000210: ede2 853d 04f2 7abe 9c8d 3d3e 349f b7bc
00000220: f329 2d3d 1f75 713d 24c8 efbe f9ae 463e
00000230: 54ad 82bd d1ea 4b3e 275c 76be 08df c5be
00000240: f2fa afbe 6c9b e8be d416 013f 9326 883e
00000250: cc60 09bf c3fb adbb a9b7 97be 894a 2a3f
00000260: c064 0ebd 24b2 0a3e 146b 9fbe dfed 06bf
00000270: 1ddb b1be 729f dc3e c3f1 e1bb 5d02 2dbd
00000280: 1737 a83e 0e64 e0be 460f abbe 5062 2d3e
00000290: b421 493e 22c7 273d 3568 49be 99ca 0cbe
000002a0: bb52 25be c970 423e 0ae0 4dbe e77b bcbe
000002b0: 649a 3fbc 7b68 87be a91c 3bbe e421 b33a
000002c0: db27 a13c 39d0 d8be a2d9 88bd 4073 c13e
000002d0: 32aa c4be cc54 693d 59d6 d13e ecdb 673f
000002e0: 26db 64be 4adc 62bd a033 0d3b 01b5 d9bd
000002f0: 71f9 0ebe 209a 3c3d d4ed 373d be54 7ebb
00000300: ddb4 04be 7d86 04bf d0b7 1e3f 766f 893e
00000310: 5f0b 0e3f 27c2 213e 9669 b1be 8d1d c2be
00000320: 188d f13d 1853 53bf e641 81be 36b3 a83b
00000330: b9a4 93bb 1d4b babd ae55 833f 3f67 5b3d
00000340: 9f9d ab3e 47ba b1be e6a5 26be 8fc3 f13e
00000350: 4df6 64bf 6e85 46be c363 78be 6087 903f
00000360: 7238 563e a79e 2e3f 7125 e83d 23c3 87bf
00000370: 10fd 30bf c4d7 58be 7e40 893d fba5 aebd
00000380: ed92 973e 9e85 a6be 9f97 99be 6bbe 023f
00000390: bc62 c73e 6579 8cbe dde8 b73e 7d57 07be
000003a0: d50b edbe 33e9 a93d 6724 b83d 010e e2bd
000003b0: 894b 893e 779d 563e 55d5 333e 80ff 83bd
000003c0: 99c1 4a3e 4f6c bfbd 1e90 543d 5693 193e
000003d0: 074e debe e330 133e 6e0f 6ebd b1af 4e3f
000003e0: cfdb 8bbe 4d6b d9bd cb79 79be 372c 533e
000003f0: 2da2 08bf 4f0e f6be c5f8 8dbd 8da3 043d
-0.07550487 -0.0074107377 -0.13330513 -0.2967713 -0.052138235 -0.24210675 -0.03978523 -0.09345192
0.08456543 -0.36977893 0.20441811 -0.10945653 -0.30031964 -0.36156055 -0.14153449 0.35096052
-0.06649876 -0.37483796 -0.11548861 -0.2884751 -0.18469703 0.2876454 0.22857778 0.33738083
-0.078351095 -0.22115944 0.11822339 -0.27696317 0.05307328 -0.017200181 0.08196034 -0.037436407
-0.32750067 0.38914552 0.20974329 0.26736754 0.5523927 -0.26204434 0.15487765 -0.48489478
-0.19145371 0.11882644 -0.24312036 -0.16535987 0.039855298 -0.42794585 -0.20815988 0.2685184
0.33780926 -0.18366285 -0.056274716 -0.29663435 0.27922007 0.2402961 -0.073457286 0.37123388
-0.0882808 -0.28161052 0.508604 -0.040079385 -0.14872038 -0.42188725 -0.071451016 -0.8534637
0.11432803 -0.655578 -0.34126574 0.10514885 -0.16632587 0.13180721 -0.09545102 -0.087501705
0.20030072 -0.029051382 -0.31690753 -0.35815808 0.50161093 0.01870807 0.2122209 0.100163504
0.36607122 -0.3822717 -0.5339066 0.64633244 -0.32064015 -0.49943042 0.09186067 0.6860892
0.4848199 0.6627748 -0.14890565 -0.3873826 0.063241705 0.32092905 0.7909295 -0.06870019
0.2760283 -0.08743041 -0.5431155 0.26477256 -0.36915976 0.2621292 0.16570906 0.023187019
0.17593603 0.06342655 -0.27044526 -0.054836527 -0.044854283 -0.094569884 -0.12477425 0.07607452
0.050191335 0.1115238 -0.17734714 0.44934753 -0.568262 0.18466726 0.1958129 0.78242
0.071074285 0.14610505 -0.6223508 0.21242599 -0.23897256 -0.08460423 0.0031421985 0.107882105
0.09234758 -0.058144547 0.06855248 -0.41315266 0.06537423 -0.24506384 0.18511051 -0.022414781
0.042276334 0.058949586 -0.46832383 0.19402684 -0.06380716 0.19913794 -0.24058591 -0.38646722
-0.34371144 -0.45431077 0.5042546 0.2659193 -0.53663325 -0.0053095534 -0.2963231 0.6651998
-0.03476405 0.13544518 -0.31136382 -0.5270671 -0.34737483 0.43090397 -0.0068952753 -0.042238582
0.3285453 -0.43826336 -0.3341009 0.16932034 0.19641763 0.040961392 -0.19668658 -0.1374916
-0.1614484 0.18988337 -0.20104995 -0.3681328 -0.011694524 -0.264469 -0.18272652 0.0013666716
0.019672325 -0.4234636 -0.06682135 0.3778324 -0.384111 0.056965634 0.40983847 0.9056995
-0.22349223 -0.055385865 0.0021545663 -0.10630227 -0.13962342 0.046045423 0.044904545 -0.0038807834
-0.12959619 -0.5176771 0.61999226 0.2684285 0.554861 0.1579672 -0.34650868 -0.3791317
0.117944896 -0.82548666 -0.2524559 0.0051483167 -0.0045057205 -0.09096358 1.0260522 0.05356526
0.33518693 -0.3471243 -0.16274223 0.47219512 -0.89438325 -0.19386837 -0.24256806 1.1291313
0.2091997 0.68210834 0.113352664 -1.0606426 -0.6913614 -0.21176058 0.06701754 -0.08527752
0.29604283 -0.32523817 -0.2999849 0.51071805 0.38942516 -0.27436367 0.35919848 -0.13216968
-0.4629809 0.08296432 0.08991318 -0.11037827 0.2681544 0.20958506 0.17561848 -0.06445217
0.19800414 -0.0934683 0.051895253 0.1499761 -0.43418905 0.14374118 -0.058120184 0.80736834
-0.27316138 -0.10616169 -0.24362867 0.20622335 -0.5337246 -0.48057792 -0.06932215 0.032382537

lstm.bias_ih_l2 f4 [128]
00000000: 39ca 70bd 3909 64be f9ff c93e 929e ddbd
00000010: 912a 82bc e09f aebd bc24 e0bd 44ee 32be
00000020: 7eb1 d0bc 5d98 193e 039b a3bd 6ad2 a9bd
00000030: 2fee d7bc 6287 393e f785 4e3d 4190 793e
00000040: 56c4 4eba 3a00 4bbe 14c7 f83c 5070 043d
00000050: cf8f 26be edef 15bd 457b 0b3e 5557 de3e
00000060: 0218 983b 6bd5 23be 12c0 9a3e 3de3 cd3c
00000070: 787a 93be 107b 42be bf5b 19be 55e0 d0bd
00000080: 7c0e 33be 3286 cd3c 0e1a d1bd 8b70 443e
00000090: c8c5 ccbc 84f1 72be 313f dabe 7e5f 21be
000000a0: 81de f7bd 4bcd 0b3e 6cd2 6c3e 8eaf 343e
000000b0: c0a8 b03d fd38 9cbe d75c ec3d b1c3 7dbe
000000c0: ab4d 423e 2dbd 1c3e 4683 7ebe 17e2 a23e
000000d0: 22b7 4cbd 1bc0 ca3d 5d0b 97be 1a95 3ebf
000000e0: 771d 0ebd d3a2 ebbd 3a18 43be fb36 0e3e
000000f0: ac0e 90be 92e3 913e 6390 27bd 76d1 2cbe
00000100: b201 1e3e 6345 b13c 298b 323e d3fc a6bd
00000110: de89 b6bd 8ad7 3fbe 9e3c 2fbe 1b4a a7bd
00000120: 2c45 003e eb13 333e b3f2 c13d e1c4 6fbd
00000130: 2e65 63bd 9365 6b3e cfaa f13d 8ce9 203e
00000140: 36b5 e0bd 1bc7 083d 8606 a4bd 9824 ba3d
00000150: d92b 35bd 6485 1ebe 1d4c 7a3c d735 793d
00000160: fac4 093e a13f c9bb 0040 efbc 1e09 90bd
00000170: c8ce a3bc 9494 a9bd b726 913d cd7d 103d
00000180: d299 d53c f867 c33d 8622 cf3e 9453 c6bd
00000190: c35b 68bd 3934 5f3d 0150 e83d 5059 d3bd
000001a0: 5236 25be c753 223e df4a b93b 8208 463e
000001b0: a74b e43d c687 383e 5f58 ccbd bc9f 573e
000001c0: 7555 ccbd be33 0bbe d640 3b3e 08f1 983e
000001d0: 1498 3ebe 6333 97bd 96fa 1ebe 585f a73e
000001e0: 1cce e5bd 9dba ccbd 62e9 1e3e 46bb 343d
000001f0: 3696 d7be 7c18 82bd 55ee 9cbb 0975 24bd
-0.058786605 -0.22269143 0.39453104 -0.108212605 -0.015889438 -0.085265875 -0.109445065 -0.17473704
-0.02547526 0.14999528 -0.079885505 -0.082920864 -0.026358692 0.1811805 0.050420728 0.24371435
-0.00078875327 -0.19824305 0.030368365 0.032333672 -0.16265796 -0.036605764 0.13621242 0.43426004
0.004641534 -0.15999381 0.30224663 0.02513277 -0.28804374 -0.18992257 -0.14976405 -0.10199038
-0.17485994 0.025088403 -0.10210048 0.19183557 -0.024996653 -0.23724943 -0.42626336 -0.15759084
-0.12102986 0.13652532 0.23127145 0.17645094 0.086259365 -0.3051223 0.11541145 -0.24781682
0.1897494 0.1530654 -0.24854764 0.31813118 -0.049979337 0.098999225 -0.29500857 -0.7444626
-0.03469607 -0.11505666 -0.1905221 0.13888161 -0.28136194 0.28493935 -0.040909182 -0.16876778
0.15430334 0.021639531 0.17435898 -0.08153691 -0.08913015 -0.18734565 -0.17112967 -0.08168431
0.12526387 0.17488067 0.09470119 -0.058537368 -0.055516414 0.22987966 0.11800157 0.15714091
-0.10972063 0.033393007 -0.08009057 0.09089011 -0.04423127 -0.15480572 0.015276936 0.06084236
0.13454047 -0.0061416184 -0.029205322 -0.07032989 -0.019996062 -0.08280292 0.070874624 0.035276223
0.026074324 0.09541315 0.40456027 -0.0968391 -0.056728136 0.054493163 0.113433845 -0.103197694
-0.16134003 0.15852271 0.0056546773 0.19339183 0.11147242 0.18020543 -0.09977793 0.21057028
-0.09977237 -0.13593957 0.18286452 0.29871392 -0.186127 -0.07382848 -0.15525278 0.3268993
-0.11220953 -0.09996531 0.15518716 0.04412391 -0.4210679 -0.06352326 -0.0047891536 -0.040150676
