time_series_intro_class/final_project/temp/3_layer_8_size_model_epoch_2200.pth (torch, 8227 bytes, 13 tensors)

lstm.weight_ih_l0 f4 [32, 1]
00000000: f81c 61c0 12f3 77c0 691f 28c0 af40 123e
00000010: 16e5 02c0 fca3 fcbe 9f1f 79c0 cd93 20c0
00000020: d5ab b83e 6442 8cbf c65b b0bf 136f 7a3e
00000030: def1 96bf 5d89 c33f f01a b9bf d67b bbbf
00000040: f16b f3bf 5eae 1040 8205 12c0 943f d53e
00000050: 33b1 e13f f72c a8bf 2b14 04c0 6f63 ddbf
00000060: 8188 18c0 bc13 7ec0 e4df 4bc0 09b8 cb3e
00000070: 969e c4bf 0549 813f 2d56 76c0 f5a5 35c0
-3.517393 -3.8742108 -2.6269171 0.14282487 -2.0452323 -0.4934386 -3.892555 -2.509021
0.36068597 -1.0957761 -1.3778007 0.24456434 -1.1792562 1.5276295 -1.4461346 -1.4647167
-1.9017316 2.2606425 -2.2815862 0.4165007 1.7632202 -1.3138722 -2.063731 -1.729597
-2.3833315 -3.9699545 -3.1855402 0.39788845 -1.5360897 1.0100409 -3.8490098 -2.8382542

lstm.weight_hh_l0 f4 [32, 8]
00000000: 8ee4 353f 70f6 33bf 4f8b a33e f70b 06be
00000010: 7d19 0cbe 45d8 7e3d 9504 2f3f df3c 3a3e
00000020: 6bd2 2abf e644 e23e 8223 1bbe 86d7 b83e
00000030: f43d b2bd b9ee bbbd 295d 163f a1e5 753e
00000040: c329 8dbf 13fd 233f 2cc8 66bf 0a8b 9a3e
00000050: d26a 9abe 065f 0ebf 3428 8fbf c750 17be
00000060: 0f31 b7be cab0 f53e 2302 8cbe b49e 54be
00000070: 33e3 6b3d 7d34 06be c7b2 85be a923 7cbe
00000080: 5689 e63d 15a9 7dbe 043b a6bc ed6b c73e
00000090: 1f9f 96be 480f f83d 4a61 bb3e 0685 a03e
000000a0: 064e b7be b603 d7be 166b d83e 5f00 0abf
000000b0: 1a81 64be f7f5 eebe 836e 803e 64d9 353e
000000c0: 55bd a3bf 53ef b63e 5388 443e 61d4 2b3e
000000d0: fa80 c23e cfda 1dbf 043d f53e 3955 a03d
000000e0: cc08 1fbf 29fb 123f f9a6 05bc 89f3 993e
000000f0: 7b08 92bd 54c0 a0be 41e2 023e f431 cfbe
00000100: 122c c43f a2aa 3cbf 0307 1b3f a8c8 77bd
00000110: d2e1 9abe e833 033d 0b56 92bd 02d7 1e3f
00000120: 78d6 a63e a19f d1be 0314 3b3f e689 dcbe
00000130: dbd3 e43d 004a 87be 52e4 733f a26c 773e
00000140: f085 923f c0e2 ddbe 3797 2c3f 9ee0 16bf
00000150: ba7e 07bf 319c 8f3f 1c9d bb3e 79f3 b43e
00000160: a74d 363f b7a1 af3d d1ee c33e 0ab7 61bf
00000170: ab9b 853d 5457 eb3e 7826 7ebe 7049 b33c
00000180: 2a3b 593f 06c0 fabe e8dd 413e b8b3 7a3d
00000190: cfd7 3dbd cb33 2c3e baf5 173e fa89 113d
000001a0: 9caf 6a3e b276 bf3c 3724 673e d824 94bc
000001b0: e09d 13be 49eb 4ebd 0c35 843e b7d8 1c3e
000001c0: e917 66be b89f 51bf ea62 793f 5a03 23be
000001d0: 2412 edbe 2184 a13d f189 3f3f a309 d43d
000001e0: 6a3d 07bf 42b9 92be 311e 023f 5c2d da3e
000001f0: 0e70 9d3d d75f 21bd 929d 5c3d f52a 2a3e
00000200: 9976 f43e 11df 7abe 3694 66be 1173 81be
00000210: 9928 76be 3004 a33e 54b2 043f 55b6 583e
00000220: 4df5 013e eb16 b23e c33f f13d f94b 80be
00000230: db59 6e3b 3b67 87be 2a7f a5be ec4a 5abd
00000240: 6aa3 7cbe d010 d73e bef4 f7be efd9 9fbe
00000250: 0e96 983d e51b 2cbe 5f83 09bf a245 70be
00000260: 63d7 a5bd 8775 763d 83e4 503e 3ab1 e7be
00000270: 2a60 463e c473 85bd c0c8 e0be 3881 a7be
00000280: 1794 01be 28e8 ad3e 31a9 dcbe 1a81 98be
00000290: 9a7b 583e d255 a6be 819c 02be 6c36 c4bc
000002a0: 44fd cf3e cf83 b33c 8642 db3e d44c 11bd
000002b0: 16a1 57be b69e 43be 432d ae3e 562b df3d
000002c0: 64fc 11bf 92e5 763e 39e4 943e a516 4c3e
000002d0: 35d8 2b3e 7286 15bf 5d8f 973e 0bae 3c3e
000002e0: 7672 46bd 2a2a 603e cd31 a33d 6fbc 5f3d
000002f0: b1eb 533e 2dab 7abe 723c 9abd 5a9c b8be
00000300: ced6 973f d9a8 78bf d881 a03f 5744 2c3c
00000310: 7276 25bf 5a59 a13e 5406 9d3f 35aa 343f
00000320: e81e d73e 8b10 14bf ea51 a53e afd3 733d
00000330: 82a3 01bf 8bb1 95be c2a2 5f3f 41cb 313e
00000340: beae 68bc 549a cfbc c0ae 483f bdf6 b63e
00000350: 9980 d1be 6e5a 98be fa32 afbe 27ce c73d
00000360: 3bef 52be 31b7 ebbc 6a59 ba3d b69e 96be
00000370: 0d40 a43e 0701 003f 4249 fbbe 285a 823c
00000380: e08e ba3e 20ab 02bf c7ce 2d3d c08a 883c
00000390: e9c7 17bf 76a3 753c 09e0 563e 10d9 143f
000003a0: 09ce c1bd 3744 14bc d803 0f3f b7ae 913d
000003b0: 7b61 c2be 6283 4e3c b340 01bd 994e fc3e
000003c0: 3f4b 4dbe ecee 18be ad43 6b3f 4321 fc3e
000003d0: 91dc bcbe bd87 b3be e520 633f 3f2c d03d
000003e0: e7c6 55be f14c a1be f2ff 833e 9e9c 7e3e
000003f0: 66cd 37be 9859 11be bb37 183f f3e1 a43d
0.7105187 -0.7029791 0.31942222 -0.13090502 -0.13681598 0.06221797 0.68366367 0.18187283
-0.6672732 0.4419319 -0.15150264 0.3610193 -0.08703223 -0.09176392 0.587359 0.24013378
-1.102837 0.64058036 -0.9014919 0.30184203 -0.30159622 -0.55613744 -1.1184144 -0.14776908
-0.35779616 0.47986442 -0.2734538 -0.20763665 0.05758972 -0.1310596 -0.2611296 -0.24622978
0.112566635 -0.24771531 -0.020291813 0.38949528 -0.29418275 0.1211229 0.36597663 0.3135149
-0.35801715 -0.4199502 0.422692 -0.53906816 -0.22314873 -0.4667203 0.25084314 0.17758709
-1.2792155 0.35729465 0.19192629 0.16780235 0.37989026 -0.61662 0.47898114 0.07828755
-0.621228 0.5741449 -0.008157485 0.30068615 -0.07130524 -0.31396735 0.12781622 -0.404678
1.5325949 -0.73697865 0.60557574 -0.060494095 -0.30250412 0.032031924 -0.07145318 0.62046826
0.32585502 -0.409421 0.7307741 -0.43073958 0.11173221 -0.26423645 0.95270264 0.24162534
1.1447124 -0.4333706 0.67418236 -0.5893649 -0.52927744 1.1219541 0.36643302 0.35342005
0.7121224 0.085757665 0.3826814 -0.8816992 0.06523832 0.45965064 -0.24819362 0.021885604
0.848559 -0.48974627 0.18932307 0.06120655 -0.04634839 0.16816632 0.14839831 0.035531975
0.22918552 0.023372028 0.22572409 -0.018083975 -0.14415693 -0.050517354 0.25821722 0.15317045
-0.22470059 -0.81884336 0.97416556 -0.15919247 -0.46302903 0.0788653 0.74819857 0.103534006
-0.52828085 -0.28656965 0.5082732 0.4261273 0.07687388 -0.03939804 0.05386121 0.1661795
0.47746733 -0.24499156 -0.22517475 -0.252831 -0.24038924 0.31839132 0.5183461 0.21163304
0.12691231 0.3478311 0.1177974 -0.25057963 0.0036369476 -0.26445946 -0.3232358 -0.053294107
-0.24671713 0.42005014 -0.4842891 -0.31220958 0.07450496 -0.16807516 -0.5371608 -0.23464063
-0.080977224 0.060170677 0.2039967 -0.452524 0.19372621 -0.06516221 -0.4390316 -0.32715774
-0.12654148 0.33966184 -0.43097833 -0.29785997 0.211409 -0.3248735 -0.12755014 -0.023951732
0.40622914 0.021913437 0.4282419 -0.03547366 -0.21057543 -0.19103512 0.34018907 0.108969375
-0.5702574 0.24111012 0.2908037 0.19930513 0.16781695 -0.5840827 0.29601565 0.18425767
-0.048449002 0.21891084 0.07968483 0.054623064 0.20695378 -0.24479361 -0.0753106 -0.36056787
1.1862428 -0.9713264 1.2539625 0.01051434 -0.6463386 0.31513482 1.2267556 0.70572215
0.42015767 -0.5783774 0.32289058 0.05952805 -0.5064012 -0.29237017 0.87357724 0.17362691
-0.014201818 -0.025342144 0.7839165 0.3573512 -0.40918425 -0.29756492 -0.3421858 0.09756117
-0.20599072 -0.028773876 0.09099086 -0.29417962 0.32080117 0.5000157 -0.4907933 0.01591213
0.3643713 -0.51042366 0.042433526 0.016667724 -0.59289414 0.014992585 0.209839 0.5814371
-0.09463126 -0.009049467 0.5586524 0.07113402 -0.37964997 0.012604566 -0.031555843 0.49278715
-0.20048235 -0.14934891 0.9190014 0.49244127 -0.3688703 -0.35064498 0.8872207 0.10164689
-0.20876656 -0.31504014 0.25781208 0.24864432 -0.17949447 -0.14194334 0.5946004 0.08050909

lstm.bias_ih_l0 f4 [32]
00000000: 671d ed3e a84c 283e b843 533f a473 afbe
00000010: f26a 723e fab4 b9bd 9865 99bd 8691 babe
00000020: f782 d63e 9b48 c7bd 8ca2 bcbe d922 27bf
00000030: a72e eebb e065 b23e 4e85 8fbd 4afc 563e
00000040: aad2 41be 3691 01be 4141 93bd f014 323e
00000050: d439 813d ec55 81be 0158 a53e 0f43 10bd
00000060: 51f6 223e bdbb 313d facb e03e 34e2 3a3e
00000070: f5aa 3cbe 04bc dcbd 1259 7b3e 2b79 9bbe
0.46311495 0.16435492 0.82525206 -0.34267914 0.23673609 -0.09067722 -0.074900806 -0.3643915
0.41896793 -0.09730645 -0.36842763 -0.6528755 -0.007268745 0.3484335 -0.07007848 0.20994678
-0.18928018 -0.1265305 -0.071901806 0.173908 0.06309858 -0.25260866 0.32293704 -0.035220202
0.15914275 0.04339193 0.43905622 0.18250352 -0.1842459 -0.10778049 0.24545696 -0.3036588

lstm.bias_hh_l0 f4 [32]
00000000: 7858 3d3e 488b 843e c093 0a3f 2479 82bd
00000010: 8e46 1dbe 83fc cf3e f21d 073d c2dd de3d
00000020: 185f 03be 3d4d bb3d 5e5c c4be 64ae 69bd
00000030: 1518 d13e 969a 103e 32eb 7bbe 7fcf 303d
00000040: 5bb5 f03d 1017 0c3d 1a31 7f3e 1bc2 2ebd
00000050: 88de 67be f58e b73c 89b5 43be e08a 953e
00000060: 223e d83e de48 29bd 8cbe e33e 07ed 66be
00000070: 5ae9 a13e 56c9 413e 3504 0f3c b1f0 39bd
0.1849078 0.25887513 0.541317 -0.06370762 -0.15358946 0.4062234 0.032987542 0.10882141
-0.12829244 0.091455914 -0.3835172 -0.057051077 0.40838686 0.1412147 -0.24601439 0.043166634
0.11753341 0.03420168 0.24921075 -0.042665582 -0.22643483 0.022407034 -0.19112219 0.29207516
0.42234904 -0.041329257 0.44481313 -0.22551356 0.31623346 0.1892446 0.00872903 -0.045395557

lstm.weight_ih_l1 f4 [32, 8]
00000000: a65b fb3e 6b2b 9abe 1de0 c0be 60a2 bcbd
00000010: 0018 04be 8e31 91be 0453 8d3e 61da 283e
00000020: c6c4 f73e a167 74be f862 4f3e bc90 8c3e
00000030: 819c 72bf b92a 37bd 6243 143f 2a91 cd3d
00000040: 6952 783e cd36 6dbf 1832 243f 0e12 de3d
00000050: a0dc e4be a9e5 0fbf d1ad a13f a53d 7e3f
00000060: e1a0 ea3d ca62 3abf e4b1 6f3f b302 423e
00000070: 406a 9bbe cd1c 8cbe 57d2 9e3e 08f3 a83e
00000080: 7d5b 873d e52d 81be 671d eb3e bd24 0c3e
00000090: 0df7 013e d450 e53d b3a4 8f3b 0958 e9bd
000000a0: e3cb eb3c 15b6 9bbe 3552 14be 8e08 d83e
000000b0: 1c74 eb3d 2833 d8be 4388 9f3d 5a9c 02be
000000c0: 7ea5 223f acdb 33bf a250 e4be 2613 30be
000000d0: f1d6 1ebf a042 1b3f ca3d c53e 2a9e de3e
000000e0: 4aa3 fe3e a7b1 c7bf 10c4 c03f 2c9a ba3c
000000f0: 5a59 7bbf a001 9d3e 89b7 983f dc40 6b3f
00000100: 7ecf 3c3e 60c5 0f3e 5886 b7bf e58d 873e
00000110: 28de f13e 4c68 fabc 9d4d 28bf 8431 c3bd
00000120: 5dd5 9f3e 8715 8abd c134 b0be 29fd 883e
00000130: 7ee0 48be 31b3 a63e 9a1a abbd 5524 91bd
00000140: 2c30 743f a4b8 f0be 218f a53f a478 dabe
00000150: 236d 60be 79b2 99bd ef58 9f3e 8d7d be3e
00000160: dc32 82be 47db a1be 6004 afbe e045 ce3e
00000170: 87ca 30be 1b12 253e 0552 b5be 525a 7d3d
00000180: 0cc3 c0be 329c f7be a787 ea3e 5030 6c3e
00000190: 2a87 e63e 861a b13d 6dfc 9fbe 7733 27be
000001a0: 8ced 1abe 7d3c 723d 6a3c 153f 11af 1e3f
000001b0: 9543 d3be ad29 d8be e480 173e 287d 153f
000001c0: 8b48 5b3e fc0b 5ebe ff42 6dbf e6c7 1bbf
000001d0: a1b7 053e e3db 293e df21 21be 5d67 a0be
000001e0: aba5 7a3f 9c6f 46bf 5794 163e 625f 1abe
000001f0: fc6c ebbe cc25 113f d478 3a3f aea8 bc3e
00000200: 11df d53c aa3a c03e d7f2 bbbe dda5 343c
00000210: 971c 84bd cba1 96be 2b89 d1be f442 e43d
00000220: d19b 9fbe d49d 363f 0e3a 7abf e201 abbd
00000230: 55d2 683d 26ff bcbe e68f 04bf 8cbb 18bf
00000240: f82c 1cbf 9aa5 333f 2aa3 3dbf d27a e83e
00000250: b0d6 b53e 147d 53be ee8a 36bf 8a8d 36be
00000260: 0092 84bf 40d4 d13e 723f 11bf e9bc adbd
00000270: 63db af3e baf0 b13d 9d3f bfbd 9089 e43d
00000280: 13c9 efbd 479f f7bd f1b7 d33e 9d09 8e3d
00000290: 6af6 4b3e 1dc1 abbd 63e5 b73e d4b4 f13d
000002a0: 48db 983e c363 acbc 9a44 f23c 9e49 073f
000002b0: 697b a5be e24a b83d 8fcb a5be 3622 303e
000002c0: 6e25 153c 8462 293f 5c42 22bf 5470 553e
000002d0: 0f7c 34be 04fd 003e a564 26bf 075f d7be
000002e0: 9e83 c63e 9077 43bf ac5f 7b3f 2986 3dbd
000002f0: c123 2a3e 0433 ec3e 4aa5 0e3f 0073 233e
00000300: 843e 263f e4c6 7abd 6259 63bf 3ca7 28bd
00000310: 5e41 adbe e824 a6be 154c cf3e 9e69 9b3e
00000320: 7fa9 6bbd 6618 8cbe 80c7 7dbe 1181 b03e
00000330: 399a d6be 537e 07bf bda1 303c 46de 9ebd
00000340: f5c6 d03e 77f2 99bf 2d5c 373f e446 423d
00000350: 8beb 85bf 706b b7be c364 c93f cac0 3d3f
00000360: 03c2 f6bd 0158 213f f57a 96bf da72 853d
00000370: 3761 f9be ca20 0abd 904c 7abf 0771 1b3e
00000380: 9487 3e3e 32a8 29bf 3b19 453f f0c5 bf3e
00000390: 4bda 96be 0a14 1ebe 1ed5 32bc efa2 d53e
000003a0: e3aa a6bd 044a a83e a9b1 953e cf50 b03e
000003b0: e202 aabe f4d3 d3be f05b 2cbe 1cc4 c3bd
000003c0: 4610 aa3e 926c 5fbf 428d 97be 2a67 71be
000003d0: dad3 9ebd 1332 023e e5f7 0b3e b215 35be
000003e0: e3df 003f 214b 74bf ec74 d63e 6e9e d83e
000003f0: 34c9 27bf 1442 12bd e49f 4d3f fe7e ca3e
0.4909336 -0.3011125 -0.37670985 -0.09210658 -0.1289978 -0.2835812 0.27602398 0.16489555
0.48392314 -0.23867656 0.20252597 0.27454174 -0.94770056 -0.044718478 0.5791532 0.100374535
0.24250187 -0.92661744 0.64138937 0.108432874 -0.44699574 -0.5620981 1.263117 0.9931281
0.114564665 -0.7280699 0.93630815 0.18946342 -0.303545 -0.27365723 0.31019852 0.32997918
0.06609247 -0.25230327 0.4592087 0.1368589 0.12691899 0.11197057 0.0043836473 -0.113937445
0.028783744 -0.30412355 -0.14484484 0.42194027 0.114967555 -0.4222653 0.07789662 -0.12754956
0.6353377 -0.7025707 -0.44592768 -0.17194805 -0.62046725 0.60648537 0.38523704 0.43480045
0.49733955 -1.560109 1.5059834 0.022778593 -0.98183215 0.30665302 1.193101 0.9189584
0.18438527 0.14040136 -1.4337873 0.26475444 0.47239804 -0.03056731 -0.6574343 -0.09530929
0.3121747 -0.06742387 -0.34415248 0.26755646 -0.19616887 0.32558587 -0.08354683 -0.07087008
0.95386004 -0.4701587 1.2934304 -0.42670166 -0.21916632 -0.07504744 0.31122538 0.37205163
-0.25429428 -0.31612608 -0.34183025 0.40287685 -0.17264758 0.16120188 -0.35414138 0.061853714
-0.3764881 -0.48361355 0.4580662 0.23065305 0.45024997 0.08647637 -0.31247273 -0.16328226
-0.1512968 0.059139717 0.5829531 0.6198588 -0.41262498 -0.42219296 0.14795262 0.583941
0.21414392 -0.21684259 -0.9268035 -0.60851896 0.1305833 0.16587786 -0.15735577 -0.3132886
0.9790904 -0.7751405 0.14705025 -0.15075448 -0.45981586 0.566983 0.7284062 0.36847442
0.026107343 0.37544757 -0.3670871 0.011025873 -0.064507656 -0.29420313 -0.40924963 0.11145583
-0.31173566 0.71334577 -0.97744834 -0.083499685 0.056841213 -0.36913413 -0.5178207 -0.59661174
-0.61006117 0.7017456 -0.74077094 0.45406204 0.35515356 -0.20653182 -0.7130574 -0.1782743
-1.0357056 0.40982246 -0.56737435 -0.084832974 0.34347066 0.08688493 -0.09338305 0.111590505
-0.11708274 -0.120909266 0.41351274 0.06935427 0.19918218 -0.08386443 0.35917196 0.11802068
0.29854798 -0.021043664 0.029573727 0.52846706 -0.32320717 0.08998658 -0.32381865 0.1720055
0.009103162 0.6616595 -0.63382506 0.20843631 -0.1762545 0.12596518 -0.6499732 -0.42064688
0.3877229 -0.7635431 0.9819286 -0.046270523 0.16615202 0.46132672 0.5572096 0.15961838
0.6493914 -0.061224833 -0.8880826 -0.041175112 -0.33838934 -0.32450032 0.40487733 0.30354017
-0.05753469 -0.27362365 -0.24783134 0.3447347 -0.41914538 -0.5292713 0.010780749 -0.07757239
0.40776792 -1.2027119 0.71625024 0.047430888 -1.0462507 -0.35824156 1.5733875 0.741223
-0.120487235 0.6302491 -1.1756274 0.06516047 -0.48706982 -0.033722676 -0.97773075 0.15179835
0.18606406 -0.6627227 0.76991624 0.37455702 -0.2946342 -0.15437332 -0.010915069 0.4172587
-0.08138063 0.3286897 0.29237106 0.34436652 -0.33205324 -0.41372645 -0.16831946 -0.09558889
0.3321554 -0.8727504 -0.2959996 -0.2357451 -0.07755251 0.12714414 0.13668783 -0.17684057
0.50341624 -0.9542714 0.4188608 0.42308372 -0.65541387 -0.03570755 0.803221 0.39550012

lstm.weight_hh_l1 f4 [32, 8]
00000000: 85e9 cf3e b2f3 5ebf 32c8 2abe 990a 19bf
00000010: 89d8 cb3e 8910 72bc bfec e2bd 8299 de3e
00000020: 1e75 6cbf 2249 b8be 977b 63bf 04ff 8c3d
00000030: d230 db3e 0b92 82be fddb 47be a240 f33e
00000040: 700e 733f 208f 703f ea67 dd3e ef77 063f
00000050: c5c9 c83e dabb 86be 5085 da3e 1f7b 423f
00000060: 3383 c8be dcb8 7abf 8f06 bdbe 9174 0cbe
00000070: 17cd 01be 20b6 e1bd 05ef 463d 9240 333f
00000080: 1bce 0e3f 9d1d d93a ef4a 023e affa b9be
00000090: ed72 25bc 3955 a0be bb05 943c a523 5abe
000000a0: 1c7a 1e3e 2900 c6bc 98b2 a7be d3d8 81bd
000000b0: 553f 5dbb a18d 3abe 51ba ffbd ccc4 173f
000000c0: 1718 59be 621a 0cbf 6116 e4be 5fff 05bf
000000d0: 5c82 873e 12a4 e9be ede7 2f3e 7f5e c13e
000000e0: 1735 95be ff63 2e3e f684 7a3e 5c2f 333e
000000f0: 5bfc 44bb 85f4 14bf 10fa 9c3e babf d93d
00000100: 2e5c b83e 62ad 69be f1a3 31be 5377 bfbe
00000110: 7fbf 23bf 1704 b9bd 2af4 44ba aae3 6b3e
00000120: 13f3 943d 3c5c 89bf 00ac cdbf 8b5f 43bf
00000130: ca8f 0dbf ef01 7e3e 4ed8 f5be 3cf4 b33f
00000140: 627d 773f 0b7a 91bf cc77 04be 603e 96bf
00000150: 483c c1be 7a70 6abe a47a 16bd 0ca6 063f
00000160: 863c 183f 4b0a 91be b6b2 d8be a46c acbd
00000170: 38fd 73be 8a8b 8dbd c1dc 713c b01f 723f
00000180: 97bd 3a3f d0bf 17bd 47be 8abd 6adb f03d
00000190: 4af2 83be dc23 d73d b76d d4bd 47c1 ec3e
000001a0: d9a4 83be 94c6 a93e 722a 313c 4b10 4a3e
000001b0: 2cce 60be 0b33 963c 0c7d 543e 5043 9fbe
000001c0: 62d8 423f 645c c1bc c59f cbbe d211 dbbe
000001d0: 63cd 183f 5936 2cbf bee8 3dbe 5556 cb3e
000001e0: 9db7 8abd fbe0 c6bf 0d8a dbbf 2b64 aabf
000001f0: 6654 8dbd 5ed1 a43e 9831 40bf 1e42 a33f
00000200: de5c c13d 4c4d 0cbf 30b8 24bf 680b be3d
00000210: 3ca2 233e b0d7 30be 1e68 46be 6c6e 7d3f
00000220: d218 9cbd c286 34be 84da 55be ad5e f73d
00000230: 3daa 153f 01bf 8f3d 633d 07bf 4a74 22bf
00000240: 91c1 cf3e f822 d4be 1daa d4bd 4696 35bf
00000250: d780 9cbe 5f79 0e3d ddfe ef3e 38d1 c23e
00000260: a934 f53d 3abb a1bd 8bf3 d53d f8af 0ebd
00000270: 590a b33e 760d cabb 5d31 253e a476 43bf
00000280: 7ea8 0b3f 3f9c 2abf 055e c33d cad1 5ebd
00000290: 7a21 393e 6a62 333e 0eca c4be 6fda cdbd
000002a0: 63f8 9dbe c7bb 743e 3199 263e ee21 e53e
000002b0: 41d5 2ebf bca9 8d3e 9761 283f 30fb 0dbf
000002c0: 3a5b 27be 8f96 5bbe bf7e 23bf ec6d 03bf
000002d0: 22b6 8cbe 396c 91bd 7355 563c e9df 053e
000002e0: 496a 32be 2995 803e acf1 23bf 7461 fd3e
000002f0: 809b f3be 7d16 623e 5928 363e 3e8e c1be
00000300: 4ed9 333f 722d 79bd ab99 e53e ceed 92bf
00000310: 9e43 e93e 64ad 0fbf a2b5 cf3e d9be 27be
00000320: 8746 25bf 5ad5 77bf cb6c 3bbf 58a6 04be
00000330: 895e 0ebe e0d4 013c 652d 90be 0c25 283f
00000340: b50d 2a3e 9d72 eabc 3fa7 53be b769 21bc
00000350: 700f 383e 1aaf e9be 8eae 483e d378 603f
00000360: e605 b3bc 791a b2bf 1f54 53bf 6a0a 74bf
00000370: 3f33 a9be 7a20 b6bd 77c7 eabc 0e1c 8d3f
00000380: 85d0 603e d6c6 bdbd 6ed1 c8bd 5063 adbe
00000390: 2c9b 133b a5ed 43bf 3c01 d1be 0a0b 7d3d
000003a0: 4a9a d63d 7775 0dbe c599 8ebe 4d59 ccbe
000003b0: 1700 a3be e7b8 c63b 9f56 78be 9ee6 0e3f
000003c0: 7094 373d 6ef9 adbd 831f 44be e629 673e
000003d0: a353 3e3f 3020 0fbf 002d 483e 0a97 2bbe
000003e0: 76f4 bcbe 3d36 13bf d9e4 8cbf 9f14 ab3c
000003f0: 707a ad3e e59a 0bbf 71be c63d 158b 433f
0.4060785 -0.870906 -0.16677931 -0.59781796 0.3981364 -0.01477445 -0.11080312 0.43476492
-0.92366207 -0.35993296 -0.8886046 0.06884578 0.42810684 -0.25502047 -0.19517513 0.47510248
0.94943905 0.9396839 0.43243343 0.52526754 0.39216438 -0.26315194 0.42679834 0.7596912
-0.39162597 -0.97938323 -0.36919066 -0.13716342 -0.12675892 -0.11021066 0.04856779 0.700204
0.5578324 0.0016564612 0.12723897 -0.3632407 -0.010098201 -0.3131502 0.018069139 -0.2130266
0.15476269 -0.024169998 -0.32753444 -0.06340184 -0.0033759673 -0.1821809 -0.12486709 0.59284663
-0.21200596 -0.54727757 -0.44548324 -0.5234279 0.26466644 -0.45632988 0.17178316 0.37767407
-0.29142067 0.17030333 0.24464783 0.17498535 -0.0030057642 -0.5818561 0.30659533 0.10632272
0.36007828 -0.22820047 -0.17347695 -0.37395725 -0.63964075 -0.09033983 -0.000751319 0.23036066
0.07272925 -1.0731273 -1.6068115 -0.7631766 -0.5529753 0.24805425 -0.4801659 1.405891
0.96675694 -1.136537 -0.12936324 -1.1737785 -0.37741303 -0.22894469 -0.036738053 0.5259712
0.5946735 -0.28328165 -0.42323846 -0.08419159 -0.23827064 -0.069113806 0.0147621045 0.945796
0.7294554 -0.03704816 -0.06774574 0.117606 -0.2577079 0.105048865 -0.10372489 0.4624121
-0.25711706 0.33159316 0.010813342 0.19732778 -0.21953648 0.018334886 0.20750827 -0.31106043
0.76111424 -0.023603626 -0.39770332 -0.42787033 0.59688395 -0.6727043 -0.18545815 0.39714304
-0.06773303 -1.5537409 -1.7151505 -1.3311819 -0.06900863 0.32190984 -0.75075674 1.2754552
0.09441541 -0.54805446 -0.6434355 0.09279519 0.15979856 -0.17269778 -0.19375655 0.98996615
-0.076219216 -0.17629531 -0.20884138 0.12078605 0.5846289 0.07018853 -0.52828044 -0.63458693
0.40577367 -0.4143293 -0.10384009 -0.70932424 -0.30567047 0.034783717 0.46874133 0.38050246
0.11972935 -0.07897039 0.10446843 -0.034835786 0.34968832 -0.0061661555 0.16132112 -0.76352906
0.54553974 -0.6664466 0.09539417 -0.05439929 0.18079177 0.1751801 -0.38435405 -0.100514285
-0.30853567 0.23899756 0.16269375 0.4475245 -0.6829415 0.2766856 0.6577391 -0.55461407
-0.16343394 -0.21444152 -0.63865274 -0.513396 -0.27482706 -0.0710072 0.013081896 0.13073696
-0.17423357 0.251138 -0.64040637 0.49488413 -0.47579575 0.22078891 0.17788829 -0.37803835
0.70253456 -0.060834356 0.44843802 -1.1478822 0.455594 -0.5612395 0.40568262 -0.16381396
-0.6456074 -0.96809924 -0.7321288 -0.1295408 -0.1390325 0.0079242885 -0.28159633 0.6568153
0.16606791 -0.028619105 -0.20669268 -0.009851865 0.17974639 -0.45641404 0.19597837 0.87684363
-0.021853399 -1.3914329 -0.82550234 -0.9532839 -0.3304691 -0.08892913 -0.028659565 1.1024187
0.21954544 -0.092664406 -0.098055705 -0.33864832 0.002252291 -0.7653449 -0.40821254 0.061778106
0.10478647 -0.1381434 -0.27851692 -0.3991188 -0.31836006 0.0060645225 -0.24251793 0.55820644
0.044819295 -0.084948406 -0.19152646 0.22574577 0.7434637 -0.5590849 0.19548416 -0.16756836
-0.3690526 -0.57504636 -1.1007339 0.020883856 0.33882475 -0.54533225 0.097042926 0.763841

lstm.bias_ih_l1 f4 [32]
00000000: 4c6c e93e d8d9 203f 0f9b 223f ce80 0e3f
00000010: 48c7 473e 4cda cf3c 646b d33e 1ea6 6d3e
00000020: 2e92 a9bc a416 27bd 07e7 11be c2a6 bf3e
00000030: 5bac 5dbe e2f0 ac3e 20bd 67bd 62dd 66be
00000040: a145 90bd 108d a2bd 9b6d 853d 3889 0f3e
00000050: 939e 953e e20a 3bbe 98bf 513c 8104 a7be
00000060: 1bfd b83e 6b09 6f3e d519 c33e 7109 753e
00000070: 0150 45be e259 2c3d 76ca 38be 3c2e 423f
0.45590436 0.62832403 0.6351785 0.5566529 0.19509614 0.025372647 0.4129287 0.232079
-0.020699587 -0.040793076 -0.14248286 0.37431914 -0.2164778 0.3377753 -0.056576848 -0.22545388
-0.07044531 -0.07937062 0.06515046 0.14017189 0.29222545 -0.1826587 0.012802027 -0.32620624
0.36130604 0.23343436 0.38105646 0.23929383 -0.192688 0.042077906 -0.18045983 0.758518

lstm.bias_hh_l1 f4 [32]
00000000: 5de6 033f 61f0 163f e7d1 313f ec71 aa3e
00000010: 42db a43e dc63 ce3e bd76 cd3e 1666 073f
00000020: 8116 1ebd 6aa5 96be 1760 1dbe 8f6f cd3e
00000030: be96 a5bd f670 d33d 6309 fdbd b86b 573e
00000040: 1a02 503e 99f6 443e 5c15 953e 9ff0 42bd
00000050: 53d0 38be 9df4 7abb e5dc ba3c 8b7c d03d
00000060: 0475 a8bc 1b76 8f3e 6d24 443f d8e3 c93e
00000070: d178 9f3e 0d6a 5abe cf26 d43e e393 353f
0.5152338 0.5896054 0.6946091 0.3329004 0.3219853 0.40310562 0.40129653 0.52890146
-0.03859568 -0.29423076 -0.15368687 0.40124175 -0.080853924 0.1032428 -0.12355306 0.21037185
0.20313302 0.19234695 0.29117858 -0.047592755 -0.1804822 -0.0038292774 0.022810409 0.10180005
-0.02056361 0.28019795 0.7661808 0.39431643 0.31146863 -0.21329518 0.4143586 0.7092878

lstm.weight_ih_l2 f4 [32, 8]
00000000: df52 6a3f ee78 48bf 935c b23f 005a 9bbf
00000010: 2627 3d3e 11dc 0a3e 30db 263f d1bb e6bb
00000020: 5e7c 2d3e fa94 ec3d f97b 833f ac14 10be
00000030: 9495 28bf ddc0 093f d589 293f f4b5 233d
00000040: acaa 783e 9ae9 113f 5e27 a93e f840 cfbd
00000050: 66ca fc3d 14a4 62be 7b59 66bd e75b 053e
00000060: cf4b a83f cba5 2abf b7f6 0d3f 4e05 4abf
00000070: 21ce a93e 9951 04bf a199 acbc c65c cb3e
00000080: ec74 b1be e710 b4be 88dd d3bd 75a1 b0bd
00000090: 2ca8 88be fdd5 bc3e 8c5c 4dbe 5e05 583f
000000a0: 051f 3cbe 4ad2 373e 943a e63d fc59 e9bd
000000b0: 9796 a53e 601d 143d feca c83e bca4 4f3e
000000c0: 12a0 54bd 5dbf 0cbf fc48 e0bf c0f9 debe
000000d0: 7ea3 443e 78f0 37be b51a a7be a0b7 f23f
000000e0: 1422 9d3d 45f2 77bf 3ed0 9cbf 8b58 12bf
000000f0: c73e fabd 095f 34bf 7455 dabe 6612 963f
00000100: ee33 cfbe a4f1 1f3f 254d 893d 7ad0 15bd
00000110: 6e40 a2bd c1f5 97be a931 303f b07a a7be
00000120: bb4c a5bd d967 91be 4269 273e ecb8 e5bd
00000130: 8e2d ffbe 7038 843f 3218 4f3e f707 d03d
00000140: 3973 223d 6170 093f a4c9 423f 7cfd 873c
00000150: 406b 4fbe 300e 263e 5eea 733e 7fe2 02bf
00000160: ad5d 00bf bc55 933e 0b07 2abd be4f f1be
00000170: 2d5b 52be 481c b73e ce0d 80bd 3fbf 3bbf
00000180: bd83 81bf ac5b 9cbd a4a7 6ebf a218 21bc
00000190: c1fe fcbe ff24 b53e 795d 14be 5393 523f
000001a0: 1d7d 37bf b183 47be 40da e8bf 98b1 84be
000001b0: 3c9f c93c a334 b43e df65 e1be 2508 593f
000001c0: f1e7 1fbf e411 1ac0 6e4b fbbf 45b4 c8bf
000001d0: 6178 ad3e d50d b93e 8427 2fbf 940e c53f
000001e0: 3b81 8e3f b5c9 513e c9f7 c83c e522 53bf
000001f0: da80 063f ef77 89be 2afc b93d b250 d73e
00000200: 5ac7 403e 0805 dcbd 63ca e4be ceb1 05be
00000210: d874 01be d0d6 de3d c2d7 933e 748c ee3d
00000220: 149b b3be 6f1d e93e 4443 af3e 71bb 86be
00000230: 8b40 763d ed27 94be ece3 313e 5b83 0ebe
00000240: 937d da3e 56ca fc3d 280f 463e 0095 99be
00000250: fd63 f53d 9638 273c 9a97 a1be f2f3 1abe
00000260: 692c 46bd f477 363f 4638 663e 9f46 fb3e
00000270: a1bf 853d 4ea8 f0bc a031 303f 6ac2 64bd
00000280: 2d72 04bf ffaf 97be 25a2 97be c308 96bc
00000290: e35d ed3d 0ff1 9dbd 42ae 18be 4a4b ae3e
000002a0: c76e bfb8 4269 72bd 865b 3bbe 3b4f c9be
000002b0: 6d35 16be 9e33 d5bd 5035 983e faec cabc
000002c0: 5a5e d53e c487 933e d53e 333f 43a7 b7bc
000002d0: f0cc 62be 7c4d 6dbe acc1 143f ed56 12bf
000002e0: bfbc 72be afb1 99be 5629 26bf c76c d63c
000002f0: ec55 bebe fbdb 653e 9acf e2be 7f2c 233f
00000300: 1d40 313f 4cf2 c1be f935 f63e 65af 7abe
00000310: 907b 7a3e a00a 47bf c5d8 f63c 86a5 8a3e
00000320: 5a5e 753f d1b6 07bf 8be0 263e 93b0 5cbe
00000330: c497 683d c80d cd3d eb00 ee3d 4815 8e3d
00000340: f45d 6f3e ccc9 433f 62ea bd3f 1aa8 d0be
00000350: 160d 81bd 3d5e 133e 3456 4a3f 98df 45bf
00000360: c5d4 c53f f858 d7be 5af7 65bd 2f61 21bf
00000370: e005 b7bd a331 4dbf 12df 293e fa41 883f
00000380: 630b a3be 79f2 20be cfc1 cebe 8420 50be
00000390: 3ce2 e03d a5ad 233e e55a 8c3e 8666 6a3f
000003a0: 8ac0 82be 7488 72bc 6df8 06bf c213 a6be
000003b0: 578c d23e e2fe 27be 8a9d 8abe 4dc6 3d3e
000003c0: fbb5 67be b417 34bf 8f6f efbf 82ef 85be
000003d0: d72a d3bd 6c9b 14be aaa7 7dbf d70f e03f
000003e0: d891 203f b759 25bf 8c5f 20be dc8f 6cbf
000003f0: d432 143f aa9c a3be 4c46 b83e 9660 ee3e
0.915327 -0.78309524 1.3934501 -1.2136841 0.18471965 0.13560511 0.65178204 -0.0070414324
0.16941974 0.115518525 1.0272208 -0.14070386 -0.6585324 0.5380991 0.6622594 0.039968446
0.24283856 0.5699707 0.33037847 -0.10119814 0.12343292 -0.22132903 -0.05623768 0.13023339
1.3148135 -0.6665923 0.5545458 -0.78914344 0.33165076 -0.5168701 -0.02106935 0.39719218
-0.34659517 -0.35169145 -0.10344988 -0.086245455 -0.26690805 0.3688201 -0.20054835 0.8438319
-0.18371208 0.17951313 0.11241642 -0.11394116 0.32341453 0.036160827 0.3921737 0.20277685
-0.051910467 -0.549795 -1.7522273 -0.4354992 0.19202992 -0.17962825 -0.32637563 1.8962288
0.076725155 -0.9685405 -1.225105 -0.57166356 -0.12219005 -0.7045751 -0.4264332 1.1724365
-0.40469307 0.6247809 0.06704167 -0.036575772 -0.07922445 -0.29679683 0.68825775 -0.3271079
-0.08071276 -0.28399542 0.16348746 -0.11216912 -0.49839443 1.0329723 0.20224074 0.10157769
0.039660666 0.536871 0.7608893 0.016600363 -0.20255756 0.1621635 0.23819873 -0.51126856
-0.5014294 0.28776348 -0.041510623 -0.4713115 -0.20542593 0.35763764 -0.06252633 -0.73338693
-1.0118328 -0.076346725 -0.9322455 -0.009832533 -0.49413112 0.35379788 -0.14488782 0.8225605
-0.7167528 -0.1948383 -1.8191605 -0.25916743 0.024612062 0.3519641 -0.44023034 0.8477805
-0.6246329 -2.407342 -1.9632394 -1.5680014 0.33880904 0.36143366 -0.6841967 1.5395074
1.1133188 0.20487101 0.024532216 -0.8247512 0.5254036 -0.26849315 0.090812996 0.42053753
0.18826047 -0.10743147 -0.4468566 -0.13056108 -0.12642229 0.10880816 0.28875548 0.11647883
-0.35079253 0.4553027 0.34231007 -0.2631488 0.060120147 -0.2893671 0.17372102 -0.13917296
0.4267393 0.1234328 0.19341719 -0.2999649 0.11981962 0.010206362 -0.31560975 -0.1513212
-0.048382197 0.71276784 0.22482404 0.49077317 0.06530691 -0.029377129 0.6882572 -0.05584947
-0.5173672 -0.29626462 -0.29615894 -0.018314725 0.11590173 -0.07711994 -0.14910224 0.34041816
-9.1282236e-05 -0.059182413 -0.18296632 -0.3931826 -0.14668818 -0.10410236 0.29728174 -0.024771202
0.41673547 0.28814518 0.7001775 -0.022418624 -0.2214849 -0.23174089 0.5810802 -0.5716389
-0.23704813 -0.30018374 -0.64906824 0.026174916 -0.37174928 0.22447197 -0.44299012 0.6373977
0.69238454 -0.3788017 0.48088053 -0.2448097 0.24461198 -0.7775059 0.03013266 0.2707941
0.95847094 -0.5301333 0.16296594 -0.21551733 0.05678536 0.10012394 0.11621269 0.06937653
0.23375684 0.7647979 1.4837153 -0.4075325 -0.06301324 0.14391418 0.79037786 -0.772943
1.5455557 -0.42060065 -0.056144096 -0.63038915 -0.089366674 -0.80153865 0.16589001 1.0645134
-0.31844625 -0.15717496 -0.4038224 -0.20324904 0.10980651 0.15984209 0.27413097 0.9156269
-0.2553752 -0.014803041 -0.5272282 -0.3243695 0.41122696 -0.16405824 -0.27073318 0.18532677
-0.22628014 -0.7034867 -1.870592 -0.26159292 -0.103109054 -0.14512414 -0.9908396 1.7504834
0.6272254 -0.6459002 -0.15661448 -0.9240701 0.5789006 -0.31955463 0.35991132 0.46558064

lstm.weight_hh_l2 f4 [32, 8]
00000000: 87af a03d f7b6 ab3e abc7 79bf 3753 8cbf
00000010: 57fe f23e 7995 bf3f 8b92 e9bf 8231 c33e
00000020: ec85 8b3d bdbc 2bbe 8028 6dbe 6b6b bf3c
00000030: 791d 45bf 2b1f 64be 526f 383e 9f78 03bf
00000040: 9010 92bf 8291 673e a00d 353f 98bb e93e
00000050: f1fe d23e fa7f 8b3e 65b6 bcbe d7fb 363f
00000060: b93d 06bf 92dc d73e bd20 6cbf 9835 633f
00000070: 0332 6c3e e9ab 2c3f d769 9dbe 6e62 be3f
00000080: 5ff8 96bf e461 15bf 9058 323f e9e0 123f
00000090: 6472 f0be 2dc8 b53d adc3 313e 9983 913f
000000a0: 18d8 cebe 0852 64be e5c6 7e3d 450e 2e3f
000000b0: 817e b1bd e164 45bf 223c f53e 56be 89be
000000c0: 1412 5cbf 6fa8 31bf 1044 09bf f908 a2be
000000d0: 63dd 2c3f 83b5 eebe 2b63 1fc0 8970 ae3e
000000e0: 6522 783e 61bd d43d 04a0 8ebf 8ca0 88bf
000000f0: b49d 313f 02ae 64bd c84a 8cbf ca27 d53e
00000100: b064 b23e 92ee a2be 546c b8be db7b 75bf
00000110: 2d81 1e3f b438 8e3f 58ff f03e 0557 debd
00000120: ef6e 82be bc6a 003f 83f8 d1bd 3b48 0b3f
00000130: d5b5 35bf fb99 a8be 08aa 3e3f 664a a53c
00000140: 7505 01be 41d1 05bc f3bd cabe 8cc9 74be
00000150: d241 4bbe 35ba 59be 3461 3bbd 598a f23d
00000160: b901 033f aa38 7539 e1c9 2abe 33b2 c2be
00000170: a4b8 003d 1747 733f 8aa1 e23e 2db7 dd3e
00000180: 7157 c33d 9104 35bd cf4e a4be 3dbd a8be
00000190: 09aa 8e3e fe64 863e 3df3 88bf fa65 053f
000001a0: 1c43 3dbe 5dba 2ebd bd86 a7bd ec72 01be
000001b0: 95fa 43be eb89 89be 595c d23d 37ee a9bc
000001c0: 5b28 00be e6cb c33f ddb1 f5be 497a 693e
000001d0: 487a 21be ed0a 3440 ca82 163f 1890 0f3f
000001e0: f55b 6a3f 604c 0cbf 441a a7bd 50c1 88bf
000001f0: 3119 e83e 78ac b03e 2a8b 40bf 7067 f33c
00000200: 643a 96be 75f1 273f 08b1 e53e 0736 3ebe
00000210: 23fb 64be 0563 9e3e 24b0 b03f 54b6 94bf
00000220: a68d be3e 4da6 edbe 73ba 2d3f 2edb 10be
00000230: 48d9 893e 1e16 973e 263d a7bd 2b75 87be
00000240: 0b6a 1abe 9a54 afbe 7c4b fa3d 25e3 dfbe
00000250: ba91 20bf d7c7 eabe 7ee2 a83e 9323 51bf
00000260: a6c8 eabe ed4f 09be 04bb 1cbf 83f8 b9be
00000270: 15a5 d13e bc2d 133f 9af0 0fbf f1a3 893f
00000280: 2a1d bc3d 57bb 5d3d 74e1 8d3f e7a9 0fbf
00000290: 727f 2b3e 1751 403f 3129 ec3e efac 00bf
000002a0: 4aab 0f3d 9bc7 483d bd4e 643f edcc adbe
000002b0: 8d43 123f edf4 55be 1f6a 17bf 9793 3dbe
000002c0: 690d 9dbe cb13 443b 858b cebe 8d9b 63be
000002d0: a182 253e 0d84 46bc 7e0f 84bf a730 073f
000002e0: ef29 1f3f 5e6e 663e 3e63 773e 11fb 01bf
000002f0: e28f 623f 9b4a 913f 6d5f 4bbf 38ca 873e
00000300: c537 9bbe 7bba 37bf 7e56 f4be b08a 0dbf
00000310: 8b51 273f 5d0e 4c3f f053 12c0 9041 6b3f
00000320: 800a 9fbe 3e6f ea3e 9d59 953d 5dcb a9bd
00000330: bcbd 77bf f06c fcbd a129 4f3f 97d3 75bf
00000340: a8ac 9ebf 68dd a1be 7f4d f93e 2068 bd3e
00000350: 6fa4 cb3c c2d3 40bd 91f4 f33d 0c7e 233e
00000360: dcc1 50bf 4df2 863e 0d14 bcbf 6594 3b3f
00000370: 6af2 63bd d1bf 863f d5bf 2cbe 3621 a63f
00000380: c20c 03bf bc39 53be 254d 303f 60ec 4cbd
00000390: 2399 103f 2970 3d3f ecc4 8fbf 999d 913f
000003a0: bf83 353d d236 cebe a8bb b33d 57ad 673e
000003b0: 58c5 7abe 598e 15bf 486a d23e d8e2 44be
000003c0: d4c6 55bf 1df5 dbbe 238e 29bf ed52 0d3f
000003d0: 3734 88be 8f14 4fbe 00ca 98bf ef46 4d3f
000003e0: 2223 633f 9e03 12bf 68bb f8be 11d4 ecbf
000003f0: 4d7e 073f 6b0a 1f3d 3ce9 bebf 6d2a 11be
0.07845979 0.3353803 -0.97570294 -1.0962895 0.4745967 1.496749 -1.8247846 0.3812371
0.06812653 -0.16771217 -0.23159981 0.02336665 -0.76998097 -0.22277515 0.18011215 -0.5135593
-1.1411304 0.226141 0.70723915 0.45650935 0.4121013 0.27246076 -0.36857906 0.7147803
-0.5243793 0.4216047 -0.92237455 0.8875365 0.23065953 0.67449814 -0.30744812 1.4873788
-1.1794547 -0.58352494 0.69666386 0.57374436 -0.46962273 0.08876071 0.173598 1.1368285
-0.4039924 -0.22296917 0.0622014 0.67990524 -0.08666707 -0.77107054 0.4789744 -0.26903027
-0.85965085 -0.69397634 -0.5361948 -0.3164747 0.6752531 -0.46622857 -2.4904277 0.34070233
0.2423187 0.10387684 -1.1142583 -1.0673995 0.6938126 -0.05583001 -1.0960321 0.4163192
0.34842443 -0.3182264 -0.36020148 -0.95892113 0.61915857 1.1111054 0.47069812 -0.108564414
-0.2547526 0.50162864 -0.10252478 0.5440709 -0.7098058 -0.32929978 0.744782 0.020177078
-0.12599738 -0.008167566 -0.39598045 -0.23905009 -0.19849327 -0.21262439 -0.045746997 0.11842794
0.51174504 0.0002338613 -0.16678573 -0.3802658 0.031426087 0.9503035 0.4426387 0.43303815
0.095381625 -0.044193808 -0.32091376 -0.32956877 0.27864102 0.26248926 -1.069923 0.5210873
-0.18482631 -0.0426582 -0.08179996 -0.12641495 -0.19138558 -0.26863036 0.1027152 -0.020743473
-0.12515394 1.52966 -0.4798726 0.22800554 -0.15769303 2.8131669 0.5879332 0.56079245
0.91546565 -0.5480404 -0.08159307 -1.0683994 0.4533172 0.34506583 -0.7521235 0.029712409
-0.29341424 0.6560281 0.44861627 -0.18575297 -0.22361426 0.3093492 1.3803754 -1.1618142
0.37217444 -0.4641594 0.67862624 -0.1414611 0.26923585 0.29509062 -0.0816596 -0.2645658
-0.15079515 -0.34244233 0.12221429 -0.43727985 -0.6272236 -0.4585559 0.329853 -0.81694907
-0.45856208 -0.13409396 -0.61222863 -0.36322412 0.4094626 0.5749166 -0.56226504 1.0753156
0.0918525 0.05413374 1.1084428 -0.56118625 0.16747835 0.75123733 0.46125177 -0.50263876
0.035075463 0.049018484 0.89182645 -0.33945408 0.57134324 -0.20894213 -0.591463 -0.18513332
-0.30674294 0.0029919024 -0.4034082 -0.22227307 0.16163112 -0.012116444 -1.0317228 0.5280861
0.6217336 0.22503039 0.24158952 -0.5077372 0.885008 1.1350893 -0.79442483 0.26521468
-0.30315986 -0.7176892 -0.47722238 -0.55289745 0.653588 0.79709417 -2.2863731 0.91896915
-0.31062698 0.45787996 0.07292483 -0.082907416 -0.96773887 -0.12325466 0.80922896 -0.96025985
-1.239644 -0.31614232 0.48691937 0.36993504 0.024858681 -0.047076948 0.11911882 0.15966052
-0.81545806 0.26356736 -1.4693619 0.7327331 -0.055651106 1.0527288 -0.16870053 1.2978885
-0.5119134 -0.20627493 0.68867713 -0.050030112 0.5648367 0.7399927 -1.1231971 1.137622
0.044315096 -0.402762 0.08776027 0.22624718 -0.24489343 -0.5842033 0.4109671 -0.19227159
-0.8350651 -0.42960444 -0.6623251 0.5520466 -0.26602337 -0.20222686 -1.1936646 0.8018636
0.88725483 -0.5703677 -0.4858048 -1.8502218 0.52927095 0.038828295 -1.4914927 -0.1417634

lstm.bias_ih_l2 f4 [32]
00000000: f204 0c3e 385d 7abe 5674 063f ecfe 183f
00000010: 9ec4 b53e 3029 0f3f 1e48 1ebd b22e 103e
00000020: 0867 c33e d672 58bd 713a 623e 8555 fbbd
00000030: e956 f1bd d386 29be 8f9c 01be cac8 5ebc
00000040: 068d 493e 7a52 7bbe 1afc cd3d 0fc6 c03d
00000050: 8772 c3be 8376 50be c729 c03e 5fa2 c9bd
00000060: d32f aa3e 4b3d f0bd ed24 a53e e09a abbc
00000070: a527 c139 11c5 ab3e e278 f33e b635 383e
0.13673761 -0.24449623 0.52521265 0.5976398 0.3550157 0.5592222 -0.038642995 0.14080313
0.38164544 -0.05284389 0.22092606 -0.12272171 -0.11784155 -0.16555338 -0.12657379 -0.0135976765
0.19682702 -0.24543181 0.1005785 0.09412777 -0.38173315 -0.20357709 0.37531874 -0.09845423
0.33239612 -0.11730441 0.32254735 -0.020947874 0.00036841366 0.33548787 0.47553164 0.17989239

lstm.bias_hh_l2 f4 [32]
00000000: 4308 b33e 0c82 81bc de78 2c3e e5b6 013f
00000010: 2f08 f13e 5545 f83d 3233 e33e 6760 9d3e
00000020: e0af 143e ba0d f4bb ae7b 8a3e f1c4 0ebe
00000030: 4685 303e 09e1 0fbd 216b 7dbe ed82 f33d
00000040: 8162 7fbe 0499 03be ba44 80be ab79 5abe
00000050: ce8c 963e afb1 8ebc b946 82be f0c2 c33c
00000060: 3a6f 7c3e 5ba5 6cbe e17e 8f3e 1d55 6e3e
00000070: c74a 3d3e 6f0e b23e 81bc b83e 32af b9bc
0.3496724 -0.015809081 0.16842982 0.506697 0.47076556 0.12122599 0.44374996 0.30737612
0.14520216 -0.0074479254 0.27047485 -0.13942315 0.1723834 -0.03512672 -0.24747898 0.118902065
-0.2493992 -0.1285134 -0.25052434 -0.21335475 0.294043 -0.01741871 -0.25444582 0.023896664
0.24651805 -0.23109953 0.28026488 0.23274656 0.18485557 0.34776637 0.36081317 -0.022666547

fc.weight f4 [1, 8]
00000000: c8af 463e 86d9 a0be b9ac e83d f177 873d
00000010: 87e5 46be f8fe 2bbd ba7f 47be 80cc 213e
0.19402993 -0.31415957 0.11361069 0.06614674 -0.19423495 -0.041991204 -0.19482318 0.15800667
