time_series_intro_class/final_project/temp/3_layer_16_size_model_epoch_2900.pth (torch, 24483 bytes, 13 tensors)

lstm.weight_ih_l0 f4 [64, 1]
00000000: e9f9 eabf b693 9abe de5e 013f 922a 103f
00000010: c45f 3040 619d 27c0 33a6 d53f 7fe5 0bc0
00000020: ddbd 8c3d c05a 803f 7b3b 1abf 7b64 22c0
00000030: 3f89 a3bf 86e8 0fc0 ea42 f8bf aea7 2240
00000040: c44c acbf 4ec7 2bbe 9cf1 e2bf ca77 983f
00000050: c61c b73f 8543 5ec0 9bc4 0840 effa ccbf
00000060: af81 e83e d322 ce3e 7a5e eb3e c6d8 fbbf
00000070: 3cd9 a5bf 7fe9 76c0 b4a9 1fbf 0269 583f
00000080: 03a7 c9bf af4d e43e fc87 9ebd 82aa 823f
00000090: 30e7 12bf 20e9 4cc0 0e70 d8bf 9332 c1bf
000000a0: d857 50bf 650f e23f 792f 093e 0f03 3c40
000000b0: 785f 0340 6c55 6ac0 66b8 de3f 19b0 81bf
000000c0: 8c22 5dbf fd6f d83d 3f52 57bf 3268 3b3f
000000d0: 0f7a 3240 acf7 3ac0 ba80 f03f 40ea dbbf
000000e0: bf7b 9f3f 330a 823f d745 be3e 749f 49c0
000000f0: c41f a1bf 5d9f 55c0 1c7a 52bf aca5 2140
-1.8357517 -0.3019082 0.5053538 0.5631496 2.755845 -2.6189806 1.6691345 -2.1858823
0.06872151 1.0027695 -0.6024701 -2.5373828 -1.2776259 -2.248567 -1.939542 2.5414844
-1.3460927 -0.16775247 -1.7729983 1.1911557 1.4305656 -3.472871 2.1369998 -1.6014079
0.4541144 0.40260944 0.45970517 -1.9675529 -1.295692 -3.8580015 -0.6236832 0.8453523
-1.5754093 0.44590518 -0.07740781 1.0208285 -0.57384014 -3.2017288 -1.6909196 -1.5093559
-0.8138404 1.7660948 0.13397016 2.9376867 2.052702 -3.6614637 1.7400024 -1.0131866
-0.8638084 0.10568235 -0.8410987 0.73205864 2.7886999 -2.9213667 1.8789284 -1.7180862
1.2459639 1.0159363 0.3716266 -3.1503572 -1.2587819 -3.3378518 -0.82217574 2.5257368

lstm.weight_hh_l0 f4 [64, 16]
00000000: ff8f 863e 7ccb 9f3d a5b1 e93c 54a6 bcbe
00000010: 794a 2abe 7aea a1be 787c 21bb 8c90 0e3e
00000020: 9d04 fd3e aa4f c7bd f315 a4bd 6d3f a4bd
00000030: 834c adbd 7acd 34be e176 4dbe 5670 e93e
00000040: a8a7 d1be 873c 313e d2e6 d6be 58c8 383e
00000050: 4bc3 e13c 4e51 84be 2fd7 f1bd 33b2 163b
00000060: b21b 353d 3fe1 893e 022c fb3d 7de5 9f3e
00000070: 6b6f 03be e37e c6bc 160a 1a3f 8959 b4bd
00000080: c106 243e ce14 073e cbfa a2be d90f 393f
00000090: b770 113f fae0 e83d 9364 d93d 3187 61bd
000000a0: a794 33bf 831f da3d d4bf a9bd 092e fc3d
000000b0: c788 e83e cce9 06be 8bd9 023f c720 58bf
000000c0: 87e4 1e3e 28a2 a43e bf75 c7be 61bb 373e
000000d0: 9d26 b03d 450f 1c3e 37ca 8b3c 50bd 9b3e
000000e0: 6736 aabe 54f8 c4be 8b52 743e 8f79 53be
000000f0: 0e9d 53bd e30f f83e 82cf bfbe 2b63 8d3d
00000100: fb61 173e e878 373e a01f 84bb 9f57 62be
00000110: 76bf a5bd 83d7 9b3e 01c6 28bd 1e92 50bb
00000120: b3c3 90bd 5758 77bf 1cc4 28be e9f2 10be
00000130: 910e 873d d243 023f 2318 d33d 452b dfbd
00000140: 53cc 373f d4a7 703e f1c4 92be 92f8 443e
00000150: a0b9 91be 33e1 853f 9d7c 8bbe 5e5c 273f
00000160: aa88 09be abbc df3d ed18 12be 5c72 20bf
00000170: 3907 9abe 3310 253f 77ff 62bc 1096 ebbc
00000180: 30a2 823e d404 c33d 7405 0ebf b5f3 d0be
00000190: 3e4e c2be b1dc f23d bdb8 84be 4ebd 993e
000001a0: 095b 073f 15ef adbe 8a1e 253e 2338 57be
000001b0: c6b3 1bbe f663 563e 6d9b 7c3d d8ad 013e
000001c0: 74eb 24be 1fdb 4bbd 8fed b4be a998 b1bd
000001d0: 00a1 813d c915 f03d d97a 133d fd1d a3be
000001e0: 7dda 2dbd 8105 b6bc 76e2 09be 7392 e6bd
000001f0: 4454 e13d add8 7dbd c0aa 133e 5cd9 9d3e
00000200: 7702 dd3e f896 d83e 7944 95be 781f 81be
00000210: ee19 f23c e526 c63e 6ecf da3d 5936 2e3e
00000220: f630 61bc 10ac 76be 5ce9 f9bd 7b4f d2bd
00000230: 3ee2 a7be dcdf 353e 1d4d 91be d51f 023d
00000240: 0cd4 093f 59da 773e 2299 5b3f 5bde 36bc
00000250: bbb4 2ebf ce35 4bbe 1b96 86bf 7b7c 6c3e
00000260: 45ec 90be 4cdb 053f 786f 713e f749 03bf
00000270: b122 e7be 4921 8e3d 1f52 9dbe fb1c de3e
00000280: 7b0a aabe 1916 e13c 92f5 07bf 006a a5be
00000290: 53ef 083e 9e61 a2bc c146 ee3e 4803 e7bd
000002a0: 44a9 5a3e b7e7 b4be 525b 7c3d 0cbf 05bc
000002b0: 10b6 f63d 0df2 e53d c9c9 7a3c 97b9 b3bd
000002c0: a97e a23e e161 823e 4e2a 71be a7fb ecbd
000002d0: 2277 f8be ce7d 9f3e a2b4 ccbe 263a 9f3e
000002e0: 6a66 2b3e 3583 bb3e 326d 293e 9afa ffbe
000002f0: f3e5 2fbc 0c77 143f 0d3b bb3e 4a10 1f3f
00000300: 91d4 1c3e 023a e738 bba0 14be 78b6 03bf
00000310: 0e97 adbe 2786 62be bae1 35be 5cb5 94be
00000320: e33c bd3e 1e85 ffbd d85d af3e 3087 89bd
00000330: c59a 0fbe 6cfc 843e 4ac0 76bd 554b 8e3e
00000340: 9c08 503f f68b e53e d97a 4ebf a03f 3cbd
00000350: ed6c 5cbf 0aef 373f a5a1 f2be 2493 253f
00000360: 872f d33e 67ac 143f 97f5 f23e 8228 76bf
00000370: 9481 c7be 01d0 a13f d61a 043f 5f62 2f3f
00000380: b719 be3e 011d cf3e fb46 963d cb2b 1c3e
00000390: 3912 8abe a318 373e 869d ebbd ce5b e73e
000003a0: 2bfd 9fbe 2cbf 743d 7cb6 dc3d 91f5 a1be
000003b0: 5ff6 37be bc79 d23d 9c45 d63d 274b cc3e
000003c0: 861c 1bbe 2ff7 243e 7e30 83bd 2fc0 bf3d
000003d0: 4123 1cbd 7020 b0bd 9dc1 71be b24a 583e
000003e0: dcae 36be c548 7a3d f75a a13e abbc 183e
000003f0: ba13 0b3f b020 0a3e 0f23 053f 141a 81bd
0.26281735 0.078024834 0.02852709 -0.36845648 -0.16629972 -0.31624204 -0.002464084 0.13922328
0.49417582 -0.097319916 -0.08011999 -0.0801991 -0.08461859 -0.17656508 -0.2006488 0.45593518
-0.40948224 0.17308246 -0.41972977 0.18045175 0.027558943 -0.2584328 -0.11808621 0.0022994399
0.044215865 0.26929662 0.12264253 0.31229773 -0.12835471 -0.024230426 0.6017164 -0.0880614
0.16018201 0.1319153 -0.31831965 0.72289807 0.56812614 0.11371036 0.10614886 -0.05506057
-0.701487 0.10650542 -0.082885414 0.12313468 0.45416853 -0.13175124 0.51113194 -0.84425014
0.15516864 0.32154965 -0.3895702 0.17942573 0.08601115 0.152402 0.017064197 0.3041787
-0.3324463 -0.3847071 0.23859613 -0.2065184 -0.05166345 0.4844962 -0.37463003 0.069036804
0.1478347 0.17917216 -0.0040320903 -0.22103737 -0.08093159 0.3043786 -0.041204456 -0.0031825374
-0.07068577 -0.9661917 -0.1648106 -0.14155163 0.06594575 0.50884736 0.10307338 -0.10896925
0.7179615 0.23501521 -0.2866588 0.19235447 -0.28461933 1.045935 -0.2724351 0.65375316
-0.1343104 0.109246574 -0.14267321 -0.626745 -0.30083635 0.64477843 -0.013854853 -0.028758079
0.25514364 0.09522405 -0.5547707 -0.40810934 -0.3795032 0.118585 -0.25922194 0.3002724
0.52873284 -0.33971468 0.16124931 -0.21017508 -0.15205297 0.2093657 0.061671663 0.12663972
-0.16105443 -0.049769517 -0.35337493 -0.08671696 0.063295364 0.11722905 0.03600583 -0.31858817
-0.042444695 -0.022219421 -0.13465294 -0.11258402 0.110024005 -0.061974216 0.14420605 0.30829895
0.43165943 0.4230268 -0.29153803 -0.2521932 0.02955338 0.3870155 0.10684095 0.1701292
-0.013744583 -0.24089074 -0.12202713 -0.10269066 -0.32789797 0.17761177 -0.28379145 0.03176864
0.5383918 0.24204387 0.8578054 -0.011161412 -0.6824452 -0.19844744 -1.0514559 0.2309436
-0.2830526 0.52287745 0.23577678 -0.51284736 -0.45143655 0.069399424 -0.30726716 0.43381485
-0.3321112 0.027476357 -0.53109086 -0.32307434 0.13372545 -0.019821938 0.46538356 -0.11279923
0.21353632 -0.35333034 0.061610527 -0.008163225 0.120464444 0.11227808 0.015306898 -0.08775633
0.3173726 0.254653 -0.23551294 -0.115714364 -0.4852839 0.3115067 -0.39981562 0.3109905
0.16738287 0.3662354 0.16545561 -0.4999588 -0.0107359765 0.5799415 0.3656849 0.6213423
0.15315463 0.00011025743 -0.14514439 -0.514503 -0.33904308 -0.22121488 -0.17761889 -0.29044616
0.36960515 -0.12476562 0.34251285 -0.06715238 -0.14023884 0.25973833 -0.060241975 0.2779185
0.81263137 0.44833344 -0.806562 -0.045959115 -0.8610371 0.7184912 -0.4738895 0.64677644
0.41247198 0.58075565 0.47452995 -0.9615556 -0.38966048 1.2641603 0.5160345 0.6850948
0.37128994 0.40451816 0.07337757 0.1525108 -0.26967028 0.17880492 -0.115046546 0.4518723
-0.3124784 0.05975263 0.10776994 -0.31632665 -0.17965077 0.10277125 0.10462496 0.39901087
-0.151476 0.16109918 -0.064057335 0.09362828 -0.03811956 -0.08599937 -0.23609014 0.21122244
-0.17840141 0.061104555 0.31514713 0.14915721 0.54326975 0.13489032 0.5200662 -0.06303802

lstm.bias_ih_l0 f4 [64]
00000000: 3df9 fbbb e7ff 8b3c 8cd5 d63d 4677 943e
00000010: bd07 9d3e fabd a93e f49b afbc 093f cabd
00000020: 4cab 803e aadd 653d c9d0 adbe cd83 ac3d
00000030: 2999 91be 5846 253f a67a 993e 0471 1a3e
00000040: f59c 513e c01c 5f3d ca85 1d3e e03f 613c
00000050: 2c33 7ebe 5f96 623e 94fd 4fbe 6fbe 41bd
00000060: 9d95 f83d b713 7dbc 4227 1cbe 6c6a 473d
00000070: 6dc0 da3d 4006 523e e7a6 a43e 924b 8f3d
00000080: e482 053c 24ee 9c3d 5408 3d3e 8114 e5bd
00000090: 08ac c43d fdeb 273d d370 6f3d 5962 de3c
000000a0: 5c3f f53d 55eb 0e3e 2871 c8bc 5a29 5fbe
000000b0: 03fd 7e3d c30f d8bc 4fba c23b 6b8e 8e3c
000000c0: 56cb 443e feaa bebd 21cb 00bc 97fb 853e
000000d0: ea6c ea3e 45a0 3e3f 5533 2d3d e4df 4fbc
000000e0: 3029 893e b972 023e e0b5 ff3d d7d6 d53e
000000f0: 20f3 463e 1fc3 ff3e a150 a23e 2ec9 933e
-0.0076896236 0.017089797 0.104899496 0.28997248 0.30669966 0.33152753 -0.021436669 -0.09875304
0.2513069 0.0561196 -0.33948353 0.084235765 -0.28437164 0.6456046 0.29976386 0.15082175
0.2047003 0.054470778 0.15383068 0.013748139 -0.24824208 0.22127675 -0.20311576 -0.047300752
0.121379115 -0.015446595 -0.1524935 0.048685476 0.106812336 0.20510197 0.32158586 0.06996836
0.008148883 0.07662609 0.18460208 -0.111855514 0.09603125 0.04099654 0.058457207 0.027146505
0.119749755 0.1395696 -0.02446802 -0.21793118 0.06225301 -0.026374703 0.00594262 0.017401895
0.19218192 -0.09309958 -0.00786093 0.2616851 0.4578622 0.744633 0.042285282 -0.012687657
0.26789236 0.12739076 0.12485862 0.41765472 0.19428682 0.49953553 0.3170214 0.28864425

lstm.bias_hh_l0 f4 [64]
00000000: 2b5c 3c3e 1125 c4bd b1d9 1b3d 0ae2 b23e
00000010: 61d5 b73e 5918 3b3f 837a 903e 631d a7be
00000020: dfc6 ac3e 5337 9a3e ea15 7c3c 95cb 393e
00000030: 3095 28be 2853 083f e53e ce3e b278 783e
00000040: 3a9b 8b3e 117d 713c 9f67 d4bc 6058 363e
00000050: b3af 29bd 7f9a d6bd c561 77be 9a69 88be
00000060: cf57 843e e4dc 5abd 486c 4fbe d0f5 803d
00000070: 416e a63e 25a7 683d 20f4 d03d e3ae debd
00000080: ad9c 433e cd92 f03d 3df5 a1bc 1113 293d
00000090: a366 47be f7b8 e93d d9bc 1cbe e0a3 2c3d
000000a0: 50dd 33bd 6a66 d7bd 3ce9 933d dae8 693e
000000b0: b27c 93bd 450c 853d 215c ee3c 63d0 a6bd
000000c0: b13e 5bbe b457 213e 2c4a c4bb 3ef1 f43e
000000d0: f7bf bf3e b55f 093f edc6 513e 95fd 3abe
000000e0: 3927 a23e c39d a13d 4b31 b03d 2577 683d
000000f0: 3b54 b2bd 155a 333f 9376 b23e efa5 473d
0.18394534 -0.09577382 0.038049404 0.3493808 0.35904983 0.73084027 0.2821847 -0.32639608
0.33745477 0.30120334 0.015386084 0.18144067 -0.1646316 0.53251886 0.4028236 0.24264792
0.27266866 0.014739291 -0.025928317 0.1780715 -0.041427325 -0.104786865 -0.2415839 -0.26643068
0.25848243 -0.053433314 -0.2025615 0.06296885 0.32505992 0.056800026 0.10202813 -0.10873201
0.19102736 0.1174675 -0.019770259 0.04127795 -0.19472747 0.11412232 -0.15306415 0.04214847
-0.043912232 -0.10517581 0.0722222 0.22842732 -0.07201518 0.06496481 0.029096665 -0.08145215
-0.21410634 0.15756112 -0.0059902873 0.47840303 0.37451145 0.5366166 0.2048604 -0.18260796
0.3167055 0.07891419 0.08603152 0.05675425 -0.08707472 0.7005933 0.3485609 0.04874223

lstm.weight_ih_l1 f4 [64, 16]
00000000: 6aac 243f 5ca3 363e c3f7 343e 5955 58bf
00000010: 873a 11bf ce5d be3e 86c6 aabe 62d1 003f
00000020: 512b 463f 4719 45be e441 b6bd 1897 d8bf
00000030: 10cf 8dbf 440d d93f 3ad2 b4be 226e 1c3f
00000040: 8c68 aa3e 9067 5a3f cba2 eb3d 2a39 fdbe
00000050: e7f8 96bf 974a e53e e3a7 2cbf 31c4 fb3e
00000060: 8cb1 393e d776 aebe befb 853f 5d3b 93be
00000070: b934 97be 6e8e 843f 6fa5 07be 46c6 593f
00000080: 9610 99bd 9d55 9fbd 85c9 61bd 26b2 5a3e
00000090: 3345 ac3e 89f5 4c3f 3b2e b5bd 9366 303e
000000a0: 1ad3 ac3d 7412 7b3e b322 0cbe 0aca cbbe
000000b0: efe1 debd f5d9 193f 6655 743e abbe aabe
000000c0: 887f 553f 11c5 1ebe 37b2 cb3e a847 6f3e
000000d0: fdff 13be 7a19 d53e f86c 8a3e 411b 1c3f
000000e0: 94f8 a03c eea1 84bf dbcf 57be 1c39 e6be
000000f0: b9d3 cbbe cfd4 093f 4292 28be 8e1c d03e
00000100: 144e 04be c700 f13e a7a5 63be ef9b c8be
00000110: ea6c 54be 8989 f93c 5c26 98be 0f64 583e
00000120: 03e1 253f 672d 99be d406 ad3e b883 92be
00000130: 351c 62be bdbd 3a3f 3830 f13e 652e 333f
00000140: eedd f03d 5d12 4ebe e819 573f e03a c13e
00000150: 5352 f1be d15b 4abe fbfc 48be 2434 6f3e
00000160: 9a3e 82bf 4f39 dfbb accc ffbc 4dc9 98be
00000170: b3a6 0cbd 001e 313e 8a1c a8be 6846 923e
00000180: 6b58 5e3f 86b5 cb3e fde1 4e3e c019 893e
00000190: 4c65 68be 6cb8 9c3f 5ccd 11be aab1 943f
000001a0: 59f1 0cbe f261 c0bf 0ae6 cc3d bd42 3dbf
000001b0: 82c1 3abe 447e 773f f65a 91be cde0 c83e
000001c0: 45ab da3e 6770 e53d 297d 183d fd83 d53e
000001d0: 5371 36be 6e39 7a3f a70c 9c3e cb5d ca3e
000001e0: 0903 863c 6228 1ebf 752f 7d3e 816a d4be
000001f0: 4f3e a2bc b12e 2e3f 71ca 5c3e 602d 533d
00000200: 5130 65bd 19c7 04be e818 c5be 4942 fb3e
00000210: b9aa 323f b59c 063e 5bf7 843e befb 13bd
00000220: 8475 88bd a111 fa3e 8c89 a0be 3767 0f3f
00000230: 485f 2f3f 406e 45bf f62d 203f a8bf 6dbf
00000240: 2313 123e 4f3c ac3e 6164 eb3e f9a0 773f
00000250: 100a adbc c7d1 4bbe 3ef2 3bbf 4f8c 27be
00000260: d907 87bf 3ee1 8a3f 1ea6 9fbe 8a04 223f
00000270: 1988 d53e dacf 71bf cb00 403f 8519 01bf
00000280: 1add 1e3f 8469 b3bd feed 723e d293 fd3e
00000290: af3c 70bd 05ee 423f 2e35 71be c55c 963d
000002a0: 8a36 7bbf e7f3 e9be 1e38 003e abfc d1be
000002b0: 03a7 1abf f423 c93e 4b6b e83d c96c 40be
000002c0: 224e abbd d20b 9cbe 831b b9be ad2a 653f
000002d0: b8a5 9b3e 60cb 12bf b311 b5be ad16 57be
000002e0: ed49 99bf 8ea2 113f f735 23bd ff51 0f3f
000002f0: 018c 3a3f 13e2 68bf ac27 c73e ab24 4cbe
00000300: 3c31 bc3e ca2c a13e cba4 e5bd ecb8 6cbf
00000310: 482a 7fbf 88db 1f3f 160a bebe 32b9 4f3f
00000320: 5fb9 1b3f 6b88 49bf 329f 213f eb13 44bf
00000330: 6482 3ebf c45b 833f fef9 3f3e ff8e 0a3f
00000340: 0ba8 6e3f 3e52 9f3d 5c8b 85bd 8282 eebd
00000350: 6298 65be bf38 293f 7bfc 0f3d df6c 5d3f
00000360: 2114 ccbd b27b 9fbe f3d9 1c3c 51af 45bf
00000370: fa1c 32bd e2a2 6e3f 2c4a 4f3e fb83 be3e
00000380: aa7a 803f a203 313f 645d 11be c93e aebe
00000390: f5fd 04bf afaf 843f 4dc3 03bf 3019 2c3f
000003a0: 5c8a c03d 0321 073f 2fe8 9e3e b76f 23bf
000003b0: 5483 0fbf 8ba8 b73f 160f 58be 6fe1 f83e
000003c0: e515 cc3e caa5 813e 6457 c9be 0c0e 853e
000003d0: 3d85 6dbe fc6e 5b3d 3036 25be bccb aab9
000003e0: b1d7 04be 96a9 1f3f 82cf 46be f4b8 08be
000003f0: 0fd6 5e3e ec1b 4f3e ab81 6d3e 3d36 02bf
0.64325583 0.17835754 0.17672639 -0.8450523 -0.5672993 0.37180942 -0.33354586 0.5031949
0.77409846 -0.19247924 -0.088992864 -1.692111 -1.1078815 1.6957173 -0.3531664 0.6110555
0.33282888 0.85314274 0.1150566 -0.49457675 -1.1794709 0.4478347 -0.67443675 0.4917312
0.18134135 -0.34075043 1.0467451 -0.28756228 -0.29532412 1.0355966 -0.13246702 0.85068166
-0.07473867 -0.07780001 -0.055123825 0.2135702 0.33646545 0.80062157 -0.088467084 0.17226629
0.08438702 0.24518758 -0.13685112 -0.3980258 -0.10882937 0.600982 0.23860702 -0.33348593
0.8339772 -0.15504862 0.39784405 0.23367178 -0.1445312 0.41621 0.27036262 0.60979086
0.019649781 -1.0361917 -0.21075384 -0.44965446 -0.3980997 0.53840345 -0.16462043 0.40646785
-0.1292041 0.47070906 -0.2223116 -0.39181468 -0.20744672 0.03046109 -0.29716766 0.2113192
0.64796466 -0.29917452 0.33794272 -0.28616118 -0.22081073 0.7294577 0.471071 0.6999267
0.1176108 -0.20124193 0.84023905 0.3774023 -0.4713312 -0.19761588 -0.19627754 0.23359734
-1.0175354 -0.0068122516 -0.031225525 -0.2984108 -0.034338664 0.172966 -0.32834274 0.2856934
0.86853665 0.3978693 0.20203395 0.26777458 -0.22694892 1.2243781 -0.14238495 1.1616719
-0.13763942 -1.502989 0.10004814 -0.7392996 -0.1823788 0.9667704 -0.2838971 0.3923401
0.42708793 0.1120308 0.037228737 0.41702262 -0.17816667 0.9774388 0.30478403 0.39524683
0.01635887 -0.6178037 0.24725135 -0.41487506 -0.019805102 0.68039995 0.215616 0.051556945
-0.05595428 -0.12966575 -0.38495564 0.4907401 0.6979175 0.13145716 0.25969967 -0.036128752
-0.06663039 0.48841575 -0.3135494 0.5601687 0.6850476 -0.77121353 0.6257013 -0.9287057
0.14265113 0.33639762 0.4597502 0.9673 -0.021122962 -0.19904242 -0.7341651 -0.16362117
-1.054927 1.0849988 -0.31181425 0.63288176 0.41705397 -0.9445778 0.7500121 -0.50429565
0.62056124 -0.0876036 0.237236 0.4952684 -0.058651622 0.7614444 -0.23555443 0.07341913
-0.98130095 -0.45693895 0.12521407 -0.41013083 -0.6041109 0.39285243 0.113485895 -0.18791498
-0.08364512 -0.30477768 -0.36153802 0.89518243 0.3039987 -0.57341576 -0.35365066 -0.21004744
-1.1975685 0.56888664 -0.039846387 0.5598449 0.7286988 -0.9096996 0.38897455 -0.19935863
0.36756313 0.31479484 -0.112130724 -0.9246967 -0.9967389 0.62444353 -0.3711707 0.8114196
0.6082973 -0.7872378 0.6313354 -0.7659289 -0.7441771 1.026238 0.18747708 0.54124445
0.93225163 0.07779358 -0.06520721 -0.11645986 -0.2242141 0.6610221 0.035152894 0.8649425
-0.09964777 -0.3114906 0.0095734475 -0.77220637 -0.043484665 0.9321729 0.20243138 0.37210068
1.0037434 0.6914617 -0.14195782 -0.34032276 -0.5195001 1.0366114 -0.5146988 0.67225933
0.0940139 0.52784747 0.31036517 -0.6384234 -0.56059766 1.434831 -0.21099505 0.48609492
0.39860454 0.253218 -0.39324486 0.2598728 -0.23195358 0.05357264 -0.16133952 -0.0003257672
-0.12972905 0.6236814 -0.19415095 -0.13351804 0.21761344 0.20225495 0.23193996 -0.5086401

lstm.weight_hh_l1 f4 [64, 16]
00000000: 723f 353f 3d7c a1be 77a7 fc3e 0149 8b3d
00000010: b5bd 463f 6e75 353f ca36 2bbf 6dc7 ac3e
00000020: 8273 1c3f b10f e03e 6274 2cbf c1bc 05bf
00000030: 5c17 8f3e 4f40 d3bd 0ce2 7fbf f063 a7be
00000040: 757e 313f 6106 cd3f 9d8a bd3f 7f46 f3be
00000050: 8111 52be df7b 173f d1a3 82be 0818 7fbe
00000060: cb9d 43bf 0df8 6c3f b058 2abe cc6e 91bf
00000070: 6734 1740 f975 3fbf 8956 b53f 7b39 8abe
00000080: 746c 163f 9f92 ffbe f5e3 f53e 405d 803f
00000090: 8d92 90be 26ba 11bd 99da 74bf 05d3 e03e
000000a0: bf83 4fbe 6433 86be 9e14 c83e 7015 a8be
000000b0: 4244 1cbf 3e01 c03d 1999 f1be 0eca 2cbf
000000c0: b60a 213f 4d84 cf3f f90f 613e 2b5f 8fbe
000000d0: 588b 263f 640b b73e ff2a 48bf d96e 5b3f
000000e0: 9524 943d 70bc 143f 32d5 b73d eb33 5f3e
000000f0: 9676 ad3e 5df4 0ebf b20b 113f d239 983e
00000100: 68a3 483f 58fe 763e 5d06 2f3f 4165 b0be
00000110: 9939 1b3f 35c3 86bf 1ea0 cd3d ab68 1e3e
00000120: c214 c2be e64c 00bf defd 9dbe 3593 0a3f
00000130: 1b2b 92bc 74fb f33e 8d62 e53e 3b56 ed3d
00000140: 06f4 dabd f830 8f3f cc7e c33e 57a9 7bbe
00000150: f821 d6be f7c7 e73e 6272 503c 0df8 173f
00000160: 4ae6 833f 583c 453f e020 14bf 9c59 9a3e
00000170: eb90 923f c4f8 b4be 2818 133f c36e 4c3e
00000180: cb41 283f e3ac 713f fab2 e93e be1a 78be
00000190: 6136 aabd 86d4 83be ecb4 953e 424e e93e
000001a0: fabe 103e 4ffb 093f 6261 d43d 4ab1 8b3e
000001b0: f7b9 963e bcd0 053f 4b46 0a3f f5cc 193f
000001c0: 8a6a 333f 7654 043e 4cd2 b53e b478 9b3d
000001d0: 5ef1 b6bd aa8a 2ebe f2e7 813e 79cf c23e
000001e0: 9683 263f 6950 7ebe 6cec bf3e ede3 2f3f
000001f0: 3d61 063f 11f2 ce3e d5be 0b3e bed9 afbd
00000200: 3d14 0fbf b6d7 613e dd16 fbbe 642a d03d
00000210: 2b57 ff3e 0dc7 96be 0781 cb3e 7c82 1b3e
00000220: 18f5 213e bb40 d3be 172b ed3e 93e4 59bf
00000230: 626d 95be 5524 6cbd 4c7c 213e 3512 10bf
00000240: 66fa 963e 1b52 8cbe e527 823e 1047 c63d
00000250: 70d1 2e3e 7bdb 013f 4a2f 953e 5d5a 893e
00000260: dea9 013f c26d 0b3f f3f4 b43e f275 f13e
00000270: 47c7 263e e011 fabe 8a75 293c 9545 9c3e
00000280: 9ad0 f93e ba05 cb3f 6a58 063f 2913 c0be
00000290: 376c f23d 6162 183f ce08 cfbe bc61 4a3f
000002a0: e028 6e3e 04ad 113f 19aa da3e 1218 80be
000002b0: 56fa 7d3f 5fe5 42bf c890 653f 2d80 f23d
000002c0: 8efd c3be c35f 273f 52f3 8c3e ea77 16bf
000002d0: 3d93 e63e 688a 013f 17c4 1e3e f7cb c93d
000002e0: c2c5 823f cbd0 73bd 4ac8 023e 8afe 82bd
000002f0: bf72 56be a4a4 b23b 88d2 f73e 65d6 fdbd
00000300: 1057 963e 981e c63f 2f65 053f 3659 65be
00000310: db0a e0be b2bf e83e 4bf8 6abd 5deb 8d3e
00000320: c46a 1ebe 4dcf ef3d 55b7 113f bb20 a8bf
00000330: b9ef d13f f1cb 02bf b115 893f 537c a9be
00000340: 2b7e 3c3f 91a2 803f 4b7b f63e d128 bc3d
00000350: e7e0 47be 6adb 923d 58b2 d6bd be55 363f
00000360: ae61 a1be ed6c 2dbe 0b7f f33d c346 2abf
00000370: c454 ec3e c542 0b3e ec2e 833e cf98 073f
00000380: 1d22 6d3f b498 e23e d130 3c3f 24e6 b53e
00000390: e22c 2ebf 3bd0 bb3b 2754 aebd 006c 963e
000003a0: 5ddd 33bf b912 a53e db47 173e b609 45bf
000003b0: cf0c 0a40 2bab 17bf 3faf 023f 9642 c63d
000003c0: 8c46 313e ea95 1d3e bb6e 9f3e 39d3 643e
000003d0: dbdd ee3e 0f91 9fbe f5b1 e23e a5b3 0c3f
000003e0: e98a 33bd 8eef 39bf 4917 66be c861 33bf
000003f0: 6f3f 463f 292a 033f ab58 1ebe 9864 0abf
0.70799935 -0.315401 0.49346516 0.06801034 0.7763322 0.7088231 -0.66880476 0.337459
0.6111375 0.43761972 -0.67365086 -0.5224114 0.2794751 -0.10315 -0.99954295 -0.32693434
0.69333583 1.6017572 1.4807926 -0.47514722 -0.2051449 0.5917339 -0.25515607 -0.24911511
-0.7641265 0.92565995 -0.16635394 -1.1361938 2.3625734 -0.74789387 1.4167033 -0.2699698
0.58759236 -0.4991655 0.4802548 1.0028458 -0.2823681 -0.035577916 -0.95646054 0.43910995
-0.20265101 -0.26211083 0.3907823 -0.32828856 -0.61041653 0.09375237 -0.47187117 -0.6749581
0.6290697 1.621225 0.2197875 -0.28002295 0.6505637 0.35750878 -0.78190607 0.85716015
0.0723354 0.5810003 0.08976211 0.21797149 0.33879536 -0.5584162 0.5665847 0.29731613
0.7837434 0.24120462 0.68369085 -0.3445225 0.6063476 -1.0528322 0.100403056 0.15469615
-0.37906462 -0.5011734 -0.30857748 0.5413087 -0.01784282 0.4765278 0.4480175 0.11588713
-0.10691075 1.1186819 0.38182676 -0.24576317 -0.4182279 0.4526975 0.0127225835 0.5936287
1.0304654 0.770452 -0.57862663 0.30146492 1.1450475 -0.35346043 0.57458735 0.19964127
0.6572539 0.9440443 0.4564436 -0.24228951 -0.08311153 -0.2574808 0.29239595 0.45567518
0.14135352 0.5389909 0.10370137 0.27283698 0.29438755 0.5227163 0.5401351 0.60078365
0.7008444 0.12922844 0.35512006 0.07591382 -0.08932756 -0.17045084 0.25372273 0.38048914
0.65044534 -0.24835362 0.37485063 0.6870716 0.52492124 0.40419057 0.13647015 -0.08586453
-0.55890256 0.22054943 -0.4904088 0.10164335 0.4987119 -0.2944874 0.39746878 0.15186495
0.15816152 -0.41260323 0.46321937 -0.851144 -0.29185015 -0.057651836 0.15770072 -0.5627778
0.29487914 -0.27406392 0.25421062 0.09681523 0.17072082 0.50725526 0.2913764 0.26826754
0.5064982 0.5446435 0.3534313 0.47160298 0.16286956 -0.48841763 0.010342965 0.30521837
0.48791963 1.5861123 0.5247866 -0.37514618 0.118370466 0.59525114 -0.40436405 0.7905538
0.2325778 0.56904626 0.427079 -0.25018364 0.9921011 -0.7613124 0.89674044 0.11840854
-0.38279384 0.65380496 0.2752939 -0.58776724 0.4503421 0.50601816 0.1550449 0.09853356
1.0216601 -0.059525292 0.12771717 -0.06396206 -0.2094221 0.0054517556 0.4840281 -0.12394408
0.29363298 1.5478086 0.5210752 -0.22397313 -0.43758282 0.45458752 -0.057365697 0.2771863
-0.15470415 0.11709461 0.5692037 -1.3134989 1.6401283 -0.5109244 1.0709745 -0.33102664
0.7363002 1.0049611 0.4814094 0.091874726 -0.19519387 0.07170756 -0.10483235 0.7122458
-0.31519836 -0.16936083 0.11889466 -0.66514224 0.4615842 0.1359969 0.25621736 0.5296754
0.9263018 0.44257128 0.7351199 0.35527146 -0.68037236 0.00573161 -0.085121445 0.29379272
-0.7025965 0.32240847 0.14773504 -0.7696794 2.1570318 -0.59245557 0.51048654 0.09680669
0.17312068 0.15389219 0.31139168 0.223462 0.46653637 -0.31165358 0.44276395 0.54961616
-0.043833647 -0.72631156 -0.2246982 -0.7007108 0.7744054 0.51236206 -0.15463512 -0.54059744

lstm.bias_ih_l1 f4 [64]
00000000: 6944 9b3d 7088 333e 74b4 963e 625d 8e3e
00000010: c192 043d ab8e 1ebe ee81 f13e 4a74 d93e
00000020: ddd6 913c 66b5 9e3e c5e1 913e cee8 5d3e
00000030: 37cd 0c3f a2b0 8c3e 2cd5 623f dfc7 093f
00000040: 5af7 fdbd da60 0abf 1a27 2cbd 8445 e23d
00000050: 982f 203f 034a 8fbd 0835 c4be 3dc8 123e
00000060: 8774 32be 5c1f eabd 1403 1dbd ece2 633d
00000070: 0d04 1d3e 5da2 5a3e 61e4 3cbd 0810 823e
00000080: a88e ec3e 7c9e c5bd c441 9f3d d494 cf3d
00000090: 0b5a f9bd a2fc 51be 2a8f dabd 2725 393d
000000a0: 6fb0 8fbd 302f cf3d b0c7 14bd cfad 33be
000000b0: e2d1 9e3e 9194 f2b9 2208 e53d d872 563d
000000c0: 31b7 cc3e 6e83 1e3f 7a39 9dbd bc63 8a3e
000000d0: ede1 0e3f c1c3 ca3e b41f 303f 2dc0 7a3e
000000e0: 4f36 3d3e ea96 3c3e da11 1e3f d607 123f
000000f0: 5e7e 263f 53b6 873e 3f86 6b3f 7956 443d
0.075814076 0.17532516 0.2943455 0.2780562 0.032366518 -0.15484111 0.4716944 0.42471534
0.01780265 0.3099777 0.2849256 0.21670839 0.55000633 0.2747851 0.88606524 0.53820604
-0.12400694 -0.54054034 -0.042029478 0.11048415 0.6257262 -0.069965385 -0.3832171 0.14334197
-0.17427264 -0.114317626 -0.038333014 0.05563633 0.15333577 0.21350999 -0.046116237 0.25402856
0.46202588 -0.09649369 0.07776216 0.101358086 -0.121753775 -0.20506528 -0.10671838 0.045201447
-0.07016074 0.10116422 -0.03632325 -0.17546771 0.31019503 -0.00046268528 0.11183192 0.052355617
0.39983514 0.61919296 -0.076769784 0.27029216 0.55813485 0.39602473 0.68798375 0.24487372
0.18477748 0.18416944 0.6174599 0.57043207 0.6503657 0.2650629 0.9200172 0.04793403

lstm.bias_hh_l1 f4 [64]
00000000: c3d8 9d3e 60ea ae3e 563d e33e 2cce 293e
00000010: 72d2 80bd 907e eb3d c966 103f 27a1 fc3e
00000020: 005c 27be 5caf 923d af20 b13e 7c6c 9f3d
00000030: 3538 db3e bd3b d43e 8409 433f 4947 093e
00000040: e210 743c d728 efbe 86a2 643e 8379 ac3d
00000050: 49ba 133f 96b4 63bd 0637 f4be 9bfa 94bc
00000060: f98a 0a3e 097b 06be 9091 a73e a973 8d3e
00000070: 8f81 59bd e034 febd d1dc a7bd 306d b53e
00000080: aeae c03d 4470 99bb 1d8a 3e3e 5ca8 b5bd
00000090: ea7b 113e 86a9 a33b 7b45 ec3d 5ee7 053d
000000a0: 0286 713c 874d e3bd 3f6d 553e 24af d93c
000000b0: 2216 263e 7bf4 93be 0257 72be c336 913d
000000c0: 3c2f 043e 98a8 f73e 73d0 d7bd f6e9 f73e
000000d0: 86bc b83e 5d51 283e 2044 513f 94fd 7d3e
000000e0: cd0d 0bbe a5bc 633e fd6b 033f 9e2b 2a3f
000000f0: 6956 0b3f 93e2 853e 92a2 443f 5681 7f3e
0.3082944 0.3416319 0.44382733 0.16582555 -0.06290139 0.11498749 0.5640684 0.493417
-0.16343689 0.071623534 0.34595248 0.077843636 0.4281632 0.41451827 0.76186395 0.134061
0.014896603 -0.46710846 0.22327623 0.08421614 0.57706124 -0.055592142 -0.4769823 -0.018185904
0.13529576 -0.13132872 0.32728243 0.27627304 -0.053102072 -0.12412429 -0.08196414 0.35434866
0.094083175 -0.0046825726 0.18607374 -0.088700026 0.14207426 0.004994574 0.1153669 0.032691352
0.014741423 -0.110987715 0.20842455 0.026572771 0.1621938 -0.2889746 -0.23666003 0.07090523
0.12908643 0.48370814 -0.105378054 0.48420686 0.36081332 0.16437288 0.81744576 0.24803764
-0.13579483 0.22239931 0.5133665 0.66472805 0.54428726 0.26149425 0.7681056 0.24951681

lstm.weight_ih_l2 f4 [64, 16]
00000000: dda5 1fbe 8990 41be 1d05 ffbd 8b9b ef3d
00000010: 91d5 f7bd aac9 99be 6aae b83d 93a9 6d3e
00000020: be4f 703e e7df a6be 41ff 053e 9225 033f
00000030: 24b0 19bd 7671 ccbd f43d e2be 13d1 a2be
00000040: 84a6 4abf 0235 30bf 0dc6 f63c 9d1d a83d
00000050: 6100 8e3e a321 203f bb3d 72be f06a 473f
00000060: f788 b53e 27cb 8c3e 63ec 85bf f05a 95bf
00000070: d49e 8dbf e5cf ac3d caa4 dbbe 4eea 51bf
00000080: 1615 4ebd 87b6 8cbe f261 383f 3637 633d
00000090: b7c8 56bd 15bc 07bd 9e7f 463e 397a b8bd
000000a0: 08d6 c4be c752 a1be a8ef c0be 1c42 1c3e
000000b0: 1d8f be3e 54f2 61be ec7d 32bf 1020 b83b
000000c0: 9363 ea3e 0dce fb3d 78b5 fdbc 2e48 efbe
000000d0: 4ea7 b3be 74fc 843f 89ba 94be 6f67 383f
000000e0: aa6a 03bf 2011 9d3d 6d71 90be bdc1 d9be
000000f0: bb62 98be 81fa c03e b621 473c e633 113f
00000100: 13d7 b0bd b380 b03d a616 80bd 5edc 623e
00000110: f324 cd3d dbc5 10bc 2873 623e 5f44 163d
00000120: 3f97 34bf cd49 b1be 96ff ddbe 4551 fabe
00000130: e9df 2dbf b73d 963e c201 293f feee 1a3e
00000140: 1e49 19be a218 e83d 8393 0abe 014d 82be
00000150: 804b 893e 1bed 243f 3307 2abe 4dd4 40be
00000160: d505 643e 6220 913e d44b b9bd 468b 2abe
00000170: 0fc3 483e a212 dfbe 6de4 f93e 3054 dc3d
00000180: 8ea1 95bc 8faf eb3e 37a0 13bd d237 47be
00000190: f36f 0cbf 7f14 05bf a477 363f dbeb 503e
000001a0: 152d 30bd 3c1d f1bd dd9c dabe 83fa a3be
000001b0: d4c9 8e3d 9c79 1bbe 5f25 923f 5712 a5bd
000001c0: d7a4 a23c 7fb4 15bf 30fe 0e3f 5b55 4cbd
000001d0: 8068 c13d 4fd7 df3c 2340 54be 4687 223f
000001e0: b298 20bf d80c da3c 313e 54bf 6106 33bf
000001f0: e408 d7be d3ab 483f 4c99 283e 4304 ff3e
00000200: 03ed b6be a9ec a8be 53c1 993f 84fc 543e
00000210: dbf9 683e d825 783e df56 b0bd 61f4 063d
00000220: 73e5 43bf 3c56 e93c e9eb 19bf 4cf0 d2be
00000230: 0a7e 2abe ff58 3bbe 84f6 b2be 81d9 293e
00000240: f2e6 17bf ac31 b8be eddf aabe 5a74 77be
00000250: 4537 2c3e 8912 d0ba e89a 9cbd f3aa 0b3e
00000260: ff98 47bf ec2b a2be 2598 183e ffe9 78bd
00000270: cd59 54bf ad2f 663e c24c aebe 3981 eabd
00000280: f84e 0fbf 7f82 47be 4c8b 46bd 3d27 643d
00000290: 79bc 21be b46d e93d bc35 373e ae65 e5be
000002a0: 75c1 aa3c ebcf 76be 6a2c c5be b698 dcbe
000002b0: 0a16 f9be d24f 943d c734 053f 9617 ebbe
000002c0: 2588 c73e 6b28 24bf 1b2b 113e 1025 033e
000002d0: db0d f93e b49e 6f3f ae8f 6dbf b8dd 1d3f
000002e0: 2249 08be cebf 913f a786 8ebf 311f c7be
000002f0: d0d5 61bf d6f5 bf3e 24dd 63be f185 eabd
00000300: bb32 9a3e 7a00 0bbf 3468 64bd 82e8 913e
00000310: 3380 0cbe 5b18 0d3e 80fc 2bbf f5f2 09be
00000320: d360 0f3f 9372 cfbb f2d9 8d3d 09ef d1be
00000330: 45e8 0ebe 56fe dbbe 3d75 c5be 1bf9 cbbe
00000340: c2d9 b5bb dd17 793f 4bc2 55be af10 bd3e
00000350: ccbc d5be 2079 443f d194 0abf 7d86 06be
00000360: d7ae cfbe 8b2d 30be 578b 053e 23be 44be
00000370: 3cef 883e 1cff e6be 532d e33d cd74 8c3e
00000380: beee d6be 3f38 0b3e fc20 f7be 2078 963c
00000390: 4f97 89be 1a14 c03e b7a5 b1be d05d 54be
000003a0: cf4f 933e 3f05 0b3f b6f2 fe3d 4919 e5bd
000003b0: 0db9 d53d 67e2 38bd 98b6 ef3e e8af 06bf
000003c0: aa99 a73e d6eb c0bf 1653 84bd 2969 803f
000003d0: f828 0abe 92aa c93e 760a 65be 71f0 473e
000003e0: ac32 0d3d ab3a cf3e 8041 f3be fe8d 803d
000003f0: c944 8fbf 676d 5b3f 424a 89bf 3b1a a4bd
-0.15590616 -0.18902792 -0.12452147 0.11699589 -0.121012814 -0.3003667 0.09017642 0.23209219
0.23467919 -0.325927 0.13085653 0.512292 -0.037521496 -0.099825785 -0.4418789 -0.31800136
-0.7916033 -0.68830884 0.030123735 0.08208773 0.27734664 0.62551326 -0.23656361 0.7789755
0.35456058 0.27498743 -1.0462765 -1.1668377 -1.1064095 0.0843809 -0.42899162 -0.81998146
-0.050313078 -0.27483007 0.7202445 0.055472575 -0.05243751 -0.033138353 0.1938462 -0.09007687
-0.38444543 -0.31508467 -0.37682843 0.15259594 0.37218562 -0.22065097 -0.6972339 0.0056190565
0.45779094 0.122951604 -0.03097032 -0.46734756 -0.3508858 1.0389543 -0.29048565 0.7203283
-0.5133463 0.07669282 -0.28211537 -0.42530623 -0.29762825 0.3769112 0.012154033 0.56719816
-0.08634772 0.086182974 -0.0625432 0.22154376 0.10016813 -0.008836235 0.22114241 0.036686298
-0.70543283 -0.34626618 -0.4335906 -0.4889013 -0.67919785 0.2934396 0.6601831 0.15130231
-0.14969298 0.11332823 -0.13532834 -0.25449374 0.26815414 0.64424294 -0.16604309 -0.18830986
0.2226785 0.2834502 -0.09047666 -0.16654691 0.19605659 -0.43568903 0.48807088 0.10758245
-0.018265512 0.46032378 -0.036041465 -0.19454888 -0.5485832 -0.519844 0.7127631 0.20402472
-0.043011744 -0.11773154 -0.42697802 -0.32027063 0.069720894 -0.15183109 1.1417655 -0.08060139
0.019853992 -0.5847854 0.5585661 -0.04988609 0.0944376 0.027324347 -0.20727591 0.6348766
-0.62732995 0.026617453 -0.82907397 -0.6993161 -0.4199897 0.7838718 0.16464728 0.4980794
-0.357277 -0.32993057 1.2012123 0.20799452 0.22751562 0.24233186 -0.08610319 0.0329479
-0.76521987 0.028483503 -0.60125595 -0.41198957 -0.16649643 -0.18295668 -0.34953701 0.16586877
-0.5933677 -0.35975397 -0.33373967 -0.24165478 0.16817959 -0.0015874665 -0.076467335 0.1363943
-0.7796783 -0.31674135 0.14901789 -0.06077003 -0.82949525 0.22479124 -0.34042937 -0.114504285
-0.5597987 -0.19483374 -0.048472688 0.055701483 -0.15794553 0.11397877 0.17891592 -0.44804138
0.0208442 -0.24102752 -0.38510448 -0.4308526 -0.48649627 0.07241787 0.52033657 -0.45916432
0.38971058 -0.6412417 0.141766 0.12807107 0.48643383 0.93601537 -0.9279736 0.6166644
-0.13309148 1.1386659 -1.1134843 -0.38890985 -0.88216877 0.37492245 -0.22252327 -0.114513285
0.3011683 -0.542976 -0.05576344 0.28497702 -0.13720779 0.13778822 -0.6718216 -0.13471587
0.5600712 -0.006330797 0.069263354 -0.41002682 -0.13955791 -0.4296748 -0.38566008 -0.3983849
-0.0055496404 0.9730204 -0.20874898 0.3692679 -0.41745603 0.7674732 -0.54133326 -0.1313724
-0.4056308 -0.17204873 0.13041435 -0.19213156 0.2674502 -0.45116508 0.11092629 0.27432862
-0.4197902 0.13595675 -0.48267353 0.018367827 -0.26873252 0.37515336 -0.34696743 -0.20738912
0.28771827 0.5430488 0.12448637 -0.111864634 0.10435686 -0.04513779 0.46818995 -0.5261216
0.32734424 -1.5071971 -0.0646116 1.0032092 -0.13492191 0.39387947 -0.22367272 0.19525315
0.034472153 0.40474448 -0.4751091 0.06277083 -1.1192867 0.8571381 -1.0725787 -0.080128156

lstm.weight_hh_l2 f4 [64, 16]
00000000: 7aae a2bd 3b2b 3cbc ba63 cdbe cfdc b9be
00000010: d44a 103f 0088 2ebe 0d9f 12bf eede 03bd
00000020: e372 0ebe 250e 103f 7fa2 adbd dd22 e93d
00000030: 958f b2be 600c 2e3f bf98 883c 2b8e 803f
00000040: 82e3 12be 7586 63be c590 21bf a971 bcbe
00000050: 9729 c63e 9577 8c3e 4100 cc3e 2ab9 493e
00000060: 5f41 d83d 1161 363e 8030 d6be 20c0 63be
00000070: b9b3 b93c 1dd3 cb3e 7168 093f 5b9b af3e
00000080: 9831 f8bc cb8f 0d3f 3c55 4d3d 6e14 50bf
00000090: d681 d43e 2e94 3a3d 1331 be3c 7cee 9d3d
000000a0: b78d 863e d0eb 613e 8efc 8f3e 0e3c 223f
000000b0: 8610 103d 193e b4be 1e6a 223f 1de1 3e3f
000000c0: 7cff 6e3e 37c1 993d 5ede 24be d9a3 e93d
000000d0: a6f7 a9be c74d c43d d5e7 90be 5df0 553e
000000e0: 4c4d 5b3e 6c60 2ebf b4a6 503c 071c 67be
000000f0: 4844 3a3f 8c1d 8ebd 1aec 07bf 5ea2 033e
00000100: 1c7b 4a3e 73e7 4cbb 1604 cfbe 5d5e bc3d
00000110: b5b3 e5be 1b47 dbbd 9660 2bbf e15a ab3e
00000120: c523 0ebf b27c 7e3c b8f7 a8be 2da3 81bf
00000130: d438 b03e c9ef 2cbe 3d82 073f b715 633e
00000140: 26bd e8bc 0a61 1d3e 9784 d63e f348 01be
00000150: 58fd e83d b77f 99be e5c0 b8be ba42 05bf
00000160: 0624 ac3c 5cd3 f33e 8546 9dbd 89f9 e1bd
00000170: 358e adbe 846b 14bf 1f97 a43d 6316 d0be
00000180: 9172 893f 15f1 b7be 07cf e63e 7f53 3b3e
00000190: fcd5 883c 9540 52be 6d5d 493e cdee 3c3e
000001a0: 11eb 16be 0d7e 5bbe 7f4c e0be 6583 fcbe
000001b0: cdb6 eebe c2c9 1bbd 26d1 3bbc cc17 da3d
000001c0: ece7 99be 9699 ee3d d0a9 e1be 2cd0 ef3e
000001d0: 7c14 013f f0cf 61be 29a2 0fbf 8f20 cd3c
000001e0: 5edc 0b3e ad68 cabe c05e 10be 318f 2b3d
000001f0: f6e1 083f bcfd 163d 84e2 fbbd 8e67 bd3e
00000200: 2921 45bf c832 063f 0705 31bf 3cd0 86be
00000210: 6cc0 9dbe f3b8 92be 709a 083f b74f 273d
00000220: 4bbc 2c3e d999 fcbd 1957 95ba bc9b 063f
00000230: 1240 393f 8f0d 3b3f 0d1a 51bd d1a2 4abd
00000240: d3d8 123f 4194 87bd 7fda 3f3f ea32 163e
00000250: a3af 173e e93c 7e3e 0858 09bf 5ad1 0d3e
00000260: 3dc7 8abe 6f88 4f3d 72e6 ebbe 24e9 753d
00000270: c95e de3d df3a 233e 1cc5 a1be 1c11 60bc
00000280: 1568 87bd f58b fa3d e48d 20bf 082c 11bd
00000290: 2da9 ab3c 67e2 513e ee8e 62be 774f cabe
000002a0: c4ba afbe a941 dfbd 1d4a dabd 13f3 f93d
000002b0: c70b 25be 92d8 973e 0fa1 f9be b532 8fbd
000002c0: b76b b6be 120b 86be f384 a3bf ce9f 363f
000002d0: 1706 b13e 2c98 353e 0458 e3be 73a6 f53d
000002e0: 786d cb3e 83ba 86bf b7a6 39bf 7d18 5c3e
000002f0: bb44 08bf bd39 5fbe abe6 723e 28b4 b7be
00000300: 8ea8 813d d2e8 08be 1ab4 ab3e 4930 f2be
00000310: d89c 18be 5bd0 cc3d 0c7e 903e c9c8 013e
00000320: 1e0e bf3d bf79 4ebe fb32 523e 284e 3abf
00000330: 2dc1 32be e39f 833e ff3a 3fbe 9676 083f
00000340: 09c9 e6be c8b4 2dbf 180d 20be 68ab 073e
00000350: 6f68 463e ba0a bd3e 2652 8c3e 2c3b 13bd
00000360: bf48 a6be 93af bb3e 3af6 aebd 5659 37bf
00000370: e43a 09bf 2df7 87bf f926 b0be 3d10 22bf
00000380: 9b7d 79be c562 073e 31f7 63be 1bd3 3fbf
00000390: 4f22 083e bee2 bc3e 140f b43e 8e8d 273d
000003a0: 6985 c4bd fab4 0b3f 4c9c 413e 233f 3fbd
000003b0: 3c72 a13d bb2c fcbe 5c6e 863d 2273 303f
000003c0: d8f5 a2be 28c4 8f3e daf7 05bf 4bce 7b3d
000003d0: 653a b93d b31f 523e d3ee f13e 2f5e ac3e
000003e0: 0ec3 1ebe 0567 f0bd ba7b d0be 3229 97be
000003f0: ce3b 293f 610e 883d aa0a 51bc b4f1 553e
-0.07943435 -0.011484916 -0.40115148 -0.36301276 0.5636418 -0.17044067 -0.5727394 -0.032195024
-0.13911013 0.5627158 -0.08478259 0.11383603 -0.3487517 0.6798763 0.016674398 1.0043386
-0.143446 -0.2221926 -0.63111526 -0.36805466 0.38703606 0.27434984 0.39843944 0.1969954
0.105593435 0.17810465 -0.41833878 -0.22241259 0.022668706 0.39809504 0.5367499 0.34298214
-0.030297086 0.55297536 0.050130114 -0.81281173 0.41505307 0.04555147 0.02321676 0.07711503
0.26279995 0.22062612 0.2812237 0.63372886 0.035172008 -0.35203627 0.6344317 0.74562246
0.23339647 0.07507556 -0.16100451 0.114082046 -0.33196753 0.09585147 -0.28301874 0.20892473
0.21416205 -0.6811588 0.012735058 -0.22569285 0.7276044 -0.06939229 -0.5309464 0.12854907
0.19773525 -0.0031265884 -0.40432805 0.09197686 -0.44863668 -0.10706922 -0.66944253 0.33467773
-0.5552333 0.015532659 -0.33001494 -1.0127922 0.34418356 -0.16888346 0.529331 0.22176252
-0.028410506 0.15369049 0.41898033 -0.12625484 0.113764465 -0.2998025 -0.36084667 -0.5205494
0.021013271 0.47622192 -0.07679466 -0.11033923 -0.33897558 -0.57976556 0.080366366 -0.4064208
1.0738088 -0.35926118 0.45079824 0.1829357 0.016703598 -0.20532449 0.19664545 0.1845047
-0.14738108 -0.21434803 -0.43808362 -0.49318996 -0.4662384 -0.038034208 -0.011463439 0.1064907
-0.30059755 0.11650388 -0.4407487 0.4683851 0.5042188 -0.22051978 -0.5610681 0.02503994
0.13658282 -0.39532986 -0.14098644 0.041884605 0.5346979 0.036863074 -0.12299064 0.36993068
-0.77003723 0.52421236 -0.69148296 -0.26330745 -0.3081087 -0.2865673 0.5336065 0.040847506
0.16868703 -0.123340316 -0.0011393755 0.5258138 0.7236339 0.73067564 -0.051050235 -0.04947168
0.573621 -0.06620074 0.74942774 0.1466786 0.14813094 0.24827923 -0.5364995 0.13849393
-0.27105132 0.050667223 -0.46074253 0.060036793 0.108579226 0.15940426 -0.31595695 -0.013675954
-0.06611649 0.12233726 -0.6271651 -0.035442382 0.020954693 0.20496522 -0.22124836 -0.39513752
-0.34322178 -0.109011956 -0.10658667 0.12204566 -0.16117774 0.29657418 -0.4875569 -0.069920935
-0.35629055 -0.2618032 -1.2774948 0.7133759 0.3457496 0.1773383 -0.44403088 0.11994638
0.39731956 -1.0525669 -0.7252001 0.21493717 -0.53229874 -0.21799369 0.23720805 -0.35879636
0.063309774 -0.13370064 0.33535844 -0.47302464 -0.14903581 0.10000678 0.28221166 0.1267425
0.093288645 -0.2016363 0.2052726 -0.72775507 -0.17456503 0.2570792 -0.18674849 0.5330595
-0.45075253 -0.67853975 -0.15629995 0.1324898 0.19375776 0.36922246 0.27406424 -0.035945103
-0.32477376 0.3665739 -0.08543058 -0.7162069 -0.53605485 -1.0622307 -0.34404734 -0.6330603
-0.24364321 0.13221271 -0.22262265 -0.74931496 0.13294338 0.3689174 0.35167754 0.04090648
-0.095957585 0.54573023 0.18907279 -0.04669107 0.078831166 -0.49252877 0.06564018 0.6892568
-0.3182819 0.28079343 -0.52331316 0.061476033 0.09044341 0.20519905 0.4725252 0.33665606
-0.15504095 -0.117383994 -0.40719396 -0.29523617 0.6610688 0.066433676 -0.01275889 0.20892984

lstm.bias_ih_l2 f4 [64]
00000000: edb8 5fbd 1e04 a53e cc40 303e 2e6c 5f3e
00000010: 5f22 2bbe 63c3 8cbe d441 89bd d10b d13e
00000020: a57b 9e3e 8923 3b3e 2290 a1be 8b01 25bc
00000030: b409 96bd 8b67 953d 309a 63bd 20af d83e
00000040: 898c 34be 2fbc 6f3d d994 6f3e c2b3 c23c
00000050: b1b3 b83d a169 5b3e f84c 603e ed8b 5dbe
00000060: fe38 823d 40d1 c8be 0de5 3abd ed50 f0bd
00000070: af60 193c 2a9c 6e3e a577 06be 99a8 3fbe
00000080: e75a 353c 03f5 a73e 0e59 b8bd 8cf5 193e
00000090: f80f 2a3e 9662 f83d aec1 06be cfd2 c9bd
000000a0: f4bd fbbd 8f09 21be 6247 493c a763 bc3d
000000b0: 1baa c03d 05e1 813e 723c 41bd 367e 3bbe
000000c0: 84da 883e d972 6cbd b917 7f3e bee8 103e
000000d0: ed31 2abd a9bf b2be 2b7c 47be 9c5f 333e
000000e0: 1e15 5b3e 86b9 04be 7553 b6bd c135 8f3d
000000f0: 1bfc 5d3e f44c 8f3e e388 983c ab3b dc3e
-0.05461972 0.32229704 0.17212218 0.21818611 -0.1671233 -0.27492818 -0.06702009 0.40829328
0.30953708 0.18275274 -0.31555277 -0.010071169 -0.073260695 0.0729514 -0.055566967 0.4232111
-0.17631735 0.058529075 0.23396625 0.023767356 0.090186484 0.21427013 0.21904361 -0.21635409
0.06358527 -0.39222145 -0.045628596 -0.11734185 0.00936143 0.2330176 -0.13131578 -0.18716659
0.011069036 0.32804117 -0.09001361 0.15035075 0.16607654 0.12128179 -0.1315982 -0.09854662
-0.1229209 -0.15726303 0.012285085 0.09198695 0.09407445 0.2536699 -0.047176786 -0.18309864
0.26729214 -0.057726715 0.24911393 0.14151284 -0.04155152 -0.3491185 -0.1948096 0.17516941
0.21394774 -0.12961397 -0.08902637 0.069926746 0.21678202 0.27988398 0.01861996 0.43014273

lstm.bias_hh_l2 f4 [64]
00000000: 2f98 663e 342c 2fbd df0a 99bd 8603 1e3c
00000010: a99d 21be 93db 40be d30a 5b3d 8142 c93e
00000020: 5750 993e b3dd abbc d213 2abe 5bb4 8c3e
00000030: a985 1e3e 93fd 1c3e 8e51 11bd 31df f73e
00000040: 8d79 1cbe cbd0 c8bd 778d bbbd 4853 d53e
00000050: 78d9 f13d c3e0 4a3e f575 66bd fd0d 51be
00000060: 0fb3 d8bd de81 57be e9ac f0bc b6d1 473e
00000070: 2523 543e 1584 1f3e 9a87 603e 416a 51be
00000080: dc84 42be 95cf f6bc a264 05be c561 e4bd
00000090: 2189 2c3d 7983 5b3c 504d 133e 9399 42bd
000000a0: 4eaf 643e 2736 513e 1d33 4d3e 7037 c33d
000000b0: 887e de3c 0034 4abd 9d3f 01be 5212 203e
000000c0: d3cc c8bc d6b4 62be db68 013d 7688 1dbe
000000d0: aa2b 86be ea9b 9ebe 406b d93d 173d 05bd
000000e0: 270f 47be 912b e9bd 9ff9 89be a4a9 4e3e
000000f0: e468 b8bd ce2b 603e dea8 1e3d dcff d23e
0.22518991 -0.042766765 -0.074727766 0.009644395 -0.15782799 -0.18833761 0.05347712 0.3930855
0.29944107 -0.020979738 -0.16609123 0.2748135 0.15480675 0.15331106 -0.035478167 0.4841247
-0.15280743 -0.09805449 -0.09157842 0.416651 0.11809057 0.19812302 -0.056264836 -0.20415492
-0.10581028 -0.21045634 -0.029379325 0.19513592 0.20716532 0.15577729 0.21926728 -0.20450689
-0.18995994 -0.03012828 -0.1302667 -0.111514606 0.042122964 0.013398045 0.14384961 -0.04750974
0.22332498 0.20430814 0.2003903 0.09532058 0.027159944 -0.049365997 -0.12621923 0.15631989
-0.02451173 -0.22139296 0.03159414 -0.15384087 -0.26205188 -0.30978328 0.106161594 -0.032528963
-0.19439374 -0.11385263 -0.26948258 0.201819 -0.09004381 0.2189171 0.038735263 0.4121083

fc.weight f4 [1, 16]
00000000: 4bd5 10be dcbb 85bd 0df9 1ebd 9ed0 6a3d
00000010: a6c0 29be 8b3b 2dbe 25ab 1bbe 9486 2b3d
00000020: 018a d6bd 4985 453e 529d 1a3e 5c3e a2bd
00000030: b904 063e 0645 f2bd 76fb 943d 42fd eabd
-0.14143865 -0.06529972 -0.038811732 0.05732786 -0.16577396 -0.16917245 -0.15202005 0.04187639
-0.10475541 0.19289126 0.15099075 -0.0792205 0.13087739 -0.118295714 0.07274525 -0.11474086
