time_series_intro_class/final_project/temp/3_layer_16_size_model_epoch_1000.pth (torch, 24483 bytes, 13 tensors)

lstm.weight_ih_l0 f4 [64, 1]
0	0xbfbc8fb9	-1.4731361
1	0xbe9514d3	-0.2911745
2	0xbd816240	-0.06317568
3	0x3f09ffc6	0.53905904
4	0x400a219c	2.1583014
5	0xc0030a56	-2.0475059
6	0x3fafd0b0	1.3735561
7	0xbf95c891	-1.1701833
8	0x3e4780e0	0.19482756
9	0x3f4031d7	0.7507605
10	0xbe100a07	-0.14066325
11	0xc0049097	-2.071325
12	0xbf9134b1	-1.1344205
13	0xbfc8665f	-1.5656241
14	0xbfe0f3d7	-1.7574414
15	0x3fe7d4ca	1.8111813
16	0xbf5dfd4d	-0.8671463
17	0x3e394d7d	0.18095966
18	0xbfa3eb08	-1.2806101
19	0x3f5b4f1a	0.85667574
20	0x3f9351a7	1.1509293
21	0xc003dbf1	-2.0602992
22	0x3fe91b3f	1.821144
23	0xbf816f8f	-1.011217
24	0x3f2f56fb	0.68492097
25	0x3ee68c7e	0.45029062
26	0x3f32e28b	0.6987693
27	0xbf719e2c	-0.94381976
28	0xbf70f335	-0.94121104
29	0xc0179929	-2.3687232
30	0xbf21ab20	-0.6315174
31	0x3f1a5cd4	0.60297894
32	0xbfa41703	-1.2819523
33	0x3ebde1a6	0.3708622
34	0xbeb1b6e9	-0.34709862
35	0x3f60a952	0.8775836
36	0xbe62fba9	-0.22166313
37	0xbff3f969	-1.9060489
38	0xbf6d2a1e	-0.9264239
39	0xbf817b18	-1.011569
40	0xbf30ab50	-0.690114
41	0x3f1a471f	0.6026477
42	0x3cda992b	0.026684364
43	0x3ff6a49f	1.9268988
44	0x3f9a3993	1.204882
45	0xc012108f	-2.2822607
46	0x3fbcf222	1.4761393
47	0xbf15eb3d	-0.5856207
48	0xbed19c4a	-0.40939552
49	0x3e1dab8c	0.15397471
50	0xbf6df7e9	-0.92956406
51	0x3eb11a75	0.34590498
52	0x40072f78	2.1122723
53	0xbfdfe622	-1.7492106
54	0x3fc860b3	1.565451
55	0xbf840599	-1.0314208
56	0x3f91f758	1.1403608
57	0x3f3419a9	0.70351654
58	0x3f03c207	0.5146794
59	0xbfd656d7	-1.6745251
60	0xbf23a510	-0.6392374
61	0xc00aec4f	-2.1706731
62	0xbf3d04d6	-0.73835504
63	0x3fe464e0	1.7843285

lstm.weight_hh_l0 f4 [64, 16]
0	0x3e8f712d	0.28016034
1	0x3e027125	0.12738474
2	0x3cbb1da3	0.02284128
3	0xbec0133a	-0.3751467
4	0xbe08fbfd	-0.13377376
5	0xbe4dc316	-0.2009395
6	0xbba069e7	-0.004895437
7	0x3e51e9e1	0.20499374
8	0x3f04f725	0.5193961
9	0xbd741dd5	-0.059598763
10	0xbd4570ab	-0.04820315
11	0xbd9c1643	-0.076214336
12	0xbd3770d9	-0.044785354
13	0xbe12f9aa	-0.14353052
14	0xbe2c742b	-0.1684119
15	0x3eaa5450	0.3326745
16	0xbe845b78	-0.25851035
17	0x3e60aefe	0.21941754
18	0xbc08fc8d	-0.008360994
19	0x3e6d282b	0.23159854
20	0xbcc77e86	-0.024352323
21	0xbe3bb93e	-0.18332383
22	0xbe561ab4	-0.20908624
23	0x3ddbf2a1	0.10739637
24	0x3c3561ee	0.011070712
25	0x3e40d52f	0.18831323
26	0x3e3d715b	0.18500273
27	0x3e633f08	0.22192013
28	0xbdb1fc55	-0.08690707
29	0x3cc67d55	0.024229685
30	0x3f2195a6	0.6311897
31	0xbd9523f9	-0.07282252
32	0x3e548e8e	0.20757505
33	0x3e400cf3	0.1875494
34	0xbe88301b	-0.26599202
35	0x3f10dc67	0.5658631
36	0x3ea3dc73	0.32004127
37	0x3d737a42	0.059442766
38	0x3c3367c8	0.010950036
39	0xbcef4cdb	-0.029211452
40	0xbf209b29	-0.62736756
41	0x3e34f4ab	0.17671458
42	0x3d14eefb	0.036360722
43	0x3d8be063	0.06829908
44	0x3eadcc0b	0.33944735
45	0xbd343fad	-0.04400604
46	0x3eb38219	0.35060194
47	0xbf2f9e0c	-0.68600535
48	0x3e21a719	0.15786399
49	0x3e971aae	0.29512542
50	0xbe46bbd7	-0.19407593
51	0x3e69217f	0.22766684
52	0x3d920a2f	0.071308486
53	0x3dca38d4	0.0987412
54	0xbbd93877	-0.0066290456
55	0x3eab1ee1	0.33421996
56	0xbebe8213	-0.37208614
57	0xbedb6836	-0.42852944
58	0x3e890b08	0.2676623
59	0xbdf8e016	-0.12152116
60	0x3c3a2bee	0.011363013
61	0x3ed082f2	0.40724903
62	0xbe978ca8	-0.295995
63	0x3e26c60b	0.16286485
64	0x3e33d28f	0.1756079
65	0x3e572d1e	0.21013305
66	0x3dcec4a5	0.10096101
67	0xbe9569f4	-0.29182398
68	0xbe176cc9	-0.14787592
69	0x3e81b11f	0.25330445
70	0xbe3f1032	-0.18658522
71	0x3ca5c213	0.020234143
72	0xbceb3598	-0.028712079
73	0xbf2b2768	-0.66857004
74	0xbdb13bdd	-0.08653996
75	0xbe04cb99	-0.12968291
76	0x3d2505cb	0.040288728
77	0x3edc8f0a	0.4307788
78	0x3d5c2947	0.053750303
79	0xbde6038f	-0.112311475
80	0x3ed5882a	0.41705447
81	0x3d3b319c	0.045701608
82	0xbea48a29	-0.32136658
83	0x3df05e1a	0.117366984
84	0xbe16b59a	-0.14717713
85	0x3f1ec3ce	0.62017524
86	0xbe2506f9	-0.16115941
87	0x3e9aff40	0.30272865
88	0x3d48304c	0.048874184
89	0x3e79ec96	0.24406657
90	0xbd950934	-0.07277146
91	0xbec3b8d4	-0.3822695
92	0xbd617949	-0.055047307
93	0x3eae690f	0.34064528
94	0x3de52b4e	0.111899
95	0xbdf8daf5	-0.12151138
96	0x3ec73102	0.38904577
97	0x3cc4d635	0.024027923
98	0xbe6fbf8f	-0.23412918
99	0xbec92e0b	-0.3929294
100	0xbecdaa6d	-0.40169087
101	0x3e468226	0.19385585
102	0xbea5e670	-0.32402372
103	0x3ebe5759	0.37176016
104	0x3eec4a21	0.46150306
105	0xbeb3b023	-0.3509532
106	0x3e07e831	0.13272168
107	0xbe8734db	-0.26407513
108	0xbe2ef11e	-0.17084166
109	0x3e5dada3	0.21648268
110	0xbd095e54	-0.033537224
111	0x3df06726	0.11738424
112	0xbd3f2635	-0.046667296
113	0xbe133c61	-0.14378501
114	0x3c63b834	0.013898898
115	0xbd26003b	-0.040527564
116	0x3d47adfa	0.0487499
117	0x3e760ce0	0.24028349
118	0x3dd0d65c	0.10197136
119	0xbe3074d4	-0.17232066
120	0xbdba07a6	-0.0908349
121	0xbddb0d6b	-0.10695919
122	0xbe5a2bf1	-0.21305825
123	0xbe703a19	-0.23459662
124	0xbd5aac44	-0.05338694
125	0xba724826	-0.00092423183
126	0xbe0277e2	-0.12741044
127	0x3d346033	0.044037055
128	0x3ee8f374	0.4549824
129	0x3ee6eb55	0.4510142
130	0xbcaeca6e	-0.02133676
131	0xbe4a5c47	-0.19761764
132	0xbd441839	-0.047874663
133	0x3eb932cd	0.3617157
134	0x3db0b044	0.0862737
135	0x3e42e57b	0.19032852
136	0xbde54c05	-0.1119614
137	0xbebf31b9	-0.37342623
138	0x3df375cc	0.11887702
139	0xbd0cf1fb	-0.034410458
140	0xbe907bf5	-0.28219572
141	0x3dc9f76c	0.09861645
142	0xbe1959d7	-0.14975677
143	0x3d801a1f	0.06254982
144	0x3e87c795	0.26519457
145	0x3e6cfa6c	0.23142403
146	0x3f36d327	0.7141594
147	0xbd7785fb	-0.060430508
148	0xbf0692c8	-0.5256772
149	0xbdb3f746	-0.08787398
150	0xbf5fa4fe	-0.87361133
151	0x3e56707b	0.20941345
152	0xbdc1cea4	-0.09463242
153	0x3f1fcd91	0.62423044
154	0x3e8854f5	0.26627317
155	0xbe3eaa93	-0.18619756
156	0xbe3bc2e2	-0.1833606
157	0xbe7613a3	-0.24030928
158	0xbe8c151f	-0.27359864
159	0x3e3f5f52	0.18688706
160	0xbe67424d	-0.22583885
161	0x3db3f8b6	0.08787672
162	0xbe7d72cc	-0.24750823
163	0xbe4b7300	-0.19868088
164	0x3ccb50ac	0.02481874
165	0x3d154e3c	0.036451563
166	0x3eab6f57	0.33483383
167	0xbbc0f568	-0.0058886297
168	0x3e46b16d	0.1940362
169	0xbea6f7f6	-0.32611054
170	0x3e666fd4	0.22503597
171	0xbdaca27d	-0.0842943
172	0x3e0e64e0	0.13905668
173	0x3e4d6555	0.20058186
174	0x3d870fae	0.065947875
175	0x3e2633a7	0.16230641
176	0x3e496d08	0.19670498
177	0x3e781b3a	0.24229136
178	0xbe202bce	-0.1564171
179	0xbe88a53b	-0.2668856
180	0xbeeceebc	-0.4627589
181	0x3e5194ac	0.2046687
182	0xbebc823f	-0.3681812
183	0x3e55cd09	0.20878996
184	0x3e8d16df	0.27556512
185	0x3e9d9741	0.3077946
186	0x3e615d5c	0.2200827
187	0xbeb3b855	-0.35101572
188	0x3ce7ae6d	0.028281415
189	0x3ef3da47	0.4762747
190	0x3e84c28e	0.25929683
191	0x3ec3e912	0.38263756
192	0x3e1e89b8	0.15482223
193	0xbc27a2a9	-0.010231652
194	0xbd7a7c23	-0.061153542
195	0xbe9bf96f	-0.3046374
196	0xbe88286e	-0.26593345
197	0xbdb7a667	-0.089672856
198	0xbe061d52	-0.13097122
199	0xbe7ded8e	-0.24797651
200	0x3e9965df	0.29960534
201	0xbe1640bf	-0.14673136
202	0x3e862007	0.2619631
203	0x3d220a8a	0.039560832
204	0x3cca1763	0.024669355
205	0x3e1655d5	0.1468118
206	0x3e272147	0.16321288
207	0xbd441815	-0.04787453
208	0x3e9de053	0.30835208
209	0x3ea748ba	0.32672673
210	0xbf4fe04c	-0.81201625
211	0xbf1845c3	-0.5948145
212	0xbf31404b	-0.6923873
213	0x3ecb79f0	0.39741468
214	0xbea81921	-0.32831672
215	0x3e8462be	0.25856584
216	0x3f456272	0.7710334
217	0x3f10fe7f	0.5663833
218	0x3f18cffe	0.5969237
219	0xbe81ac51	-0.2532678
220	0xbe19496a	-0.14969411
221	0x3f44a236	0.76810014
222	0x3eb254bb	0.3483027
223	0x3f1454e7	0.5794205
224	0x3eac854f	0.33695456
225	0x3ed0aa29	0.40754822
226	0x3d987cce	0.074456796
227	0x3e799d15	0.24376328
228	0xbe30adaa	-0.17253748
229	0x3e73c03b	0.23803799
230	0xbd34b7ea	-0.044120707
231	0x3efdd644	0.49577534
232	0xbe8fe6c2	-0.28105742
233	0x39623096	0.00021571139
234	0x3e1a2c15	0.15055878
235	0xbe8dd629	-0.27702454
236	0xbdfa01aa	-0.12207349
237	0x3da04471	0.07825554
238	0x3e7f4d48	0.24931824
239	0x3e89f15c	0.26941955
240	0xbe2a83ad	-0.16651793
241	0xbd3de8a4	-0.04636444
242	0x3cf9e10a	0.030502815
243	0xbc6edaeb	-0.014578561
244	0x3c5a0ab6	0.013308218
245	0xbe257d9d	-0.16161199
246	0xbe0a097f	-0.13480185
247	0x3e1de3ae	0.15418884
248	0xbea793d0	-0.3272996
249	0xbd79adfa	-0.060956933
250	0x3e099474	0.13435537
251	0x3e0a7a80	0.13523293
252	0x3e6022a8	0.2188822
253	0x3dcb3b95	0.09923474
254	0x3e0ab638	0.13546073
255	0xbb86e95c	-0.004117174

lstm.bias_ih_l0 f4 [64]
0	0x3d5d0d08	0.053967506
1	0x3dba0e60	0.09084773
2	0x3de0f3a2	0.10983969
3	0x3e9e63fa	0.3093565
4	0x3eb4bcaa	0.3530019
5	0x3d152211	0.03640944
6	0xbca591d6	-0.020211142
7	0x3dec3a51	0.115345605
8	0x3e8c8ce4	0.2745124
9	0xbc0a1f7e	-0.00843036
10	0xbe85164f	-0.25993583
11	0x3d5d17f4	0.05397792
12	0xbe795fb2	-0.24352911
13	0x3efa4a17	0.4888465
14	0x3e95c285	0.2924997
15	0x3decafe5	0.11556987
16	0x3e562bb0	0.20915103
17	0x3daf2960	0.085528135
18	0x3e00e608	0.1258775
19	0xbc678c77	-0.0141326105
20	0xbe6edfc8	-0.23327553
21	0x3e21d1a7	0.15802632
22	0xbe18f2a0	-0.14936304
23	0x3d80be1a	0.06286259
24	0x3dae5c03	0.085136436
25	0x3d98bd2b	0.07457956
26	0xbe12d455	-0.1433881
27	0x3d576ef5	0.05259605
28	0x3d4025ff	0.046911236
29	0x3e387ce1	0.18016388
30	0x3ea10125	0.31446186
31	0x3cbd40e5	0.023102233
32	0x3d41a4fe	0.04727649
33	0x3e21d8f7	0.15805422
34	0x3e2de07d	0.16980167
35	0xbd966dac	-0.07345137
36	0x3d96519f	0.07339787
37	0x3dbc8488	0.09204966
38	0xbc26d929	-0.010183611
39	0x3e4bc083	0.19897656
40	0x3dbe91b9	0.09305138
41	0x3e0d7eee	0.13817951
42	0xbc71841b	-0.014740969
43	0xbe71c4c4	-0.23610216
44	0x3c736937	0.014856628
45	0xbc1067c9	-0.008813807
46	0x3c10afd7	0.008830986
47	0x3cbff399	0.023431586
48	0x3e67eb1c	0.22648281
49	0xbd08146b	-0.033222597
50	0xbd347fa5	-0.044067044
51	0x3e80bc7e	0.25143808
52	0x3ef27820	0.47357273
53	0x3efe2d2b	0.49643835
54	0x3cb65f29	0.022262173
55	0x3e576077	0.21032892
56	0x3e918225	0.28419605
57	0x3d377f21	0.044798974
58	0x3e4947f7	0.19656359
59	0x3ec4bfd7	0.38427612
60	0x3e6f5b03	0.23374562
61	0x3eaa35a4	0.3324405
62	0x3e8e45aa	0.27787524
63	0x3e6ecc33	0.23320083

lstm.bias_hh_l0 f4 [64]
0	0x3e7b7ecf	0.24560092
1	0xbcb45a33	-0.022015667
2	0x3d3016b0	0.042990386
3	0x3ebccebe	0.36876482
4	0x3ecf8a4e	0.40535206
5	0x3edf1707	0.43572256
6	0x3e911ab9	0.283407
7	0xbde5fc91	-0.11229814
8	0x3eb8a876	0.36066025
9	0x3e7254db	0.23665182
10	0x3dc26b5f	0.09493136
11	0x3e1acf99	0.15118255
12	0xbdfd8525	-0.12378911
13	0x3ec06395	0.37575975
14	0x3eca86c4	0.39555943
15	0x3e545fc1	0.20739652
16	0x3e8de28b	0.277119
17	0x3d3b94c6	0.04579618
18	0xbd5cb3a5	-0.05388226
19	0x3e19cb94	0.15019065
20	0xbcd8c4a0	-0.026460946
21	0xbe2c1243	-0.16803841
22	0xbe4056d1	-0.18783118
23	0xbe20046f	-0.15626691
24	0x3e639286	0.22223863
25	0x3d15e25a	0.03659282
26	0xbe46195b	-0.1934561
27	0x3d88f843	0.06687977
28	0x3e87c275	0.26515546
29	0x3d0281fd	0.031862248
30	0x3dc25ce0	0.09490371
31	0xbe1f550b	-0.15559785
32	0x3e6bad93	0.23015432
33	0x3e4bab39	0.19889535
34	0xbd0d99e1	-0.03457058
35	0x3da33081	0.07968236
36	0xbe5e93e1	-0.21736099
37	0x3e292317	0.16517292
38	0xbe630663	-0.22170405
39	0x3e5b1d03	0.21397786
40	0xbd909c96	-0.070611164
41	0xbdda3f22	-0.10656573
42	0x3da7d482	0.081948295
43	0x3e574d70	0.21025634
44	0xbdf48e38	-0.119411886
45	0x3da90329	0.08252556
46	0x3d0302a7	0.03198495
47	0xbd9a772c	-0.075422615
48	0xbe381eeb	-0.17980544
49	0x3e5ea81e	0.21743819
50	0xbd2cd628	-0.042196423
51	0x3eefb225	0.468156
52	0x3ec7cb2d	0.39022198
53	0x3e93ac12	0.28842217
54	0x3e3d460b	0.1848375
55	0x3d25836b	0.040408533
56	0x3eaa802e	0.33300918
57	0xbb710dce	-0.003678191
58	0x3e2185ad	0.1577365
59	0x3cbf7c55	0.023374716
60	0xbd4308a0	-0.047615647
61	0x3f089374	0.53349996
62	0x3e9e6b9c	0.30941474
63	0xbbdb8510	-0.006699212

lstm.weight_ih_l1 f4 [64, 16]
0	0x3f24d12a	0.6438166
1	0x3ec97924	0.39350235
2	0x3b3fc71d	0.0029262968
3	0xbf3db21d	-0.74099904
4	0xbea6e3ca	-0.32595664
5	0x3ec67502	0.38761145
6	0xbe87cf86	-0.26525515
7	0x3f1356e1	0.5755444
8	0x3f470f29	0.7775751
9	0xbe8d9c9e	-0.27658552
10	0x3d5d8ef5	0.054091413
11	0xbfa3758a	-1.2770245
12	0xbf338eae	-0.70139587
13	0x3fa3ce81	1.2797395
14	0xbd7e72d1	-0.062121216
15	0x3f167e3a	0.58786356
16	0x3e8e4f88	0.27795053
17	0x3f2bc04c	0.67090297
18	0x3e2b5223	0.16730551
19	0xbebfcd3c	-0.3746127
20	0xbf903258	-1.1265364
21	0x3e8fc009	0.280762
22	0xbf477d53	-0.77925605
23	0x3ee2f796	0.44329518
24	0x3db6fb52	0.08934654
25	0x3db63538	0.088968694
26	0x3f3f8579	0.7481304
27	0xbe34fafc	-0.17673868
28	0xbe9ce782	-0.30645376
29	0x3f4c8a51	0.79898554
30	0xbe8251df	-0.25453088
31	0x3f37618a	0.7163321
32	0xbe80748e	-0.25088924
33	0xbe6fd9a2	-0.23422864
34	0x3cc4897c	0.023991339
35	0x3e54abe7	0.207687
36	0x3e35e029	0.17761292
37	0x3e5c0fcf	0.21490405
38	0xbd17ab05	-0.03702833
39	0xbe1c7aa6	-0.15281162
40	0xbb5d3bd5	-0.0033757586
41	0x3e98f085	0.29871002
42	0xbe19f951	-0.15036513
43	0x3caa2fbc	0.020774715
44	0x3de2bc34	0.11071053
45	0x3e06850f	0.13136695
46	0x3e17317d	0.14764972
47	0xbe9aa604	-0.30204785
48	0x3e8bcd2d	0.27304974
49	0xbe4ac33f	-0.19801043
50	0x3e81dd05	0.25363937
51	0xbe0f104e	-0.13971063
52	0xbdd7c48f	-0.105355375
53	0x3d26f60d	0.040761996
54	0x3ead25f2	0.33818012
55	0x3e474505	0.19459923
56	0x3e8662cd	0.26247254
57	0xbf425526	-0.75911176
58	0xbd865b3b	-0.065603696
59	0xbe9a1f62	-0.30102068
60	0xbebbbd94	-0.36668074
61	0x3f0198e4	0.5062392
62	0xbeaa3580	-0.33243942
63	0x3d9b4642	0.0758176
64	0xbbed39af	-0.0072395424
65	0x3e1a6185	0.15076263
66	0xbe5cce06	-0.21562967
67	0xbe0db02c	-0.13836735
68	0xbc69e1d9	-0.014275038
69	0x3decd207	0.11563497
70	0xbe6aaaa1	-0.22916652
71	0x3eb3202a	0.34985477
72	0x3ecc40a0	0.39893055
73	0x3d68570b	0.056723636
74	0x3d37d275	0.04487844
75	0xbe919f75	-0.2844197
76	0xbd8218de	-0.06352399
77	0x3f16bbad	0.5888012
78	0x3f0a025c	0.5390985
79	0x3e99fa7a	0.3007391
80	0x3d8101e1	0.062991865
81	0xbe20eaa1	-0.15714504
82	0x3edae41a	0.42752153
83	0x3ee26b46	0.44222468
84	0xbeb9733e	-0.36220735
85	0x3d6d15b0	0.05788201
86	0xbe01054c	-0.12599677
87	0x3e359f3a	0.17736521
88	0xbf867a9f	-1.0506171
89	0xbe2bdb49	-0.1678287
90	0xbd3164fc	-0.043309197
91	0xbd816e66	-0.06319885
92	0x3dba5401	0.09098054
93	0xbdef90b8	-0.11697525
94	0x3dabe2fd	0.08392904
95	0x3e375b7d	0.17905994
96	0x3e4243f2	0.18971232
97	0x3cb04c64	0.0215208
98	0x3d9d4664	0.076794416
99	0x3e317bb0	0.1733234
100	0x3ca5b668	0.02022858
101	0x3ea23711	0.31682637
102	0x3e49a26d	0.19690867
103	0x3eb7d76a	0.35906535
104	0xbe68349a	-0.22676316
105	0xbf4e1989	-0.80507714
106	0xbd6e0508	-0.058110267
107	0xbecefc6e	-0.40426964
108	0xbcc998f1	-0.024609061
109	0x3f1d2280	0.6138077
110	0xbf1e0519	-0.6172653
111	0x3d245e69	0.0401291
112	0x3e79e18c	0.24402446
113	0xbe545868	-0.2073685
114	0x3e53eb80	0.20695305
115	0x3e7a7990	0.24460435
116	0xbe5169d6	-0.2045053
117	0x3ef0400c	0.46923864
118	0x3eb64b24	0.35604203
119	0x3d344d23	0.044018876
120	0x3d3c6dd6	0.046003185
121	0xbe6c62ef	-0.23084615
122	0x3dd9bba8	0.10631496
123	0xbe382a6d	-0.17984934
124	0xbd8b4a98	-0.06801337
125	0x3edb9e23	0.42894086
126	0xbdab49d3	-0.0836369
127	0x3e6b091d	0.22952695
128	0xbdb976d2	-0.09055866
129	0xbe008eb7	-0.12554441
130	0xbe30fbc5	-0.17283542
131	0x3e124479	0.14283933
132	0x3ea52d32	0.32261044
133	0xbd23b145	-0.03996398
134	0x3de6c492	0.112679616
135	0xbd5e8946	-0.054330133
136	0x3e0fe35c	0.14051574
137	0x3e3b4a68	0.18290102
138	0xbddad873	-0.10685816
139	0x3eb5692b	0.354318
140	0x3eaf3817	0.3422248
141	0xbec61b76	-0.38692826
142	0x3eb98653	0.36235294
143	0xbef4d0c5	-0.4781553
144	0x3e1b7255	0.15180333
145	0x3ea90cd5	0.33017603
146	0x3ecf63c0	0.4050579
147	0x3f518ab7	0.8185229
148	0xbd906772	-0.07050981
149	0xbc8addfd	-0.016951555
150	0xbf344fb7	-0.70434135
151	0xbdb498a1	-0.08818174
152	0xbf7f79e7	-0.99795383
153	0x3f76e96f	0.9644994
154	0xbe87b34d	-0.26503983
155	0x3f0bc397	0.5459532
156	0x3e8de8ff	0.27716824
157	0xbf4eb9ee	-0.80752456
158	0x3f2638d1	0.64930445
159	0xbeebcc51	-0.4605432
160	0x3eddf727	0.43352625
161	0xbd871142	-0.065950885
162	0x3e924aab	0.28572592
163	0x3f2e9188	0.68190813
164	0x3da1afc4	0.07894853
165	0x3ec39c84	0.3820535
166	0xbe9cb695	-0.3060805
167	0x3d4eb865	0.05046882
168	0xbf823996	-1.0173824
169	0x3d1497ff	0.036277767
170	0x3e35c7c9	0.17751993
171	0xbd642999	-0.055703733
172	0x3dbcb177	0.09213536
173	0x3e22033b	0.15821545
174	0x3ede61d6	0.43434018
175	0xbe368e4d	-0.17827721
176	0xbe092e91	-0.1339667
177	0xbe94077b	-0.28911957
178	0xbe1ebbe2	-0.15501359
179	0x3f21adf2	0.63156044
180	0x3eb76ff3	0.35827598
181	0xbe1f8381	-0.15577509
182	0xbe2e731a	-0.17036095
183	0xbd215059	-0.039383266
184	0xbf777cd6	-0.9667486
185	0x3e48b79a	0.19601288
186	0xbd36ae82	-0.044600017
187	0x3ec3d421	0.3824778
188	0x3f14d3fa	0.5813595
189	0xbf09f39b	-0.5388734
190	0x3e93e9d2	0.28889328
191	0xbe81bc8b	-0.2533916
192	0x3dbd8ecd	0.09255753
193	0x3e0a06dc	0.13479179
194	0x3d452a77	0.0481362
195	0xbf5f9aed	-0.87345773
196	0xbf68d167	-0.9094452
197	0x3e760d43	0.24028496
198	0xbea2b6f0	-0.31780195
199	0x3f04ab25	0.51823646
200	0x3f1153c2	0.5676843
201	0xbed7a0b8	-0.42114806
202	0x3f110d0d	0.5666054
203	0xbedec079	-0.4350622
204	0xbef811bd	-0.48451033
205	0x3f124d55	0.5714925
206	0x3e004ffc	0.12530512
207	0x3f37f854	0.71863294
208	0x3ebbde2a	0.36692935
209	0x3d9a6c10	0.075401425
210	0xbead5b33	-0.33858642
211	0xbe5707fd	-0.20999141
212	0xbe138873	-0.1440752
213	0x3e27fcfc	0.164051
214	0xbd0615a3	-0.032735478
215	0x3eb1e23f	0.34742925
216	0xbaf8787c	-0.0018956806
217	0xbe9ed57a	-0.31022245
218	0x3c7be2ad	0.015373868
219	0xbd909287	-0.07059198
220	0x3e0841e6	0.13306388
221	0x3ecb9bd9	0.3976734
222	0x3e91814e	0.28418964
223	0x3e1e1c5f	0.1544051
224	0x3f4f7c52	0.8104907
225	0x3f24891c	0.6427171
226	0xbe651928	-0.22372878
227	0xbee0023a	-0.437517
228	0xbf5f82fc	-0.8730924
229	0x3f328c1c	0.6974504
230	0xbf241469	-0.64093643
231	0x3eff19bd	0.49824324
232	0x3e4b4206	0.19849405
233	0x3ef9163b	0.48649773
234	0x3edcb5e1	0.43107513
235	0xbf1cc49c	-0.612375
236	0xbf1ac099	-0.6045013
237	0x3f8506d6	1.0392711
238	0xbe896854	-0.2683741
239	0x3f5b1b66	0.8558868
240	0x3e9b6260	0.30348492
241	0x3dc59434	0.09647408
242	0xbdcf9035	-0.10134927
243	0x3d7090e1	0.058731917
244	0xbe059f8a	-0.1304914
245	0x3e006c18	0.12541234
246	0x3e383f7c	0.17992967
247	0xbd926ae2	-0.071492925
248	0xbe391564	-0.18074566
249	0xbe8b0ceb	-0.27158293
250	0xbe624278	-0.22095668
251	0xbe893de6	-0.26805037
252	0x3dc72ffc	0.09725949
253	0x3ebf4bda	0.37362558
254	0xba1e0980	-0.0006028637
255	0xbe731706	-0.23739251

lstm.weight_hh_l1 f4 [64, 16]
0	0x3f185185	0.5949939
1	0xbe8488b3	-0.25885543
2	0x3f09f2cf	0.5388612
3	0xbe108639	-0.14113702
4	0x3f322c54	0.6959889
5	0x3f0cc0f6	0.54981935
6	0xbec06892	-0.3757978
7	0x3df0b14a	0.11752565
8	0x3e9ea1ee	0.30982918
9	0x3e380bda	0.17973271
10	0xbe9d6886	-0.30743808
11	0xbde471c3	-0.11154511
12	0x3daefbc9	0.08544118
13	0x3dbb565c	0.09147331
14	0xbee1feff	-0.4413986
15	0x3dff448e	0.12464248
16	0x3f12cd19	0.57344204
17	0x3f75f10b	0.9607093
18	0x3f4cc91c	0.7999437
19	0xbeda4991	-0.42634252
20	0xbe942b02	-0.28939062
21	0x3f0a358f	0.53987974
22	0xbd9862c0	-0.0744071
23	0xbd4cb24e	-0.049974732
24	0xbf0e2d6d	-0.55538064
25	0x3f458c2d	0.77167016
26	0xbee24307	-0.44191763
27	0xbe678da6	-0.22612628
28	0x3f85bde7	1.0448579
29	0xbdba26b3	-0.090894125
30	0x3f6f33a0	0.9343815
31	0x3dbb27fd	0.091384865
32	0x3c89bdba	0.016814101
33	0xbec54e94	-0.38536513
34	0x3e57adcb	0.2106239
35	0x3db684cd	0.089120485
36	0xbe779d65	-0.24181135
37	0x3dc93153	0.09823861
38	0xbe50f26f	-0.20404981
39	0x3e53a859	0.20669688
40	0xbe8343ec	-0.25637758
41	0xbe81505f	-0.2525663
42	0xbe7b8bfe	-0.24565122
43	0xbd36fabf	-0.044672724
44	0xbf00b577	-0.50276893
45	0x3e40e4ee	0.1883733
46	0xbe8559c2	-0.26045042
47	0xbe55b661	-0.20870353
48	0x3eab3767	0.33440706
49	0x3edf3082	0.43591696
50	0x3e0d48fe	0.13797376
51	0xbf0cc77b	-0.54991883
52	0x3e8e3d74	0.2778126
53	0x3d372b41	0.044718985
54	0xbe903bbe	-0.2817058
55	0x3e8def9b	0.27721867
56	0xbdcd73a1	-0.1003182
57	0x3e14294a	0.14468876
58	0xbd4cef36	-0.050032817
59	0x3d1828b7	0.037148204
60	0x3ea1d881	0.31610492
61	0xbec46acc	-0.3836273
62	0x3ec71f68	0.3889115
63	0xbd50e47a	-0.050999142
64	0x3eb0b4a2	0.34512812
65	0x3f176855	0.59143573
66	0xbd868446	-0.06568198
67	0xbe83e166	-0.25757903
68	0x3ea7290c	0.32648504
69	0xbee4a6a1	-0.44658378
70	0xbcb14d1e	-0.021643218
71	0x3ea40ef3	0.32042655
72	0xbeaae571	-0.33378175
73	0xbed82dbd	-0.42222396
74	0xbd8b531e	-0.06802963
75	0xbeb1111d	-0.3458337
76	0xbdb176a0	-0.08665204
77	0x3e11fd00	0.14256668
78	0x3eb6bbe9	0.3569024
79	0x3e9bf564	0.30460656
80	0x3dc4f70a	0.096174315
81	0x3f123892	0.5711757
82	0x3e563b78	0.20921123
83	0x3e0a2886	0.13492021
84	0xbcf7e148	-0.03025879
85	0x3ed87069	0.42273262
86	0x3dd5f0c2	0.104463115
87	0x3eeedfd2	0.46655136
88	0x3f2cd225	0.67508155
89	0x3f02f182	0.5114976
90	0xbea15905	-0.3151323
91	0x3ed29a84	0.4113351
92	0x3eec9b4f	0.4621224
93	0xbe986ab6	-0.29768914
94	0x3f268832	0.6505157
95	0x3ed8556a	0.42252666
96	0x3ecb5441	0.39712718
97	0x3f488ae9	0.7833696
98	0x3e90f783	0.28313836
99	0xbd2e886a	-0.042610563
100	0xbdabfb08	-0.0839749
101	0x3da498ce	0.08036958
102	0xbec0e0a5	-0.3767139
103	0x3e87a279	0.26491144
104	0xbdcd18e9	-0.10014517
105	0x3ee77bad	0.45211545
106	0xbe6110b2	-0.21979025
107	0x3e148335	0.14503177
108	0x3dfc01ed	0.12305055
109	0x3eb822a2	0.35963923
110	0x3f37901c	0.7170427
111	0x3e1083d5	0.1411279
112	0x3e863a7e	0.262165
113	0x3e12702c	0.14300603
114	0x3e742e24	0.23845726
115	0x3d808a44	0.06276372
116	0xbeb82154	-0.35962927
117	0xbe68f8aa	-0.22751108
118	0x3ea72d9b	0.32651982
119	0x3e0e3b37	0.13889776
120	0x3e27b6a7	0.1637827
121	0xbd4c05d0	-0.04981023
122	0x3e3f15fe	0.18660733
123	0xbde0e7b3	-0.10981693
124	0x3e64b665	0.22335203
125	0xbe6a4c81	-0.22880746
126	0x3e8a634d	0.27028885
127	0x3e697eb4	0.2280224
128	0xbec64d8e	-0.38731045
129	0x3e47e738	0.19521797
130	0xbe7762b6	-0.24158749
131	0xbdb2c8a2	-0.08729674
132	0x3eaff6d3	0.34368
133	0xbe880cc1	-0.2657223
134	0x3e517ef1	0.2045858
135	0xbda92be8	-0.082603276
136	0xbdaeefbb	-0.08541819
137	0xbe8a026f	-0.26954982
138	0x3e7ea0e2	0.2486606
139	0x3d55aca1	0.052166585
140	0xbcc79e45	-0.024367461
141	0x3d37912e	0.04481619
142	0xbbfb8731	-0.007676028
143	0xbe8be940	-0.27326393
144	0x3e950032	0.29101712
145	0xbe9e4bf6	-0.3091733
146	0x3c8ffe7d	0.017577404
147	0xbe613dad	-0.21996184
148	0x3ea4e5eb	0.32206663
149	0x3ec2ad99	0.3802307
150	0x3e386251	0.18006255
151	0x3e884ad3	0.26619586
152	0x3e666f78	0.2250346
153	0x3f094536	0.5362123
154	0x3e0e8b9c	0.13920444
155	0x3eb018ed	0.34394017
156	0x3e6520db	0.22375815
157	0xbea8bf32	-0.3295837
158	0xbd3ca7b1	-0.04605836
159	0x3ea1efac	0.31628168
160	0x3e4f3b6c	0.20237511
161	0x3f828021	1.0195352
162	0x3da7ddc7	0.081965975
163	0xbf1e3f29	-0.61815125
164	0x3ef06c57	0.46957657
165	0x3f217ad1	0.6307803
166	0xbd0f2a2d	-0.03495233
167	0x3f3a33ba	0.7273518
168	0x3ec25276	0.37953538
169	0x3ea99e87	0.3312876
170	0x3e2e421a	0.17017403
171	0x3ed7e9a6	0.42170447
172	0x3f1427b8	0.57873106
173	0xbe5f3c81	-0.21800424
174	0x3f539f74	0.8266518
175	0x3e293aaf	0.16526292
176	0xbe628c3f	-0.22123812
177	0x3e3e31f6	0.18573746
178	0x3cc6a6e1	0.024249496
179	0xbe90fdae	-0.28318542
180	0x3e8070fd	0.25086203
181	0x3e97aaf4	0.29622614
182	0x3e05b026	0.13055477
183	0x3d0900b9	0.033447955
184	0x3f0ac1dc	0.54202056
185	0xbe039ce2	-0.12852815
186	0x3dae72dc	0.085180014
187	0xbe8d51e4	-0.2760154
188	0xbdd2a30f	-0.10285007
189	0x3da42b4f	0.08016073
190	0x3ebf2dfd	0.37339774
191	0x3e5f3531	0.21797635
192	0x3f6d220a	0.92630064
193	0x3f3b7ae8	0.73234415
194	0x3ec82b7e	0.39095682
195	0x3bbd5763	0.0057782396
196	0xbf0b6777	-0.5445475
197	0xbe3cdcb8	-0.18443573
198	0xbdf79ffc	-0.120910615
199	0x3ec2efb9	0.3807352
200	0xbe812e48	-0.25230622
201	0x3e8955d2	0.26823288
202	0x3ed72271	0.42018464
203	0xbf1ecec3	-0.62034243
204	0x3f57d8cb	0.84315175
205	0xbe715500	-0.23567581
206	0x3fa7efb1	1.3120023
207	0x3d7479b7	0.05968639
208	0x3f0cdcb0	0.5502424
209	0x3f858508	1.0431223
210	0x3ec07945	0.3759252
211	0xbc2b4419	-0.010453247
212	0xbe6c8c1b	-0.23100321
213	0xbeb76676	-0.3582036
214	0xbd8066f2	-0.06269635
215	0x3ec04f9a	0.3756073
216	0xbee44a4e	-0.4458794
217	0xbd31e85f	-0.043434497
218	0x3ebc2744	0.36748707
219	0xbeb00f60	-0.3438673
220	0x3f161af2	0.58634865
221	0x3e587789	0.21139349
222	0x3f18f86e	0.59754074
223	0x3e87f84e	0.2655663
224	0x3ecd175f	0.40056893
225	0x3f038747	0.5137829
226	0x3f4c88b7	0.7989611
227	0xbe549f68	-0.20763934
228	0xbed67f85	-0.41894165
229	0x3ec6e36d	0.38845387
230	0xbcdf6f7f	-0.027274845
231	0x3e1d79a2	0.1537843
232	0xbf119b58	-0.5687766
233	0x3f212f3c	0.629627
234	0xbe5adf7b	-0.21374314
235	0xbe9dcf8f	-0.30822417
236	0x3f761fee	0.9614247
237	0xbe9f4534	-0.31107485
238	0x3f31316a	0.69216025
239	0x3e4ab223	0.19794516
240	0x3e62062f	0.22072671
241	0x3e8ac0b2	0.2710014
242	0x3e90db41	0.28292277
243	0x3d47d341	0.04878545
244	0xbd4d489b	-0.05011807
245	0xbdcd379b	-0.100203715
246	0x3bd1b037	0.0063991803
247	0x3e6164f4	0.22011167
248	0xbcabd546	-0.02097572
249	0xbe2856e7	-0.164394
250	0x3e69c850	0.2283032
251	0xbe80a1da	-0.25123483
252	0x3e602b96	0.21891627
253	0x3e01dad2	0.1268113
254	0xbd546081	-0.051849846
255	0xbd06612e	-0.03280752

lstm.bias_ih_l1 f4 [64]
0	0x3e1e271d	0.15444608
1	0x3e69ce47	0.22832595
2	0x3d843719	0.064558215
3	0x3d38b06d	0.045090128
4	0x3e464fff	0.19366454
5	0xbe339a11	-0.1753924
6	0xbddfcfca	-0.109283045
7	0x3e18aaeb	0.1490895
8	0xbd602b9e	-0.054729097
9	0x3e9030a1	0.281621
10	0x3e8132b9	0.2523401
11	0x3e90c008	0.28271508
12	0x3e804f58	0.25060534
13	0x3db43461	0.08799053
14	0x3f2ccd13	0.6750042
15	0x3e940ac6	0.2891447
16	0xbdbeffa4	-0.09326103
17	0xbecec1ca	-0.40382224
18	0xbe22759c	-0.15865177
19	0x3c922b8a	0.017843027
20	0x3ed36e62	0.41295153
21	0xbe6b4a88	-0.2297765
22	0xbeac4436	-0.3364579
23	0x3aba5ca8	0.0014218288
24	0xbdfbd686	-0.122967765
25	0xbe62d9e1	-0.22153427
26	0xbe2e90a1	-0.17047359
27	0x3cb55d3d	0.022139186
28	0xbdd35f58	-0.1032092
29	0x3df0f9c2	0.117663875
30	0xbd54e9dc	-0.05198084
31	0x3d009d8b	0.031400245
32	0x3eb424d5	0.3518435
33	0xbcea6298	-0.028611466
34	0x3dacb6b2	0.08433284
35	0x3e07ccb1	0.13261677
36	0xbe1e0176	-0.15430245
37	0xbe0d6b86	-0.13810548
38	0xbe076bdc	-0.13224739
39	0x3d7a6df7	0.061140027
40	0xbdefd130	-0.11709821
41	0x3de44be7	0.1114729
42	0xbd59b104	-0.05314733
43	0xbe2a14a3	-0.16609435
44	0x3e11c227	0.1423422
45	0x3da13efc	0.078733414
46	0x3e116ca5	0.14201601
47	0x3d6e94a8	0.05824724
48	0x3e3e9f83	0.18615536
49	0x3f0fa242	0.5610696
50	0xbe123907	-0.14279567
51	0xbe0b1a4b	-0.13584249
52	0x3eaabe52	0.33348328
53	0x3ea96ade	0.33089346
54	0x3e10d590	0.14143968
55	0xbc5eba4d	-0.013594222
56	0x3e19a58a	0.15004554
57	0x3d4753f7	0.04866406
58	0x3ef45c77	0.47726795
59	0x3e1ab53f	0.15108202
60	0x3ec17137	0.3778169
61	0x3d7d250c	0.06180291
62	0x3f3dc326	0.741259
63	0xbe042f61	-0.12908699

lstm.bias_hh_l1 f4 [64]
0	0x3ec61b36	0.38692635
1	0x3eca0d59	0.39463308
2	0x3e5b2d90	0.214041
3	0xbd898087	-0.06713968
4	0x3dc983f6	0.09839623
5	0x3dc167d1	0.094436295
6	0xbc8a8a70	-0.016911715
7	0x3e5f04a2	0.21779111
8	0xbe71a190	-0.23596787
9	0x3d3137cd	0.043266106
10	0x3ea071a4	0.313367
11	0x3e134e47	0.14385329
12	0x3e03d866	0.12875518
13	0x3e693066	0.22772369
14	0x3f0d016b	0.5508029
15	0xbdeb862b	-0.115002
16	0x3d3af36e	0.04564231
17	0xbea928a3	-0.33038816
18	0x3dda6d56	0.106653854
19	0xbc0a09c7	-0.008425183
20	0x3eba83e1	0.3642874
21	0xbe5c9286	-0.2154027
22	0xbedc4634	-0.4302231
23	0xbe23f2d7	-0.16010605
24	0x3e3f143c	0.18660063
25	0xbe744527	-0.23854505
26	0x3e47d38b	0.19514291
27	0x3e78997b	0.24277298
28	0xbe9e8a2b	-0.3096479
29	0xbe613fff	-0.21997069
30	0xbdb3df21	-0.08782793
31	0x3e06e0ab	0.13171642
32	0xbc83dd3c	-0.016096704
33	0x3d816ece	0.063199624
34	0x3e45448c	0.1926443
35	0xbd6b477b	-0.057441216
36	0x3de04f52	0.10952629
37	0x3d935c28	0.07195312
38	0x3db7fd0a	0.0898381
39	0x3d473087	0.048630264
40	0xbd03dfcb	-0.032195847
41	0xbdce30d6	-0.100679085
42	0x3e44332a	0.19160143
43	0x3d133d29	0.035947
44	0xbbb9640a	-0.0056576775
45	0xbe56d063	-0.2097793
46	0xbe536ead	-0.20647688
47	0x3d9d47b7	0.07679694
48	0xbdad3f55	-0.08459345
49	0x3ed9e679	0.4255865
50	0xbe2f8487	-0.17140399
51	0x3d9fe303	0.07806971
52	0x3e0b6eb6	0.13616452
53	0x3dcb41bf	0.099246494
54	0x3e8ab3a8	0.27090192
55	0xbc2ae520	-0.010430604
56	0xbe2e9e27	-0.17052518
57	0x3db1f5b4	0.08689442
58	0x3ebf10f6	0.37317628
59	0x3e7b44b4	0.24537927
60	0x3e8b213e	0.271738
61	0x3d6e87cd	0.05823498
62	0x3f16df79	0.5893474
63	0x3d94784d	0.07249508

lstm.weight_ih_l2 f4 [64, 16]
0	0xbd8e12f1	-0.069372065
1	0xbe05b00d	-0.1305544
2	0xbe31b177	-0.17352854
3	0x3c2d6ed6	0.010585507
4	0xbd7efec5	-0.062254686
5	0xbde89c24	-0.113579065
6	0xbe3d9a6c	-0.18515939
7	0xbd155393	-0.036456656
8	0x3e3e7138	0.18597877
9	0xbe905fcd	-0.2819809
10	0x3e0f7e4a	0.14013019
11	0x3debbef7	0.11511033
12	0xbe6a266d	-0.22866221
13	0xbde145ad	-0.10999618
14	0xbe2517d6	-0.16122374
15	0xbe419eb6	-0.189082
16	0xbed4ca45	-0.4156057
17	0xbf6747fb	-0.9034421
18	0x3d9ce0e0	0.07660079
19	0x3d80f7e4	0.062972814
20	0xba2d67c3	-0.0006614888
21	0x3e7ee7fd	0.24893184
22	0xbe9be017	-0.30444404
23	0x3e9b24f2	0.30301625
24	0x3e1dad21	0.15398075
25	0x3cbc4b62	0.022985164
26	0xbf234a14	-0.6378491
27	0xbe7b310c	-0.24530429
28	0xbf817ab4	-1.0115571
29	0x3e822478	0.25418448
30	0xbf280b2d	-0.6564205
31	0xbe8b9938	-0.27265334
32	0xbe3ce9d5	-0.18448575
33	0xbdfec890	-0.12440598
34	0x3ddb9a63	0.10722806
35	0x3ded46ab	0.115857445
36	0xbd21378d	-0.039359618
37	0xbe0f2111	-0.13977458
38	0xbe4195b8	-0.1890477
39	0xbe36e603	-0.1786118
40	0xbc59736d	-0.013272149
41	0xbe6ee5ca	-0.23329845
42	0x3d223c43	0.03960825
43	0x3e0e6df3	0.1390913
44	0x3ddf65ec	0.10908112
45	0xbe775d2e	-0.24156639
46	0xbe1205ce	-0.14260027
47	0xbce31884	-0.02772165
48	0x3e302853	0.17202882
49	0xbe7f55bf	-0.24935053
50	0xbe3fbbb8	-0.18723953
51	0xbe444323	-0.19166236
52	0x3d2499c1	0.040185694
53	0x3f05f235	0.52322704
54	0xbe91d785	-0.2848474
55	0x3e5fa35a	0.21839657
56	0xbe0d2620	-0.13784075
57	0xbd839ee5	-0.06426791
58	0xbeb136e4	-0.3461219
59	0x3d84330f	0.06455051
60	0xbf26f97b	-0.65224427
61	0x3e3cb198	0.18427122
62	0xbe8f8774	-0.2803303
63	0x3e141ab7	0.14463316
64	0xbc3ab98c	-0.011396777
65	0xbc763205	-0.015026574
66	0xbdcc0dd5	-0.09963576
67	0x3e158b9d	0.1460404
68	0x3df1c51c	0.11805174
69	0x3dee83d2	0.116462365
70	0xbb807560	-0.003920242
71	0xbe50fc65	-0.20408781
72	0x3d2825a5	0.041051526
73	0xbdda34d9	-0.10654611
74	0xbdfdb444	-0.123878986
75	0xbe25c4c6	-0.16188344
76	0xbe7b8a68	-0.24564517
77	0x3dc46dd8	0.095912635
78	0x3ea1f241	0.31630138
79	0xbe39ebf3	-0.18156414
80	0x3d337f18	0.043822378
81	0xbd50927b	-0.050920945
82	0x3d666350	0.056247056
83	0x3db3b6f4	0.0877513
84	0x3e624709	0.2209741
85	0x3e6d8715	0.23196061
86	0xbe38c519	-0.18043937
87	0xbd7adeb3	-0.06124754
88	0x3e186d0d	0.1488535
89	0xbb60739c	-0.0034248596
90	0xbe5b1192	-0.21393421
91	0xbd72c508	-0.059269935
92	0x3e9d37b2	0.30706555
93	0xbed1e32f	-0.4099364
94	0x3e333c8f	0.1750357
95	0x3db94492	0.09046282
96	0xbbe48d8c	-0.0069748815
97	0x3ef5c536	0.48002023
98	0xbd8f32ba	-0.06992097
99	0xbec68bd5	-0.38778558
100	0xbeb7afa2	-0.35876185
101	0xbda9f020	-0.08297753
102	0xbc1f2f43	-0.009715858
103	0x3e60b529	0.21944107
104	0x3e01892c	0.12649983
105	0x3e565453	0.20930605
106	0xbe615cc6	-0.22008047
107	0xbd9b187c	-0.075730294
108	0x3d977f83	0.07397368
109	0xbe7434fa	-0.23848334
110	0x3f5e4587	0.8682484
111	0xbe38b680	-0.18038368
112	0xbdccaf63	-0.0999439
113	0xbf3d26c5	-0.7388728
114	0xbdb0be0b	-0.08629998
115	0xbc568ec9	-0.013095566
116	0x3e388b2e	0.18021843
117	0x3db961cf	0.09051859
118	0xbf060bde	-0.5236186
119	0x3e316795	0.1732467
120	0xbe1b81b8	-0.15186203
121	0x3d9c3d58	0.07628888
122	0xbf43d489	-0.7649618
123	0xbe87ba95	-0.26509538
124	0xbf3606ca	-0.7110411
125	0x3ec5f444	0.38662922
126	0xbefb5c5b	-0.490939
127	0x3dd7e228	0.10541183
128	0xbf15e9b8	-0.5855975
129	0xbf004359	-0.50102764
130	0x3e201996	0.1563476
131	0xbd640fc5	-0.0556791
132	0x3ec39429	0.38198975
133	0xbd550161	-0.05200327
134	0xbe8d71c2	-0.27625853
135	0x3d6c5b50	0.05770427
136	0xbc5ab3d7	-0.013348541
137	0x3e385fde	0.1800532
138	0xbf0d6c54	-0.5524342
139	0xbe509f57	-0.20373283
140	0xbebba0f9	-0.3664625
141	0x39d57c37	0.00040719073
142	0xbee107be	-0.4395122
143	0x3d9751d2	0.07388653
144	0xbe9f6eda	-0.3113926
145	0xbea1b753	-0.31585178
146	0xbe862c0e	-0.26205486
147	0xbcd09c6a	-0.025465209
148	0x3e141fd6	0.1446527
149	0xbcfb8cbb	-0.030706754
150	0xbe487714	-0.19576675
151	0x3dae95bc	0.08524653
152	0x3bd29a1c	0.0064270627
153	0xbefca918	-0.49347758
154	0x3e358c0b	0.17729203
155	0x3b7d8a59	0.0038687198
156	0xbefa8dcf	-0.48936316
157	0x3de6aa0a	0.11262901
158	0xbe908904	-0.28229535
159	0xbd4f3fea	-0.050598063
160	0xbe8250f7	-0.25452396
161	0xbd9a5af0	-0.07536876
162	0xbd7ef526	-0.06224551
163	0x3e600920	0.21878481
164	0xbe13a48a	-0.14418235
165	0x3df69de4	0.12041834
166	0xbdc8d5bf	-0.09806394
167	0xbe6a6b38	-0.22892463
168	0x3db5d1ba	0.08877893
169	0xbed93101	-0.424202
170	0xbe0e2c17	-0.13884006
171	0xbe8d2644	-0.27568257
172	0xbea72ed5	-0.32652918
173	0x3e36dffe	0.17858884
174	0x3e8705ac	0.26371515
175	0xbe5ae919	-0.21377982
176	0x3e9a3eb0	0.30125952
177	0xbf3fbe60	-0.74899864
178	0x3e46a83b	0.19400112
179	0x3e868af3	0.26277885
180	0x3e37e603	0.17958836
181	0x3eebd07f	0.46057507
182	0xbe784f83	-0.24249081
183	0x3e9d9c76	0.30783433
184	0x3c056aca	0.008143136
185	0x3ed86428	0.42263913
186	0xbf4df0e9	-0.80445725
187	0xbe803908	-0.2504351
188	0xbf8b9abc	-1.0906596
189	0x3f11f9e6	0.5702194
190	0xbf46eff9	-0.7770992
191	0x3de194fa	0.11014743
192	0xbda31bdd	-0.07964299
193	0xbedb975b	-0.42888913
194	0xbe3398f1	-0.17538811
195	0x3e85d24b	0.26137003
196	0xbe83ce50	-0.2574334
197	0x3d00d75f	0.031455394
198	0xbe3e1388	-0.18562138
199	0x3b62e9b5	0.0034624164
200	0x3e549d76	0.20763192
201	0xbd56853c	-0.052373156
202	0xbd63df87	-0.055633094
203	0xbe5941dc	-0.2121653
204	0x3e264520	0.16237307
205	0xbe8d7186	-0.27625674
206	0xbe693fa9	-0.2277819
207	0xbd88c5cb	-0.06678351
208	0xbdc3ac97	-0.09554403
209	0x3ea06903	0.31330118
210	0x3d848c64	0.0647209
211	0x3e42e921	0.19034244
212	0xbe2e36f8	-0.17013156
213	0x3ec4fe7e	0.38475412
214	0xbeb7c642	-0.35893446
215	0xbe944532	-0.28959042
216	0xbe4f42c2	-0.2024031
217	0xbccdf3ec	-0.025140725
218	0xbe56b33d	-0.20966811
219	0x3e536d34	0.20647126
220	0xbe25c1a3	-0.16187148
221	0x3e6015e1	0.21883346
222	0x3d9e15f3	0.0771903
223	0xbd1ac704	-0.037787452
224	0x3cd41195	0.02588729
225	0x3d7057e1	0.058677558
226	0x3ceb4acd	0.028722191
227	0xbdc3940d	-0.09549723
228	0xbe17eeaa	-0.14837137
229	0xbdfdd443	-0.12394001
230	0xbe8d5be7	-0.27609178
231	0xbe655080	-0.2239399
232	0x3e87a57b	0.2649344
233	0x3e31406e	0.17309734
234	0xbce33621	-0.027735772
235	0xbc32cd39	-0.010913187
236	0xbc4f6da6	-0.01266042
237	0x3dbca591	0.09211267
238	0x3e0ff27d	0.14057346
239	0xbe98fc78	-0.29880118
240	0x3dbb29e6	0.09138851
241	0xbfa6a618	-1.3019438
242	0xbe059498	-0.13044965
243	0x3ee984ea	0.45609218
244	0xbe80d22f	-0.25160357
245	0x3e443fa0	0.19164896
246	0xbec1599b	-0.37763676
247	0x3b44fec4	0.0030059079
248	0xbbd6de26	-0.006557244
249	0x3e1ed2ff	0.15510176
250	0xbf2aea12	-0.6676341
251	0xbe588364	-0.21143872
252	0xbf92af10	-1.1459675
253	0x3eec342c	0.46133554
254	0xbf895e85	-1.073197
255	0xbe94cecc	-0.29064023

lstm.weight_hh_l2 f4 [64, 16]
0	0xbddf5a53	-0.109059
1	0xbd614910	-0.05500132
2	0xbd9a14d7	-0.07523506
3	0xbe74878c	-0.23879832
4	0xbe603d59	-0.21898402
5	0xbe2290fe	-0.15875623
6	0xbe0d802d	-0.13818426
7	0x3d89314b	0.06698855
8	0xbda1c8dc	-0.07899639
9	0x3e91139f	0.28335282
10	0x3e2724a8	0.16322577
11	0x3dfeb0fe	0.12436102
12	0xbe95709e	-0.29187483
13	0x3cc8635e	0.024461444
14	0x3e8761bd	0.26441756
15	0x3e5d85d8	0.21633089
16	0x3dfb9848	0.12284905
17	0xbce16b4e	-0.027516987
18	0xbeaf4571	-0.34232667
19	0x3d2e25da	0.042516567
20	0x3e0433c0	0.12910366
21	0x3cd63e4d	0.026152754
22	0xbd3c397d	-0.045953263
23	0x3df7f5ef	0.12107455
24	0xbe74a671	-0.23891617
25	0xbe29218f	-0.16516708
26	0xbdd05f6d	-0.10174451
27	0xbe2de706	-0.1698266
28	0xbd2bbe98	-0.04192981
29	0x3de8c488	0.1136561
30	0xbe2a7255	-0.16645177
31	0x3e33d60d	0.17562123
32	0x3e735686	0.23763475
33	0x3e83b63c	0.2572497
34	0x3da7a07d	0.081849076
35	0x3db49d09	0.088190146
36	0x3deb99b9	0.1150393
37	0xbe7830df	-0.24237393
38	0x3e012ad2	0.12613991
39	0x3d0fe86b	0.03513376
40	0x3de2e865	0.11079482
41	0xbeb82cac	-0.35971582
42	0xbe64b699	-0.2233528
43	0x3edbe28a	0.42946273
44	0x3df11c9a	0.117730334
45	0xbd1e670a	-0.038672484
46	0x3e457f1c	0.1928677
47	0x3f1382d1	0.57621485
48	0x3e0510f6	0.12994751
49	0xbc8b1369	-0.016977029
50	0xbd65d972	-0.056115575
51	0x3c6c7443	0.014432016
52	0xbe2daf62	-0.16961434
53	0xbd0a7c7a	-0.033810116
54	0x3d56047b	0.052250367
55	0xbe00293c	-0.1251573
56	0xbd29e9f3	-0.041482877
57	0xbe831764	-0.25603783
58	0xbe53cfdb	-0.2068476
59	0x3dd41b6c	0.10356793
60	0x3e588878	0.21145809
61	0xbc8ceb15	-0.01720194
62	0xbe7602f0	-0.24024558
63	0x3e5daae7	0.21647225
64	0xbe03ffb1	-0.12890507
65	0xbe2f1b0e	-0.17100164
66	0x3d94b35f	0.07260775
67	0xbe2a60cd	-0.16638489
68	0xbb910b2e	-0.0044263816
69	0x3d2a3573	0.04155488
70	0xbe55cd4e	-0.20879099
71	0xbbd78f5c	-0.006578369
72	0xbe30e103	-0.17273335
73	0xbd767ded	-0.060178686
74	0xbe6f13cd	-0.23347397
75	0xbe20b00c	-0.15692157
76	0xbdc755d0	-0.09733164
77	0xbe4581ea	-0.1928784
78	0x3dca3018	0.098724544
79	0xbd203a1e	-0.039117925
80	0xbd5d316b	-0.054002207
81	0x3de6535d	0.11246369
82	0x3e8cda23	0.27510175
83	0xbdb6219b	-0.088931285
84	0xbdc3e25c	-0.09564659
85	0xbe9cdbec	-0.30636537
86	0xbe2fc9d2	-0.17166832
87	0x3d50cef9	0.050978635
88	0x3dc299d3	0.09501996
89	0x3eb677e6	0.3563835
90	0x3d3f6e52	0.04673607
91	0xbb7c180e	-0.0038466486
92	0xbe4586d7	-0.19289719
93	0xbe3d6291	-0.18494631
94	0x3e324672	0.17409685
95	0xbe9dc7a1	-0.30816367
96	0x3e7526a2	0.23940518
97	0xbe77cd89	-0.24199499
98	0x3df6394f	0.120226495
99	0xbc571dfe	-0.013129709
100	0x3dcb86a9	0.09937794
101	0xbdbdf1f2	-0.09274663
102	0x3c96d712	0.0184131
103	0x3e973860	0.29535198
104	0x3e0ad618	0.13558233
105	0x3cc2fe1a	0.023802806
106	0xbdb05de3	-0.086116575
107	0xbeef7d6f	-0.46775386
108	0xbe84f84a	-0.2597068
109	0x3de0698c	0.109576315
110	0xbe0e9105	-0.13922508
111	0x3deadac5	0.11467508
112	0xbde2f614	-0.11082092
113	0xbde6ed3a	-0.11275716
114	0xbe696b58	-0.22794855
115	0x3ea65f1a	0.32494432
116	0xbdd28e7f	-0.10281085
117	0x3ccc8709	0.024966734
118	0xbe6a5639	-0.22884454
119	0xbe4e4448	-0.20143235
120	0xbdf37bfd	-0.11888883
121	0xbee9b136	-0.45643014
122	0x3ddcdba2	0.10784079
123	0x3d016f09	0.031600032
124	0x3e947dc6	0.29002208
125	0x3ddc4da7	0.107569985
126	0xbdd1b4e7	-0.102395825
127	0x3e37e0fc	0.17956918
128	0xbe5c8db3	-0.21538429
129	0x3ee527b7	0.44756863
130	0xbe21fc72	-0.15818956
131	0xbd86b9f5	-0.06578437
132	0xbd8d6852	-0.06904663
133	0xbeb608df	-0.35553643
134	0xbd1d9c12	-0.03847892
135	0xba6977d3	-0.00089061
136	0x3daf012c	0.085451454
137	0xbcc4280f	-0.023944883
138	0x3e347fd0	0.17626882
139	0x3eb0794e	0.34467548
140	0x3dd40415	0.10352341
141	0xbe908b66	-0.28231353
142	0xbcb840b9	-0.0224918
143	0x3e5e762d	0.21724768
144	0x3e484b7c	0.19560045
145	0x3e5baa54	0.21451694
146	0x3e25d110	0.16193032
147	0x3e76024d	0.24024315
148	0xbe454f3c	-0.19268507
149	0x3d8a2836	0.06745951
150	0xbd960565	-0.07325248
151	0x3c891fa6	0.016738724
152	0xbcacc275	-0.021088818
153	0x3ea060c9	0.3132384
154	0x3e5d4b87	0.21610843
155	0x3e0cda31	0.13755108
156	0x3d641def	0.05569261
157	0x3d307463	0.043079745
158	0xbdbd8be8	-0.092552006
159	0xbcb821cf	-0.022477059
160	0xbdc66a6a	-0.096882656
161	0x3dc6ee09	0.0971337
162	0xbe685bac	-0.2269122
163	0xbe6970df	-0.22796963
164	0x3e06e124	0.13171822
165	0x3df97550	0.12180579
166	0xbd45f0be	-0.048325293
167	0x3e48f0ae	0.19623062
168	0x3daa9226	0.08328657
169	0x3dfe1551	0.124064095
170	0xbdc8cf53	-0.09805169
171	0xbd9328c4	-0.0718551
172	0xbc834ade	-0.01602691
173	0x3e4dd287	0.20099841
174	0xbe5426e1	-0.20717956
175	0x3dc1d75c	0.09464905
176	0xbeaeb4e4	-0.34122384
177	0x3e1be359	0.15223445
178	0xbe6c4644	-0.23073679
179	0x3e3f3db0	0.18675876
180	0x3e932166	0.28736418
181	0x3d08c4f2	0.033390947
182	0xbea4100a	-0.32043487
183	0xbe189de0	-0.14903975
184	0x3d04ea47	0.032449987
185	0xbf0d64d9	-0.55232006
186	0xbd3c1f43	-0.04592825
187	0xbe157522	-0.14595464
188	0x3d1ed3f2	0.038776346
189	0xbe2c74c8	-0.16841424
190	0x3d2e2e4b	0.042524617
191	0x3efad9de	0.48994344
192	0x3e6e9ba0	0.23301554
193	0x3d2eee24	0.042707577
194	0x3dcf29d0	0.10115397
195	0xbe2cc421	-0.16871692
196	0x3bf53162	0.0074826935
197	0xbe086ef0	-0.1332357
198	0xbd8140f7	-0.06311219
199	0xbe60d6c2	-0.21956924
200	0x3c6c4413	0.014420527
201	0xbdb9bbc5	-0.09069017
202	0xbe49c17b	-0.19702713
203	0xbd662c56	-0.056194626
204	0xbe6d13af	-0.2315204
205	0x3d6bf49e	0.057606332
206	0x3de39a95	0.111134686
207	0x3ee3daf5	0.44502988
208	0x3d43aa4b	0.047769826
209	0xbe930d13	-0.28720912
210	0x3e739710	0.23788095
211	0x3c8bb773	0.017055249
212	0xbeb7d72b	-0.35906348
213	0x3d020c51	0.031750027
214	0xbdc08264	-0.0939987
215	0xbd9f9c78	-0.07793516
216	0xbda992e2	-0.08279969
217	0xbc65bdf7	-0.014022342
218	0xbe516780	-0.20449638
219	0xbec98c3f	-0.39364812
220	0xbe436778	-0.19082439
221	0xbe7ee322	-0.24891332
222	0xbdd11cf9	-0.10210604
223	0xbc467681	-0.0121132145
224	0xbe3a5103	-0.18194966
225	0xb6461837	-2.9518394e-06
226	0xbd28a229	-0.041170273
227	0xbd13e0e1	-0.036103133
228	0xbe88f742	-0.26751143
229	0xbdb27006	-0.08712773
230	0xbe94d6b4	-0.29070055
231	0x3e8ac16b	0.2710069
232	0xbb8ee2d0	-0.0043605343
233	0x3d9001fb	0.07031628
234	0xbe81c382	-0.25344473
235	0xbc7acc3d	-0.015307483
236	0x3d47d795	0.04878958
237	0xbd5d7d21	-0.05407441
238	0x3e51b88b	0.20480554
239	0xbbab76b3	-0.005232656
240	0xbed1b328	-0.40956998
241	0x3dc4a6c3	0.0960212
242	0xbeefbf61	-0.46825698
243	0x3e411f94	0.18859702
244	0xbe118c9c	-0.14213794
245	0xbe1bbdc7	-0.15209113
246	0xbdc4a055	-0.096008934
247	0x3d12bbb1	0.035823528
248	0xbe047e22	-0.12938741
249	0xbe556354	-0.20838672
250	0xbe39bb4a	-0.18137851
251	0xbba251a1	-0.0049535786
252	0x3e80e6ba	0.2517603
253	0x3ef279f9	0.47358683
254	0xbde79fe6	-0.11309795
255	0x3d2f119a	0.042741396

lstm.bias_ih_l2 f4 [64]
0	0xbe56601e	-0.20935103
1	0x3dc2ea37	0.09517329
2	0xbd2e40a3	-0.04254211
3	0x3e0e2840	0.13882542
4	0xbe2d6b2e	-0.16935417
5	0xbe7ba5bd	-0.24574943
6	0xbe004cd8	-0.12529314
7	0x3e72f090	0.2372458
8	0x3cf91ea3	0.030410117
9	0x3e2e8896	0.17044291
10	0xbe6ba855	-0.23013432
11	0x3d974eb3	0.073880576
12	0xbdb09cb8	-0.08623642
13	0xbe619ec3	-0.22033219
14	0x3cea06ed	0.028567756
15	0x3d89f702	0.06736566
16	0xbe78cbdd	-0.24296518
17	0x3d02ca5b	0.031931262
18	0x3e31a03b	0.1734628
19	0xbe561b78	-0.20908916
20	0x3dd2878e	0.10279761
21	0x3e08b44c	0.13350028
22	0xbc9b4883	-0.018955475
23	0xbe3a6aaf	-0.18204759
24	0xbcfd26bb	-0.030902257
25	0xbe17a0f4	-0.14807492
26	0xbca26fa4	-0.019828625
27	0xbe8409ec	-0.2578882
28	0xbda9ec25	-0.08296994
29	0x3d704990	0.058663905
30	0xbe7f9661	-0.24959709
31	0xbd9d34e7	-0.07676106
32	0xbaeb5259	-0.0017953619
33	0x3e362c06	0.17790231
34	0xbd16f8c0	-0.03685832
35	0x3ddfe995	0.10933224
36	0x3e333e63	0.17504267
37	0x3e3a14cc	0.18171996
38	0xbe03fced	-0.12889452
39	0xbdb9e61b	-0.09077092
40	0xbe423069	-0.1896378
41	0xbe2209a7	-0.15823995
42	0xbd2fc45d	-0.042911876
43	0x3d96fd3e	0.07372521
44	0x3deb733a	0.11496587
45	0x3e4347b0	0.19070315
46	0xbd8e8daf	-0.06960618
47	0xbe396fa3	-0.18108992
48	0x3e22002a	0.15820375
49	0xbd8cf824	-0.068832666
50	0x3e1f82f0	0.15577292
51	0x3d5a655a	0.053319313
52	0xbd098e69	-0.03358308
53	0xbe8ef4f0	-0.27921247
54	0xbe8fbfce	-0.28076023
55	0x3e3d4eb3	0.18487053
56	0x3dde257c	0.10846993
57	0xbe22f706	-0.15914544
58	0xbd2c84c8	-0.042118818
59	0x3dda526c	0.10660252
60	0x3e34695f	0.17618321
61	0xbdb0b45b	-0.0862815
62	0x3d952489	0.07282359
63	0x3eb05235	0.3443772

lstm.bias_hh_l2 f4 [64]
0	0x3d904c66	0.07045822
1	0xbe8a2f03	-0.26988992
2	0xbe942b2e	-0.28939193
3	0xbd8ec7b4	-0.06971684
4	0xbe23e669	-0.16005863
5	0xbe22fb13	-0.1591609
6	0xbb9d23f1	-0.0047955443
7	0x3e635ded	0.22203799
8	0x3ca6699f	0.020314036
9	0xbd085aea	-0.033289827
10	0xbda53738	-0.08067173
11	0x3eb7b01c	0.35876548
12	0x3e113c34	0.14183122
13	0xbe0f5558	-0.139974
14	0x3d474c32	0.04865665
15	0x3e035b85	0.1282788
16	0xbe60b8cb	-0.21945493
17	0xbdff49a2	-0.12465216
18	0xbe1bbb11	-0.15208079
19	0x3e3c34df	0.18379544
20	0x3e05d692	0.13070133
21	0x3df056b6	0.11735289
22	0xbe96aa03	-0.29426584
23	0xbe2decf4	-0.16984922
24	0xbe4d1ada	-0.20029774
25	0x3d09fac8	0.03368643
26	0xbb6a9938	-0.0035796892
27	0x3d5f99ce	0.05459004
28	0x3deb2dc4	0.114833385
29	0xbc982d53	-0.0185763
30	0x3dced16f	0.1009854
31	0xbdc0b81d	-0.09410117
32	0xbe4fb14c	-0.20282477
33	0xbe389860	-0.18026876
34	0xbd9dec86	-0.07711129
35	0xbe1c31c7	-0.15253364
36	0x3d5142b1	0.051088993
37	0x3d97378f	0.07383644
38	0x3e1611fe	0.14655301
39	0xbd22c01c	-0.03973399
40	0x3e205e05	0.15660866
41	0x3e50360f	0.20333122
42	0x3e14ad7c	0.14519304
43	0x3d9dd107	0.077058844
44	0x3d44d211	0.048051897
45	0xbde60f53	-0.112333916
46	0xbe1836ff	-0.1486473
47	0x3e2220e5	0.15832861
48	0xbe08cee0	-0.13360167
49	0xbe6e1425	-0.23249872
50	0xbd7cea73	-0.061747026
51	0xbe77d7e6	-0.24203452
52	0xbe82171d	-0.2540826
53	0xbe75a246	-0.23987684
54	0x3ca58ff3	0.020210242
55	0xbcbb043c	-0.022829168
56	0xbe9988a0	-0.2998705
57	0xbe12d353	-0.14338426
58	0xbe63eaab	-0.22257487
59	0x3e74382a	0.2384955
60	0xbe05c6d6	-0.13064131
61	0xbe16c89d	-0.14724965
62	0x3dbe56cc	0.09293899
63	0x3ea71666	0.32634276

fc.weight f4 [1, 16]
0	0xbe40cf89	-0.18829168
1	0xbd450cfa	-0.04810808
2	0xbdd0092e	-0.10158001
3	0x3da255ac	0.07926497
4	0xbe1673bb	-0.14692585
5	0xbe4662d0	-0.19373631
6	0xbe103432	-0.14082411
7	0x3d11c116	0.03558453
8	0xbdb47255	-0.088108696
9	0x3e59b477	0.21260248
10	0x3e322a65	0.17398985
11	0xbd8f52de	-0.069982275
12	0x3e050362	0.12989572
13	0xbd71f4cc	-0.059071347
14	0x3da3ef02	0.080045715
15	0xbd9e4b2b	-0.07729181
